checkpoints/bci_model.pth (torch, 13594 bytes, 17 tensors)

model.block1.0.weight f4 [8, 1, 1, 64]
000000 ae 8f bf 3d fc 24 a5 3b 19 5f 00 bd eb 54 82 bd
       0.093535766 0.0050398093 -0.031340692 -0.06363853
000010 b9 29 b3 bd 01 24 79 3d 5b 69 e8 3c d1 8c ee bc
       -0.08748192 0.06082535 0.02837055 -0.02911988
000020 c6 2b 63 be 44 a5 98 3c a4 ad 60 3c b5 7d 16 3d
       -0.22184667 0.018633492 0.013713274 0.036740977
000030 29 68 04 be 95 eb db bb 4e d8 41 bd f9 67 4d bd
       -0.12930359 -0.006711433 -0.047325425 -0.050147984
000040 c8 2d ce 3d 62 00 2e bc 08 5c 3a 3c 91 c3 a0 bd
       0.10067326 -0.010620208 0.011374481 -0.07849801
000050 3e 18 16 3d 0f ad 88 3d 5b a6 c4 bc 5f b0 41 bd
       0.036644213 0.06673633 -0.024005106 -0.04728734
000060 3f 57 39 bd 8f 42 34 3d c7 74 02 be 34 9b 84 bc
       -0.04524922 0.044008788 -0.1273986 -0.016187288
000070 a2 b8 12 bd 4d 3d 86 bd b6 57 0a bd 61 b9 eb bd
       -0.03582061 -0.06554661 -0.033775054 -0.115099676
000080 21 cb bb 3d f5 75 30 3c 01 60 d1 3c 57 30 49 3d
       0.09169603 0.010770311 0.025558474 0.049118366
000090 df 78 e0 bc c8 5e 0d bb 45 99 9d bd c4 45 ff bb
       -0.027401386 -0.0021571387 -0.076952495 -0.007790299
0000a0 e4 d5 33 bb cf c2 05 3c 3b 21 67 3d d0 2e b8 3d
       -0.0027440721 0.008164122 0.056428175 0.08993304
0000b0 cf b9 e8 bc ce 19 2a bd 85 2e 54 bd 5b a3 54 3d
       -0.028408913 -0.041528516 -0.051802177 0.0519136
0000c0 fe 01 da bd 1a 14 1d bd 8d 0a e8 3d ac 53 0c bd
       -0.10644911 -0.03834925 0.113301374 -0.034259483
0000d0 91 af 61 bd f2 82 37 bd ee 07 04 bd 82 13 06 bd
       -0.055099074 -0.044802614 -0.032234125 -0.032733448
0000e0 89 a6 a8 3b 32 d9 47 3d 2d 9d 03 be 07 13 b2 bd
       0.0051468057 0.048791118 -0.12852927 -0.086950354
0000f0 76 2e 9f bc 56 b1 6f 3b 9a ad 14 bd 9a b8 21 3c
       -0.019431334 0.0036574206 -0.03629837 0.009870673
000100 6b ce 4c bd e0 61 73 3c 45 2c ac 3c 1f 6a e2 3a
       -0.050001543 0.014854878 0.021017203 0.0017274058
000110 08 62 b8 bb d2 05 bb bd ae 4b f9 3b 75 93 d0 bd
       -0.0056269206 -0.091319695 0.0076078987 -0.10184375
000120 8e 44 cb 3d c3 9f af 3d aa 98 02 3d 9b fe 68 bd
       0.09925185 0.08575394 0.031883873 -0.056883436
000130 33 a0 9b bd be f4 ec bc ca 0d e7 3d 6b e8 51 bd
       -0.07598915 -0.028925296 0.11281927 -0.05124704
000140 e6 5f 10 3d ac 3e 33 bd 57 56 b6 3c 73 a0 bd 3d
       0.035247706 -0.04376094 0.022257967 0.09259119
000150 a7 7b b4 3c 31 3e 39 3d 47 40 0f 3d 47 3a 99 3c
       0.022031618 0.045225326 0.03497341 0.018704547
000160 07 02 61 3b 46 df de bc 72 2b 85 bb e1 c0 e8 bd
       0.0034333484 -0.027206074 -0.004064017 -0.11364914
000170 55 4f bd 3d 07 9e 95 bd 3f 4c b2 bb ca 4b 1c 3d
       0.09243647 -0.07305532 -0.005441218 0.038158216
000180 70 23 d0 bc 5a 94 20 bd 02 93 22 bd dc d1 45 3d
       -0.025407523 -0.03920398 -0.03969098 0.04829584
000190 93 14 e1 bd 19 63 a7 3d 6c fb d1 ba 36 90 b4 bd
       -0.10990252 0.08173198 -0.0016020364 -0.088165686
0001a0 49 72 d8 3d b1 17 be 3d 9c da c6 bc 16 86 cc 3d
       0.10568673 0.092818625 -0.024274163 0.09986512
0001b0 a6 d5 44 be b5 4e d3 3d 5d db 92 3c 69 13 c3 3d
       -0.19222125 0.103177465 0.017926866 0.095251866
0001c0 e1 bf 12 3e a3 95 57 bd b6 f6 57 bc a5 15 34 3d
       0.14331008 -0.05263294 -0.013181379 0.043965954
0001d0 1a fd 84 3d 45 61 58 bc c5 d1 7e 3d d8 06 ef 3c
       0.06493588 -0.013206785 0.06221177 0.029178068
0001e0 bb 4a 81 3d 32 a4 fd 3c c5 0d 26 bd 99 bc a1 3d
       0.06313082 0.030962083 -0.040540475 0.078973
0001f0 44 63 7d bd 9b 9e 63 3d 2e bd b3 bd 18 ec f5 bd
       -0.061862245 0.05557118 -0.087763175 -0.12007922
000200 a5 c8 11 3e 03 63 91 bc e1 b4 ef 3c 53 6f ee 3c
       0.14236696 -0.017747408 0.029261054 0.029105818
000210 0f ae d7 bc 26 94 19 bd 43 ce 8a 3c 60 7d 02 bd
       -0.026328115 -0.0374948 0.016944056 -0.03185785
000220 cf 3a 08 3c 97 69 0c 3e fd 85 64 3d 78 0d 1b bd
       0.008314802 0.13712154 0.055791844 -0.03785464
000230 23 f3 35 bd 77 b1 6f 3c 8b af 2d bd 2d af db bd
       -0.044421326 0.014629713 -0.04240374 -0.107267715
000240 32 8d b9 3d 05 59 89 3d 6a 9d 43 bd 47 ad 2c bc
       0.09060134 0.06706432 -0.047757544 -0.010539359
000250 cc df db 3d c5 ef 10 3c 06 9e dd bc f1 dd 02 bd
       0.10736045 0.008846228 -0.02705289 -0.03194994
000260 c3 a1 61 3d f1 fb 1a 3d 9a 88 5d 3d fb 57 06 be
       0.05508591 0.037837926 0.05408535 -0.131195
000270 02 b2 09 3e 41 b2 14 3d ad 61 08 3e 0b 6e 8a 3d
       0.13446811 0.03630281 0.1331851 0.0675927
000280 ab 2f ab 3d e0 df 38 bb b1 6e 99 bd 79 68 3e bc
       0.08358701 -0.0028209612 -0.07491816 -0.011621588
000290 70 ab 95 3d 96 f2 bb 3c ff 03 93 3d 1c 21 d9 3d
       0.0730809 0.022942822 0.071784966 0.10602018
0002a0 a1 31 1e 3d 09 c3 28 3d 41 71 a5 3d d7 b8 4b 3d
       0.03862155 0.041201625 0.08078242 0.049736824
0002b0 a8 8b 10 bd b1 7e 48 3d 94 e2 13 3e 66 c8 2a 3d
       -0.035289437 0.048948947 0.14441901 0.04169502
0002c0 38 e4 db 3b d7 9c 4e 3d 90 77 9d 3c 99 b0 ec bc
       0.0067105554 0.050442543 0.01922205 -0.028892802
0002d0 d1 92 35 bd c3 ef 77 3c be 6a 33 3d 4c e7 c7 bb
       -0.04432947 0.015132847 0.04380297 -0.006100571
0002e0 49 e8 c1 bd 98 0e 9a bd 85 e4 85 3d 6b 88 80 3c
       -0.09468133 -0.07522315 0.06537727 0.01569005
0002f0 56 9f 44 3d 5a 1e c2 bd ec c5 f1 bd be 9e e4 bc
       0.048003517 -0.09478445 -0.11805329 -0.027907725
000300 1e ae 4b bd 89 b0 71 bd 3c 73 86 bc da 41 e6 3c
       -0.049726598 -0.059006248 -0.01641237 0.028107572
000310 b9 62 5b bd a7 a8 2b 3a 06 5e 93 bd b4 91 04 bd
       -0.053560946 0.00065482635 -0.07195668 -0.032365516
000320 a7 07 23 3d 0a bb 3f bd 20 c1 62 bd 5f 5d f0 bc
       0.03980222 -0.046809234 -0.05535996 -0.029341398
000330 3e 27 7f bd bf 65 51 bc 3c 23 4b bd 7a c9 e7 3a
       -0.062293284 -0.012780606 -0.04959415 0.0017683946
000340 af 2d 78 3b c6 b6 d6 bd f3 1f b7 ba 94 0a 01 3d
       0.0037869026 -0.1048408 -0.0013971314 0.03150423
000350 2c af 86 ba 0b 67 42 3d 5a 4f 53 3d 2c d1 59 3d
       -0.0010275594 0.04746155 0.051589347 0.053177997
000360 5d 08 1f be 22 99 52 3c 36 ed 52 3d 6f 86 a5 3a
       -0.15530534 0.0128538925 0.051495753 0.0012628565
000370 68 50 85 bd ca a0 69 bb 53 c6 3c bd c6 78 7c bd
       -0.06509477 -0.0035648816 -0.046087574 -0.061638616
000380 e9 4e 8a 3c b5 79 03 bd 9c 37 7f 3c 4b f0 4a bc
       0.01688333 -0.03209849 0.015577223 -0.012386392
000390 73 ea 3c bd 3a 9c 48 ba 5e 33 88 3d e2 3e 6e bd
       -0.046122026 -0.0007652674 0.066504225 -0.05816544
0003a0 78 39 42 bd 61 ad da bd bf c5 ab bc 0a a6 73 3d
       -0.047418088 -0.10677601 -0.020968316 0.05948452
0003b0 68 73 bb 3a 37 76 04 bd 67 87 67 bb b9 ae ec 3b
       0.0014301362 -0.0323393 -0.0035328509 0.007222977
0003c0 4b 7f 55 3d 00 89 ca bb 5e d6 ca 3a a3 fc 3a bd
       0.05212335 -0.0061808825 0.0015475263 -0.04565109
0003d0 6f 5c 12 39 ec 8b cb 3d fb ab 11 be 75 e5 97 bc
       0.00013958079 0.09938797 -0.14225762 -0.01854203
0003e0 23 b5 98 3c 74 d7 48 bc 2c 8c 1a 3d 96 f5 b4 bd
       0.01864106 -0.012258399 0.037731335 -0.08835904
0003f0 72 f3 03 3c a2 80 78 bb 48 03 b2 3d 94 ac 74 bc
       0.008053647 -0.0037918468 0.08692032 -0.014933724

model.block1.1.weight f4 [8]
000000 cb 6c 81 3f 91 1d 7f 3f 2c 71 7b 3f b1 b8 82 3f
       1.0111326 0.9965449 0.9821956 1.0212613
000010 8a 84 80 3f db ea 7f 3f 9c 3a 81 3f 99 dd 7d 3f
       1.0040448 0.99967736 1.0096011 0.99166256

model.block1.1.bias f4 [8]
000000 83 5a 1b 38 ce b9 b1 ba 01 dd ad ba e3 d0 56 3a
       3.7039175e-05 -0.0013559402 -0.0013264717 0.00081945787
000010 fe e9 f2 b9 1c b0 b9 39 90 e0 a6 ba c2 68 7d bb
       -0.00046332175 0.0003541716 -0.001273172 -0.0038667177

model.block1.1.running_mean f4 [8]
000000 5e d5 99 40 da 09 f3 bf e1 64 af c0 5b 8e 8a 40
       4.807296 -1.8987381 -5.4810643 4.3298774
000010 e0 ac a5 3f d9 b7 89 bf 81 ac cb 3f 59 e3 41 40
       1.2943382 -1.0759231 1.5912019 3.0295012

model.block1.1.running_var f4 [8]
000000 73 15 53 44 09 c5 c6 43 c2 d1 d2 44 fc 65 22 44
       844.33514 397.53934 1686.5549 649.5935
000010 ca e8 87 43 cb 7b a3 43 a7 3d 21 43 38 50 26 44
       271.81866 326.96713 161.24083 665.2534

model.block1.2.weight f4 [16, 1, 16, 1]
000000 a5 3f a7 3d e3 64 c6 3d 1a 66 36 3d 99 e1 b7 bd
       0.08166436 0.09687211 0.044530965 -0.08978576
000010 70 44 79 3d 69 9d 7a 3e dc 1b 37 bd 15 32 67 3d
       0.060856283 0.2447411 -0.044704303 0.056444246
000020 47 b5 9b bd 07 95 0a 3e aa 5b 15 bd b4 85 c5 3d
       -0.07602935 0.13533412 -0.03646437 0.096446425
000030 65 01 04 3e 33 7c 24 bd 85 fa c8 3c 66 06 65 bd
       0.12891157 -0.040157508 0.02453352 -0.055914305
000040 67 8e 17 be 17 13 b4 3c 87 79 c2 3d 98 c1 f2 3c
       -0.14800416 0.021981759 0.09495836 0.029633328
000050 fa 1c bb bd 6f 3c 5f bd b9 08 a4 3d 71 df b0 bb
       -0.09136386 -0.054500993 0.08009476 -0.00539773
000060 b0 7f 17 bd 47 39 80 3d d7 ef a5 3c 30 42 a9 bc
       -0.036987007 0.06260925 0.020255966 -0.020661443
000070 b5 8e 43 bb 53 0c 33 3d 58 fe cb 3d 32 0a 3a bd
       -0.0029839699 0.043712925 0.099606216 -0.04541988
000080 a7 e1 0d 3e fe 64 44 3e 7c 8a 94 3c c5 e3 eb bd
       0.13855611 0.1917915 0.01813244 -0.11518053
000090 e4 fe f5 bd 34 c4 44 3d 13 4d 57 bd ab 1a 92 bc
       -0.12011507 0.048038676 -0.052563738 -0.017834982
0000a0 69 2d 1e 3e d2 fe 18 3e 9b 86 82 3d 1c 6f 30 bd
       0.1544701 0.14940956 0.0637333 -0.043074712
0000b0 b1 72 71 bd 08 23 2a 3b 41 3a 07 3e 7d b8 22 3e
       -0.05894727 0.0025960822 0.13205816 0.15890689
0000c0 fa 3d 23 be 27 30 09 3d 76 e9 96 bd 78 3b a6 bd
       -0.15941611 0.033493187 -0.07368748 -0.081168115
0000d0 8e 07 d7 bd 9c 8a 0c 3d 76 a7 df bd 68 09 90 3c
       -0.10499488 0.034311876 -0.109206125 0.01758261
0000e0 1d e4 6f 3d ea 78 2e be 85 9b b8 3d 23 c1 92 3d
       0.058567155 -0.17038313 0.09014038 0.07165744
0000f0 8e 4d 0a 3d 8b 1a b1 bd 40 96 94 3b 2e 4a 05 3d
       0.03376537 -0.08647641 0.0045345128 0.032541446
000100 1c 0d b6 3d e4 de 20 3d 1f cd 34 bd 80 ae aa bc
       0.08889219 0.039275065 -0.04414093 -0.020835161
000110 39 99 94 bd cb ee 88 bd 79 cd f0 bc 9e 6d cf bc
       -0.072557874 -0.06686171 -0.029394852 -0.025320824
000120 1d bd d3 bc 9b 04 1a bd 71 78 08 3e 9f e2 d6 bd
       -0.025847012 -0.03760205 0.13327195 -0.10492443
000130 15 71 6e 3d 96 ff dc bb 36 5f 39 bc d4 ae 71 bd
       0.058213312 -0.0067443354 -0.011314204 -0.05900462
000140 1f 6d 8a 3d 81 c5 e0 3d 03 87 f0 3d 44 56 e3 3d
       0.067590944 0.10975171 0.117445014 0.11100438
000150 bf 70 a8 bd 7d 96 7a bc e7 c9 5a 3d fb 2d 2e be
       -0.082246296 -0.015294668 0.053415205 -0.17009728
000160 26 39 67 3c 98 9f 85 3e f2 ec 9d 3c f3 2b 1e bd
       0.014112746 0.26098323 0.019278023 -0.038616132
000170 b8 f4 2a 3b ad d0 bb bd a2 8b 8e bc 4e 57 36 3d
       0.0026085805 -0.09170661 -0.017400566 0.044516854
000180 4a 69 b2 bc 15 53 2a be 49 53 21 bd 79 40 99 bd
       -0.021778721 -0.16633256 -0.039386068 -0.07483
000190 43 4b 39 bd 80 0e d8 3d 24 94 a1 3d 74 07 a6 3d
       -0.04523779 0.10549641 0.07889584 0.0810689
0001a0 e6 cf aa 3d c5 4c 19 3d 6c 57 93 3d b3 11 ab 3d
       0.08340435 0.03742673 0.07194409 0.08352985
0001b0 6a 6a be bc db ba 6e 3a 97 62 37 3c 6c 07 ed bd
       -0.023244102 0.0009106823 0.011192939 -0.11573681
0001c0 2f 97 af bd 5e 65 5e be d5 a3 bc 3c 19 73 8c 3d
       -0.08573758 -0.21718356 0.02302734 0.06857891
0001d0 37 22 53 3d 12 1a 2d 3e 9e 2f ce bd 7d 45 40 3e
       0.0515463 0.16904476 -0.10067676 0.18776508
0001e0 33 85 02 3e b2 a4 e2 bc 64 59 df bc 04 33 2a be
       0.12746124 -0.027666423 -0.027264304 -0.16621023
0001f0 20 7f 53 bd eb fd 36 bd 90 98 39 be 1e bb 33 3d
       -0.051634908 -0.04467575 -0.18124604 0.04387962
000200 dc 32 5e bd 19 2f b0 bd 48 0b 23 3c d6 ed 4b bc
       -0.054247722 -0.08602733 0.00995142 -0.012446841
000210 df cb 7b 3d 18 5c c1 3d 16 5d cb bb fe 64 06 be
       0.061473724 0.094413936 -0.006206165 -0.13124463
000220 46 67 8c bc 11 a0 15 3c 42 93 e7 bd b9 9d b5 3d
       -0.017139088 0.009132401 -0.11307384 0.08867974
000230 8b 2e 2f 3b cf 93 e4 3c 91 f4 1c 3c 76 d2 98 bd
       0.0026730623 0.027902512 0.009579794 -0.07462017
000240 ea c7 9e b9 58 a8 a7 3b ab 6e 21 3e ce 3e 48 3d
       -0.00030285056 0.0051165037 0.15764873 0.04888802
000250 01 13 ee 3d 98 53 f3 bc cc 82 e7 bd 67 10 e1 3c
       0.116247185 -0.029702947 -0.113042444 0.027473642
000260 0e 11 9c 3c c5 13 a7 3d d3 33 26 bc 90 39 26 bd
       0.019051101 0.081580676 -0.010144192 -0.04058224
000270 3f 34 36 bd c2 61 06 3d 68 40 32 3d eb c1 e3 3c
       -0.04448342 0.032808073 0.043518454 0.027802428
000280 c2 61 3d 3d 44 8d 07 bd b3 c8 86 be ac 4f 6e ba
       0.046235807 -0.033093706 -0.26324996 -0.00090908515
000290 1b 5f 18 3e d0 64 c1 3d ff 42 a3 bc a7 ac 05 3d
       0.1488003 0.094430566 -0.019929407 0.032635357
0002a0 c7 09 9f bd 08 6d a4 bd 3f c7 f3 bd de 17 02 3c
       -0.07765537 -0.080286086 -0.119032376 0.007940261
0002b0 29 d2 ca bc dd 70 d6 bd c0 c5 47 bc 8c 7a ae bd
       -0.024758415 -0.10470746 -0.012193143 -0.08519468
0002c0 96 af a9 3c 1e 81 f9 bd 7f cf 13 3d 19 a0 d6 bc
       0.020713609 -0.1218283 0.036086556 -0.026199387
0002d0 a8 69 4c bd 3a 25 d8 3d 0d 21 93 3d 42 80 75 3d
       -0.04990545 0.105539754 0.07184038 0.05993677
0002e0 3a a7 72 bc ce 41 8e bd 3d b4 b3 bb 95 e2 28 3e
       -0.014810378 -0.06946145 -0.0054841326 0.16492684
0002f0 79 06 42 bd 36 8a 92 3d 4a 48 19 3e 51 e7 c5 bc
       -0.047369454 0.07155268 0.14968982 -0.024158152
000300 47 0f 48 3d 30 1a 0b bd 88 aa e3 3d 82 24 d9 bd
       0.048842695 -0.03396052 0.11116511 -0.106026664
000310 1d a9 ed bd ae c8 86 bd 46 6d 8e bd c4 0b a7 3c
       -0.116045214 -0.06581245 -0.06954436 0.020391352
000320 72 bd d7 3c 13 d6 f5 3d 85 bc 1c bd 0c 17 82 3d
       0.026335452 0.12003722 -0.038265724 0.06352052
000330 1c 5f 21 bd a5 d4 23 3c af 6c d3 3d f2 10 39 3e
       -0.039397344 0.009999429 0.10323464 0.1807287
000340 64 8b 9a 3d 46 da b4 bd d1 19 16 be 30 83 16 3d
       0.07546118 -0.08830695 -0.14658286 0.036746204
000350 0d bc cc 3d 44 05 bb 3d 30 b8 a9 bd 9b 32 19 be
       0.09996805 0.09131864 -0.08287084 -0.1496071
000360 ed 42 58 bc f7 91 87 3c 72 b2 6c bc 3a 2c be bb
       -0.01319955 0.016549094 -0.014446842 -0.005803612
000370 a8 da b5 b9 b8 26 b6 3d e8 0d 43 3d 2a e0 81 bd
       -0.00034685922 0.08894104 0.047620684 -0.06341584
000380 31 fb 35 bd 93 c4 76 3d 39 d5 f2 bd 44 b8 0f be
       -0.044429008 0.06024606 -0.11857075 -0.14035136
000390 63 7c a5 bd d8 28 a2 bd 99 8d c6 bd 50 3b 76 3d
       -0.080803655 -0.079179466 -0.09694976 0.06011516
0003a0 d6 9c 4d be 7f 4c 51 3c 65 2d 36 be 5b e4 7e bc
       -0.2007936 0.012774586 -0.17790754 -0.015557374
0003b0 1d bd 59 bd 45 52 45 bb c3 0e 70 bd dc 2a cb 3c
       -0.053158868 -0.003010885 -0.058607828 0.02480071
0003c0 7e e7 d3 3d 0d db 76 bd 43 10 12 be 1f 0b 14 bc
       0.10346888 -0.060267497 -0.14264016 -0.009035855
0003d0 20 16 65 3c 52 ed bb 3c 0e 2a 86 bd 18 e3 d1 3d
       0.013982326 0.022940312 -0.0655099 0.10248393
0003e0 44 02 82 bd ec 7b 17 be db 1f 16 bd 91 e7 e7 bd
       -0.063480884 -0.14793366 -0.036651473 -0.11323465
0003f0 75 71 41 be d9 9a 5a bc 16 05 46 bd 84 80 a9 3d
       -0.18890937 -0.013342583 -0.048344694 0.082764655

model.block1.3.weight f4 [16]
000000 e7 34 81 3f 61 38 81 3f e9 3d 7d 3f fb 45 80 3f
       1.009427 1.009533 0.9892259 1.0021356
000010 74 08 7b 3f fe e8 7b 3f e0 55 82 3f 4a 4c 82 3f
       0.98059773 0.9840239 1.0182457 1.0179532
000020 c2 a2 80 3f 75 1f 7e 3f 2c 4e 7d 3f e3 23 80 3f
       1.004967 0.9926675 0.98947406 1.0010952
000030 c1 84 7f 3f d3 a6 81 3f d3 7b 7e 3f 60 9a 7e 3f
       0.9981194 1.0129036 0.9940769 0.9945431

model.block1.3.bias f4 [16]
000000 86 86 fa bb 27 fc 6f 3c 24 5b 16 3c c9 45 5b 3b
       -0.007645431 0.01464752 0.009177003 0.0033458343
000010 2c 8e 4f bc 8e b9 07 bc f5 21 25 3c b4 5f 7f 3c
       -0.012668174 -0.008283986 0.010078897 0.015586782
000020 b0 b8 54 3b 67 25 fd ba af 1e ff ba 88 80 b4 bb
       0.0032458715 -0.0019313515 -0.00194641 -0.005508486
000030 88 21 6e bb 04 e5 c5 3b bd 78 7c bb 54 b6 9e bc
       -0.0036335904 0.0060392637 -0.0038524114 -0.01937405

model.block1.3.running_mean f4 [16]
000000 88 95 39 3d 70 29 d0 bc 64 8d 57 bd 6b 98 12 bd
       0.04530862 -0.025410384 -0.052625075 -0.03578989
000010 8f 13 22 bd 74 66 cb 3c 22 ed 72 3c b2 81 23 be
       -0.039569434 0.024829127 0.014827045 -0.15967444
000020 5a 02 6b 3c cd 5d 2c bd 1f 52 3b 3b b9 e7 f3 bb
       0.014343822 -0.042081643 0.0028582884 -0.007443395
000030 9e a1 73 3c 95 53 52 3d 5c eb 7e 3c 1e fa 93 bc
       0.0148700755 0.05134924 0.015559044 -0.018063601

model.block1.3.running_var f4 [16]
000000 75 74 85 3e 3f 90 a4 3c 0a 8f 98 3e 55 bd 17 3e
       0.26065412 0.020088313 0.2979663 0.14818318
000010 1d a8 1e 3d 7e 65 2c 3e 25 fb e5 3c 6c e0 4b 3e
       0.038734544 0.16835591 0.028073857 0.19909829
000020 8b c6 ff 3c d5 82 cf 3d 06 26 33 3e 71 f0 b9 3d
       0.031222602 0.10132376 0.17494974 0.09079064
000030 56 aa bb 3d 9d a3 0d 3d bd 94 37 3f da 2c 84 3e
       0.091633484 0.034579862 0.7171133 0.2581547

model.block2.0.weight f4 [16, 1, 1, 16]
000000 a2 39 e5 bc 7d a6 ad bb d3 ad 97 3d 01 54 e4 ba
       -0.027981583 -0.005299388 0.07406201 -0.0017420055
000010 a8 66 b7 3d d3 dc 28 3e fc de 5d bc c1 3d 30 3d
       0.08955127 0.16490488 -0.013541933 0.043027643
000020 b9 ea 9c bd 50 3f 67 3d 3e a2 bb 3a 38 d3 17 be
       -0.07661957 0.056456864 0.001431532 -0.14826667
000030 09 23 bf 3d 0a 4d 99 bd 3b 1b 2b 3e 3d 9a 8f bd
       0.09332854 -0.07485397 0.16709606 -0.070118405
000040 59 94 91 bc 9c 2c fd 3d 2b 2e c7 3c 75 16 cd 3d
       -0.017770933 0.12362024 0.024314007 0.10014049
000050 bf f8 cc 3d ad 6d a0 bd 39 ce 78 bd d0 ef 37 3b
       0.10008382 -0.07833419 -0.060743544 0.0028066523
000060 b3 ed bf bd 5e 6c d8 bd 7c e6 30 be 44 a2 e1 bd
       -0.093715094 -0.105675444 -0.17275423 -0.11017278
000070 09 d2 42 3d f0 32 86 3d 8f ea d1 b9 0f f3 9a 3b
       0.047563586 0.06552684 -0.00040038346 0.004728682
000080 4f b5 06 3d 2f d7 b1 3d ee ee 04 3e 92 c0 c2 bd
       0.032887753 0.08683621 0.1298177 -0.09509386
000090 f8 af 2a ba 6e 10 af 3d 6e e6 88 3d 1d 80 15 be
       -0.0006511207 0.085480556 0.06684576 -0.14599653
0000a0 1d ee 26 bc 20 e9 56 3c 25 77 3c 3b b4 a9 a0 bd
       -0.010188607 0.013117105 0.002875754 -0.07844868
0000b0 4c 06 06 3c 4c d1 4e 3b 52 89 d5 bd ca 1f 5c be
       0.008180212 0.0031557856 -0.104265824 -0.21496502
0000c0 e8 15 4c 3c b7 45 79 bd 8e 54 0f be 93 5f 10 be
       0.012456395 -0.0608575 -0.13997099 -0.14098959
0000d0 ff 97 9c bd 15 64 96 bd f1 21 08 3c 9d 67 61 3d
       -0.076461785 -0.07343308 0.0083088735 0.055030454
0000e0 bc 2e 00 3e ba 90 10 3d aa 2c 8a bd c5 a2 04 3d
       0.12517828 0.035294272 -0.067468 0.03238179
0000f0 5c 68 c3 3b 9b 51 0a 3d 67 67 ea 3d 22 d1 65 3d
       0.0059633683 0.03376923 0.11445504 0.056107648
000100 be 77 57 3c 74 62 07 3e 8a f2 1f bd 22 9f 6f be
       0.013151107 0.1322115 -0.039049663 -0.23400548
000110 95 a7 0a 3d cb ff cc bd 08 b6 fb bd 29 53 b3 bd
       0.033851225 -0.10009726 -0.12290579 -0.08756096
000120 e0 04 51 3d 4f 94 ac 3c e2 b4 03 bd 3a a1 bd bc
       0.05103004 0.021066813 -0.032154925 -0.023148168
000130 5a 65 6b 3e 69 f5 6e 3d 66 be ea bd 43 2f ee bd
       0.22987881 0.05833951 -0.11462097 -0.11630108
000140 88 2c 7d bc 26 44 73 3e 14 03 92 3d 44 a5 bc bd
       -0.015452512 0.23756465 0.07129493 -0.092112094
000150 1e 8a e4 bd 7e 01 77 bd 3b 75 91 bb 6d 9a 12 3d
       -0.11159156 -0.060304157 -0.004439024 0.035791803
000160 98 65 1f bc 4f 73 40 bd 34 10 27 39 d2 5f 5a 3d
       -0.009728812 -0.046984967 0.00015932397 0.053314038
000170 8c 98 2d 3e ae 80 ab bd 07 f8 b2 3d 41 57 f5 bd
       0.16952723 -0.08374153 0.08738714 -0.11979533
000180 f1 7b 3e 3b cf ec f4 bd fe fb 0f 3e aa ac 05 3d
       0.0029065574 -0.1195923 0.14060971 0.03263537
000190 77 4b d5 3d 97 4c 99 bc b8 34 2c 3e 29 7f 74 bd
       0.104147844 -0.018713279 0.16816986 -0.059691582
0001a0 3f 50 ad 3d 0b d1 30 bd e9 5f 84 3e f6 a0 ba bd
       0.08462571 -0.04316811 0.25854424 -0.09112732
0001b0 e3 d1 cb 3d 25 ce ed bc d1 4d f5 bd 2a eb 43 bd
       0.09952142 -0.029028961 -0.11977733 -0.04783169
0001c0 08 f7 f1 bd d2 22 20 bd db 81 84 3d ab 35 99 bd
       -0.118146956 -0.039095707 0.064700805 -0.074809395
0001d0 35 7d 8a 3d 96 a5 6e 3d 34 86 9d bd 38 cf bd bd
       0.067621626 0.058263384 -0.07691613 -0.092680395
0001e0 e8 71 77 bd 03 38 ed 3d 4f 71 3e 3d 36 c1 36 bb
       -0.060411364 0.11582949 0.04649478 -0.0027886159
0001f0 1f ab 08 be a0 08 f0 3c 3b 93 af bd 16 b3 02 be
       -0.13346528 0.029300988 -0.08573004 -0.12763628
000200 73 14 10 be bd d6 f6 3c c4 b9 38 3d 0a 5b 29 3d
       -0.14070301 0.030131692 0.045099035 0.041346587
000210 15 26 9d bd 62 d9 db bd 25 74 b9 3b 08 e0 d2 3d
       -0.07673279 -0.10734822 0.0056595975 0.10296637
000220 fb be 5b bd 99 43 80 bc f2 4c d2 bc cb a0 42 3b
       -0.05364893 -0.015657233 -0.025671456 0.002969789
000230 9c 44 87 3d 71 be 64 bd d4 41 f1 3d 25 59 76 3d
       0.06604883 -0.05584568 0.11780134 0.06014361
000240 58 82 6c 3b a2 0a 55 bd a3 37 00 be 3a 7b 0f 3e
       0.0036088433 -0.052012093 -0.12521224 0.14011851
000250 17 c5 4e be 46 e4 f9 3d 0f a8 50 bd b2 cc f4 3c
       -0.20192371 0.12201743 -0.050941523 0.029882763
000260 ca d0 60 bd 04 70 05 be 9a 9e 7e 3d 29 2e 89 bd
       -0.054886617 -0.13031012 0.062162973 -0.066982575
000270 9d c6 80 3d 1e 5f 81 3d 1a 7b 46 bc 11 dc eb bc
       0.062878825 0.0631697 -0.012114311 -0.02879146
000280 0d 01 51 3c 6f 1d aa bd eb 11 a4 3d 14 0b 2b 3d
       0.012756598 -0.08306395 0.0801123 0.04175861
000290 3d 7c d3 bd 79 29 63 3c b5 3e bc 3d 4f 81 0f bd
       -0.10326431 0.013864868 0.09191648 -0.035035428
0002a0 d0 c9 c2 bd eb b4 00 3d 95 81 2b 3d 21 0b e3 3b
       -0.09511149 0.031422537 0.041871626 0.006928817
0002b0 0c df 29 3e 23 5e ea 3b 31 d6 3a bd 9e 83 b5 3d
       0.16588992 0.0071523353 -0.045614425 0.088629946
0002c0 8e b5 13 bd 17 19 67 bd 24 6c 4c bd 96 39 d7 bc
       -0.036061816 -0.056420412 -0.04990782 -0.026272576
0002d0 6d ef 95 bd 87 5a 80 bd b4 f3 10 bd 68 14 dc bc
       -0.073210575 -0.06267267 -0.035388663 -0.0268652
0002e0 ba 3d ae 3c 89 94 46 bd fd 36 88 bd d1 fb c0 3d
       0.021269668 -0.048481498 -0.06651113 0.0942303
0002f0 a8 2a 5c 3d 6f bb 13 3d 6d 7f 1b 3d 60 1a 82 3c
       0.053751618 0.036067422 0.03796332 0.015881717
000300 45 23 83 bd d7 dd 9c 3d 66 c7 b3 bd f1 ea d1 bc
       -0.064032115 0.076595 -0.087782666 -0.025624724
000310 8e 98 d0 3d 72 4d eb bc 1a 07 1f be 99 88 ef bd
       0.101853475 -0.028723452 -0.15530053 -0.11695976
000320 59 65 d8 bb e3 f5 22 be 0b 51 19 3e e4 b8 d4 bd
       -0.0066038785 -0.15914111 0.14972322 -0.103868276
000330 b1 2e dc bd fc 2b 9c bd e1 f1 3a bd 8a bb 11 3d
       -0.10751093 -0.07625577 -0.04564083 0.03557924
000340 45 31 24 bd 87 c6 43 3c 58 23 3c be 83 6b 07 bc
       -0.04008605 0.011949188 -0.18372858 -0.008265379
000350 9e b4 08 3b 4f 93 0b be 81 62 d0 bc a8 50 32 be
       0.002085961 -0.13630413 -0.025437595 -0.1741358
000360 9a 51 c1 3d f4 d2 1e 3d 80 f3 0d 3d 5e 1b e3 3d
       0.094393924 0.0387754 0.034656048 0.11089204
000370 f6 67 ad 3c 40 50 b3 bc 36 2b 41 3e 2d 6f 69 bc
       0.021167737 -0.021888852 0.1886414 -0.014247698
000380 bb 99 12 3c 96 99 3e bc 16 c3 3c 3b 5b 95 81 bd
       0.008947785 -0.011633297 0.0028802804 -0.063273154
000390 d8 7a f6 bd 50 7a be bc 06 42 58 3c 83 cf a3 bd
       -0.12035149 -0.023251683 0.013199335 -0.07998564
0003a0 ae 1c 0f 3e 10 dd 02 bd 9a ad 18 bc 78 96 56 bd
       0.13975784 -0.031949103 -0.009318734 -0.052389592
0003b0 5d cf 01 be c6 72 c9 bc 28 03 4f 3c 41 b9 1d bd
       -0.12676759 -0.024590861 0.01263503 -0.03850675
0003c0 85 d6 86 3d 02 a7 20 bd 44 70 c6 3d 8d 1b a8 bd
       0.06583885 -0.03922177 0.09689382 -0.0820838
0003d0 53 4d 8c bd 12 62 c8 bb 8b 34 e2 3d a2 04 37 3e
       -0.06850686 -0.0061152065 0.11045178 0.17872861
0003e0 45 a7 e8 3d 7a d6 8b 3d ca b0 0b 3e 06 b7 c5 bd
       0.11360029 0.068280175 0.13641658 -0.096540496
0003f0 1d 6d 8d bb a2 f8 27 3d 81 a6 78 bc e7 ae cb 3d
       -0.004315986 0.0410086 -0.015176416 0.09945469

model.block2.1.weight f4 [16, 16, 1, 1]
000000 7c cb 51 be 62 d7 3b be d5 ae 47 bf 1b 02 9e 3d
       -0.2048778 -0.18343881 -0.7800115 0.07715245
000010 e2 8d d1 bd c2 47 f8 3d 00 c1 09 3e be 65 fb be
       -0.1023214 0.12123062 0.1345253 -0.4910106
000020 96 0e 26 be 22 af 19 3d 12 27 b2 3c 5b 6f 12 3e
       -0.16216502 0.037520535 0.021747146 0.14300291
000030 19 32 65 3c 3f bd d1 be d0 18 3e be 33 ad 16 3e
       0.013988995 -0.40964696 -0.18564153 0.14714508
000040 11 78 a9 bd c3 1b ab 3e 7a 3d 0a be 1f 9d b4 3e
       -0.08274854 0.33419618 -0.13500014 0.35276124
000050 47 de d8 3d 63 81 ca 3e 91 03 d8 3e eb 74 99 bd
       0.10589271 0.3955184 0.4219022 -0.074930035
000060 97 7c a3 bd 36 68 94 be 72 4f 27 3f b9 aa 5f bf
       -0.07982748 -0.28985757 0.653556 -0.8736988
000070 72 96 21 bf 64 fe 46 be 01 76 1c be 5b 25 f5 bd
       -0.63120186 -0.1943298 -0.1527939 -0.119700156
000080 02 dc 0a 3e 31 23 49 3f 90 f6 cc be 21 51 3b be
       0.13560489 0.7856932 -0.40031862 -0.18292667
000090 d3 d0 33 be 80 76 95 bd 43 4d 5a 3e 96 3c 8c be
       -0.17560129 -0.07297993 0.21318536 -0.27389973
0000a0 7c 9a 75 bf 41 ab 77 be 2b be 64 3f 19 39 54 bf
       -0.9593885 -0.24186422 0.89352673 -0.82899624
0000b0 e5 6a 6d be 5f 29 de 3e 12 ef a8 3d ec 5c 28 3e
       -0.23185308 0.4339094 0.08248724 0.16441697
0000c0 f3 18 3c 3d d2 a9 85 3e 8b ec 21 3e f7 9c 43 3e
       0.04592223 0.26106125 0.1581289 0.19102846
0000d0 61 df 83 be c4 cb 63 3e 02 35 27 3e 39 a2 c7 3e
       -0.25756362 0.22245699 0.16328815 0.38990954
0000e0 43 88 04 be 1a 08 c4 be 37 f5 68 be b7 5e 69 3c
       -0.12942605 -0.3828743 -0.22749792 0.014243773
0000f0 b1 a4 bd 3e af 97 8a be 49 b8 18 bd 6f 41 fc 3e
       0.37039712 -0.2706885 -0.037285123 0.49268672
000100 54 6a 4e 3e b8 6f 59 3d 2a 7e b8 3e 04 1f ee bc
       0.20157748 0.05308506 0.36033756 -0.029067524
000110 5f 46 88 be 23 26 67 bd 05 c3 d8 3e 37 c2 dd 3e
       -0.2661619 -0.056432854 0.42336288 0.43312237
000120 b3 a0 eb be 3a 82 a2 3c 59 8e 24 3e 65 f5 75 be
       -0.4602104 0.019837487 0.16069926 -0.24019392
000130 89 64 05 bd 78 f6 d8 be 0a df dc 3e c3 75 01 3f
       -0.03256658 -0.4237554 0.43138915 0.50570315
000140 ed 5e d6 3e a5 a1 0c be fd 93 f1 3e ec 28 e9 3d
       0.41869298 -0.13733537 0.4718322 0.11384758
000150 9f 25 d2 3e 74 d5 0e bf 08 2b ad 3e 09 f8 67 3e
       0.41044328 -0.55794454 0.33821893 0.22653212
000160 67 94 7a 3e 4f a1 96 be 64 9e bf be 17 19 01 bf
       0.24470674 -0.29419944 -0.3742553 -0.5042891
000170 92 f8 0c bf aa 82 2f 3f 08 36 fe 3e 70 0c 81 3f
       -0.5506679 0.6855875 0.49650598 1.0081921
000180 51 31 50 be 53 5a 44 be f0 05 6a be 4b 90 35 3e
       -0.20331313 -0.19175081 -0.22853827 0.17730825
000190 d8 c6 c1 3e 3e 0d 4d 3e 43 92 b6 3e 01 c5 76 be
       0.37847018 0.20024583 0.35658464 -0.24098589
0001a0 62 1d 63 bd 59 30 f3 be d6 4c 87 3e 9c 5c 8f be
       -0.055447944 -0.47497824 0.2642581 -0.28000343
0001b0 da 91 7b be b8 cb af bc 2e 69 c4 3e bf a1 57 be
       -0.24567357 -0.021459445 0.38361496 -0.21057795
0001c0 f5 b7 9c bc d1 d7 2a 3e 6c 59 8f 3e 09 b4 81 be
       -0.019130686 0.1668389 0.2799791 -0.25332668
0001d0 1a 77 04 bd 0f 6c 0e 3f b2 d4 15 be f2 ca 20 3e
       -0.032340147 0.55633634 -0.14631918 0.15702417
0001e0 7b c9 55 be ca 77 85 bf d9 ca 42 3e 26 23 fe be
       -0.2087764 -1.0427182 0.19022693 -0.4963619
0001f0 65 f6 15 3e fc fa 40 be 92 1f 90 3e f2 0d 72 be
       0.14644773 -0.18845743 0.28149086 -0.23638132
000200 b0 7c 25 be 02 c9 f4 be ba e8 06 3f 98 73 ce 3d
       -0.16160846 -0.47809607 0.5269886 0.100806415
000210 e5 6c b9 3d 13 f7 cf 3e a0 22 72 3e 51 a2 95 bd
       0.09053973 0.4061819 0.23646021 -0.0730635
000220 32 7d 80 be 47 d0 07 3f e5 a3 05 bf 6c 28 52 bc
       -0.25095516 0.5305218 -0.5220321 -0.01282702
000230 71 b8 ac be 17 ac 2c 3e 52 f4 01 3d 1c 52 e8 be
       -0.33734468 0.16862522 0.031727143 -0.45375144
000240 38 e2 7d be 09 50 2f 3f 02 6c 8e 3d 83 26 6a 3d
       -0.24793327 0.684815 0.069541946 0.057165634
000250 66 8a c9 be 69 26 ec be cc 73 76 3d b6 fd b9 3d
       -0.39363402 -0.46123055 0.060169026 0.09081595
000260 53 a4 62 be 10 59 8a be e2 7b 20 3e b4 82 1e bf
       -0.22132997 -0.27021074 0.15672258 -0.6191819
000270 72 17 be be 46 0a 9a 3e 02 b7 5f 3e b7 75 65 bd
       -0.37127262 0.30085963 0.21847156 -0.056020465
000280 c2 00 8a 3e 53 8f a2 be 98 4e 4e be 71 b0 16 be
       0.26953703 -0.31749973 -0.20147169 -0.14715745
000290 80 d8 0b 3f 9c 3a 2c 3f ec 19 1d 3f 2a cb 6e be
       0.5462723 0.6727693 0.6136768 -0.23319688
0002a0 f3 d2 3a bd b6 a2 da 3d 65 82 21 be fd a6 4c bd
       -0.045611333 0.10675566 -0.15772398 -0.04996394
0002b0 d4 1c 7b 3e 02 0f 31 be 73 ca ed be d7 87 a9 be
       0.24522716 -0.17290881 -0.4644352 -0.3311145
0002c0 1c 75 e3 be 5e 5e 2e be 8f a4 f8 3e bd c8 6d be
       -0.44425285 -0.17028186 0.48563048 -0.23221107
0002d0 42 ec 13 bf 70 af 88 be ca 57 3b 3e 2e ea de be
       -0.57782376 -0.26696348 0.18295208 -0.4353804
0002e0 06 8b 9d be 4c a8 09 3c 26 01 65 3e 47 f8 af 3e
       -0.3077013 0.0084019415 0.2236372 0.34369108
0002f0 69 f2 ee 3e 43 f7 a0 be 00 70 9b bd 71 bc 13 3e
       0.4666932 -0.31438646 -0.07589722 0.14427353
000300 4e 84 08 bf 6d 53 2b 3e 4c 35 9c 3e ca d2 13 be
       -0.5332688 0.16731043 0.30509412 -0.14435878
000310 81 84 77 3e c9 1b 2c bf b9 2e 78 3e 33 8f ab be
       0.2417164 -0.67229897 0.24236573 -0.3350769
000320 df 6b 76 bf 3a 30 12 be fa 32 51 bf 3a d1 5f bf
       -0.9625835 -0.1427621 -0.8171841 -0.8742863
000330 45 46 1f be 17 c4 fe 3d f9 18 7f 3f 60 64 70 3e
       -0.1555415 0.12439745 0.9964748 0.2347579
000340 88 10 9f be 60 0b 83 be eb 31 32 3e 16 c7 71 be
       -0.310673 -0.25594616 0.17401855 -0.23611102
000350 f6 07 37 bf f6 64 79 be 73 91 d3 3e 5a ed ef 3d
       -0.7149652 -0.2435492 0.41321906 0.11715193
000360 b2 ce a3 be 75 e6 2f 3f fa bc 46 3f 24 aa 18 bf
       -0.31993634 0.68711025 0.77632105 -0.59634614
000370 f9 dc 47 3e c6 69 5a 3d d7 7c 10 be 68 88 a7 3e
       0.19517888 0.05332353 -0.14110123 0.32721257
000380 6f 51 07 bf 31 d6 75 be 42 23 e2 be 65 54 2e bf
       -0.5285863 -0.24007489 -0.44167525 -0.68097526
000390 80 e4 8a bc 19 5e b7 3e 08 13 a1 be 67 a8 4c 3e
       -0.01695466 0.35813978 -0.31459832 0.19986115
0003a0 24 6b 44 3f 76 78 d3 be e0 ad a4 be 43 c0 02 3f
       0.76725984 -0.41302842 -0.32163906 0.5107462
0003b0 f9 33 22 3f 5f e7 70 3e 1b f3 85 be 47 8a 9e 3e
       0.63360554 0.23525761 -0.26162037 0.30964872
0003c0 67 62 5a 3a d9 f3 63 3e 1c 21 21 be af 35 d2 3c
       0.0008330703 0.22260989 -0.15735286 0.025660364
0003d0 04 dd b9 3e fb e6 99 be 73 d3 9c be c9 b3 9e be
       0.36301434 -0.30059037 -0.30630073 -0.3099654
0003e0 de 90 e7 3d a1 f0 c7 bd 88 bb 63 3d f5 68 ed be
       0.11306928 -0.09762693 0.055598766 -0.46369138
0003f0 88 88 f2 be 40 01 f1 be 83 88 20 3e d4 84 f0 3e
       -0.4736979 -0.47071266 0.15677075 0.4697634

model.block2.2.weight f4 [16]
000000 23 73 80 3f 3b 40 82 3f b9 a5 81 3f 91 ff 80 3f
       1.0035137 1.0175852 1.01287 1.0077993
000010 e6 96 81 3f e6 90 80 3f 11 58 7d 3f c2 cf 7d 3f
       1.0124176 1.004422 0.98962504 0.9914514
000020 bf ca 7f 3f 67 c2 82 3f 86 57 82 3f cb be 7d 3f
       0.9991874 1.0215577 1.018296 0.9911925
000030 62 d3 80 3f 3f 17 82 3f 7b 89 81 3f 69 f0 80 3f
       1.0064509 1.0163344 1.0120081 1.0073367

model.block2.2.bias f4 [16]
000000 db 5a a1 3b b2 28 da 3b b2 1a f1 3b 26 40 2d bb
       0.004924161 0.0066576833 0.0073579187 -0.002643594
000010 41 ab 1c 3b 17 29 94 bb 97 33 b7 3a 2a ad ac bb
       0.0023905786 -0.0045215 0.0013977167 -0.005269666
000020 b9 7a 08 3b b6 a0 0d 3c 9e 3d 11 b9 41 68 71 39
       0.0020825102 0.0086442735 -0.00013851232 0.00023022389
000030 f8 06 0a bb 87 c1 f7 3b 95 f2 97 3b ee 5d e0 ba
       -0.0021061283 0.007560912 0.0046370723 -0.0017117837

model.block2.2.running_mean f4 [16]
000000 d0 71 b2 3d e7 20 fd 3d 57 1c d0 3d 5c 0b 0a 39
       0.08713114 0.12359791 0.101616554 0.00013164937
000010 93 d5 1b 3d 4f f5 cb 3d d0 15 3e 3d f1 5a ea bb
       0.038045477 0.09958898 0.04640752 -0.0071519543
000020 3f da 08 bd 64 c1 65 3c 25 3f 15 3d 75 67 77 bb
       -0.03341126 0.014023159 0.036437172 -0.0037750874
000030 49 fa 1c bd 9d 80 7b 3d e4 c4 fe bc 22 54 9e 3d
       -0.038324628 0.061401952 -0.031099744 0.07730891

model.block2.2.running_var f4 [16]
000000 71 32 b7 3d 4e 95 16 3e 39 ea 60 3e 2c ea 8a 3d
       0.08945168 0.14705393 0.21964349 0.06782946
000010 ad bf ca 3d d3 f8 51 3e e2 8d 82 3d 7d 4c de 3d
       0.098998405 0.20505075 0.06374718 0.10854433
000020 98 25 8e 3d 13 f6 c1 3d 5e b9 d5 3d c6 9f f2 3d
       0.06940764 0.09470763 0.104357466 0.118468806
000030 d6 92 34 3e 6b 09 31 3e c8 f5 3e 3e fc 91 ad 3d
       0.17634138 0.17288749 0.18648446 0.0847511

model.classifier.weight f4 [1, 64]
000000 83 8f d8 be f3 1e 28 be 54 9c 5f bd f1 83 51 be
       -0.4229699 -0.16418056 -0.054592445 -0.20460488
000010 6b e8 b4 3d a9 5a bf 3d aa bf 17 bc 8f e5 9a bd
       0.08833393 0.09343464 -0.009262005 -0.07563316
000020 97 04 b5 3e b6 d5 a1 bd a0 66 60 be 51 9b ae bd
       0.35355064 -0.0790209 -0.21914148 -0.08525718
000030 60 5a 57 bc 9e 6a ae 3e ce 74 e8 bc 66 a4 1e be
       -0.013144106 0.34065717 -0.02837601 -0.154924
000040 c3 48 5d 3e 76 e0 89 3e 41 1b 52 bd 48 25 9a 3a
       0.21609788 0.26929063 -0.051295523 0.0011760378
000050 bb 49 5f 3e e4 2f ae 3d 0a 2c 15 3c db 16 e5 3d
       0.2180547 0.08505228 0.009104738 0.11186
000060 36 41 a9 bd 2d ca f6 bb 3b 6a 4f be cc 6b 01 3d
       -0.08264391 -0.0075314254 -0.20255367 0.031596944
000070 b8 d2 1d 3e e3 1c 55 be 89 b2 91 3d c6 5b 81 3e
       0.15412414 -0.208118 0.07114131 0.2526533
000080 d9 86 4b be 2b 5d 11 3e 25 a8 98 be 75 46 ad bc
       -0.19875659 0.14195697 -0.29815784 -0.02115176
000090 b5 a2 f9 3d 96 92 25 bd 92 85 d1 bd ea 82 b2 3d
       0.12189237 -0.040423 -0.10230555 0.08716376
0000a0 69 16 88 bd d4 8e a8 3d e0 07 31 3d 4c 49 cf bd
       -0.066448994 0.08230367 0.0432204 -0.10121402
0000b0 97 80 40 be b8 ec a1 bd 86 59 0c 3e 86 d4 cd bd
       -0.18799053 -0.07906479 0.13706025 -0.10050301
0000c0 ee 45 ba 3e 64 a7 42 3d c9 88 50 be 99 36 3b 3e
       0.36381477 0.047522917 -0.2036468 0.18282546
0000d0 b6 09 06 3e 2d 11 fd 3d 8c 2f a1 be e8 e6 b0 3e
       0.13089642 0.12356792 -0.31481588 0.34551167
0000e0 84 9c dc bd 1c e2 a7 be c3 f1 0d 3c 5d 90 64 be
       -0.107720405 -0.32789695 0.0086635975 -0.22320695
0000f0 48 19 18 be a7 15 b3 3c 6a 55 37 3d d2 d8 eb bd
       -0.14853394 0.02186091 0.04475919 -0.115159646
