checkpoints/best_model-v3.ckpt (torch, 37554 bytes, 39 tensors)

model.block1.0.weight f4 [8, 1, 1, 64]
0.09451739 0.0059772343 -0.029687384 -0.06247186 -0.08627398 0.06230858 0.029465944 -0.02957558
-0.2246647 0.017701844 0.016518218 0.03967353 -0.12785773 -0.0052979933 -0.044625107 -0.04713814
0.10386223 -0.0072870664 0.013664239 -0.07631307 0.03880339 0.068739496 -0.02206108 -0.045104098
-0.04291813 0.046003617 -0.1255439 -0.014057206 -0.033545304 -0.063604966 -0.032045536 -0.113216676
0.09369609 0.012728657 0.027601281 0.05239369 -0.024317423 0.0006061129 -0.07417254 -0.0048747477
-0.0007602497 0.010293347 0.05877584 0.092325024 -0.026138969 -0.038238097 -0.049138166 0.054134827
-0.10421956 -0.035680074 0.11623045 -0.031383477 -0.05360408 -0.043774877 -0.0320402 -0.03418775
0.0037759147 0.047650177 -0.12974133 -0.08797852 -0.02005796 0.0032444566 -0.03656607 0.009776502
-0.052824352 0.012066078 0.018308394 0.00035935 -0.0066924845 -0.092250176 0.006881212 -0.10224044
0.099168345 0.08590654 0.032208316 -0.056423604 -0.0756043 -0.028773973 0.11286102 -0.051135562
0.03558503 -0.04314336 0.023022363 0.093431756 0.022996139 0.04630406 0.036100034 0.01986096
0.004561562 -0.02607078 -0.0027488254 -0.1121639 0.094013534 -0.07138338 -0.003765346 0.03983878
-0.021485345 -0.03511642 -0.035645828 0.05153319 -0.10563587 0.08501034 0.0005880022 -0.086032234
0.10857899 0.09490302 -0.022633204 0.10144534 -0.19087395 0.103846446 0.016842244 0.09379734
0.14154905 -0.054067504 -0.0140515575 0.044375747 0.065204166 -0.012879915 0.06246888 0.029495172
0.06364339 0.031553183 -0.039886232 0.07979442 -0.06099297 0.056508757 -0.08571745 -0.11809147
0.14646901 -0.013709653 0.033195607 0.0329046 -0.022765368 -0.035301555 0.018436031 -0.031966463
0.007879317 0.1364772 0.0550889 -0.037501924 -0.042731967 0.017073218 -0.039072927 -0.10351806
0.09451591 0.07098126 -0.043958075 -0.00661644 0.11148219 0.012826657 -0.023466894 -0.029669425
0.055594847 0.038051974 0.055637468 -0.12931305 0.13575312 0.037405543 0.1343094 0.06714847
0.08197793 -0.005027934 -0.07712308 -0.014584804 0.06747021 0.017062869 0.06533049 0.09941559
0.033575222 0.038651098 0.07833656 0.048017513 -0.036299646 0.04756906 0.14285019 0.038824026
0.0040025767 0.046683855 0.014983828 -0.032598693 -0.048097815 0.0114201605 0.040250067 -0.009432118
-0.09794113 -0.07835361 0.062397853 0.01286638 0.04531638 -0.0972275 -0.12050997 -0.030443238
-0.049917832 -0.056928903 -0.011299963 0.033553142 -0.04808263 0.0060386434 -0.0667391 -0.02718462
0.045252066 -0.041404523 -0.05022349 -0.02434688 -0.057306312 -0.007820881 -0.044902388 0.0060204044
0.0078007146 -0.10081574 0.0029639627 0.0361565 0.003663082 0.05220546 0.05658532 0.058175847
-0.15067422 0.017475123 0.056282528 0.0055786986 -0.061825592 -0.0022456204 -0.04751906 -0.06170001
0.018865708 -0.02878335 0.017346485 -0.0111113675 -0.043003812 0.0023008431 0.06707268 -0.061105527
-0.050924838 -0.11126342 -0.023383383 0.058515728 0.0013455326 -0.032638386 -0.005125101 0.0055665206
0.050392445 -0.008111248 -0.00060343806 -0.04796939 -0.0021899776 0.09800935 -0.1444422 -0.02091341
0.01645778 -0.014285685 0.03575267 -0.09035787 0.006051654 -0.005637267 0.085261025 -0.016680658
00000000: 5592 c13d addc c33b f532 f3bc 7ee2 7fbd
00000010: 6ab0 b0bd 4837 7f3d 9062 f13c 7d48 f2bc
00000020: 810e 66be 7503 913c 3751 873c b680 223d
00000030: 23ed 02be ca9a adbb d1c8 36bd ec13 41bd
00000040: b9b5 d43d 58c8 eebb f9df 5f3c 074a 9cbd
00000050: 4ef0 1e3d 4bc7 8c3d 70b9 b4bc 13bf 38bd
00000060: ecca 2fbd 4a6e 3c3d 958e 00be 3250 66bc
00000070: cd66 09bd 5243 82bd 2e42 03bd 25de e7bd
00000080: bce3 bf3d db8b 503c 151c e23c c49a 563d
00000090: 5535 c7bc 8ce3 1e3a c6e7 97bd 59bc 9fbb
000000a0: 7e4b 47ba 6da5 283c efbe 703d e714 bd3d
000000b0: 6421 d6bc 8d9f 1cbd 1a45 49bd 7bbc 5d3d
000000c0: 1171 d5bd 4525 12bd 3b0a ee3d f68b 00bd
000000d0: f48f 5bbd 494d 33bd 963c 03bd 7408 0cbd
000000e0: 5675 773b d52c 433d e9da 04be 152e b4bd
000000f0: 9750 a4bc f3a0 543b 4ec6 15bd 9f2d 203c
00000100: 595e 58bd cdb0 453c 7cfb 953c 2467 bc39
00000110: a14c dbbb a9ed bcbd ca7b e13b 7063 d1bd
00000120: c618 cb3d c5ef af3d deec 033d 701c 67bd
00000130: 6dd6 9abd 65b7 ebbc ae23 e73d 8673 51bd
00000140: 9cc1 113d 18b7 30bd 6599 bc3c 2659 bf3d
00000150: 6662 bc3c 53a9 3d3d a1dd 133d 74b3 a23c
00000160: 2879 953b 6392 d5bc a325 34bb 30b6 e5bd
00000170: 2b8a c03d 7331 92bd 06c4 76bb fd2d 233d
00000180: 0902 b0bc 3cd6 0fbd 5c01 12bd 7714 533d
00000190: 9e57 d8bd e719 ae3d 2924 1a3a ab31 b0bd
000001a0: a95e de3d 845c c23d 4569 b9bc 93c2 cf3d
000001b0: 7674 43be 72ad d43d bff8 893c d218 c03d
000001c0: 3cf2 103e e375 5dbd 8138 66bc 58c3 353d
000001d0: c389 853d 4706 53bc 5edf 7f3d dc9f f13c
000001e0: 7757 823d e93d 013d bf5f 23bd 426b a33d
000001f0: c4d3 79bd ba75 673d a18c afbd f1d9 f1bd
00000200: f9fb 153e 749e 60bc 1ef8 073d f9c6 063d
00000210: 707e babc 5d98 10bd 2907 973c 44ef 02bd
00000220: 4018 013c aec0 0b3e e6a4 613d 9e9b 19bd
00000230: b707 2fbd 22dd 8b3c ef0a 20bd 4701 d4bd
00000240: 8f91 c13d 9f5e 913d 620d 34bd b9ce d8bb
00000250: c650 e43d e626 523c a53d c0bc 4b0d f3bc
00000260: 6cb7 633d 63dc 1b3d 1de4 633d a46a 04be
00000270: de02 0b3e 8e36 193d 6788 093e 2385 893d
00000280: 0ce4 a73d 5ec1 a4bb b5f2 9dbd 1af5 6ebc
00000290: d22d 8a3d 6ec7 8b3c fecb 853d 679a cb3d
000002a0: 2c86 093d 9d50 1e3d eb6e a03d 03ae 443d
000002b0: f0ae 14bd c6d7 423d 5247 123e f105 1f3d
000002c0: 0c28 833b 9237 3f3d bb7e 753c 3586 05bd
000002d0: 3702 45bd a01b 3b3c 41dd 243d 2c89 1abc
000002e0: 5c95 c8bd dc77 a0bd e494 7f3d 82cd 523c
000002f0: ab9d 393d 361f c7bd eecd f6bd 1964 f9bc
00000300: a476 4cbd 482e 69bd 7b23 39bc 056f 093d
00000310: 4bf2 44bd d0df c53b 82ae 88bd 48b2 debc
00000320: 3b5a 393d ca97 29bd 25b7 4dbd 1c73 c7bc
00000330: 06ba 6abd 2723 00bc 91eb 37bd d046 c53b
00000340: 239d ff3b 7c78 cebd 0b3f 423b d718 143d
00000350: 5110 703b 64d5 553d 02c6 673d cc49 6e3d
00000360: 584a 1abe fd27 8f3c 8288 663d 84cd b63b
00000370: d53c 7dbd 422b 13bb 59a3 42bd 26b9 7cbd
00000380: 428c 9a3c 0fcb ebbc 371a 8e3c 740c 36bc
00000390: c424 30bd bec9 163b 675d 893d ca49 7abd
000003a0: 9096 50bd 13de e3bd 828e bfbc 30ae 6f3d
000003b0: 955c b03a d4af 05bd 77f0 a7bb 5c67 b63b
000003c0: 4f68 4e3d 0ae5 04bc 0b30 1eba 8d7b 44bd
000003d0: ba85 0fbb 20b9 c83d a8e8 13be 9952 abbc
000003e0: 77d2 863c 810e 6abc 6471 123d 8c0d b9bd
000003f0: f44c c63b d3b8 b8bb 559d ae3d e0a5 88bc

model.block1.1.weight f4 [8]
1.0083967 1.0001268 0.98683995 1.016448 1.0031179 0.99911183 1.0059978 0.99599886
00000000: 2513 813f 2804 803f 8ba1 7c3f f81a 823f
00000010: 2b66 803f cbc5 7f3f 89c4 803f c8f9 7e3f

model.block1.1.bias f4 [8]
-8.966334e-06 -0.00018990283 -0.0014024595 0.0012227207 -0.001072391 0.000494742 -0.0014939111 -0.004421334
00000000: 1c6e 16b7 a720 47b9 bbd2 b7ba b343 a03a
00000010: 798f 8cba 93b1 013a 57cf c3ba d6e0 90bb

model.block1.1.running_mean f4 [8]
6.7870975 -2.8921475 -7.9006104 5.626026 2.3914928 -1.644561 1.8402153 3.8842087
00000000: e72f d940 f218 39c0 cdd1 fcc0 6808 b440
00000010: 380e 1940 fa80 d2bf 2d8c eb3f e096 7840

model.block1.1.running_var f4 [8]
753.5891 403.87564 1590.2302 534.2314 255.14612 307.76694 131.9563 605.8995
00000000: b465 3c44 15f0 c943 5ec7 c644 cf8e 0544
00000010: 6825 7f43 2be2 9943 d0f4 0343 9179 1744

model.block1.2.weight f4 [16, 1, 16, 1]
0.07976698 0.10118203 0.045456998 -0.08931043 0.06150598 0.2440889 -0.03869646 0.059031744
-0.073915474 0.1362117 -0.03968474 0.09154477 0.13064666 -0.03930323 0.022942597 -0.054606467
-0.14541768 0.022298297 0.094823875 0.031184556 -0.0908205 -0.05196167 0.07856301 -0.008402273
-0.038267344 0.06322747 0.023316069 -0.016371513 1.3619576e-05 0.046714496 0.1034954 -0.047457494
0.1405458 0.1905492 0.0198627 -0.116992824 -0.11467711 0.04988975 -0.052393857 -0.017521884
0.15907265 0.14557464 0.06351558 -0.042927872 -0.06186668 -0.0032987767 0.13077712 0.15733428
-0.15944773 0.03799683 -0.07356339 -0.07788393 -0.11176551 0.031951535 -0.104831606 0.02087191
0.053728458 -0.16666763 0.08619421 0.07378586 0.036426935 -0.08540517 0.006148067 0.033459466
0.09368331 0.041981455 -0.040525064 -0.019449703 -0.07040378 -0.063828774 -0.0278835 -0.023921968
-0.024086202 -0.036639437 0.1367143 -0.099031836 0.06281102 -0.0039431634 -0.0052740807 -0.05526596
0.06992689 0.11177028 0.117102265 0.107094124 -0.076838516 -0.010649076 0.05683729 -0.17162022
0.018499447 0.25649223 0.02141038 -0.037536506 0.0034634217 -0.0918775 -0.016762782 0.04429616
-0.023252686 -0.16267368 -0.036972724 -0.06886302 -0.048970696 0.106886484 0.0837889 0.08715883
0.086571895 0.043846916 0.07160237 0.08229466 -0.021684458 0.0020937603 0.009260623 -0.118321195
-0.08340034 -0.21976711 0.022007288 0.06868653 0.05239118 0.17023878 -0.10117184 0.18688157
0.12667303 -0.02770607 -0.025496587 -0.16390897 -0.052819896 -0.0423185 -0.18080786 0.04239402
-0.05778952 -0.08754777 0.007943138 -0.011467174 0.057865623 0.0901712 -0.010259977 -0.13496149
-0.019240616 0.011320695 -0.113450795 0.087079495 0.0014973268 0.029195884 0.009190923 -0.073929526
-0.0018662913 0.0027989948 0.15367992 0.04637952 0.11734506 -0.03227215 -0.11476727 0.025345173
0.017542148 0.07766392 -0.012561211 -0.044720482 -0.044579417 0.033587966 0.040128477 0.02655925
0.041027393 -0.034399897 -0.26695874 -0.0031135269 0.14486904 0.089149125 -0.023464948 0.028593302
-0.0832592 -0.08050523 -0.12362135 0.004097178 -0.025592407 -0.10481701 -0.015491296 -0.08253118
0.019156074 -0.12399303 0.035457242 -0.025223706 -0.051904798 0.10742504 0.07036938 0.059483625
-0.014653564 -0.070295095 -0.0021760748 0.16120766 -0.05110124 0.06747055 0.14432965 -0.024578083
0.048851702 -0.032087434 0.11551957 -0.101090096 -0.11604008 -0.06408599 -0.066074476 0.023634322
0.027607167 0.12311905 -0.03905783 0.06267014 -0.03894777 0.00929687 0.102655046 0.18470094
0.071921304 -0.08742986 -0.15104127 0.032826815 0.0935975 0.08511848 -0.08431884 -0.1559457
-0.016114946 0.017130893 -0.01581663 -0.0062206467 0.0018391592 0.09112093 0.048492845 -0.06169685
-0.037790876 0.06116794 -0.12481669 -0.14651854 -0.07525979 -0.073251046 -0.098062746 0.05662328
-0.20083934 0.0062984563 -0.17397352 -0.009568851 -0.052859657 -0.0057611475 -0.055155568 0.020053212
0.09698575 -0.05729259 -0.1404558 -0.0039272835 0.009399712 0.017981984 -0.062140483 0.10676415
-0.06773654 -0.1451211 -0.04261026 -0.11973769 -0.18995109 -0.014898113 -0.052875444 0.081948504
00000000: df5c a33d 8638 cf3d 1e31 3a3d 63e8 b6bd
00000010: b2ed 7b3d 71f2 793e 2e80 1ebd 45cb 713d
00000020: ff60 97bd 147b 0b3e 778c 22bd d37b bb3d
00000030: 3dc8 053e 6cfc 20bd 1df2 bb3c 08ab 5fbd
00000040: 5fe8 14be ebaa b63c 0533 c23d c176 ff3c
00000050: 1900 babd c3d5 54bd a5e5 a03d b0a9 09bc
00000060: 38be 1cbd 677d 813d 5701 bf3c 8d1d 86bc
00000070: a27f 6437 b357 3f3d 65f5 d33d ca62 42bd
00000080: 3deb 0f3e 541f 433e 1ab7 a23c ef99 efbd
00000090: d5db eabd 3259 4c3d f19a 56bd 0e8a 8fbc
000000a0: f1e3 223e 8511 153e 7514 823d 23d5 2fbd
000000b0: ea67 7dbd 4a30 58bb 70ea 053e 3d1c 213e
000000c0: 4446 23be 90a2 1b3d 67a8 96bd 9c81 9fbd
000000d0: 51e5 e4bd 9ddf 023d f4b1 d6bd 91fb aa3c
000000e0: 5f12 5c3d ebaa 2abe 9786 b03d 0a1d 973d
000000f0: 6934 153d e8e8 aebd b975 c93b cb0c 093d
00000100: 09dd bf3d bff4 2b3d 9cfd 25bd fc54 9fbc
00000110: db2f 90bd a9b8 82bd f06b e4bc 01f8 c3bc
00000120: 6d50 c5bc 3c13 16bd d5fe 0b3e 34d1 cabd
00000130: 10a3 803d a735 81bb 32d2 acbb 8f5e 62bd
00000140: d435 8f3d d1e7 e43d 50d3 ef3d 2a54 db3d
00000150: 835d 9dbd 7679 2ebc 38ce 683d 36bd 2fbe
00000160: 278c 973c f352 833e d264 af3c e1bf 19bd
00000170: 93fa 623b 452a bcbd 1a52 89bc e46f 353d
00000180: 6b7c bebc ee93 26be b670 17bd 0e08 8dbd
00000190: 7f95 48bd 4de7 da3d 8499 ab3d 5480 b23d
000001a0: 9b4c b13d d398 333d 43a4 923d 1a8a a83d
000001b0: 9ba3 b1bc 7837 093b deb9 173c 6252 f2bd
000001c0: cccd aabd a10a 61be a148 b43c 86ab 8c3d
000001d0: 2298 563d 1353 2e3e 2f33 cfbd e25d 3f3e
000001e0: 93b6 013e d7f7 e2bc 38de d0bc c1d7 27be
000001f0: ad59 58bd 2a56 2dbd b225 39be 5aa5 2d3d
00000200: b4b4 6cbd 3f4c b3bd ef23 023c d0e0 3bbc
00000210: 8104 6d3d aeab b83d 7619 28bc 5833 0abe
00000220: 7f9e 9dbc 707a 393c e458 e8bd bc56 b23d
00000230: f341 c43a 352c ef3c 8695 163c 5d68 97bd
00000240: 589e f4ba 576f 373b 455e 1d3e 74f8 3d3d
00000250: 9b52 f03d cd2f 04bd 1a0b ebbd aea0 cf3c
00000260: 8db4 8f3c 430e 9f3d 8acd 4dbc d32c 37bd
00000270: e898 36bd 8993 093d c25d 243d c992 d93c
00000280: 570c 283d e8e6 0cbd d1ae 88be 500c 4cbb
00000290: 8d58 143e d193 b63d 9039 c0bc 803c ea3c
000002a0: cd83 aabd eddf a4bd 312d fdbd 9f41 863b
000002b0: 2ba7 d1bc 4daa d6bd 34cf 7dbc 1b06 a9bd
000002c0: 33ed 9c3c 0ff0 fdbd 9d3b 113d f2a1 cebc
000002d0: 209a 54bd a901 dc3d d21d 903d 1aa5 733d
000002e0: 8115 70bc e0f6 8fbd 7a9c 0ebb 9f13 253e
000002f0: 894f 51bd 002e 8a3d 27cb 133e fa57 c9bc
00000300: b918 483d 1d6e 03bd 8695 ec3d 5308 cfbd
00000310: 6ca6 edbd 843f 83bd 0e52 87bd c49c c13c
00000320: 6d28 e23c d725 fc3d 1afb 1fbd 3459 803d
00000330: b287 1fbd e651 183c cf3c d23d 3e22 3d3e
00000340: 7a4b 933d 6d0e b3bd 90aa 1abe 6975 063d
00000350: 0cb0 bf3d 9952 ae3d 5baf acbd 3bb0 1fbe
00000360: 7e03 84bc 1656 8c3c e191 81bc 91d6 cbbb
00000370: f10f f13a 9c9d ba3d 6fa0 463d d6b5 7cbd
00000380: 9bca 1abd 3c8b 7a3d e59f ffbd f508 16be
00000390: ce21 9abd a504 96bd 1fd5 c8bd d0ed 673d
000003a0: d4a8 4dbe 4863 ce3b 1d26 32be acc6 1cbc
000003b0: 5e83 58bd 02c8 bcbb ceea 61bd a246 a43c
000003c0: 77a0 c63d a3ab 6abd a5d3 0fbe 71b0 80bb
000003d0: 4001 1a3c f44e 933c 0587 7ebd 2aa7 da3d
000003e0: 75b9 8abd a09a 14be 1988 2ebd 0939 f5bd
000003f0: 8a82 42be 3717 74bc ec93 58bd 9ed4 a73d

model.block1.3.weight f4 [16]
1.0084591 1.0068083 0.9954295 1.0030438 0.98512906 0.9889929 1.0139713 1.0171425
1.0026501 0.99729544 0.995692 0.9997296 0.99883246 1.0063947 0.9955889 0.99869215
00000000: 3015 813f 18df 803f 78d4 7e3f bd63 803f
00000010: 6b31 7c3f a42e 7d3f d0c9 813f ba31 823f
00000020: d756 803f c14e 7f3f ace5 7e3f 47ee 7f3f
00000030: 7cb3 7f3f 8bd1 803f eade 7e3f 4aaa 7f3f

model.block1.3.bias f4 [16]
-0.006332439 0.009577146 0.011350182 6.721866e-05 -0.01089636 -0.0036144173 0.008439677 0.01522394
0.0066783554 -0.0029625176 0.0012197057 -0.0059424685 -0.0025503943 0.004865729 -0.0009887703 -0.01740217
00000000: 5980 cfbb 76e9 1c3c 1df6 393c bef7 8c38
00000010: a586 32bc dcdf 6cbb 9246 0a3c d56d 793c
00000020: 1bd6 da3b cc26 42bb 88de 9f3a 0ab9 c2bb
00000030: 8424 27bb b170 9f3b a099 81ba ff8e 8ebc

model.block1.3.running_mean f4 [16]
0.034768306 -0.012254891 -0.046115845 -0.033105057 -0.047422983 0.011332244 0.005578123 -0.19828537
0.028650787 -0.036637157 0.012525637 -0.008407426 0.01442497 0.057814695 0.009999965 -0.038158458
00000000: 3669 0e3d bdc8 48bc f8e3 3cbd 2b99 07bd
00000010: 9a3e 42bd e0aa 393c b0c8 b63b 520b 4bbe
00000020: 0eb5 ea3c d810 16bd 5438 4d3c 4dbf 09bc
00000030: b656 6c3c 1acf 6c3d e5d6 233c 0b4c 1cbd

model.block1.3.running_var f4 [16]
0.2661442 0.017486406 0.31388777 0.1420942 0.032625023 0.17491725 0.027342198 0.20830417
0.034270756 0.09730357 0.18567225 0.088463284 0.10391103 0.034716163 0.6952641 0.25765276
00000000: 0d44 883e a73f 8f3c e6b5 a03e 2481 113e
00000010: d1a1 053d 821d 333e bffc df3c b04d 553e
00000020: 7e5f 0c3d 1847 c73d de20 3e3e 3d2c b53d
00000030: 4ecf d43d 8932 0e3d d4fc 313f 10eb 833e

model.block2.0.weight f4 [16, 1, 1, 16]
-0.028183801 -0.0042896965 0.073875576 -0.0024834943 0.088769145 0.16432343 -0.014481928 0.04200133
-0.07756282 0.054527465 -0.0008170262 -0.15072721 0.091190144 -0.077021845 0.16530319 -0.072306626
-0.014287028 0.1262721 0.026864607 0.10290854 0.104954414 -0.07468092 -0.057023842 0.00907384
-0.08742622 -0.09944264 -0.1688963 -0.10728444 0.0494032 0.06669679 0.00025600713 0.004295387
0.03482878 0.087384365 0.12988216 -0.09590814 -0.0015836341 0.084454656 0.06435543 -0.14950316
-0.011385582 0.012119414 0.002373654 -0.079470344 0.0068746055 0.00042909672 -0.10814545 -0.22123137
0.01149759 -0.06221152 -0.14182843 -0.14117861 -0.07604649 -0.07283008 0.0109570185 0.05793205
0.12718783 0.038691256 -0.065045565 0.032976795 0.0044633513 0.031216532 0.112249956 0.054099724
0.010350325 0.12861867 -0.04268 -0.23796086 0.030744074 -0.10336045 -0.12553962 -0.089250766
0.05136201 0.023265738 -0.029629422 -0.019705623 0.23372364 0.062030144 -0.11213052 -0.11432854
-0.010934867 0.24274777 0.07657778 -0.08817928 -0.106552504 -0.054983165 0.0007627285 0.03902472
-0.006404614 -0.043695826 0.0033503524 0.057830404 0.17295402 -0.080815 0.09033562 -0.117989704
0.001025803 -0.12266385 0.13810425 0.029478561 0.101063326 -0.022992555 0.16388924 -0.064037725
0.08073666 -0.04730867 0.25506628 -0.09382742 0.09744772 -0.02911097 -0.119851656 -0.046857197
-0.116466716 -0.03747982 0.0664032 -0.07199462 0.069319956 0.0598664 -0.07437205 -0.09027312
-0.05805719 0.11822109 0.048850074 -0.0006383083 -0.13240632 0.030413121 -0.08477058 -0.12706015
-0.13784781 0.033864923 0.051703684 0.045636833 -0.072880805 -0.103854686 0.008731421 0.10570492
-0.05122275 -0.014014589 -0.024670646 0.0023998627 0.06543673 -0.057551008 0.11663918 0.05835047
0.0047974573 -0.051762618 -0.1254627 0.14040592 -0.20475869 0.121817075 -0.052925747 0.029370682
-0.056053646 -0.13156092 0.062688716 -0.066576555 0.0636624 0.06417144 -0.010678937 -0.025812756
0.014446752 -0.07912759 0.08380517 0.040203504 -0.10850415 0.009648455 0.089103475 -0.040707856
-0.10023896 0.028608505 0.039559476 0.008710756 0.17048515 0.011931323 -0.041777585 0.09295278
-0.032144397 -0.053331107 -0.048951447 -0.026363235 -0.07363145 -0.06095267 -0.034698255 -0.028224433
0.018612215 -0.049549617 -0.06525668 0.09736254 0.0550711 0.036087528 0.03556583 0.0124985045
-0.06536041 0.080011 -0.08497138 -0.023185002 0.103060804 -0.026128896 -0.15391333 -0.1164688
-0.0057777306 -0.1593858 0.1510404 -0.10703069 -0.10831458 -0.07736789 -0.046588834 0.038153164
-0.038066506 0.009762208 -0.18558873 -0.0065368423 0.0028247528 -0.1365418 -0.025699042 -0.17560244
0.09265999 0.035520427 0.029656902 0.10528622 0.014461123 -0.028397368 0.18346168 -0.019323604
0.0068030846 -0.013212039 0.0013187536 -0.06605026 -0.123027734 -0.023471242 0.013109572 -0.07966174
0.14078677 -0.031084647 -0.005808018 -0.05050115 -0.12379342 -0.023097496 0.01287746 -0.03921666
0.06047969 -0.044484124 0.09314182 -0.08536844 -0.071479306 -0.00826214 0.11178039 0.18177053
0.117218554 0.071704775 0.13922445 -0.09594084 -0.003693135 0.041168682 -0.013472718 0.100897305
00000000: b7e1 e6bc 9590 8cbb 144c 973d 1fc2 22bb
00000010: 99cc b53d 6744 283e 9c45 6dbc 9609 2c3d
00000020: 41d9 9ebd 3158 5f3d b32d 56ba 3c58 1abe
00000030: e6c1 ba3d a1bd 9dbd 3d45 293e 7f15 94bd
00000040: 2414 6abc 794d 013e 2a13 dc3c b6c1 d23d
00000050: 57f2 d63d 4ff2 98bd d591 69bd 72aa 143c
00000060: 850c b3bd 95a8 cbbd 27f3 2cbe f2b7 dbbd
00000070: 035b 4a3d 5498 883d b238 8639 51c0 8c3b
00000080: 9fa8 0e3d 93f6 b23d d4ff 043e 7d6b c4bd
00000090: f191 cfba 90f6 ac3d c8cc 833d 5b17 19be
000000a0: 988a 3abc 8290 463c 4e8f 1b3b 59c1 a2bd
000000b0: 5f44 e13b 63f8 e039 5d7b ddbd 7a8a 62be
000000c0: 6360 3c3c 82d1 7ebd 793b 11be 2091 10be
000000d0: 43be 9bbd f027 95bd 1185 333c 284a 6d3d
000000e0: 873d 023e b97a 1e3d 9c36 85bd ad12 073d
000000f0: 4e41 923b d0b9 ff3c 4ee3 e53d ac97 5d3d
00000100: 6994 293c 9db4 033e 39d1 2ebd 03ac 73be
00000110: ffda fb3c a5ae d3bd 758d 00be 1bc9 b6bd
00000120: f960 523d ca97 be3c 67b9 f2bc b06d a1bc
00000130: 4055 6f3e 5213 7e3d b0a4 e5bd 1525 eabd
00000140: 2828 33bc df92 783e d0d4 9c3d 5797 b4bd
00000150: 3338 dabd 0736 61bd d8f1 473a 63d8 1f3d
00000160: ccdd d1bb 65fa 32bd 9691 5b3b 93df 6c3d
00000170: dc1a 313e 5682 a5bd e201 b93d 96a4 f1bd
00000180: 3d74 863a 2f37 fbbd 336b 0d3e 067d f13c
00000190: 4afa ce3d e25a bcbc 95d2 273e 3626 83bd
000001a0: 4359 a53d bcc6 41bd 0c98 823e 9728 c0bd
000001b0: ac92 c73d 217a eebc c974 f5bd 55ed 3fbd
000001c0: 1a86 eebd 7184 19bd 67fe 873d ea71 93bd
000001d0: 9ff7 8d3d 7836 753d 6050 98bd 1de1 b8bd
000001e0: 60cd 6dbd e61d f23d 0417 483d 2554 27ba
000001f0: 8695 07be f024 f93c 339c adbd 0e1c 02be
00000200: fa27 0dbe f2b5 0a3d 3ec7 533d b0ed 3a3d
00000210: 8842 95bd c4b1 d4bd 3c0e 0f3c d27b d83d
00000220: f2ce 51bd 729d 65bc 181a cabc 0447 1d3b
00000230: b103 863d 9bba 6bbd 86e0 ee3d e700 6f3d
00000240: fd33 9d3b 0a05 54bd 4b79 00be 92c6 0f3e
00000250: 43ac 51be 3b7b f93d abc8 58bd c99a f03c
00000260: 8298 65bd e8b7 06be f162 803d 4a59 88bd
00000270: 6f61 823d 516c 833d b5f6 2ebc 4675 d3bc
00000280: 12b2 6c3c a50d a2bd 0ca2 ab3d 6eac 243d
00000290: 6c37 debd 8e14 1e3c e27b b63d 48bd 26bd
000002a0: 154a cdbd 625c ea3c 1e09 223d 8fb7 0e3c
000002b0: a993 2e3e 997b 433c f91e 2bbd 075e be3d
000002c0: d8a9 03bd b871 5abd 5081 48bd b6f7 d7bc
000002d0: 16cc 96bd 82a9 79bd c21f 0ebd ed36 e7bc
000002e0: a578 983c 8af4 4abd 4ba5 85bd 0366 c73d
000002f0: 3c92 613d 84d0 133d 7aad 113d 87c6 4c3c
00000300: aedb 85bd cfdc a33d 7a05 aebd 79ee bdbc
00000310: 8b11 d33d 440c d6bc 759b 1dbe 3287 eebd
00000320: 1e53 bdbb 0836 23be 56aa 1a3e e832 dbbd
00000330: 09d4 ddbd 0e73 9ebd efd3 3ebd 7e46 1c3d
00000340: a0eb 1bbd abf1 1f3c f90a 3ebe 0233 d6bb
00000350: 7d1f 393b 9dd1 0bbe cc86 d2bc 20d1 33be
00000360: 85c4 bd3d de7d 113d 08f3 f23c 4da0 d73d
00000370: 59ee 6c3c 99a1 e8bc 61dd 3b3e 894c 9ebc
00000380: 69ec de3b 4f77 58bc 07da ac3a 5c45 87bd
00000390: f7f5 fbbd c346 c0bc 88c9 563c b225 a3bd
000003a0: 682a 103e 3ba5 febc 3051 bebb 4bda 4ebd
000003b0: 6887 fdbd f636 bdbc fbfb 523c a6a1 20bd
000003c0: 8db9 773d fc34 36bd 23c1 be3d a6d5 aebd
000003d0: be63 92bd ed5d 07bc 1eed e43d 0e22 3a3e
000003e0: 4810 f03d f4d9 923d db90 0e3e a27c c4bd
000003f0: 8608 72bb 7ea0 283d adbc 5cbc 3fa3 ce3d

model.block2.1.weight f4 [16, 16, 1, 1]
-0.20288551 -0.18036439 -0.784234 0.07961389 -0.1039413 0.12390479 0.13891846 -0.4884469
-0.16081868 0.036713846 0.024131598 0.13951541 0.011581346 -0.40924844 -0.184738 0.14432257
-0.08546166 0.3325969 -0.1375887 0.35079736 0.10660892 0.39218676 0.4158279 -0.076838724
-0.07328945 -0.2888879 0.6562748 -0.8750006 -0.63173294 -0.19329654 -0.15496185 -0.12190383
0.13901916 0.7803633 -0.4031501 -0.18621464 -0.17992708 -0.0703464 0.21212614 -0.2750149
-0.95874697 -0.24469167 0.89953595 -0.8348921 -0.2310128 0.428813 0.08259891 0.16435502
0.04375158 0.26763102 0.16082798 0.1909844 -0.25424898 0.21980003 0.15982585 0.38851696
-0.12848656 -0.37932715 -0.22855274 0.017296232 0.37665 -0.26621467 -0.038690783 0.49188527
0.20095189 0.055783287 0.36048636 -0.031440053 -0.2688221 -0.059507072 0.41989353 0.43009675
-0.46061015 0.022956545 0.16113807 -0.23900704 -0.02980787 -0.42308232 0.4310949 0.50626546
0.41535816 -0.14379846 0.4742356 0.11499644 0.41336212 -0.55832195 0.33260405 0.222601
0.24983668 -0.29338124 -0.37766224 -0.5025305 -0.54715514 0.6808149 0.4956047 1.012975
-0.20081998 -0.19407122 -0.23477188 0.17449501 0.37738296 0.2019669 0.3548995 -0.23555754
-0.049151637 -0.4788557 0.25828665 -0.2743481 -0.24802339 -0.027755009 0.38569805 -0.21315564
-0.020290429 0.16083221 0.2842053 -0.2481075 -0.029361287 0.55838823 -0.1465116 0.15865502
-0.21098627 -1.0418558 0.18836556 -0.49755812 0.14718227 -0.19315234 0.27949816 -0.23306732
-0.16146901 -0.47478324 0.5235758 0.10298616 0.096753076 0.40716898 0.23457958 -0.07088868
-0.24630527 0.5353657 -0.5251154 -0.0069953203 -0.34074503 0.16938467 0.030696554 -0.4525266
-0.24382854 0.68036526 0.06827042 0.055669215 -0.39967674 -0.4642805 0.05786588 0.0899354
-0.21835588 -0.27534553 0.15634657 -0.62304366 -0.3701592 0.29478234 0.220063 -0.05896505
0.2684362 -0.31113464 -0.20423646 -0.14828444 0.5460393 0.667815 0.617901 -0.2386738
-0.04536111 0.10833456 -0.15588878 -0.053908374 0.24987741 -0.16830242 -0.46572894 -0.33239016
-0.44615623 -0.16444913 0.48703933 -0.22875716 -0.57775456 -0.27158076 0.18840086 -0.43558785
-0.3125784 0.008999025 0.22764778 0.340253 0.46537104 -0.30906507 -0.074413754 0.14447631
-0.5378732 0.16119808 0.30598482 -0.14177015 0.24384032 -0.6780024 0.23742954 -0.33768174
-0.96139866 -0.14297757 -0.8212025 -0.87154925 -0.15392523 0.118279666 0.9954815 0.23704861
-0.31148648 -0.2605042 0.17019325 -0.23832518 -0.71660846 -0.23936886 0.4106384 0.115315266
-0.3159672 0.690877 0.7730883 -0.59275043 0.19748735 0.048638154 -0.14425853 0.3314358
-0.5290363 -0.24447405 -0.44321525 -0.68227017 -0.019987978 0.3622337 -0.30968392 0.2023902
0.7653075 -0.4134116 -0.31992164 0.50932795 0.6326703 0.23054911 -0.26291403 0.31352177
0.0022907257 0.22912385 -0.15932882 0.023216307 0.36057705 -0.30500102 -0.3011371 -0.31183094
0.11168865 -0.09959402 0.05963304 -0.4677496 -0.4760093 -0.4654183 0.15858565 0.46989393
00000000: 38c1 4fbe 71b1 38be 8fc3 48bf 9b0c a33d
00000010: 2ddf d4bd cbc1 fd3d a440 0e3e b615 fabe
00000020: a7ad 24be 4261 163d a1af c53c 21dd 0e3e
00000030: b0bf 3d3c 0389 d1be f52b 3dbe 4cc9 133e
00000040: 8606 afbd 244a aa3e 0de4 0cbe b69b b33e
00000050: c755 da3d b4cc c83e 65e7 d43e 9f5d 9dbd
00000060: c718 96bd 1de9 93be a001 283f 0a00 60bf
00000070: 40b9 21bf 87ef 45be 52ae 1ebe b7a8 f9bd
00000080: 0a5b 0e3e e4c5 473f b169 cebe 0daf 3ebe
00000090: ce3e 38be c611 90bd 9837 593e c1ce 8cbe
000000a0: 7170 75bf 7490 7abe fd47 663f 7dbb 55bf
000000b0: 9f8e 6cbe 618d db3e 9e29 a93d af4c 283e
000000c0: db34 333d ef06 893e 17b0 243e 6a91 433e
000000d0: ec2c 82be 4213 613e 63a9 233e b2eb c63e
000000e0: fb91 03be 2b37 c2be bb09 6abe d4b0 8d3c
000000f0: 45d8 c03e 4a4d 88be 3a7a 1ebd 63d8 fb3e
00000100: 55c6 4d3e 047d 643d ab91 b83e 49c7 00bd
00000110: 0da3 89be b0bd 73bd 49fc d63e a435 dc3e
00000120: 18d5 ebbe 5d0f bc3c 6101 253e 43be 74be
00000130: a22f f4bc 3f9e d8be 79b8 dc3e 9d9a 013f
00000140: d3a9 d43e e73f 13be 02cf f23e 4183 eb3d
00000150: 33a4 d33e 30ee 0ebf 144b aa3e 84f1 633e
00000160: 30d5 7f3e 1136 96be f25c c1be d7a5 00bf
00000170: 5c12 0cbf e349 2e3f e6bf fd3e 2aa9 813f
00000180: c1a3 4dbe 9bba 46be 0a68 70be d2ae 323e
00000190: 5738 c13e 69d0 4e3e 63b5 b53e ff35 71be
000001a0: 3a53 49bd 932c f5be 263e 843e 5b77 8cbe
000001b0: d8f9 7dbe 795e e3bc 377a c53e 7945 5abe
000001c0: 1d38 a6bc 33b1 243e 5b83 913e e40f 7ebe
000001d0: 1587 f0bc 88f2 0e3f 2307 16be 7676 223e
000001e0: c90c 58be 885b 85bf e7e2 403e f0bf febe
000001f0: f3b6 163e bac9 45be 621a 8f3e 33a9 6ebe
00000200: 2258 25be ca16 f3be 1009 063f 68ea d23d
00000210: 7a26 c63d 7478 d03e a135 703e 162e 91bd
00000220: 7337 7cbe ba0d 093f f66d 06bf 0039 e5bb
00000230: 2276 aebe 2d73 2d3e 5777 fb3c 91b1 e7be
00000240: 30ae 79be 6b2c 2e3f 5dd1 8b3d 6705 643d
00000250: 6ea2 ccbe 2cb6 edbe c604 6d3d 0d30 b83d
00000260: af98 5fbe 17fa 8cbe 5119 203e ca7f 1fbf
00000270: 8285 bdbe b6ed 963e 3258 613e 5685 71bd
00000280: 7870 893e 0a4d 9fbe 5d23 51be e0d7 17be
00000290: 3bc9 0b3f edf5 2a3f c32e 1e3f e866 74be
000002a0: 92cc 39bd 83de dd3d 4fa1 1fbe 07cf 5cbd
000002b0: dddf 7f3e 7857 2cbe 0674 eebe 0b2f aabe
000002c0: 976e e4be 5a65 28be 385d f93e 513f 6abe
000002d0: b9e7 13bf a20c 8bbe 28ec 403e 5f05 dfbe
000002e0: 470a a0be a670 133c 801c 693e a435 ae3e
000002f0: 1d45 ee3e c73d 9ebe 3d66 98bd 99f1 133e
00000300: 0fb2 09bf 1c11 253e 0baa 9c3e 322c 11be
00000310: 47b1 793e 9191 2dbf bb20 733e 9fe4 acbe
00000320: 391e 76bf b668 12be 543a 52bf da1d 5fbf
00000330: 939e 1dbe 9c3c f23d e0d7 7e3f dfbc 723e
00000340: 287b 9fbe ce60 85be 2447 2e3e 840b 74be
00000350: a773 37bf 1c1d 75be 323f d23e 692a ec3d
00000360: 74c6 a1be 51dd 303f 1de9 453f 7ebe 17bf
00000370: 203a 4a3e cd38 473d 82b8 13be f4b1 a93e
00000380: ec6e 07bf 6857 7abe 1ced e2be 42a9 2ebf
00000390: d4bd a3bc b276 b93e e48e 9ebe 603f 4f3e
000003a0: 31eb 433f afaa d3be c5cc a3be 5163 023f
000003b0: aef6 213f 1115 6c3e ab9c 86be ed85 a03e
000003c0: 0020 163b 719f 6a3e 1827 23be 2030 be3c
000003d0: 8e9d b83e 1829 9cbe a42e 9abe 4ea8 9fbe
000003e0: 05bd e43d f3f7 cbbd c641 743d e07c efbe
000003f0: 7eb7 f3be 4f4b eebe 4764 223e f095 f03e

model.block2.2.weight f4 [16]
1.0018618 1.0153515 1.006141 1.0048158 1.0062059 1.0022614 0.9900887 0.9892557
0.996047 1.014711 1.0123969 0.99120736 1.0013223 1.0118146 1.0058796 1.004453
00000000: 023d 803f 0af7 813f 3ac9 803f ce9d 803f
00000010: 5bcb 803f 1a4a 803f 7476 7d3f dd3f 7d3f
00000020: f0fc 7e3f 0de2 813f 3996 813f c4bf 7d3f
00000030: 542b 803f 2483 813f aac0 803f ea91 803f

model.block2.2.bias f4 [16]
0.0019469544 0.0067293514 0.0006421657 -0.0021411537 0.0026446248 -0.00030455313 -0.0013127903 -0.0043258863
-0.00053787243 0.006007916 -0.0025396312 -0.0012510772 -0.00062235474 0.0067984452 0.00056598446 -0.0021537126
00000000: f330 ff3a e481 dc3b 0357 283a 9952 0cbb
00000010: 7151 2d3b 6eac 9fb9 ef11 acba 2ac0 8dbb
00000020: 0200 0dba 0dde c43b f16f 26bb 2ffb a3ba
00000030: 8525 23ba 7ec5 de3b 935e 143a 4d25 0dbb

model.block2.2.running_mean f4 [16]
0.081488654 0.13598956 0.101397134 0.005889001 0.044185974 0.084245205 0.043034993 -0.0010005906
-0.029279994 0.01929189 0.034926668 -0.008895843 -0.052837074 0.064581126 -0.03828564 0.07287731
00000000: 86e3 a63d d940 0b3e 4da9 cf3d 85f8 c03b
00000010: 5afc 343d c088 ac3d 7645 303d 4026 83ba
00000020: 99dc efbc 070a 9e3c 440f 0f3d dfbf 11bc
00000030: b06b 58bd 1c43 843d 67d1 1cbd b340 953d

model.block2.2.running_var f4 [16]
0.093285516 0.147455 0.1923472 0.06845648 0.093957104 0.18866016 0.06747017 0.10668591
0.06945756 0.09364869 0.10184157 0.10884922 0.16560188 0.17167816 0.19105037 0.07920412
00000000: 7a0c bf3d 72fe 163e aaf6 443e e932 8c3d
00000010: 956c c03d 2130 413e cd2d 8a3d 247e da3d
00000020: c43f 8e3d e2ca bf3d 5092 d03d 57ec de3d
00000030: 8a93 293e 66cc 2f3e b5a2 433e c535 a23d

model.classifier.weight f4 [1, 64]
-0.42146426 -0.16560443 -0.056537755 -0.20362665 0.0854498 0.08813473 -0.0046640136 -0.07927496
0.34730837 -0.0770629 -0.21252872 -0.08925857 -0.013930845 0.33560196 -0.023259128 -0.15563048
0.21523768 0.26300395 -0.0452563 -0.0013359707 0.21667537 0.08373688 0.013123808 0.11076161
-0.08371299 -0.012880325 -0.2023522 0.030451495 0.1517865 -0.21138155 0.07216981 0.24912827
-0.19669293 0.13824865 -0.29580036 -0.017406719 0.1152113 -0.037218887 -0.09555993 0.084729984
-0.06599684 0.077737726 0.042094294 -0.09807299 -0.18385378 -0.08029383 0.1416441 -0.09954651
0.3583404 0.046820316 -0.19696942 0.18072031 0.13253705 0.120915435 -0.30814254 0.34414825
-0.105418265 -0.32190213 0.003816724 -0.22222959 -0.14581476 0.019419609 0.044089496 -0.11748873
00000000: 2aca d7be 3594 29be 2294 67bd 8183 50be
00000010: 4e00 af3d fb7f b43d 95d4 98bb e95a a2bd
00000020: 67d2 b13e 27d3 9dbd 21a1 59be 32cd b6bd
00000030: 333e 64bc 05d4 ab3e ed89 bebc 995d 1fbe
00000040: 4467 5c3e 74a8 863e ac5e 39bd bd1b afba
00000050: 26e0 5d3e 3e7e ab3d 3e05 573c fcd6 e23d
00000060: b771 abbd 0008 53bc 6a35 4fbe 6a75 f93c
00000070: ec6d 1b3e 6874 58be c4cd 933d 7b1b 7f3e
00000080: df69 49be 0e91 0d3e 2573 97be 8998 8ebc
00000090: e7f3 eb3d d572 18bd edb4 c3bd ea86 ad3d
000000a0: 5a29 87bd f534 9f3d 116b 2c3d 7eda c8bd
000000b0: 2a44 3cbe 1771 a4bd 270b 113e 0adf cbbd
000000c0: 6578 b73e a9c6 3f3d 5ab2 49be bf0e 393e
000000d0: cbb7 073e 83a2 f73d dcc4 9dbe 3334 b03e
000000e0: 88e5 d7bd 5bd0 a4be 0122 7a3b 2790 63be
000000f0: 7750 15be df15 9f3c 3097 343d ee9d f0bd

exp_avg f4 [8, 1, 1, 64]
-0.0038780095 -0.0030283416 -0.0033338242 -0.003695705 -0.001138942 0.0027128903 0.0021119094 -0.0013214058
-0.0023099938 0.0027012746 0.007833772 0.010089742 0.011121931 0.015904466 0.021060206 0.027330132
0.031928584 0.03230907 0.03099815 0.030650562 0.03389359 0.034752943 0.0333198 0.033018555
0.03324059 0.028810058 0.025361331 0.025517715 0.024891188 0.021255847 0.019806556 0.02012589
0.020467576 0.021448333 0.02139035 0.02149342 0.019308938 0.01531937 0.0146073755 0.015226324
0.012066739 0.009904769 0.014133631 0.01786658 0.015480514 0.012460152 0.012097445 0.011152348
0.009877673 0.0108753685 0.010369061 0.005045473 0.0014962092 0.0019460206 -0.0007565578 -0.005211267
-0.0055533824 -0.0085148625 -0.017526988 -0.020547912 -0.014518474 -0.008966203 -0.0071414523 -0.005130237
-0.053325906 -0.04991958 -0.04614808 -0.042710178 -0.040058628 -0.03893691 -0.03598268 -0.029024329
-0.020238677 -0.016320206 -0.016137585 -0.016398046 -0.01831891 -0.018809775 -0.014371763 -0.007995777
-0.0012523138 0.0053674495 0.0091578085 0.01003919 0.011937562 0.014601136 0.01579262 0.015825108
0.015389372 0.015637644 0.01845597 0.023238093 0.027833229 0.03225782 0.035816375 0.037971288
0.03902875 0.03808145 0.037149403 0.03619867 0.034857277 0.02991891 0.020490216 0.011729588
0.0053982884 -9.5759046e-05 -0.0066431155 -0.00980087 -0.009757889 -0.010286047 -0.013240525 -0.016839396
-0.018922493 -0.017082626 -0.012990259 -0.011814275 -0.013283242 -0.013759894 -0.014890081 -0.01822789
-0.021741066 -0.022982743 -0.023708234 -0.024505895 -0.023533866 -0.021353533 -0.020058895 -0.02348422
0.013304101 0.012802954 0.011612292 0.011498453 0.012014701 0.012028685 0.012139278 0.012427147
0.01218888 0.011867463 0.012560316 0.013246283 0.013472985 0.014503141 0.016484113 0.017513009
0.016890405 0.015995106 0.01564388 0.015067302 0.014557118 0.013228942 0.011528786 0.009583078
0.007200868 0.0049286275 0.002873809 0.000379731 -0.0027205725 -0.00436318 -0.006248636 -0.009362036
-0.012567336 -0.014107956 -0.013861144 -0.013754541 -0.013837585 -0.0137432935 -0.013260236 -0.011454953
-0.008403973 -0.0055590514 -0.0030773508 -0.0005446481 0.0010572005 0.00095958397 0.00020076829 -8.776001e-05
0.0007692851 0.0019391569 0.0017707575 0.00085188384 0.00028600858 -0.00114467 -0.003521091 -0.004688794
-0.004543507 -0.0042229192 -0.0041395593 -0.0041953316 -0.0035830983 -0.0019907006 -0.00054266077 0.00019857835
-0.009984165 -0.004951785 0.0031142684 0.010223709 0.013812889 0.012999763 0.010136203 0.009951408
0.012317313 0.01393028 0.014739098 0.017330935 0.021728465 0.022965739 0.020699857 0.018367153
0.016019646 0.015650019 0.020541202 0.024103278 0.023309244 0.024075424 0.027961787 0.027633589
0.024191886 0.027817756 0.03436595 0.028469497 0.013916553 0.004113019 -1.3061946e-05 0.001594471
0.0064830426 0.008229968 0.007879771 0.0075270603 0.010642828 0.01419254 0.01045549 0.0022211212
-0.0030255879 -0.0058066524 -0.0037552437 0.0034119377 0.0074064834 0.0047952696 0.0024465523 0.004891138
0.0069517028 0.006192324 0.0077363253 0.01159881 0.013205125 0.012168984 0.011144571 0.011453781
0.009183068 0.0060590766 0.008171455 0.011718438 0.014815643 0.020826528 0.022696195 0.017654937
00000000: 3426 7ebb 2477 46bb 4a7c 5abb a433 72bb
00000010: 8d48 95ba bfca 313b f667 0a3b 0533 adba
00000020: 4463 17bb de07 313b 3959 003c 724f 253c
00000030: c238 363c 154a 823c 7486 ac3c 71e3 df3c
00000040: 8cc7 023d 8456 043d d5ef fd3c e316 fb3c
00000050: 01d4 0a3d 1a59 0e3d 587a 083d 773e 073d
00000060: 4927 083d 1203 ec3c 91c2 cf3c 870a d13c
00000070: 9be8 cb3c be20 ae3c 5c41 a23c 0ddf a43c
00000080: 9eab a73c 6ab4 af3c d13a af3c f812 b03c
00000090: c72d 9e3c 18fe 7a3c c653 6f3c d577 793c
000000a0: 92b3 453c 9d47 223c bf90 673c ef5c 923c
000000b0: fba1 7d3c aa25 4c3c 5d34 463c 56b8 363c
000000c0: f7d5 213c 9a2e 323c fee2 293c 7f54 a53b
000000d0: 731c c43a 9e11 ff3a bc53 46ba 47c3 aabb
000000e0: 26f9 b5bb ec81 0bbc c294 8fbc 1854 a8bc
000000f0: e5de 6dbc fbe6 12bc d802 eabb 8c1b a8bb
00000100: 446c 5abd 7978 4cbd c505 3dbd def0 2ebd
00000110: 8414 24bd 4f7c 1fbd 9362 13bd 6ec4 edbc
00000120: 95cb a5bc f4b1 85bc f832 84bc 3255 86bc
00000130: 8a11 96bc f516 9abc 8b77 6bbc b800 03bc
00000140: ae24 a4ba 6ee1 af3b a20a 163c 6a7b 243c
00000150: c495 433c 9a39 6f3c 865f 813c a8a3 813c
00000160: b423 7c3c 841a 803c f930 973c d05d be3c
00000170: 8302 e43c c720 043d 31b4 123d c887 1b3d
00000180: 9cdc 1f3d 4bfb 1b3d f929 183d 0e45 143d
00000190: 81c6 0e3d 8018 f53c 19db a73c 752d 403c
000001a0: 20e4 b03b 3fd2 c8b8 7eae d9bb d493 20bc
000001b0: 8edf 1fbc cf86 28bc c9ee 58bc c6f2 89bc
000001c0: 5803 9bbc ddf0 8bbc 18d5 54bc a990 41bc
000001d0: f4a1 59bc 2e71 61bc 87f5 73bc a852 95bc
000001e0: 521a b2bc 4e46 bcbc c537 c2bc 96c0 c8bc
000001f0: 18ca c0bc 9bed aebc 8d52 a4bc fb61 c0bc
00000200: 72f9 593c 7bc3 513c 7c41 3e3c 0264 3c3c
00000210: 4fd9 443c f613 453c d3e3 463c 3b9b 4b3c
00000220: deb3 473c bf6f 423c c9c9 4d3c f006 593c
00000230: cbbd 5c3c 959e 6d3c b109 873c 7177 8f3c
00000240: bf5d 8a3c 2b08 833c 9827 803c d8dc 763c
00000250: fa80 6e3c 34be 583c 3ce3 3c3c 5802 1d3c
00000260: 42f5 eb3b 5380 a13b 8456 3c3b a216 c739
00000270: a24b 32bb 02f9 8ebb 5cc1 ccbb 3a63 19bc
00000280: 3ae7 4dbc 0e25 67bc da19 63bc ba5a 61bc
00000290: 0ab7 62bc 8d2b 61bc 7641 59bc 8ead 3bbc
000002a0: d1b0 09bc b428 b6bb 61ad 49bb b7c6 0eba
000002b0: c391 8a3a 978c 7b3a 5485 5239 cc0b b8b8
000002c0: d9a9 493a 4f2b fe3a c318 e83a f550 5f3a
000002d0: 6cf3 9539 c008 96ba 1bc2 66bb 74a4 99bb
000002e0: b3e1 94bb 6a60 8abb 24a5 87bb fe78 89bb
000002f0: 6ad2 6abb 6a76 02bb 5941 0eba 7839 5039
00000300: a094 23bc 9542 a2bb c118 4c3b 5881 273c
00000310: 754f 623c f5fc 543c 5112 263c 3b0b 233c
00000320: 8ece 493c d43b 643c 427c 713c 9bf9 8d3c
00000330: e5ff b13c a522 bc3c bf92 a93c b676 963c
00000340: a23b 833c 7834 803c 0646 a83c 3d74 c53c
00000350: 07f3 be3c d339 c53c 1e10 e53c d65f e23c
00000360: 102e c63c 10e2 e33c 4fc3 0c3d dd38 e93c
00000370: 4102 643c 81c6 863b a224 5bb7 92fd d03a
00000380: b46f d43b fdd6 063c 281a 013c 8fa5 f63b
00000390: 425f 2e3c d487 683c 814d 2b3c 3b90 113b
000003a0: f148 46bb bb45 bebb 891a 76bb d19a 5f3b
000003b0: 16b2 f23b a321 9d3b 5656 203b d745 a03b
000003c0: 1ccb e33b fbe8 ca3b 0081 fd3b ef08 3e3c
000003d0: 4f5a 583c 6b60 473c b897 363c a4a8 3b3c
000003e0: 9474 163c 388b c63b 91e1 053c b1fe 3f3c
000003f0: 50bd 723c 659c aa3c 5fed b93c 16a1 903c

exp_avg_sq f4 [8, 1, 1, 64]
1.6350114e-05 1.4725721e-05 1.3894501e-05 1.3878909e-05 1.26929635e-05 1.114898e-05 1.080033e-05 1.1658834e-05
1.3801708e-05 1.4459272e-05 1.7941566e-05 2.248305e-05 2.6242536e-05 3.4469616e-05 4.4434968e-05 5.8286845e-05
7.2481685e-05 7.661993e-05 7.618927e-05 8.093591e-05 9.3777104e-05 9.205314e-05 8.647201e-05 8.726715e-05
8.8796456e-05 7.994716e-05 7.3873016e-05 7.217194e-05 7.1509654e-05 7.0372334e-05 7.153696e-05 6.8584406e-05
6.706062e-05 6.985952e-05 6.500938e-05 5.6109293e-05 5.0106566e-05 4.5106543e-05 4.2263862e-05 4.523401e-05
4.586608e-05 3.8548613e-05 3.4557648e-05 3.771975e-05 3.343012e-05 2.6861166e-05 2.6880556e-05 3.1356754e-05
3.449728e-05 4.150758e-05 4.9741666e-05 4.717502e-05 4.549883e-05 5.2231702e-05 5.3962423e-05 5.1521547e-05
5.3717627e-05 5.661122e-05 6.259359e-05 7.19981e-05 7.635652e-05 7.992767e-05 8.31699e-05 8.533659e-05
0.00037484756 0.00036974926 0.0003612797 0.00036371697 0.00035782086 0.0003333102 0.00030866297 0.00029341094
0.00028293394 0.00028401267 0.00029033716 0.00030197902 0.000324579 0.0003450984 0.00036095758 0.0003746144
0.00039465996 0.00041308856 0.00041926446 0.00039944123 0.0003648091 0.00033255 0.0003010331 0.00026895772
0.0002558455 0.00024911063 0.00024181345 0.00025106416 0.00027375613 0.0002889437 0.0002966002 0.00029713722
0.00028515208 0.00025982477 0.00022532084 0.00018652328 0.00015238814 0.000118547796 8.179321e-05 5.5904908e-05
4.1336385e-05 3.237203e-05 2.9534152e-05 3.1134703e-05 3.249491e-05 3.3797605e-05 3.7645015e-05 4.375827e-05
4.9112503e-05 5.2932653e-05 6.235456e-05 7.6607874e-05 9.372481e-05 0.00011964453 0.00015225197 0.00018760013
0.00023286007 0.00028077615 0.00031825158 0.00034956462 0.0003756678 0.00039336568 0.00040152908 0.00040589194
1.0239111e-05 9.86084e-06 9.477424e-06 1.0035907e-05 1.0939064e-05 1.130978e-05 1.1937463e-05 1.3153801e-05
1.3837732e-05 1.3908434e-05 1.5247259e-05 1.732608e-05 1.8464265e-05 1.9945703e-05 2.268203e-05 2.3947574e-05
2.241267e-05 2.0514519e-05 1.9068633e-05 1.6497017e-05 1.4367967e-05 1.1911758e-05 9.335466e-06 7.080931e-06
5.416998e-06 4.250163e-06 3.740597e-06 3.4937943e-06 3.6946276e-06 4.2428655e-06 5.390844e-06 7.293542e-06
9.550231e-06 1.0776848e-05 1.0480167e-05 1.0137576e-05 1.0086668e-05 1.00986745e-05 9.185099e-06 6.5781264e-06
3.94504e-06 2.6084376e-06 2.0747784e-06 2.305438e-06 2.8519976e-06 2.9723608e-06 3.2631501e-06 4.200343e-06
5.3098456e-06 6.1656037e-06 7.443677e-06 8.894676e-06 9.972423e-06 1.0944568e-05 1.1908005e-05 1.2804493e-05
1.3039401e-05 1.3359577e-05 1.34156735e-05 1.3362359e-05 1.2850284e-05 1.2794317e-05 1.227213e-05 1.0827086e-05
5.550781e-05 5.6214565e-05 6.701078e-05 9.053153e-05 0.00011533349 0.00011852221 0.00011557976 0.00012870705
0.00014091327 0.00013947532 0.0001342155 0.00013430379 0.00014917627 0.00016148234 0.0001596601 0.00016137377
0.0001663316 0.00016800546 0.0001943597 0.00022830364 0.0002296275 0.0002223932 0.00021884324 0.00018413093
0.00014209993 0.00014949225 0.0001768971 0.00014514067 9.5945354e-05 7.2535375e-05 5.9026e-05 6.065477e-05
7.817574e-05 8.679488e-05 8.7244895e-05 8.373369e-05 7.483335e-05 6.755536e-05 5.889943e-05 5.822811e-05
7.059468e-05 8.695192e-05 0.00010623777 0.00011816422 0.0001082953 9.899567e-05 0.00011254943 0.00013623158
0.00016412507 0.0001997896 0.00022538174 0.00023407671 0.00023923509 0.00023661707 0.00023884352 0.00025163483
0.00026712668 0.00028411552 0.0003053651 0.00032396306 0.00033461023 0.0003371973 0.00033759698 0.00034009243
00000000: 9a27 8937 7d0e 7737 6d1c 6937 76d9 6837
00000010: ddf3 5437 810c 3b37 1033 3537 509a 4337
00000020: e28d 6737 1a96 7237 3881 9637 fb99 bc37
00000030: 6b23 dc37 7893 1038 af5f 3a38 0679 7438
00000040: 4f01 9838 03af a038 cec7 9f38 23bc a938
00000050: 33aa c438 a70c c138 4f58 b538 3203 b738
00000060: 3c38 ba38 4ea9 a738 46ec 9a38 045b 9738
00000070: 74f7 9538 dc94 9338 1d06 9638 f9d4 8f38
00000080: e5a2 8c38 8b81 9238 a555 8838 e556 6b38
00000090: 8429 5238 c830 3d38 7a44 3138 a6b9 3d38
000000a0: 5460 4038 42af 2138 fef1 1038 4635 1e38
000000b0: 5137 0c38 ea53 e137 8e7d e137 0f85 0338
000000c0: 2cb1 1038 6d18 2e38 b5a1 5038 cbdd 4538
000000d0: ffd5 3e38 5d13 5b38 b655 6238 d718 5838
000000e0: dd4e 6138 d671 6d38 ae44 8338 b0fd 9638
000000f0: 9821 a038 d79e a738 806b ae38 bcf6 b238
00000100: 3087 c439 e8da c139 246a bd39 44b1 be39
00000110: e799 bb39 23c0 ae39 0bd4 a139 f3d4 9939
00000120: c056 9439 89e7 9439 6538 9839 f052 9e39
00000130: 422c aa39 53ee b439 e83e bd39 e567 c439
00000140: 5dea ce39 cf93 d839 b9d0 db39 186c d139
00000150: d943 bf39 1b5a ae39 fbd3 9d39 e502 8d39
00000160: 0023 8639 109b 8239 4e8f 7d39 43a1 8339
00000170: ed86 8f39 5e7d 9739 0181 9b39 15c9 9b39
00000180: 7780 9539 1739 8839 1a44 6c39 7695 4339
00000190: 61ca 1f39 dd9c f838 6588 ab38 707b 6a38
000001a0: 9b60 2d38 34c7 0738 1cc0 f737 a296 0238
000001b0: 254b 0838 e7c1 0d38 07e5 1d38 1689 3738
000001c0: 26fe 4d38 0104 5e38 59c4 8238 8aa8 a038
000001d0: 208e c438 abe9 fa38 d4a5 1f39 87b6 4439
000001e0: e62b 7439 2335 9339 01db a639 c545 b739
000001f0: 47f5 c439 a63c ce39 5284 d239 e5cd d439
00000200: a6c8 2b37 fc6f 2537 3a01 1f37 e45f 2837
00000210: ec86 3737 23bf 3d37 0347 4837 25af 5c37
00000220: 9b28 6837 4558 6937 7bce 7f37 7957 9137
00000230: b5e3 9a37 1251 a737 4a45 be37 06e3 c837
00000240: d802 bc37 9816 ac37 94f5 9f37 1363 8a37
00000250: f30d 7137 9cd8 4737 859f 1c37 bc98 ed36
00000260: a9c3 b536 9f9c 8e36 f806 7b36 ee76 6a36
00000270: 38f1 7736 f05d 8e36 ffe2 b436 0cbb f436
00000280: ee39 2037 36ce 3437 f9d3 2f37 8f14 2a37
00000290: e939 2937 7a6d 2937 b319 1a37 adb9 dc36
000002a0: a35f 8436 9e0c 2f36 6c3c 0b36 20b7 1a36
000002b0: f264 3f36 c578 4736 7efc 5a36 acf0 8c36
000002c0: 3a2b b236 22e2 ce36 b3c4 f936 583a 1537
000002d0: 3b4f 2737 909e 3737 7ec8 4737 e1d2 5637
000002e0: cdc3 5a37 f222 6037 e113 6137 e52e 6037
000002f0: 8d97 5737 2ca7 5637 66e4 4d37 fba5 3537
00000300: 0fd1 6838 eec7 6b38 2388 8c38 bfdb bd38
00000310: 32df f138 218f f838 6963 f238 89f5 0639
00000320: 1ec2 1339 1f40 1239 33bc 0c39 e6d3 0c39
00000330: 336c 1c39 9653 2939 6f6a 2739 7136 2939
00000340: 4d69 2e39 9f2a 3039 09cd 4b39 cb64 6f39
00000350: 2ac8 7039 3832 6939 4979 6539 4513 4139
00000360: a900 1539 05c1 1c39 747d 3939 e730 1839
00000370: 4536 c938 221e 9838 af92 7738 9067 7e38
00000380: 48f2 a338 a505 b638 3ff7 b638 2f9a af38
00000390: d9ef 9c38 82ac 8d38 c80a 7738 f539 7438
000003a0: 3b0c 9438 f559 b638 f8cb de38 efce f738
000003b0: 991c e338 e59b cf38 8408 ec38 63d9 0e39
000003c0: fd18 2c39 9d7e 5139 7354 6c39 7d72 7539
000003d0: 2edb 7a39 691c 7839 1272 7a39 dbed 8339
000003e0: 230d 8c39 57f5 9439 6919 a039 96d9 a939
000003f0: a06e af39 dbc9 b039 80ff b039 6f4e b239

exp_avg f4 [8]
-8.62341e-06 2.5711554e-07 4.221751e-06 -8.274956e-06 1.087667e-06 7.25374e-07 -2.6869775e-06 3.8641822e-08
00000000: 44ad 10b7 b109 8a34 91a8 8d36 aad4 0ab7
00000010: f4fb 9135 52b7 4235 ec51 34b6 22f7 2533

exp_avg_sq f4 [8]
6.277891e-12 2.5253532e-14 1.7886794e-12 5.6131918e-12 5.854272e-13 4.659159e-13 1.6855947e-12 1.5085716e-14
00000000: 37e2 dc2c ae76 e328 f8bb fb2b 237f c52c
00000010: 7ac8 242b c724 032b f339 ed2b 4be1 8728

exp_avg f4 [8]
-3.572573e-09 6.621138e-10 -3.3786338e-10 5.7597965e-10 -9.604921e-10 5.6535937e-10 9.232862e-11 -8.15617e-10
00000000: 5e81 75b1 1e00 3630 0bbe b9af f752 1e30
00000010: 5002 84b0 a167 1b30 6408 cb2e f231 60b0

exp_avg_sq f4 [8]
4.1157186e-18 2.2905514e-18 4.091346e-19 1.5031848e-18 5.8655413e-19 9.643129e-19 6.6438025e-19 4.3404905e-18
00000000: ddd7 9722 4b03 2922 ac82 f120 b7d4 dd21
00000010: c71e 2d21 b64e 8e21 2717 4421 c622 a022
