checkpoints/best_model-v7.ckpt (torch, 37554 bytes, 39 tensors)

model.block1.0.weight f4 [8, 1, 1, 64]
0	0x3dbe7d60	0.09301257
1	0x3b91daad	0.004451117
2	0xbd03f234	-0.032213405
3	0xbd84ed63	-0.064905904
4	0xbdb5da39	-0.08879513
5	0x3d743acd	0.05962639
6	0x3cdb544f	0.0267736
7	0xbd003a88	-0.03130582
8	0xbe6581a6	-0.22412738
9	0x3c93e98f	0.018055705
10	0x3c7ef3f5	0.015561094
11	0x3d1db8ab	0.03850619
12	0xbe02daa7	-0.12778722
13	0xbbadcb8e	-0.0053038066
14	0xbd3b811a	-0.045777418
15	0xbd46079a	-0.048347093
16	0x3dd21f13	0.10259833
17	0xbc0bba91	-0.008528368
18	0x3c5d890b	0.013521443
19	0xbd9c7f8c	-0.07641515
20	0x3d1e3893	0.038628172
21	0x3d8c8524	0.06861332
22	0xbcb5ade3	-0.022177642
23	0xbd39fc4c	-0.045406625
24	0xbd31962b	-0.043356102
25	0x3d3b2438	0.045688838
26	0xbe00f50a	-0.12593475
27	0xbc71448a	-0.014725814
28	0xbd0c779f	-0.034293767
29	0xbd8351a0	-0.06412053
30	0xbd04eb85	-0.03245117
31	0xbde90b50	-0.11379111
32	0x3dbe63ef	0.092964046
33	0x3c441a8f	0.011969223
34	0x3cda38c0	0.026638389
35	0x3d4d63b4	0.050143912
36	0xbcd93f55	-0.026519457
37	0xbac15f34	-0.0014753104
38	0xbd9c24c3	-0.07624199
39	0xbbe48efe	-0.006975054
40	0xbaefc01b	-0.0018291505
41	0x3c17d9bd	0.009268221
42	0x3d6c4c32	0.057689853
43	0x3dbab56e	0.09116636
44	0xbcdf95ec	-0.027293168
45	0xbd2618af	-0.040550884
46	0xbd51166a	-0.051046766
47	0x3d5709e1	0.052499656
48	0xbdd89f51	-0.10577262
49	0xbd19da18	-0.037561506
50	0x3de9ade0	0.11410117
51	0xbd08ba00	-0.03338051
52	0xbd626cb9	-0.055279467
53	0xbd3a3ff6	-0.045471154
54	0xbd095dd7	-0.03353676
55	0xbd0ca407	-0.034336116
56	0x3b6e3070	0.003634479
57	0x3d4285e9	0.047490988
58	0xbe04d010	-0.12969995
59	0xbdb3f80a	-0.08787544
60	0xbca49d60	-0.020094573
61	0x3b4b456d	0.0031016723
62	0xbd167be8	-0.03673926
63	0x3c1c64cb	0.009545515
64	0xbd49eb3f	-0.049296614
65	0x3c7f2694	0.015573163
66	0x3cb25266	0.021767806
67	0x3b3105d9	0.0027011542
68	0xbb9492f7	-0.004534121
69	0xbdb8c095	-0.09021107
70	0x3c1082b4	0.008820225
71	0xbdcdc7d1	-0.100478776
72	0x3dce6693	0.10078158
73	0x3db3128c	0.08743772
74	0x3d09bf8b	0.033629935
75	0xbd61c1fc	-0.05511664
76	0xbd9818f6	-0.07426636
77	0xbcdfce5b	-0.027320078
78	0x3dea3261	0.1143539
79	0xbd4b9c49	-0.049709592
80	0x3d16dd19	0.03683195
81	0xbd2c68de	-0.042092197
82	0x3cc48354	0.023988403
83	0x3dc14d4c	0.09438571
84	0x3cc3e2f0	0.023911923
85	0x3d4130e8	0.04716578
86	0x3d175bc3	0.036952745
87	0x3ca9bf31	0.02072105
88	0x3bb2cec0	0.0054567754
89	0xbcce207e	-0.025161978
90	0xbaffce67	-0.0019516469
91	0xbde45771	-0.111494906
92	0x3dc1bcf8	0.09459871
93	0xbd91301a	-0.07089253
94	0xbb5a667f	-0.0033325253
95	0x3d24a895	0.040199835
96	0xbcbf1b86	-0.023328554
97	0xbd17e54a	-0.0370839
98	0xbd1a01b6	-0.037599288
99	0x3d4e290a	0.050332107
100	0xbddce204	-0.107852966
101	0x3dabba38	0.08385128
102	0x3a0d7b22	0.00053970714
103	0xbdb0353b	-0.08603903
104	0x3ddc5bb2	0.10759677
105	0x3dc0fc77	0.09423154
106	0xbcbe0535	-0.023195842
107	0x3dccb689	0.09995753
108	0xbe450821	-0.19241382
109	0x3dd1f11a	0.102510646
110	0x3c8a2735	0.016864398
111	0x3dc06d85	0.09395889
112	0x3e114b32	0.14188841
113	0xbd5cc570	-0.05389923
114	0xbc68d870	-0.014211759
115	0x3d301446	0.042988084
116	0x3d831e6c	0.06402287
117	0xbc659de1	-0.014014692
118	0x3d7b4503	0.06134511
119	0x3ce76c79	0.028249966
120	0x3d7ef3bb	0.06224416
121	0x3cf6eef4	0.030143239
122	0xbd290e4e	-0.041273408
123	0x3da0714b	0.07834109
124	0xbd7fe0d4	-0.062470272
125	0x3d615e39	0.0550215
126	0xbdb4b6c4	-0.08823922
127	0xbdf6fa68	-0.1205948
128	0x3e141c97	0.14464031
129	0xbc7e8eeb	-0.015537004
130	0x3d009968	0.0313963
131	0x3cff34f4	0.03115318
132	0xbcc80543	-0.024416571
133	0xbd12cb0d	-0.035838176
134	0x3c955fae	0.0182341
135	0xbcfd1f09	-0.030898588
136	0x3c147198	0.009060286
137	0x3e0cfb34	0.13767701
138	0x3d668bc9	0.056285653
139	0xbd1905d2	-0.037359066
140	0xbd3368e8	-0.04380122
141	0x3c81d2a7	0.015847517
142	0xbd260ed6	-0.040541492
143	0xbdd76644	-0.105175525
144	0x3dbdd9af	0.092700355
145	0x3d8dc359	0.06922025
146	0xbd3a9739	-0.045554373
147	0xbc07acf4	-0.008280981
148	0x3de0bbc1	0.10973311
149	0x3c38013e	0.011230765
150	0xbccb1acb	-0.02479305
151	0xbcfc55e8	-0.030802682
152	0x3d65c085	0.056091804
153	0x3d1df828	0.03856674
154	0x3d601ad8	0.0547131
155	0xbe05bffe	-0.1306152
156	0x3e09b082	0.13446239
157	0x3d139de8	0.036039263
158	0x3e081fb7	0.13293348
159	0x3d894a23	0.067035936
160	0x3da907a8	0.082534134
161	0xbb85d8b8	-0.004084673
162	0xbd9c020a	-0.076175764
163	0xbc59b693	-0.013288158
164	0x3d914b10	0.07094395
165	0x3ca88e45	0.020575652
166	0x3d8d9f3f	0.069151394
167	0x3dd39657	0.103314094
168	0x3d1480ac	0.036255524
169	0x3d20a146	0.039216302
170	0x3da16a63	0.0788162
171	0x3d44b4d0	0.048024
172	0xbd176f82	-0.036971577
173	0x3d40554b	0.04695634
174	0x3e11d85d	0.14242692
175	0x3d22df31	0.039763633
176	0x3b9dc1e5	0.004814374
177	0x3d46e571	0.048558656
178	0x3c8af7cb	0.01696386
179	0xbd00e973	-0.031472635
180	0xbd3f9445	-0.04677226
181	0x3c52feb1	0.012878106
182	0x3d2ab5e5	0.041677374
183	0xbc0455f6	-0.008077135
184	0xbdc5ecee	-0.096643314
185	0xbd9dfa68	-0.07713777
186	0x3d822007	0.06353765
187	0x3c6510cb	0.013981055
188	0x3d3e179b	0.04640923
189	0xbdc51aac	-0.09624228
190	0xbdf4905b	-0.11941596
191	0xbcef35cf	-0.029200463
192	0xbd4dbde3	-0.05022992
193	0xbd6d2b65	-0.057902712
194	0xbc74d836	-0.014944127
195	0x3cf39765	0.029735276
196	0xbd548a89	-0.05188993
197	0x3b158504	0.002281488
198	0xbd90341c	-0.07041189
199	0xbcfba2d0	-0.030717283
200	0x3d2b28d5	0.041786987
201	0xbd37df82	-0.044890888
202	0xbd5c0938	-0.05371973
203	0xbce40854	-0.027836002
204	0xbd791dbb	-0.06081937
205	0xbc387296	-0.011257788
206	0xbd448db3	-0.047986697
207	0x3b6173ff	0.0034401414
208	0x3bb57570	0.0055376813
209	0xbdd2d2f5	-0.10294143
210	0x3a31cd1c	0.0006782578
211	0x3d09e562	0.033666022
212	0x3a90969a	0.0011031211
213	0x3d4ab46d	0.049488474
214	0x3d5b8bf3	0.053600263
215	0x3d61f899	0.05516872
216	0xbe1d1b96	-0.15342554
217	0x3c71e1fc	0.0147633515
218	0x3d5b3df6	0.053525887
219	0x3b512494	0.0031912671
220	0xbd824245	-0.06360296
221	0xbb24f1ab	-0.002516846
222	0xbd3dbe6f	-0.04632419
223	0xbd7bc826	-0.061470173
224	0x3c988c24	0.018621512
225	0xbcf75561	-0.030192079
226	0x3c8f6ad9	0.017507004
227	0xbc3a8313	-0.01138379
228	0xbd38d7ef	-0.045127805
229	0xb90d0dde	-0.00013451974
230	0x3d8734d6	0.066018745
231	0xbd74bf5a	-0.0597528
232	0xbd4930a4	-0.049118653
233	0xbdddc4b8	-0.10828537
234	0xbcb301ad	-0.021851385
235	0x3d73b4ac	0.059498474
236	0x3ac1bf33	0.0014781713
237	0xbd055090	-0.032547534
238	0xbb7d9979	-0.0038696213
239	0x3be1460e	0.0068748062
240	0x3d53e8e4	0.051735774
241	0xbbdb2f40	-0.0066889822
242	0x3a560902	0.00081647944
243	0xbd3f5348	-0.046710283
244	0xbaa1e2fb	-0.0012350971
245	0x3dc820bb	0.09771868
246	0xbe1378b1	-0.14401509
247	0xbca44fe5	-0.020057628
248	0x3c8e9feb	0.01741024
249	0xbc5b1b09	-0.013373145
250	0x3d16a04c	0.036773965
251	0xbdb6e558	-0.089304626
252	0x3be50e74	0.0069902483
253	0xbb9d17cc	-0.0047940966
254	0x3db05210	0.08609402
255	0xbc81378a	-0.015773553

model.block1.1.weight f4 [8]
0	0x3f818041	1.0117265
1	0x3f7f6d84	0.9977648
2	0x3f7c06b8	0.9844775
3	0x3f827f9e	1.0195196
4	0x3f807aa2	1.0037425
5	0x3f7f6efe	0.99778736
6	0x3f811cfe	1.0086973
7	0x3f7e1966	0.99257505

model.block1.1.bias f4 [8]
0	0xb99010cf	-0.00027478344
1	0xba44128e	-0.00074795715
2	0xbaa44b28	-0.0012534605
3	0x3a7407f2	0.0009309045
4	0xba1a8fa6	-0.0005896039
5	0xb9d861b3	-0.00041271522
6	0xbaceb5c6	-0.0015770725
7	0xbb990d9d	-0.0046708123

model.block1.1.running_mean f4 [8]
0	0x40ca3401	6.318848
1	0xc02f4784	-2.73874
2	0xc0e8cc23	-7.274919
3	0x40ada7ce	5.426734
4	0x40044a0d	2.0670197
5	0xbfbc918f	-1.4731921
6	0x3ffa7738	1.9567633
7	0x406f496e	3.7388568

model.block1.1.running_var f4 [8]
0	0x443a5ae4	745.42017
1	0x43c44440	392.5332
2	0x44c1fb0b	1551.8451
3	0x440bc61f	559.09564
4	0x437e99b9	254.60048
5	0x4396c20d	301.51602
6	0x430f4c38	143.29773
7	0x441b247c	620.57007

model.block1.2.weight f4 [16, 1, 16, 1]
0	0x3da86e0a	0.08224113
1	0x3dc88775	0.097914614
2	0x3d3663e3	0.044528853
3	0xbdb8cb57	-0.09023159
4	0x3d7aabac	0.061198875
5	0x3e7a5f68	0.24450457
6	0xbd2e3536	-0.042531215
7	0x3d6a3c89	0.057186637
8	0xbd99a91f	-0.075029604
9	0x3e0a3530	0.13496852
10	0xbd15fcbf	-0.03661799
11	0x3dc2a18a	0.095034674
12	0x3e044bb0	0.12919497
13	0xbd25c413	-0.040470194
14	0x3cc47607	0.023982061
15	0xbd64956c	-0.055806562
16	0xbe1636eb	-0.14669387
17	0x3cb1bb45	0.021695742
18	0x3dc33924	0.09532383
19	0x3cf87916	0.030331176
20	0xbdba01a7	-0.090823464
21	0xbd598905	-0.053109188
22	0x3da1fbce	0.07909356
23	0xbbff43bd	-0.0077900575
24	0xbd19ee9d	-0.037581075
25	0x3d806ad4	0.06270376
26	0x3cae0e34	0.021247007
27	0xbc9b067b	-0.018923989
28	0xbab48f19	-0.0013775557
29	0x3d352b38	0.04423067
30	0x3dced608	0.10099417
31	0xbd40d5c0	-0.047078848
32	0x3e0f7375	0.14008887
33	0x3e44cb93	0.19218282
34	0x3c95be58	0.01827924
35	0xbdef863b	-0.11695524
36	0xbdf0eff1	-0.11764515
37	0x3d4b09da	0.049569942
38	0xbd5359ba	-0.05159924
39	0xbc873205	-0.016503343
40	0x3e1f7651	0.15572478
41	0x3e1858f6	0.14877686
42	0x3d811de0	0.06304526
43	0xbd305f4c	-0.043059632
44	0xbd72ef83	-0.059310447
45	0x3a1024e2	0.000549866
46	0x3e05fba8	0.1308428
47	0x3e21ffbe	0.15820214
48	0xbe21b4cd	-0.15791626
49	0x3d130869	0.035896692
50	0xbd9ae22d	-0.07562671
51	0xbda4b92b	-0.080431305
52	0xbddd1385	-0.10794739
53	0x3d0ba9af	0.03409737
54	0xbdda012a	-0.10644753
55	0x3ca582f5	0.020204047
56	0x3d649e95	0.055815298
57	0xbe2c5d7b	-0.16832535
58	0x3db5cde4	0.08877161
59	0x3d964cc0	0.07338858
60	0x3d12667d	0.03574227
61	0xbdaf71e3	-0.08566644
62	0x3bc13e8e	0.0058973497
63	0x3d0a03b7	0.03369495
64	0x3db81ceb	0.08989891
65	0x3d2296f3	0.039694738
66	0xbd33bbde	-0.043880336
67	0xbcac6d3c	-0.02104818
68	0xbd93f9fd	-0.07225416
69	0xbd88ce98	-0.0668003
70	0xbcf5c39c	-0.0300005
71	0xbcc5becf	-0.024138836
72	0xbcd48319	-0.025941418
73	0xbd1cb46b	-0.038257997
74	0x3e08ea03	0.13370518
75	0xbdd26900	-0.102739334
76	0x3d7322da	0.05935941
77	0xbbcf30f5	-0.006322975
78	0xbc0d992b	-0.008642475
79	0xbd6d1191	-0.05787808
80	0x3d904897	0.070450954
81	0x3de53b15	0.1119291
82	0x3defa606	0.11701588
83	0x3dddbbf9	0.108268686
84	0xbda38fdb	-0.07986423
85	0xbc4b1e91	-0.012397424
86	0x3d6539d0	0.055963337
87	0xbe2ee2ad	-0.17078657
88	0x3c877fec	0.01654049
89	0x3e843933	0.2582489
90	0x3cb2bb8f	0.02181795
91	0xbd12e548	-0.03586319
92	0x3ba2c9b2	0.0049678916
93	0xbdb939ac	-0.09044203
94	0xbc77a39e	-0.015114693
95	0x3d3b6679	0.045752022
96	0xbca8cbc0	-0.020604968
97	0xbe27ce0a	-0.16387191
98	0xbd23c765	-0.03998508
99	0xbd9516f2	-0.07279767
100	0xbd411c62	-0.04714621
101	0x3dd9962a	0.10624345
102	0x3da64fb7	0.08120673
103	0x3daa9463	0.08329084
104	0x3dad83ea	0.08472426
105	0x3d23ba9a	0.03997288
106	0x3d96bf90	0.073607564
107	0x3dadd481	0.084877975
108	0xbcb04479	-0.021517025
109	0x3b18f050	0.0023336597
110	0x3c4ac6ac	0.012376469
111	0xbdebf7b3	-0.11521854
112	0xbdad8bf3	-0.08473959
113	0xbe60f5c3	-0.2196875
114	0x3cbee8d3	0.023304379
115	0x3d8d101f	0.068878405
116	0x3d5642b7	0.052309718
117	0x3e2e1d26	0.17003307
118	0xbdcf0012	-0.10107435
119	0x3e3e80b5	0.18603785
120	0x3e01e119	0.12683524
121	0xbce83c32	-0.028349016
122	0xbcdb82b2	-0.026795719
123	0xbe295b0d	-0.1653864
124	0xbd57dc0f	-0.0527001
125	0xbd31b14c	-0.043381974
126	0xbe3a30cb	-0.18182676
127	0x3d31e20b	0.043428462
128	0xbd66457d	-0.056218613
129	0xbdafc56c	-0.08582577
130	0x3c1c78b3	0.009550261
131	0xbc353387	-0.011059648
132	0x3d7302bc	0.05932878
133	0x3dbd47e4	0.09242228
134	0xbbf593ad	-0.007494411
135	0xbe084b63	-0.13310008
136	0xbc927367	-0.017877294
137	0x3c3028b3	0.010751891
138	0xbde7d496	-0.113198444
139	0x3db4b25c	0.08823082
140	0x3b5386e5	0.0032276448
141	0x3ced63f7	0.028978331
142	0x3c256ffb	0.010097499
143	0xbd96cb5c	-0.073630065
144	0x393396e0	0.00017126976
145	0x3b809db9	0.003925052
146	0x3e1f8ecb	0.15581815
147	0x3d3e5a14	0.046472624
148	0x3df1f14d	0.118136026
149	0xbcf42056	-0.029800575
150	0xbdeb9da8	-0.1150468
151	0x3ccc3e38	0.024932012
152	0x3c9d4b9b	0.01920109
153	0x3da1abd8	0.07894105
154	0xbc3279e8	-0.0108933225
155	0xbd301f7b	-0.042998772
156	0xbd388b55	-0.045054752
157	0x3d06474a	0.03278283
158	0x3d27ddf7	0.040983167
159	0x3cd53657	0.026026888
160	0x3d36e31b	0.04465018
161	0xbd08f8ae	-0.033440284
162	0xbe880499	-0.26566008
163	0xbb509099	-0.0031824468
164	0x3e160c42	0.14653113
165	0x3dbd315f	0.092379324
166	0xbcaf6ea5	-0.021415064
167	0x3d001a40	0.031275034
168	0xbda32783	-0.07966521
169	0xbda50b50	-0.08058798
170	0xbdf65bcd	-0.12029228
171	0x3bda4df0	0.006662123
172	0xbcc7f02d	-0.024406517
173	0xbdd5142b	-0.10404237
174	0xbc3e84c1	-0.011628331
175	0xbda9cfb0	-0.08291566
176	0x3c9f85e9	0.019473033
177	0xbdfd2937	-0.12361377
178	0x3d12b77e	0.035819523
179	0xbcddae26	-0.02706058
180	0xbd520a03	-0.05127908
181	0x3dd71425	0.10501889
182	0x3d8f4937	0.069963865
183	0x3d6ef5b6	0.058339797
184	0xbc71d67a	-0.014760608
185	0xbd91dac0	-0.071218014
186	0xbb40ba64	-0.0029407972
187	0x3e26cf0c	0.1628992
188	0xbd49d769	-0.049277697
189	0x3d8fdfa2	0.070250764
190	0x3e174689	0.14773001
191	0xbccafd6f	-0.02477905
192	0x3d4915ac	0.049092934
193	0xbd07c1d8	-0.03314385
194	0x3de5c77b	0.112196885
195	0xbdd68eae	-0.10476433
196	0xbdedacd2	-0.116052285
197	0xbd864451	-0.06555999
198	0xbd8c5b3e	-0.068533406
199	0x3cab82d8	0.020936415
200	0x3ce00b56	0.027349155
201	0x3df6a33d	0.12042854
202	0xbd1b758f	-0.03795391
203	0x3d82c6c6	0.06385569
204	0xbd1fc52c	-0.039006397
205	0x3c174870	0.009233579
206	0x3dd37e76	0.10326855
207	0x3e3a2046	0.18176374
208	0x3d98993d	0.07451103
209	0xbdb1dddb	-0.08684894
210	0xbe177839	-0.14791955
211	0x3d11849d	0.03552686
212	0x3dc72313	0.09723487
213	0x3db53eea	0.088498905
214	0xbdab1fd8	-0.08355683
215	0xbe1c0fd9	-0.1524042
216	0xbc6187be	-0.013765274
217	0x3c90c987	0.01767422
218	0xbc63471e	-0.013871936
219	0xbb94e5c7	-0.004543993
220	0x3aa03d56	0.0012225311
221	0x3db93617	0.0904352
222	0x3d48a54e	0.04898577
223	0xbd7f0447	-0.06225994
224	0xbd2a3b6b	-0.04156057
225	0x3d76165c	0.060079917
226	0xbdf7d141	-0.12100459
227	0xbe121c80	-0.14268684
228	0xbda018d5	-0.07817236
229	0xbd9d6eff	-0.076871864
230	0xbdc76b3d	-0.09737251
231	0x3d7682e4	0.06018342
232	0xbe4d9f1b	-0.20080225
233	0x3c251d28	0.010077752
234	0xbe35a885	-0.17740066
235	0xbc58bad5	-0.013228138
236	0xbd5e7f94	-0.054320887
237	0xbba20268	-0.0049441345
238	0xbd70575d	-0.058677066
239	0x3cbe30b9	0.023216592
240	0x3dcea446	0.100899264
241	0xbd7059df	-0.058679458
242	0xbe11cce3	-0.14238314
243	0xbc011b04	-0.007879976
244	0x3c4b709b	0.012416984
245	0x3caac7ce	0.020847227
246	0xbd810b99	-0.0630104
247	0x3dd661e0	0.10467887
248	0xbd84c774	-0.06483355
249	0xbe15db31	-0.14634396
250	0xbd2037c8	-0.039115697
251	0xbded6157	-0.11590832
252	0xbe418cd8	-0.18901384
253	0xbc65fba8	-0.01403705
254	0xbd4aa116	-0.04947003
255	0x3da81846	0.08207755

model.block1.3.weight f4 [16]
0	0x3f812b0c	1.0091262
1	0x3f815203	1.0103153
2	0x3f7de334	0.9917481
3	0x3f8025f0	1.0011578
4	0x3f7b974c	0.98277736
5	0x3f7c8c91	0.9865199
6	0x3f822cd6	1.0169933
7	0x3f825646	1.0182579
8	0x3f8090ca	1.0044186
9	0x3f7e98a8	0.99451685
10	0x3f7df371	0.9919959
11	0x3f7fb90c	0.99891734
12	0x3f7fce01	0.9992371
13	0x3f814a24	1.0100751
14	0x3f7e6f6f	0.99388784
15	0x3f7ecdb3	0.9953262

model.block1.3.bias f4 [16]
0	0xbba5eae6	-0.0050634025
1	0x3c43d1ac	0.011951845
2	0x3c1aa4a8	0.009438671
3	0x3a26f796	0.00063692906
4	0xbc4fe32e	-0.012688441
5	0xbbc81afd	-0.006106733
6	0x3c155784	0.009115104
7	0x3c7bd664	0.015370939
8	0x3b936740	0.0044983923
9	0xbab2cfa1	-0.00136422
10	0xbac1b906	-0.0014779873
11	0xbbfd932f	-0.007738493
12	0xbb28acdd	-0.00257378
13	0x3b60b98f	0.003429029
14	0xbb4d8463	-0.0031359426
15	0xbca272ee	-0.019830193

model.block1.3.running_mean f4 [16]
0	0x3d150a6f	0.036386903
1	0xbcb9baf2	-0.02267215
2	0xbd4c7fa5	-0.04992642
3	0xbd229cb1	-0.039700214
4	0xbd39a940	-0.045327425
5	0x3cc94f66	0.024573993
6	0x3c3e93b7	0.011631898
7	0xbe36217f	-0.17786215
8	0x3c91d3d1	0.017801197
9	0xbd1f86ed	-0.038947035
10	0x3bf6d1a8	0.007532317
11	0xbc087a68	-0.008329965
12	0x3c87ca27	0.016575886
13	0x3d4d40c0	0.05011058
14	0x3c796581	0.015221954
15	0xbcbf2084	-0.023330934

model.block1.3.running_var f4 [16]
0	0x3e86dea0	0.26341724
1	0x3cac5694	0.021037377
2	0x3e9fd381	0.31216052
3	0x3e110b5d	0.14164491
4	0x3d0a8699	0.03381977
5	0x3e2b827e	0.16748998
6	0x3cfc71f7	0.030816061
7	0x3e5faec8	0.21844018
8	0x3d06c4c6	0.0329025
9	0x3dc4dc89	0.09612376
10	0x3e3f650b	0.18690889
11	0x3dbb3b79	0.09142203
12	0x3dccb4be	0.09995411
13	0x3d15ce90	0.036573946
14	0x3f33b39e	0.7019595
15	0x3e859789	0.26092175

model.block2.0.weight f4 [16, 1, 1, 16]
0	0xbce0de96	-0.027449887
1	0xbb70785b	-0.0036692831
2	0x3d98be33	0.074581526
3	0xbad977d8	-0.0016591502
4	0x3db76340	0.08954477
5	0x3e29029d	0.16504903
6	0xbc60dc09	-0.0137243355
7	0x3d2f66d0	0.04282266
8	0xbd9d151e	-0.076700434
9	0x3d66fc7d	0.056393135
10	0x3a967ab5	0.0011480661
11	0xbe184876	-0.14871392
12	0x3dbec128	0.093141854
13	0xbd99b463	-0.07505109
14	0x3e2b3ed8	0.16723192
15	0xbd8ffca5	-0.0703061
16	0xbc8116af	-0.015757887
17	0x3e00d7df	0.12582348
18	0x3cd7cd6c	0.02634307
19	0x3dd1a727	0.1023696
20	0x3dd1a301	0.10236169
21	0xbda08678	-0.07838148
22	0xbd78d1d8	-0.060746998
23	0x3bad33d7	0.005285721
24	0xbdbad88a	-0.09123333
25	0xbdd356bc	-0.10319278
26	0xbe30afc1	-0.17254545
27	0xbde30faa	-0.11086972
28	0x3d4023d5	0.046909172
29	0x3d83e908	0.064409316
30	0xbaf6c720	-0.0018827654
31	0x3b167da8	0.002296308
32	0x3d023712	0.0317908
33	0x3daf358e	0.085551366
34	0x3e03408f	0.12817596
35	0xbdc6ab0d	-0.09700594
36	0xbb2f6228	-0.0026761387
37	0x3daad7f1	0.08341969
38	0x3d842237	0.064518385
39	0xbe183781	-0.14864923
40	0xbc4f9d92	-0.012671845
41	0x3c312ffc	0.010814663
42	0x3a80e89f	0.0009834951
43	0xbda540fc	-0.080690354
44	0x3bc5edea	0.0060403245
45	0x3a081687	0.0005191345
46	0xbddb8e25	-0.10720471
47	0xbe5f078b	-0.21780221
48	0x3c49576b	0.0122889085
49	0xbd7a1ff8	-0.061065644
50	0xbe0f2ed5	-0.13982709
51	0xbe0ff921	-0.14059879
52	0xbd9b4b74	-0.07582751
53	0xbd94e6d3	-0.07270589
54	0x3c2a6b9e	0.0104016345
55	0x3d6a7094	0.05723627
56	0x3e017624	0.12642723
57	0x3d1a8331	0.03772277
58	0xbd8c4a75	-0.06850139
59	0x3cfc24ec	0.030779324
60	0x3b875873	0.004130417
61	0x3d01e89d	0.031715978
62	0x3de686f6	0.112562105
63	0x3d5eb67a	0.054373242
64	0x3c2b237f	0.010445475
65	0x3e04e802	0.12979129
66	0xbd28ec84	-0.041241184
67	0xbe71a404	-0.23597723
68	0x3d03d2a7	0.032183316
69	0xbdd04fcd	-0.10171471
70	0xbdfdc66b	-0.12391361
71	0xbdb40b15	-0.08791176
72	0x3d528364	0.051394835
73	0x3cbc519e	0.022988137
74	0xbcf643c4	-0.03006161
75	0xbcad09ea	-0.021122891
76	0x3e6d977c	0.23202318
77	0x3d76d9e6	0.060266398
78	0xbde900d9	-0.11377115
79	0xbdecf685	-0.11570457
80	0xbc59952b	-0.013280193
81	0x3e754a67	0.23954163
82	0x3d95c536	0.073130056
83	0xbdbb4a03	-0.09144976
84	0xbde0efa7	-0.1098321
85	0xbd6ee955	-0.05832799
86	0xbb28fe0d	-0.0025786192
87	0x3d15e7f3	0.036598157
88	0xbc10ddd2	-0.008841949
89	0xbd3d0c34	-0.046154216
90	0x3a9aaf29	0.0011801469
91	0x3d6363a6	0.055514954
92	0x3e300207	0.17188273
93	0xbda69411	-0.0813371
94	0x3db817ca	0.089889124
95	0xbdefecea	-0.1171511
96	0x3ac4499a	0.0014975548
97	0xbdf83f7e	-0.12121485
98	0x3e0e8b49	0.1392032
99	0x3cff7bc9	0.031186955
100	0x3dd28eda	0.10281153
101	0xbca3cc34	-0.019994833
102	0x3e2af5d9	0.16695346
103	0xbd79c1fc	-0.060976014
104	0x3dab90c4	0.08377221
105	0xbd355468	-0.04426995
106	0x3e84119f	0.25794694
107	0xbdbc4dde	-0.091945395
108	0x3dcb11b1	0.09915484
109	0xbce174d6	-0.027521532
110	0xbdf2c8cf	-0.118547074
111	0xbd3a4b65	-0.045482058
112	0xbdf18d4f	-0.117945306
113	0xbd1f4840	-0.038887262
114	0x3d84f4a6	0.064919755
115	0xbd98b0b5	-0.07455579
116	0x3d8af2a3	0.067845605
117	0x3d6f4d34	0.058423236
118	0xbd9d7848	-0.076889575
119	0xbdbdda08	-0.09270102
120	0xbd77a8a1	-0.06046355
121	0x3ded3a7a	0.11583419
122	0x3d3e2f69	0.046431933
123	0xbb4129b2	-0.0029474315
124	0xbe08d5c6	-0.13362798
125	0x3cef0779	0.029178368
126	0xbdafd3aa	-0.085852936
127	0xbe02cb8a	-0.12772956
128	0xbe0d9251	-0.13825347
129	0x3d066c70	0.032818258
130	0x3d448f9b	0.047988515
131	0x3d34b7e3	0.04412068
132	0xbd97bd6d	-0.07409177
133	0xbdd6fa2c	-0.10496935
134	0x3bfeffb0	0.007781945
135	0x3dd6bbd7	0.10485046
136	0xbd54e312	-0.051974364
137	0xbc6cbda3	-0.01444951
138	0xbccb581d	-0.02482229
139	0x3b6af62f	0.0035852303
140	0x3d888074	0.066651255
141	0xbd64f365	-0.05589618
142	0x3df1f8d8	0.11815041
143	0x3d75d730	0.060019672
144	0x3adf5473	0.0017038718
145	0xbd5b73f7	-0.05357739
146	0xbe01dcde	-0.1268191
147	0x3e0e648f	0.13905548
148	0xbe5053ff	-0.20344542
149	0x3df97012	0.12179579
150	0xbd5372c1	-0.05162311
151	0x3cf23a5e	0.029568847
152	0xbd6509dd	-0.05591761
153	0xbe06b39f	-0.13154458
154	0x3d7eff53	0.062255215
155	0xbd88c3bf	-0.066779606
156	0x3d81908f	0.063264005
157	0x3d8271f6	0.063693926
158	0xbc414e9c	-0.011798527
159	0xbce957b9	-0.028484212
160	0x3c61d6db	0.013784136
161	0xbda7b980	-0.08189678
162	0x3da794d1	0.08182681
163	0x3d26097e	0.040536396
164	0xbdd90115	-0.105959095
165	0x3c4670cb	0.012111853
166	0x3dbb747c	0.09153077
167	0xbd16a19c	-0.036775216
168	0xbdc586e2	-0.096448675
169	0x3cfe8190	0.03106764
170	0x3d2b97a6	0.04189267
171	0x3c1465b8	0.009057455
172	0x3e2c54d7	0.16829239
173	0x3c1d68cd	0.009607506
174	0xbd38a536	-0.045079432
175	0x3db72895	0.08943287
176	0xbd092482	-0.033482082
177	0xbd5d498f	-0.05402523
178	0xbd4402bb	-0.047854166
179	0xbccc7f4a	-0.02496304
180	0xbd936678	-0.07197279
181	0xbd78de14	-0.060758665
182	0xbd08392e	-0.033257656
183	0xbccd38ff	-0.025051592
184	0x3cb4d9b9	0.022076475
185	0xbd4288d3	-0.047493767
186	0xbd841d9a	-0.064509585
187	0x3dc4cfc1	0.096099384
188	0x3d5d6bfe	0.054058068
189	0x3d11431c	0.03546439
190	0x3d15f9d2	0.0366152
191	0x3c5bff9f	0.013427644
192	0xbd80b470	-0.06284416
193	0x3da1fa2a	0.07909043
194	0xbdb12460	-0.08649516
195	0xbccae768	-0.024768546
196	0x3dcfa50b	0.10138901
197	0xbceb39d9	-0.028714107
198	0xbe1fdfbf	-0.15612696
199	0xbdf1bddf	-0.11803793
200	0xbbf70fa8	-0.007539708
201	0xbe246501	-0.16054155
202	0x3e18ba49	0.14914812
203	0xbdd7f11f	-0.10544037
204	0xbddd9601	-0.108196266
205	0xbd9e165b	-0.07719108
206	0xbd3e3c56	-0.04644426
207	0x3d11bf62	0.035582907
208	0xbd2637fb	-0.04058073
209	0x3c3de417	0.011590025
210	0xbe3c2039	-0.18371667
211	0xbbd39e64	-0.0064580906
212	0x3b887c6b	0.0041652224
213	0xbe09d6d2	-0.13460854
214	0xbccad911	-0.024761708
215	0xbe328217	-0.17432438
216	0x3dc0dbda	0.09416933
217	0x3d1b8db8	0.03797695
218	0x3d041b64	0.032252684
219	0x3ddd50ec	0.1080645
220	0x3c9660aa	0.01835664
221	0xbcc8478b	-0.024448177
222	0x3e3fe6de	0.18740413
223	0xbc7cdb0f	-0.015433087
224	0x3c1031c5	0.0088009285
225	0xbc365ce1	-0.0111305425
226	0x3b6302a8	0.0034639034
227	0xbd80629d	-0.06268809
228	0xbdf552ab	-0.11978658
229	0xbcb89a28	-0.022534445
230	0x3c6566c4	0.014001552
231	0xbda1794f	-0.07884466
232	0x3e10a73d	0.14126296
233	0xbcf9f881	-0.030514004
234	0xbbf801a5	-0.0075685554
235	0xbd5074e9	-0.050892744
236	0xbe005815	-0.125336
237	0xbcc9c7af	-0.02463135
238	0x3c39afcf	0.01133342
239	0xbd279ad5	-0.040919144
240	0x3d80dc9b	0.06292077
241	0xbd2c66e3	-0.042090308
242	0x3dc0a1ad	0.09405837
243	0xbdadc383	-0.084845565
244	0xbd91aea1	-0.07113386
245	0xbc07961d	-0.008275536
246	0x3de0bbdc	0.10973331
247	0x3e37bbb4	0.17942697
248	0x3deb2360	0.114813566
249	0x3d8e10d6	0.06936805
250	0x3e0c3531	0.13692166
251	0xbdc6e0de	-0.09710859
252	0xbb9f0ba0	-0.0048536807
253	0x3d242336	0.040072642
254	0xbc7d2ac3	-0.01545209
255	0x3dcaeb40	0.099081516

model.block2.1.weight f4 [16, 16, 1, 1]
0	0xbe5082c5	-0.20362385
1	0xbe395896	-0.18100199
2	0xbf48554e	-0.78255165
3	0x3da0df45	0.07855085
4	0xbdd345c0	-0.10316038
5	0x3df8a94d	0.121416666
6	0x3e0b71b4	0.13617593
7	0xbefb667c	-0.49101627
8	0xbe250629	-0.16115631
9	0x3d161ce9	0.036648665
10	0x3cc0c78e	0.023532655
11	0x3e0f8390	0.14015031
12	0x3c61ed38	0.0137894675
13	0xbed108c5	-0.40827003
14	0xbe3e0411	-0.18556239
15	0x3e15fdfa	0.14647666
16	0xbdaa44b2	-0.08313884
17	0x3eab681f	0.33477876
18	0xbe0afb14	-0.13572341
19	0x3eb41409	0.35171536
20	0x3ddae382	0.10687925
21	0x3ec94e60	0.39317608
22	0x3ed6ae29	0.4192975
23	0xbd980bea	-0.074241474
24	0xbd9de7fc	-0.07710263
25	0xbe941929	-0.28925446
26	0x3f275e4c	0.6537826
27	0xbf5f6106	-0.8725742
28	0xbf21e62d	-0.63241845
29	0xbe469d0c	-0.19395846
30	0xbe1c8b35	-0.15287478
31	0xbdfa72b1	-0.12228907
32	0x3e0be8b1	0.13662983
33	0x3f48c4fd	0.7842558
34	0xbecc7a02	-0.39936835
35	0xbe3cd4cd	-0.18440552
36	0xbe35ffa9	-0.17773308
37	0xbd959e50	-0.07305586
38	0x3e592238	0.2120446
39	0xbe8c5b73	-0.2741352
40	0xbf75b01d	-0.9597185
41	0xbe78e94f	-0.2430775
42	0x3f656360	0.8960476
43	0xbf54c356	-0.8311056
44	0xbe6d332c	-0.23164052
45	0x3edcf045	0.4315206
46	0x3da49b85	0.080374755
47	0x3e2a4b0c	0.1663019
48	0x3d3907af	0.045173343
49	0x3e871717	0.26384804
50	0x3e21f151	0.15814711
51	0x3e41b3f3	0.18916301
52	0xbe837e2c	-0.256822
53	0x3e637aff	0.22214888
54	0x3e260c78	0.16215694
55	0x3ec7663a	0.3894518
56	0xbe043fcf	-0.12914966
57	0xbec35e96	-0.381581
58	0xbe696e4c	-0.22795981
59	0x3c812f78	0.015769705
60	0x3ebef731	0.37297967
61	0xbe8a0bda	-0.26962167
62	0xbd17dfef	-0.037078794
63	0x3efbe944	0.49201405
64	0x3e5007be	0.20315453
65	0x3d644055	0.055725414
66	0x3eb84ba3	0.35995206
67	0xbd021677	-0.031759705
68	0xbe886a4a	-0.26643592
69	0xbd69507f	-0.056961533
70	0x3ed8779a	0.4227875
71	0x3ede1079	0.43371943
72	0xbeeaa6f6	-0.45830506
73	0x3ca961d0	0.020676523
74	0x3e2346db	0.15944998
75	0xbe7377de	-0.23776194
76	0xbd042cf1	-0.032269422
77	0xbed9aac9	-0.4251311
78	0x3edd6db9	0.43247774
79	0x3f0105c3	0.50399417
80	0x3ed5b638	0.41740584
81	0xbe0f416a	-0.13989797
82	0x3ef2c77d	0.47417822
83	0x3de7dafd	0.113210656
84	0x3ed3142e	0.41226333
85	0xbf0f0def	-0.55880636
86	0x3eabc3cd	0.33547822
87	0x3e667c04	0.22508246
88	0x3e7bd03b	0.24591152
89	0xbe962301	-0.2932358
90	0xbec0f55e	-0.376872
91	0xbf00742f	-0.5017728
92	0xbf0c7fc0	-0.5488243
93	0x3f2f213d	0.6841009
94	0x3efe1751	0.49627164
95	0x3f81405c	1.0097766
96	0xbe50260c	-0.20327014
97	0xbe457866	-0.1928421
98	0xbe6c828b	-0.23096673
99	0x3e32efd4	0.174743
100	0x3ec18466	0.37796324
101	0x3e4faaa9	0.20279945
102	0x3eb616a1	0.3556414
103	0xbe750d06	-0.2393075
104	0xbd578a86	-0.05262234
105	0xbef47448	-0.47744966
106	0x3e862192	0.26197487
107	0xbe8e7506	-0.27823657
108	0xbe7cfbc6	-0.24705419
109	0xbcc5ed74	-0.024161078
110	0x3ec444b4	0.38333666
111	0xbe59125c	-0.2119841
112	0xbc9554fa	-0.018228997
113	0x3e284540	0.16432667
114	0x3e905487	0.2818949
115	0xbe808223	-0.25099286
116	0xbcf5b055	-0.029991308
117	0x3f0e4ce1	0.5558606
118	0xbe16a4a9	-0.1471125
119	0x3e22ad37	0.15886389
120	0xbe571b8c	-0.21006602
121	0xbf858e48	-1.0434046
122	0x3e4082ce	0.18799898
123	0xbefe044e	-0.4961266
124	0x3e171263	0.14753108
125	0xbe42554a	-0.18977848
126	0x3e903019	0.28161696
127	0xbe70e013	-0.23522978
128	0xbe277205	-0.16352089
129	0xbef46a37	-0.47737285
130	0x3f066f2c	0.52513385
131	0x3dced20a	0.100986555
132	0x3dbf42cc	0.09338912
133	0x3ed165db	0.40898022
134	0x3e713c90	0.23558259
135	0xbd960128	-0.07324439
136	0xbe7e2ac6	-0.24821004
137	0x3f086ff1	0.5329581
138	0xbf05f997	-0.5233397
139	0xbc2fa32b	-0.010720055
140	0xbead9640	-0.33903694
141	0x3e2bcf99	0.16778411
142	0x3cef0719	0.02917819
143	0xbee7d849	-0.452822
144	0xbe7b9b83	-0.24571042
145	0x3f2f1851	0.6839648
146	0x3d92c7ef	0.071670406
147	0x3d65a452	0.05606491
148	0xbecaa041	-0.3957539
149	0xbeec8b77	-0.46200153
150	0x3d6ed04d	0.05830412
151	0x3dbbce30	0.091701865
152	0xbe62e54e	-0.22157785
153	0xbe8b3ff4	-0.2719723
154	0x3e1f85d7	0.155784
155	0xbf1ea33e	-0.6196784
156	0xbebe2d32	-0.37143856
157	0x3e98a63a	0.2981432
158	0x3e5dd156	0.21661887
159	0xbd690995	-0.056893904
160	0x3e899878	0.26874137
161	0xbea12afe	-0.31478113
162	0xbe5020d9	-0.2032503
163	0xbe17d75b	-0.14828245
164	0x3f0b5799	0.5443054
165	0x3f2bce50	0.6711168
166	0x3f1d96f5	0.6155847
167	0xbe70ec02	-0.2352753
168	0xbd3a1c48	-0.045437127
169	0x3ddd2f8f	0.10800087
170	0xbe1fa815	-0.15591462
171	0xbd564c81	-0.052319054
172	0x3e7bfa62	0.24607232
173	0xbe2ec1f1	-0.1706617
174	0xbeed90e4	-0.46399605
175	0xbeaa33f9	-0.33242777
176	0xbee429f2	-0.44563252
177	0xbe2c6339	-0.16834725
178	0x3ef8a48f	0.48563048
179	0xbe6b6f6f	-0.22991727
180	0xbf13fb71	-0.57805544
181	0xbe89af78	-0.26891685
182	0x3e3de07e	0.18542668
183	0xbedf3959	-0.4359844
184	0xbe9ebf2c	-0.31005228
185	0x3c133660	0.008985132
186	0x3e676051	0.22595336
187	0x3eae9f46	0.3410589
188	0x3eeefa0a	0.4667514
189	0xbe9fc3d9	-0.31204107
190	0xbd999d82	-0.07500745
191	0x3e14073e	0.14455888
192	0xbf092168	-0.535666
193	0x3e28f909	0.1650125
194	0x3e9d484c	0.3071922
195	0xbe12c492	-0.14332798
196	0x3e79cc7c	0.24394411
197	0xbf2ca65c	-0.67441344
198	0x3e75c73e	0.24001786
199	0xbeab0f57	-0.3341014
200	0xbf76857d	-0.96297437
201	0xbe108b37	-0.14115606
202	0xbf51d19e	-0.81960475
203	0xbf5f29db	-0.8717324
204	0xbe204ef2	-0.15655115
205	0x3df9d7a6	0.12199335
206	0x3f7ebd3c	0.995075
207	0x3e71d743	0.23617272
208	0xbe9f2095	-0.31079546
209	0xbe842cd7	-0.2581546
210	0x3e30df36	0.17272648
211	0xbe742a54	-0.23844272
212	0xbf374fd0	-0.7160616
213	0xbe77122b	-0.24128024
214	0x3ed3463e	0.41264528
215	0x3decc4f3	0.115610026
216	0xbea3158b	-0.31852373
217	0x3f30570b	0.6888282
218	0x3f4611d4	0.77370954
219	0xbf183c6d	-0.594672
220	0x3e490fc5	0.19634922
221	0x3d4e707d	0.050400246
222	0xbe128c77	-0.14311396
223	0x3ea82327	0.3283932
224	0xbf078ad8	-0.52946234
225	0xbe78b438	-0.24287498
226	0xbee1b90e	-0.44086498
227	0xbf2e2a28	-0.68033075
228	0xbc903524	-0.017603464
229	0x3eb7715b	0.3582867
230	0xbea004bf	-0.3125362
231	0x3e4c7f93	0.1997054
232	0x3f43da1b	0.7650468
233	0xbed3b0fe	-0.41345972
234	0xbea42e13	-0.32066402
235	0x3f0225aa	0.5083872
236	0x3f226d58	0.63448095
237	0x3e6fd8b3	0.23422508
238	0xbe8680fc	-0.26270282
239	0x3e9fe373	0.31228217
240	0x3ae45e03	0.0017423037
241	0x3e66a003	0.22521977
242	0xbe231076	-0.15924248
243	0x3ccacef4	0.024756886
244	0x3eb8cdbb	0.3609446
245	0xbe9b1570	-0.30289793
246	0xbe9baf87	-0.30407354
247	0xbe9f16c8	-0.31072068
248	0x3de7865c	0.11304924
249	0xbdcac69d	-0.09901164
250	0x3d6e8495	0.05823191
251	0xbeeec40c	-0.46633947
252	0xbef27c40	-0.4736042
253	0xbeef8add	-0.46785632
254	0x3e219bca	0.15782085
255	0x3eeff99e	0.4687013

model.block2.2.weight f4 [16]
0	0x3f808a6f	1.0042247
1	0x3f820d22	1.0160258
2	0x3f81467b	1.0099634
3	0x3f80c8ff	1.0061339
4	0x3f81463f	1.0099562
5	0x3f807a8e	1.0037401
6	0x3f7d5354	0.98955274
7	0x3f7d9f2f	0.9907102
8	0x3f7f791c	0.99794173
9	0x3f8261f3	1.0186142
10	0x3f821040	1.0161209
11	0x3f7ddaf7	0.9916224
12	0x3f807f23	1.0038799
13	0x3f81ca43	1.013985
14	0x3f812f13	1.0092491
15	0x3f80ba76	1.0056903

model.block2.2.bias f4 [16]
0	0x3b89047a	0.004181442
1	0x3bca62d6	0.006176333
2	0x3b9724ad	0.0046125264
3	0xbb3d0950	-0.0028844662
4	0x3b216461	0.002462648
5	0xbb07ba67	-0.002071047
6	0x3a5f6000	0.000852108
7	0xbba0cdd8	-0.004907351
8	0x3a605f6d	0.00085591414
9	0x3beac0cb	0.007164096
10	0xbb089210	-0.0020839013
11	0x39666cc8	0.00021975033
12	0xbacf4a7a	-0.0015815042
13	0x3bdb9fdf	0.0067024077
14	0x3b241c27	0.0025041194
15	0xbb163872	-0.0022921828

model.block2.2.running_mean f4 [16]
0	0x3dafce2e	0.085842475
1	0x3e01ae7d	0.12664218
2	0x3dca8a1c	0.098896235
3	0x3b76ccba	0.0037658648
4	0x3d26f9cc	0.04076557
5	0x3dbd4701	0.092420585
6	0x3d353f92	0.04425008
7	0xbbb61fa5	-0.0055579715
8	0xbd0b49df	-0.034005996
9	0x3c74ced2	0.014941888
10	0x3d0f53d2	0.034992047
11	0xbbed21ef	-0.007236711
12	0xbd441bdb	-0.047878128
13	0x3d70649a	0.05868969
14	0xbd006932	-0.031350322
15	0x3d9adc84	0.07561591

model.block2.2.running_var f4 [16]
0	0x3dbbf9a7	0.09178477
1	0x3e1344a1	0.14381649
2	0x3e516d65	0.20451887
3	0x3d8f767e	0.070050225
4	0x3dbe253b	0.09284445
5	0x3e43fde7	0.19139825
6	0x3d88a199	0.06671447
7	0x3dd9843c	0.10620925
8	0x3d8de984	0.06929305
9	0x3dc14e19	0.09438724
10	0x3dcce4f0	0.10004604
11	0x3de70f12	0.11282171
12	0x3e26fb34	0.16306764
13	0x3e28f69f	0.16500328
14	0x3e45349f	0.19258355
15	0x3da650c6	0.08120875

model.classifier.weight f4 [1, 64]
0	0xbed91a6c	-0.4240297
1	0xbe282d66	-0.16423568
2	0xbd624df2	-0.055250116
3	0xbe4f663f	-0.20253848
4	0x3daf3319	0.08554668
5	0x3dbbb6ae	0.09165703
6	0xbbd50502	-0.006500841
7	0xbd9de7df	-0.077102415
8	0x3eb3976e	0.3507647
9	0xbda1e172	-0.079043284
10	0xbe5d75e2	-0.21627
11	0xbdb2d7f1	-0.08732594
12	0xbc49cfd2	-0.012317615
13	0x3ead3e1f	0.33836457
14	0xbcdb4724	-0.02676732
15	0xbe1e8643	-0.15480904
16	0x3e5d63c4	0.21620089
17	0x3e889eb7	0.2668359
18	0xbd479d6b	-0.04873411
19	0x39289e15	0.00016080619
20	0x3e5f85ed	0.21828432
21	0x3dac8677	0.08424085
22	0x3c3cda24	0.011526618
23	0x3de452e7	0.11148625
24	0xbdabf69a	-0.08396645
25	0xbc1cb891	-0.009565488
26	0xbe4e93f6	-0.2017363
27	0x3cf90e1f	0.030402241
28	0x3e1b5fc4	0.1517325
29	0xbe55b780	-0.20870781
30	0x3d9242a4	0.07141617
31	0x3e812e4c	0.25230634
32	0xbe4a80ac	-0.19775647
33	0x3e102424	0.14076287
34	0xbe984d6b	-0.29746565
35	0xbca54bd9	-0.020177769
36	0x3df3a5a0	0.11896825
37	0xbd223778	-0.03960368
38	0xbdcbb09a	-0.099457934
39	0x3dae0679	0.08497328
40	0xbd89bd0a	-0.067255095
41	0x3da37718	0.079817
42	0x3d2ff699	0.042959783
43	0xbdcb4e31	-0.09927023
44	0xbe3ecc01	-0.18632509
45	0xbda38f23	-0.079862855
46	0x3e0d0a31	0.13773419
47	0xbdc9eb4e	-0.09859334
48	0x3eb91d73	0.3615528
49	0x3d3e83ee	0.046512537
50	0xbe4d9b48	-0.20078766
51	0x3e39759a	0.18111268
52	0x3e0416fd	0.12899394
53	0x3df9dd17	0.12200373
54	0xbe9fb952	-0.31196076
55	0x3eb0f2ad	0.34560147
56	0xbddcfd99	-0.107905574
57	0xbea673bf	-0.32510182
58	0x3bc3b78a	0.0059728073
59	0xbe6302f8	-0.22169101
60	0xbe169440	-0.1470499
61	0x3c9e8846	0.01935209
62	0x3d323c9d	0.043514837
63	0xbdefa95b	-0.11702224

exp_avg f4 [8, 1, 1, 64]
0	0x399d11ec	0.00029958726
1	0x3a480064	0.0007629453
2	0x3a803673	0.0009781852
3	0x3a745420	0.0009320397
4	0x3ab98422	0.0014153759
5	0x3b01470c	0.0019726185
6	0x3b0ed4c9	0.002179431
7	0x3acaf5f1	0.0015484673
8	0x3a7f0b20	0.0009729136
9	0x3ae76d92	0.0017656556
10	0x3b1f91bb	0.0024348337
11	0x3b252211	0.0025197307
12	0x3b2b0fab	0.0026101868
13	0x3b564aee	0.003269847
14	0x3b785200	0.0037890673
15	0x3b940c29	0.004518051
16	0x3baa76e5	0.0052021616
17	0x3bb5a6d9	0.0055435714
18	0x3bbc3903	0.005744101
19	0x3bc5e1f1	0.006038897
20	0x3bd4318d	0.0064756335
21	0x3bc20b1f	0.005921736
22	0x3bac0ac9	0.005250309
23	0x3bb50b7e	0.0055250516
24	0x3bc4bfe1	0.006004319
25	0x3baec411	0.0053334315
26	0x3b9118c3	0.0044280007
27	0x3b8d667f	0.004315197
28	0x3b81ad40	0.0039574206
29	0x3b4bc51f	0.0031092835
30	0x3b44520c	0.002995613
31	0x3b64987c	0.0034880927
32	0x3b703470	0.003665235
33	0x3b5d2ec5	0.00337498
34	0x3b482d87	0.0030544715
35	0x3b4c8ae7	0.0031210722
36	0x3b33d7b3	0.00274418
37	0x3ade47ac	0.0016958616
38	0x3a9eee22	0.0012125412
39	0x3abd4f13	0.0014443122
40	0x3abc0d5b	0.0014347242
41	0x3abdf590	0.0014492739
42	0x3af301df	0.0018539986
43	0x3adfc5d2	0.0017072505
44	0x3a448070	0.00074959453
45	0x39986d8b	0.00029073315
46	0x39f4cd76	0.00046692387
47	0x3959e9a0	0.00020781765
48	0xb976a630	-0.00023522298
49	0x395bf61e	0.00020977153
50	0x3a39ed30	0.00070925336
51	0xb88a7af3	-6.603254e-05
52	0xba468de1	-0.0007574242
53	0xb9dfc54d	-0.00042680875
54	0xba64f640	-0.0008734204
55	0xbb05ce53	-0.0020417168
56	0xbb07525f	-0.0020648462
57	0xbb081591	-0.0020764808
58	0xbb579307	-0.0032894032
59	0xbb86dd20	-0.0041157156
60	0xbb811f6e	-0.0039405143
61	0xbb7646a3	-0.0037578724
62	0xbb81304b	-0.0039425245
63	0xbb852d0c	-0.004064208
64	0xbb14b02e	-0.002268802
65	0xbb1a5f2e	-0.0023555267
66	0xbb094cb3	-0.0020950257
67	0xba901873	-0.0010993615
68	0x39a26a93	0.00030978452
69	0x3acb71f0	0.0015521627
70	0x3b50292a	0.0031762817
71	0x3ba987ff	0.0051736827
72	0x3bcfcb08	0.006341342
73	0x3bd1d0a7	0.006403047
74	0x3bc87639	0.006117609
75	0x3bc3f964	0.0059806574
76	0x3bbe5b78	0.005809244
77	0x3bafedcc	0.005368924
78	0x3b8e17b9	0.004336324
79	0x3b78d785	0.0037970257
80	0x3b937147	0.0044995877
81	0x3bbbdaed	0.005732885
82	0x3bee3f98	0.0072707646
83	0x3c15bad6	0.009138783
84	0x3c32a3c6	0.010903304
85	0x3c45690b	0.01204897
86	0x3c4f8e9a	0.012668276
87	0x3c4d062d	0.012513679
88	0x3c42f9f8	0.0119004175
89	0x3c3b0d0c	0.011416685
90	0x3c33ce16	0.010974428
91	0x3c2f8c0a	0.01071454
92	0x3c2f1b09	0.010687598
93	0x3c3a3066	0.011364078
94	0x3c486141	0.012230218
95	0x3c4aa3e8	0.01236818
96	0x3c4a1bee	0.0123357605
97	0x3c4c4c6a	0.01246939
98	0x3c49e4e2	0.012322636
99	0x3c33760e	0.010953439
100	0x3c1af329	0.009457388
101	0x3c040132	0.008056926
102	0x3bca2100	0.0061684847
103	0x3b8a52b3	0.0042212843
104	0x3b0149a7	0.0019727738
105	0xb97f2685	-0.00024333045
106	0xbaecbdb4	-0.0018061907
107	0xbb2ed593	-0.0026677593
108	0xbb55f763	-0.0032648675
109	0xbb409ecd	-0.0029391528
110	0xbb01b3d3	-0.0019791021
111	0xbae9c833	-0.0017836153
112	0xbb14a900	-0.002268374
113	0xbb1bf14a	-0.0023794943
114	0xbb148a4b	-0.0022665437
115	0xbb28747e	-0.00257042
116	0xbb4a6a99	-0.003088629
117	0xbb574fd2	-0.0032853973
118	0xbb5cbb23	-0.0033680878
119	0xbb5bdcd2	-0.0033548367
120	0xbb54a531	-0.0032447095
121	0xbb329b91	-0.002725337
122	0xbaf5143b	-0.0018698046
123	0xbaabf32d	-0.0013118737
124	0xba9b48bb	-0.0011847237
125	0xba80f9cc	-0.000984007
126	0xb9dfeccc	-0.00042710302
127	0xba224548	-0.0006190133
128	0x3b1deee5	0.002409869
129	0x3b26b785	0.0025438976
130	0x3b12fd5a	0.0022428841
131	0x3b073d74	0.0020635994
132	0x3b079a54	0.0020691352
133	0x3b06f60a	0.0020593428
134	0x3b0b7d79	0.0021284504
135	0x3b123e2b	0.0022314887
136	0x3b06a7de	0.0020546834
137	0x3ad907f3	0.0016558155
138	0x3ab30a19	0.0013659626
139	0x3a989e55	0.0011643866
140	0x3a8b8f88	0.0010647634
141	0x3a8e988b	0.0010879202
142	0x3aae79e8	0.0013311477
143	0x3adb38f2	0.0016725345
144	0x3ad0bcbf	0.0015925391
145	0x3a9ba145	0.0011873624
146	0x3a93ad96	0.0011266943
147	0x3aa4d73f	0.0012576355
148	0x3abf0c49	0.0014575805
149	0x3ab4b1d7	0.001378591
150	0x3a81bc5e	0.0009898057
151	0x39c6d978	0.0003792753
152	0xb9097e97	-0.00013112497
153	0xb9fe06b9	-0.00048451664
154	0xba2bc308	-0.0006552194
155	0xba0877e9	-0.0005205856
156	0xb9b14a65	-0.000338155
157	0x38c1176d	9.2073205e-05
158	0x3992278a	0.0002787675
159	0xb7fa6e27	-2.9853616e-05
160	0xba2f0d75	-0.00066777255
161	0xbaaf37f5	-0.0013368117
162	0xbadceafd	-0.00168547
163	0xbaf93191	-0.0019011964
164	0xbb094700	-0.002094686
165	0xbb265d14	-0.0025385069
166	0xbb51a24b	-0.0031987603
167	0xbb632904	-0.0034661898
168	0xbb45cb0e	-0.0030180844
169	0xbb156be0	-0.0022799894
170	0xbacbb2fa	-0.001554101
171	0xba5307d0	-0.00080501754
172	0xb9a4e017	-0.00031447478
173	0xb9a18822	-0.0003080974
174	0xb9feb758	-0.00048583257
175	0xba2aafa9	-0.0006511161
176	0xba4a6f5e	-0.00077222835
177	0xba480652	-0.00076303363
178	0xba4ac787	-0.00077354204
179	0xba6ce208	-0.0009036367
180	0xba94abcf	-0.0011342707
181	0xbad1df09	-0.0016011904
182	0xbb07ddb2	-0.0020731506
183	0xbb11f65b	-0.0022272083
184	0xbb10cb1c	-0.002209372
185	0xbb061124	-0.0020456994
186	0xbae00b1c	-0.0017093155
187	0xbabc104b	-0.0014348117
188	0xbaab6924	-0.0013077599
189	0xbaa7c96e	-0.001280112
190	0xbabdfc81	-0.0014494808
191	0xbacf2e4b	-0.0015806643
192	0xb998a9fa	-0.00029118342
193	0x3a646777	0.0008712927
194	0x3b1426da	0.0022606165
195	0x3b3c1be9	0.002870316
196	0x3b5e968e	0.003396425
197	0x3b54688d	0.003241095
198	0x3b1de3a4	0.0024091983
199	0x3b204a32	0.0024458286
200	0x3b43bc78	0.0029866975
201	0x3b50cd6e	0.0031860727
202	0x3b60695c	0.0034242487
203	0x3b6d142f	0.003617536
204	0x3b746e53	0.0037297204
205	0x3b41e6f8	0.002958713
206	0x3a96ab9a	0.0011495233
207	0xba8aebaf	-0.0010598804
208	0xbb56387e	-0.003268748
209	0xbb9dae93	-0.0048120706
210	0xbb9b84b1	-0.0047460427
211	0xbb5ef84e	-0.0034022513
212	0xbad626d1	-0.0016338472
213	0xb91b1399	-0.00014789253
214	0x3a7b0c63	0.0009576736
215	0x3a6f877a	0.0009137314
216	0xb81ae6f3	-3.693155e-05
217	0xb9fe0c4e	-0.00048455823
218	0xba44fe22	-0.00075146754
219	0xbb18964a	-0.0023282939
220	0xbb7ccbd8	-0.0038573649
221	0xbb752403	-0.0037405498
222	0xbb65e4be	-0.0035078968
223	0xbb67bbe7	-0.0035359801
224	0xbb6a7ce8	-0.0035780016
225	0xbb8e28f7	-0.0043383795
226	0xbb9295b6	-0.0044734133
227	0xbb614566	-0.003437364
228	0xbae21720	-0.0017249323
229	0xba082ede	-0.0005194972
230	0xb90442bd	-0.00012613363
231	0x37d132f3	2.4938467e-05
232	0x379de25c	1.8821265e-05
233	0xb7a43308	-1.9574087e-05
234	0x39c4dffa	0.0003755091
235	0x39ee9600	0.00045506656
236	0xb944d313	-0.00018770648
237	0xba85adfc	-0.0010198946
238	0xbafe5af7	-0.0019405772
239	0xbb326275	-0.002721933
240	0xbb62e93b	-0.003462388
241	0xbb85d0e4	-0.0040837396
242	0xbb4e82e1	-0.0031511115
243	0xbaa4fe5a	-0.001258801
244	0xb90000e9	-0.0001220737
245	0x3a0f09ef	0.00054564973
246	0x3a4ea52f	0.00078828906
247	0x38bf455b	9.120508e-05
248	0xba0d28a4	-0.0005384779
249	0xb9fbf0f2	-0.0004805397
250	0xba3918c7	-0.0007060882
251	0xba9e5a94	-0.0012081438
252	0xbaaeea89	-0.0013345043
253	0xbad6bc9b	-0.0016383113
254	0xbb2568d4	-0.0025239484
255	0xbb64b4c6	-0.0034897788

exp_avg_sq f4 [8, 1, 1, 64]
0	0x3521e43b	6.0309293e-07
1	0x350cbd98	5.242996e-07
2	0x3506d038	5.022189e-07
3	0x34bab3ce	3.4776025e-07
4	0x34815565	2.4090255e-07
5	0x34c9f549	3.7617636e-07
6	0x34d55d95	3.9742432e-07
7	0x341bbaba	1.450343e-07
8	0x3380e900	6.002847e-08
9	0x34514457	1.9489504e-07
10	0x34c1ff18	3.6134657e-07
11	0x34f431e7	4.548485e-07
12	0x350e8db9	5.3105356e-07
13	0x35409120	7.173676e-07
14	0x35805ba8	9.563419e-07
15	0x35b6d4f0	1.362203e-06
16	0x35df1c1e	1.6622978e-06
17	0x35fae7ce	1.8693916e-06
18	0x3612b9db	2.1863877e-06
19	0x36229f8c	2.423275e-06
20	0x36265a0b	2.478834e-06
21	0x36057665	1.988746e-06
22	0x35d1ab3a	1.5621547e-06
23	0x35e33e00	1.6930862e-06
24	0x3605b816	1.9925697e-06
25	0x35d31177	1.5725808e-06
26	0x3593236e	1.0962665e-06
27	0x359bc993	1.1607066e-06
28	0x35a27e1c	1.2106643e-06
29	0x3590a9a4	1.0778208e-06
30	0x35c28be1	1.4494836e-06
31	0x363158ea	2.642681e-06
32	0x3685af7e	3.984139e-06
33	0x368fa1e5	4.280579e-06
34	0x3683e7a7	3.931072e-06
35	0x3683ef15	3.931937e-06
36	0x3687d47f	4.0480513e-06
37	0x36873e12	4.0305395e-06
38	0x36975d4a	4.511011e-06
39	0x36c0f38c	5.7503985e-06
40	0x36dcf0d0	6.584545e-06
41	0x36d899f6	6.455225e-06
42	0x36cf439f	6.176953e-06
43	0x36bbf985	5.602082e-06
44	0x368d70b5	4.2152483e-06
45	0x36415894	2.88108e-06
46	0x360e288f	2.1183257e-06
47	0x35b76c24	1.3666036e-06
48	0x352351aa	6.084107e-07
49	0x34f61b11	4.5840764e-07
50	0x3522b276	6.06094e-07
51	0x34a8e774	3.1460843e-07
52	0x34528224	1.9605119e-07
53	0x34a6ad52	3.1046017e-07
54	0x34bd6318	3.5276094e-07
55	0x34ce5228	3.8430267e-07
56	0x34c429a8	3.6538154e-07
57	0x34be93ee	3.549789e-07
58	0x352dc031	6.47272e-07
59	0x3584df2c	9.899718e-07
60	0x358469eb	9.865593e-07
61	0x358291c2	9.728176e-07
62	0x3595e794	1.1168763e-06
63	0x35a863f7	1.2546069e-06
64	0x37f1f49c	2.8843344e-05
65	0x37f4f388	2.920047e-05
66	0x37ed5b38	2.8295079e-05
67	0x37e0e393	2.6808853e-05
68	0x37db6fcf	2.61589e-05
69	0x37d68d2b	2.5576524e-05
70	0x37e9205a	2.779083e-05
71	0x38046462	3.156474e-05
72	0x380d1774	3.3638862e-05
73	0x380e0e48	3.386874e-05
74	0x3803f286	3.14587e-05
75	0x37e010c8	2.6710695e-05
76	0x37cd4200	2.4468638e-05
77	0x37daccad	2.6082935e-05
78	0x37d888da	2.5812933e-05
79	0x37c1b46e	2.3091412e-05
80	0x37b40a2b	2.1462407e-05
81	0x37afd9a1	2.0962967e-05
82	0x37c59c23	2.3556937e-05
83	0x38005f62	3.060641e-05
84	0x3817c2dc	3.6182682e-05
85	0x381920ac	3.650847e-05
86	0x380dd268	3.3812976e-05
87	0x37f4c542	2.9178922e-05
88	0x37d88c2c	2.581448e-05
89	0x37c827ed	2.386045e-05
90	0x37aac655	2.0357935e-05
91	0x379389e8	1.7587983e-05
92	0x378742c7	1.612435e-05
93	0x3783fef9	1.5735148e-05
94	0x378a36c6	1.6476388e-05
95	0x37870a82	1.6098147e-05
96	0x3771f30b	1.4421307e-05
97	0x376d3877	1.4139448e-05
98	0x376a296d	1.3957132e-05
99	0x373933cb	1.1038918e-05
100	0x3702b629	7.791016e-06
101	0x36ad6388	5.1673887e-06
102	0x3627b5d9	2.4990788e-06
103	0x358449d5	9.856254e-07
104	0x34cf0f66	3.8567958e-07
105	0x3502eba0	4.8771653e-07
106	0x359cb62c	1.1675925e-06
107	0x360799ed	2.0206164e-06
108	0x362befe2	2.5620616e-06
109	0x3619b0ee	2.2901763e-06
110	0x35f1bd05	1.8010911e-06
111	0x35b3918e	1.3378901e-06
112	0x3594fa5e	1.1099726e-06
113	0x35b10ed9	1.3191849e-06
114	0x35fcc544	1.8832875e-06
115	0x362f85fc	2.6155021e-06
116	0x368c627c	4.18379e-06
117	0x36d1301b	6.2342856e-06
118	0x36ef3105	7.1284617e-06
119	0x37089a58	8.142168e-06
120	0x3724ce68	9.823219e-06
121	0x372496df	9.810289e-06
122	0x370770e6	8.072913e-06
123	0x36e91ca4	6.9472753e-06
124	0x36c62f42	5.9063614e-06
125	0x3699b696	4.581011e-06
126	0x36977fcc	4.515028e-06
127	0x36a5cfa8	4.9415576e-06
128	0x34bfd970	3.573473e-07
129	0x34f5d03c	4.5786317e-07
130	0x34d11ba1	3.8949386e-07
131	0x34c10381	3.59516e-07
132	0x34dab6d9	4.0738703e-07
133	0x34e4a25e	4.2586447e-07
134	0x34f7a641	4.61283e-07
135	0x3516a1bd	5.6114715e-07
136	0x35188956	5.682426e-07
137	0x35036ecb	4.896253e-07
138	0x350640df	5.001329e-07
139	0x3507cd22	5.0589927e-07
140	0x34f36cb6	4.5341375e-07
141	0x34c6b2ca	3.701046e-07
142	0x34c0db50	3.5922358e-07
143	0x34dce734	4.1146416e-07
144	0x34bae276	3.4809972e-07
145	0x347c7469	2.3511679e-07
146	0x3481942f	2.413594e-07
147	0x34957918	2.784152e-07
148	0x34be2e46	3.5423926e-07
149	0x34cc82f1	3.8093233e-07
150	0x3474acb2	2.2787097e-07
151	0x334063ab	4.479413e-08
152	0x318c3062	4.0800368e-09
153	0x3287c93a	1.5807576e-08
154	0x3385e51a	6.2349685e-08
155	0x33aea94a	8.1333e-08
156	0x339737fa	7.0416675e-08
157	0x336ed7be	5.560991e-08
158	0x339c0277	7.2647644e-08
159	0x340de7ca	1.3215973e-07
160	0x34ac8f26	3.214165e-07
161	0x350d5491	5.2649654e-07
162	0x34fe5edc	4.7380206e-07
163	0x34c210fb	3.614767e-07
164	0x34bd88f0	3.5303628e-07
165	0x34fb0c78	4.6761465e-07
166	0x3532d3d0	6.6618395e-07
167	0x35458422	7.35805e-07
168	0x3510d8ca	5.395965e-07
169	0x349d2902	2.9273366e-07
170	0x341a5a20	1.4375155e-07
171	0x33e46870	1.06360744e-07
172	0x33fce0d2	1.1775559e-07
173	0x34091590	1.2766964e-07
174	0x33fe06ca	1.18290316e-07
175	0x33f704ec	1.1502729e-07
176	0x34332d3a	1.6687127e-07
177	0x3458b724	2.0183194e-07
178	0x341eeb49	1.4800493e-07
179	0x341625e4	1.3983623e-07
180	0x343a721b	1.7364111e-07
181	0x34663de0	2.1442929e-07
182	0x34a20890	3.0181081e-07
183	0x34b7a8ad	3.4209134e-07
184	0x34a355bc	3.0423496e-07
185	0x34829911	2.4325757e-07
186	0x343ba636	1.74762e-07
187	0x3409e0b9	1.2840873e-07
188	0x33e5e31f	1.07049566e-07
189	0x33dee1c5	1.0378748e-07
190	0x34069db5	1.2537096e-07
191	0x341ec0fe	1.4785107e-07
192	0x34e40434	4.2471368e-07
193	0x34ae9935	3.2521498e-07
194	0x3501d390	4.836411e-07
195	0x35466ec0	7.392191e-07
196	0x359af94b	1.1546448e-06
197	0x35ad27b0	1.2901055e-06
198	0x35842d1f	9.847898e-07
199	0x355d61e7	8.247138e-07
200	0x356f9d8b	8.9263693e-07
201	0x35600297	8.345027e-07
202	0x355f426d	8.3170636e-07
203	0x356d9ede	8.852056e-07
204	0x356e50bc	8.8779393e-07
205	0x3527b713	6.2478756e-07
206	0x34cecb22	3.851829e-07
207	0x354d1f39	7.6413886e-07
208	0x35df339d	1.6629816e-06
209	0x362f42f6	2.6116008e-06
210	0x365eff28	3.3229098e-06
211	0x366397f2	3.391408e-06
212	0x36179d15	2.2592187e-06
213	0x35b12fee	1.3201477e-06
214	0x3592ac6c	1.0928029e-06
215	0x3542050a	7.2277965e-07
216	0x34e629af	4.2871167e-07
217	0x353e56d4	7.090687e-07
218	0x35ac2659	1.2826159e-06
219	0x35d8c640	1.6150952e-06
220	0x3600b8a2	1.9180957e-06
221	0x35b55806	1.3511169e-06
222	0x354eb8d9	7.700997e-07
223	0x35494178	7.4973605e-07
224	0x35987aea	1.1360655e-06
225	0x36114c5e	2.1651135e-06
226	0x363aad08	2.7816877e-06
227	0x36248af4	2.4518786e-06
228	0x35a20a58	1.2072951e-06
229	0x34c0e88e	3.5931993e-07
230	0x3329c8c7	3.9530985e-08
231	0x33d443f2	9.8843785e-08
232	0x351f5138	5.9350305e-07
233	0x3555e1bf	7.967719e-07
234	0x350e4651	5.3001446e-07
235	0x341919d4	1.4258632e-07
236	0x31817f15	3.7688417e-09
237	0x3474219e	2.27365e-07
238	0x357c3804	9.395883e-07
239	0x35fdef6c	1.891965e-06
240	0x362adb57	2.5459647e-06
241	0x3635406a	2.7008596e-06
242	0x35c4b6d3	1.4656347e-06
243	0x34d4925e	3.9594573e-07
244	0x34705e5a	2.2386067e-07
245	0x34067cc8	1.2525118e-07
246	0x331a137c	3.587364e-08
247	0x32e3e8da	2.6532167e-08
248	0x34ed0872	4.4150835e-07
249	0x35598f73	8.1047546e-07
250	0x357580e2	9.145716e-07
251	0x35bdecba	1.4150494e-06
252	0x3639edfe	2.7705678e-06
253	0x36a71d6e	4.980414e-06
254	0x36dc727a	6.5698378e-06
255	0x36e27a15	6.749537e-06

exp_avg f4 [8]
0	0xb5b0f4d2	-1.3184274e-06
1	0x32fc71ae	2.9388357e-08
2	0x346099ab	2.091753e-07
3	0xb285da70	-1.5582572e-08
4	0xb5525ab1	-7.836307e-07
5	0x33e185a4	1.0501688e-07
6	0xb52b2122	-6.375068e-07
7	0x33e5c138	1.069879e-07

exp_avg_sq f4 [8]
0	0x2a068db8	1.195076e-13
1	0x25d3ab1b	3.671861e-16
2	0x27d6fe66	5.967275e-15
3	0x28c68d38	2.204366e-14
4	0x29c1918e	8.5961715e-14
5	0x26ca5263	1.4038897e-15
6	0x29601f37	4.9765066e-14
7	0x281236f3	8.116543e-15

exp_avg f4 [8]
0	0x302428f6	5.972106e-10
1	0xaf3851ec	-1.6763807e-10
2	0xaf63d70b	-2.0721928e-10
3	0xb03dc290	-6.903429e-10
4	0xb00ab852	-5.046604e-10
5	0x2e95c290	6.810297e-11
6	0xafb51eb8	-3.2945535e-10
7	0x30b80000	1.3387762e-09

exp_avg_sq f4 [8]
0	0x1ed8875d	2.2925875e-20
1	0x1eef8ad3	2.5362526e-20
2	0x1df99bb4	6.6070744e-21
3	0x1f0e61ab	3.015046e-20
4	0x1e9bae56	1.6483367e-20
5	0x1e018da9	6.858498e-21
6	0x1ee2690f	2.3972132e-20
7	0x2045809d	1.6729104e-19
