checkpoints/best_model-v4.ckpt (torch, 37554 bytes, 39 tensors)

model.block1.0.weight f4 [8, 1, 1, 64]
0.09422122 0.0056988397 -0.029955603 -0.06272905 -0.08658885 0.061879985 0.029051825 -0.029885659
-0.22493915 0.017251937 0.015792934 0.03869865 -0.12762558 -0.005100378 -0.045565 -0.048131727
0.10286773 -0.008202967 0.013847461 -0.07608266 0.039019704 0.06898222 -0.02177888 -0.04483213
-0.04267686 0.046262734 -0.1253018 -0.013874886 -0.033391796 -0.063396014 -0.03178308 -0.11291882
0.09402361 0.013033779 0.027889512 0.05269415 -0.023968406 0.0010150794 -0.07378459 -0.004551862
-0.00043744396 0.010649085 0.059100498 0.09257461 -0.025948595 -0.039234784 -0.049699113 0.053836226
-0.10449595 -0.036203116 0.11552949 -0.032090522 -0.054179635 -0.044253506 -0.032407254 -0.034445893
0.0034970583 0.047331475 -0.1299725 -0.08819492 -0.020350952 0.0029084904 -0.036910404 0.0093975905
-0.0518248 0.013043496 0.019243624 0.00019135763 -0.006998553 -0.0926324 0.006476994 -0.10268646
0.098656885 0.08534647 0.031570036 -0.05714326 -0.07635568 -0.02954264 0.112051986 -0.05198307
0.034722913 -0.04400871 0.022149475 0.09254349 0.022092693 0.045389753 0.035182428 0.018943964
0.0036477067 -0.02697612 -0.0036429213 -0.11305263 0.09312479 -0.072275065 -0.0046621743 0.038936857
-0.022391103 -0.03602508 -0.03655276 0.05062905 -0.106541365 0.084103614 -0.00031341185 -0.086928055
0.1076842 0.094019316 -0.023486346 0.10063417 -0.19161433 0.10335407 0.017766098 0.09479049
0.14254554 -0.053098492 -0.013166921 0.045254704 0.06609515 -0.012007332 0.063353255 0.03038195
0.06452045 0.03244644 -0.038967058 0.08071868 -0.060071044 0.05741504 -0.085846916 -0.11823684
0.1455992 -0.014591762 0.032310143 0.032051113 -0.023549944 -0.03598324 0.01808632 -0.031048864
0.008879289 0.13744165 0.056047905 -0.036559675 -0.04296828 0.01674009 -0.03952098 -0.10404964
0.093796015 0.0700992 -0.04474717 -0.007356885 0.11077491 0.012164148 -0.02408779 -0.030216264
0.05515068 0.037619226 0.055139188 -0.12985651 0.13525677 0.03697973 0.1338944 0.06676342
0.08168932 -0.0053127506 -0.077416 -0.014775037 0.06835637 0.01796276 0.06630119 0.1004088
0.033436887 0.038258955 0.07779559 0.047403388 -0.036876142 0.047129873 0.14259909 0.038643725
0.003870948 0.047605656 0.015893055 -0.032728538 -0.04825444 0.01123322 0.040043015 -0.009645511
-0.09816782 -0.07860716 0.062117517 0.012549378 0.044947807 -0.09764175 -0.120897524 -0.03075477
-0.049321596 -0.056520995 -0.0121794185 0.032566007 -0.049083035 0.005038001 -0.06773745 -0.028069366
0.04441385 -0.04229031 -0.051099237 -0.025158955 -0.058063816 -0.008506487 -0.045492567 0.0054821908
0.007256724 -0.10136875 0.0023651505 0.03554538 0.0031381445 0.05175551 0.056123536 0.05772783
-0.15108822 0.017009115 0.05577797 0.0051570227 -0.06206699 -0.0023792344 -0.04660234 -0.06184379
0.01858511 -0.029120669 0.016947642 -0.011636154 -0.04367802 0.0015638261 0.06638329 -0.061631963
-0.05112959 -0.11033697 -0.023719989 0.057882793 0.00043415432 -0.033538073 -0.0049116546 0.0058632665
0.05072539 -0.007764349 -0.00025812816 -0.047694527 -0.0020318432 0.097128786 -0.14428945 -0.020757265
0.01659694 -0.01413122 0.035936724 -0.09015611 0.006253035 -0.005454137 0.0854315 -0.016508384
00000000: 0ef7 c03d 55bd ba3b 7465 f5bc 1778 80bd
00000010: 7f55 b1bd de75 7d3d 18fe ed3c c5d2 f4bc
00000020: 7356 66be ef53 8d3c 2f60 813c 7a82 1e3d
00000030: 48b0 02be 1221 a7bb 5ea2 3abd c625 45bd
00000040: 51ac d23d bd65 06bc 76e0 623c 3ad1 9bbd
00000050: 20d3 1f3d 8d46 8d3d 9f69 b2bc e5a1 37bd
00000060: eecd 2ebd fe7d 3d3d 1d4f 00be 7d53 63bc
00000070: d6c5 08bd c5d5 81bd fa2e 02bd fb41 e7bd
00000080: 738f c03d a28b 553c 8c78 e43c d2d5 573d
00000090: 6459 c4bc 6a0c 853a 601c 97bd c927 95bb
000000a0: bc58 e5b9 8079 2e3c 5d13 723d c297 bd3d
000000b0: 2692 d4bc a7b4 20bd 4c91 4bbd 6083 5c3d
000000c0: f901 d6bd b849 14bd ba9a ec3d 5a71 03bd
000000d0: 77eb 5dbd 2a43 35bd 78bd 04bd 2317 0dbd
000000e0: e72e 653b a6de 413d 8317 05be 8a9f b4bd
000000f0: 0ab7 a6bc 5f9c 3e3b 5d2f 17bd 5af8 193c
00000100: 3e46 54bd 63b4 553c cea4 9d3c 2ca7 4839
00000110: 1e54 e5bb 0eb6 bdbd f73c d43b 474d d2bd
00000120: 9f0c ca3d 21ca ae3d 954f 013d 0d0f 6abd
00000130: 5e60 9cbd 6803 f2bc 837b e53d 33ec 54bd
00000140: 9d39 0e3d 7a42 34bd d172 b53c 7187 bd3d
00000150: bcfb b43c 9bea 393d 731b 103d 5f30 9b3c
00000160: 5d0e 6f3b 06fd dcbc 14be 6ebb 2388 e7bd
00000170: 36b8 be3d f304 94bd 27c5 98bb 417c 1f3d
00000180: 8c6d b7bc 098f 13bd 59b8 15bd 6860 4f3d
00000190: 5c32 dabd 843e ac3d 6d51 a4b9 5607 b2bd
000001a0: 8989 dc3d 338d c03d 7066 c0bc 4a19 ce3d
000001b0: 8c36 44be 4cab d33d 358a 913c 8421 c23d
000001c0: 75f7 113e ce7d 59bd 12ba 57bc ff5c 393d
000001d0: e55c 873d 67ba 44bc 5abf 813d 91e3 f83c
000001e0: 4c23 843d 8fe6 043d ec9b 1fbd d64f a53d
000001f0: 0e0d 76bd 082c 6b3d 82d0 afbd 2826 f2bd
00000200: f517 153e 4912 6fbc a457 043d 0748 033d
00000210: d0eb c0bc 2963 13bd c329 943c 305a febc
00000220: 707a 113c 81bd 0c3e 7d92 653d 99bf 15bd
00000230: 82ff 2fbd 8322 893c c0e0 21bd fa17 d5bd
00000240: 2018 c03d 2b90 8f3d cf48 37bd 0612 f1bb
00000250: f5dd e23d 224c 473c c253 c5bc 1988 f7bc
00000260: aee5 613d 9e16 1a3d a1d9 613d 1bf9 04be
00000270: c080 0a3e 0f78 173d 9d1b 093e 43bb 883d
00000280: bb4c a73d 9516 aebb 488c 9ebd ff12 72bc
00000290: 6dfe 8b3d a326 933c ebc8 873d 21a3 cd3d
000002a0: 1ef5 083d 6cb5 1c3d 4b53 9f3d 0e2a 423d
000002b0: 700b 17bd 410b 413d 7f05 123e e248 1e3d
000002c0: bbaf 7d3b 26fe 423d 2732 823c 5c0e 06bd
000002d0: 73a6 45bd 8a0b 383c 2504 243d 3508 1ebc
000002e0: 360c c9bd cafc a0bd f06e 7e3d e89b 4d3c
000002f0: 311b 383d 66f8 c7bd 1f99 f7bd 6df1 fbbc
00000300: 7105 4abd 8f82 67bd 2f8c 47bc ef63 053d
00000310: 4b0b 49bd d115 a53b efb9 8abd baf1 e5bc
00000320: 4ceb 353d 9b38 2dbd 6f4d 51bd 271a cebc
00000330: 53d4 6dbd cb5e 0bbc 6a56 3abd f3a3 b33b
00000340: d0c9 ed3b 6b9a cfbd a400 1b3b 0898 113d
00000350: 54a9 4d3b 96fd 533d cbe1 653d 0474 6c3d
00000360: dfb6 1abe b356 8b3c 7177 643d 3efc a83b
00000370: f539 7ebd eeec 1bbb 18e2 3ebd ea4f 7dbd
00000380: cd3f 983c 788e eebc c8d5 8a3c 91a5 3ebc
00000390: b9e7 32bd 4cf9 cc3a f6f3 873d cc71 7cbd
000003a0: 436d 51bd 59f8 e1bd 6c50 c2bc 8216 6d3d
000003b0: 359f e339 385f 09bd f2f1 a0bb a520 c03b
000003c0: 6dc5 4f3d 156c febb 6055 87b9 565b 43bd
000003d0: ac28 05bb 75eb c63d 9dc0 13be 240b aabc
000003e0: 4ef6 873c a286 67bc 6332 133d c4a3 b8bd
000003f0: 42e6 cc3b 9eb8 b2bb b6f6 ae3d 973c 87bc

model.block1.1.weight f4 [8]
1.0088433 0.9991818 0.9859613 1.0170251 1.0023007 1.0000192 1.0069708 0.9950801
00000000: c721 813f 61ca 7f3f f667 7c3f e12d 823f
00000010: 644b 803f a100 803f 6be4 803f 92bd 7e3f

model.block1.1.bias f4 [8]
-0.0005286535 -0.0004349992 -0.0015876382 0.0009341737 -0.0010562715 5.0731396e-05 -0.0012786249 -0.004519632
00000000: 5695 0aba 9b10 e4b9 4c18 d0ba 56e3 743a
00000010: 9772 8aba 6cc8 5438 8897 a7ba 6c19 94bb

model.block1.1.running_mean f4 [8]
6.6021113 -2.78943 -7.7422566 5.5699534 2.2236092 -1.548367 1.8531168 3.9113245
00000000: 7f44 d340 0586 32c0 91c0 f7c0 0f3d b240
00000010: 9d4f 0e40 e430 c6bf ee32 ed3f 2453 7a40

model.block1.1.running_var f4 [8]
777.7865 412.05484 1633.4415 557.8514 262.1477 310.92834 135.58788 630.4467
00000000: 5672 4244 0507 ce43 212e cc44 7d76 0b44
00000010: e812 8343 d476 9b43 7f96 0743 979c 1d44

model.block1.2.weight f4 [16, 1, 16, 1]
0.08073087 0.10022641 0.044612013 -0.09023664 0.062406767 0.24472179 -0.039684936 0.05804192
-0.07346349 0.13647015 -0.038695995 0.09242859 0.12998982 -0.040024422 0.022642748 -0.05499813
-0.14524546 0.022955567 0.09549099 0.031911734 -0.09017748 -0.051801346 0.07956368 -0.007441026
-0.037326097 0.06301649 0.023892144 -0.017279632 0.00014245353 0.04571841 0.10256045 -0.047065128
0.13991438 0.19013554 0.019221019 -0.117548 -0.11547388 0.04930564 -0.052958697 -0.018274507
0.15818904 0.14656824 0.0627949 -0.043528177 -0.062103715 -0.0023051805 0.12998283 0.1579394
-0.15883169 0.037016504 -0.07388952 -0.07866753 -0.110765494 0.03273849 -0.10578421 0.019879978
0.054645136 -0.16765906 0.08704511 0.07293514 0.035538726 -0.08629611 0.005383092 0.032622308
0.09269921 0.041032963 -0.041468736 -0.019103868 -0.07137739 -0.06482322 -0.028841622 -0.023793628
-0.025006501 -0.037571404 0.13577251 -0.100011945 0.06187321 -0.0048455503 -0.0062491265 -0.05508085
0.069242716 0.11103284 0.11745769 0.10760795 -0.07783623 -0.011583766 0.055854216 -0.1713763
0.01767284 0.2570028 0.020801345 -0.03813027 0.0028109117 -0.0925203 -0.017376998 0.043663047
-0.022255683 -0.1625446 -0.037240814 -0.069846466 -0.048095904 0.1078441 0.08400561 0.086162806
0.08625848 0.04289397 0.0725508 0.08329335 -0.02077035 0.001931238 0.010229302 -0.11733951
-0.08325385 -0.2193646 0.022276433 0.06902571 0.052567437 0.17041177 -0.100842 0.18772402
0.12698793 -0.026902096 -0.02529396 -0.16369046 -0.052385777 -0.04194717 -0.18037099 0.04322327
-0.05703022 -0.08695321 0.008561864 -0.011036694 0.05863811 0.090878196 -0.009589663 -0.13416134
-0.01846022 0.011653478 -0.11283328 0.08779149 0.0020214205 0.02824953 0.00989797 -0.07467574
-0.0008658507 0.003797199 0.15463328 0.047379795 0.11680166 -0.031283766 -0.11378564 0.026176661
0.017410534 0.07853467 -0.011622807 -0.043720495 -0.043595582 0.03458846 0.041113943 0.02749037
0.041965265 -0.033444107 -0.26603195 -0.0021186764 0.14583212 0.090102546 -0.022498561 0.029468728
-0.082283944 -0.07993461 -0.12270041 0.004991918 -0.02460082 -0.10391183 -0.014500594 -0.08324929
0.019814549 -0.123045824 0.03577701 -0.024656024 -0.051424433 0.10645525 0.07131227 0.060474448
-0.015217377 -0.06932629 -0.0027880187 0.16210482 -0.05018199 0.06847123 0.14532891 -0.023613114
0.049343735 -0.031867854 0.11451947 -0.10208464 -0.1156307 -0.06381658 -0.06589178 0.02273797
0.027827093 0.12331453 -0.038498968 0.06323954 -0.038604613 0.009678995 0.10349145 0.18371084
0.07267637 -0.087173514 -0.15007263 0.0335582 0.09457745 0.08592304 -0.08382244 -0.15494816
-0.015185608 0.017486908 -0.015290523 -0.0059771473 0.00095596444 0.09022221 0.047644913 -0.062431294
-0.038712595 0.060385827 -0.12388815 -0.14558259 -0.076149896 -0.07417028 -0.09854734 0.057617124
-0.20004885 0.00727146 -0.1747147 -0.01045876 -0.053755883 -0.0047787707 -0.056152757 0.020833392
0.097939774 -0.05829267 -0.1394648 -0.004909462 0.010378286 0.01889337 -0.061793532 0.10577051
-0.06678035 -0.14498608 -0.041731015 -0.11873709 -0.19070867 -0.015524832 -0.051941443 0.081705265
00000000: 3a56 a53d 8143 cd3d 16bb 363d fdcd b8bd
00000010: 3d9e 7f3d 5998 7a3e ac8c 22bd 5dbd 6d3d
00000020: 0774 96bd d5be 0b3e b17f 1ebd 334b bd3d
00000030: 0d1c 053e a6f0 23bd 497d b93c b845 61bd
00000040: 3abb 14be 500d bc3c c890 c33d e1b5 023d
00000050: f8ae b8bd a62d 54bd 48f2 a23d dad3 f3bb
00000060: 40e3 18bd ca0e 813d 75b9 c33c 048e 8dbc
00000070: 945f 1539 3a43 3b3d 370b d23d 5dc7 40bd
00000080: b745 0f3e e4b2 423e 6675 9d3c 01bd f0bd
00000090: 927d ecbd b6f4 493d 38eb 58bd 6bb4 95bc
000000a0: 4ffc 213e fc15 163e 9d9a 803d 9a4a 32bd
000000b0: 7760 7ebd 8312 17bb 381a 053e deba 213e
000000c0: c6a4 22be 9e9e 173d 6353 97bd 711c a1bd
000000d0: 05d9 e2bd cb18 063d 64a5 d8bd 56db a23c
000000e0: 94d3 5f3d d1ae 2bbe b544 b23d 055f 953d
000000f0: 0e91 113d 04bc b0bd a664 b03b f89e 053d
00000100: 15d9 bd3d 2e12 283d 1fdb 29bd b77f 9cbc
00000110: 4f2e 92bd 09c2 84bd 4445 ecbc dbea c2bc
00000120: 6fda ccbc 79e4 19bd f307 0b3e 10d3 ccbd
00000130: c36e 7d3d 6cc7 9ebb 79c5 ccbb 759c 61bd
00000140: 20cf 8d3d 3065 e33d a88d f03d 8f61 dc3d
00000150: 9a68 9fbd d6c9 3dbc 64c7 643d 457d 2fbe
00000160: a2c6 903c df95 833e 9567 aa3c 7c2e 1cbd
00000170: 4637 383b 487b bdbd 355a 8ebc 06d8 323d
00000180: 8d51 b6bc 1772 26be d389 18bd aa0b 8fbd
00000190: 3600 45bd 5edd dc3d 220b ac3d 2076 b03d
000001a0: 49a8 b03d 96b1 2f3d 8495 943d b495 aa3d
000001b0: 9526 aabc 9821 fd3a cd98 273c b24f f0bd
000001c0: ff80 aabd 1da1 60be 117d b63c 5a5d 8d3d
000001d0: f450 573d 6c80 2e3e 4086 cebd ba3a 403e
000001e0: 2009 023e c961 dcbc 4735 cfbc 799e 27be
000001f0: 7892 56bd ccd0 2bbd 2cb3 38be e20a 313d
00000200: 8598 69bd 8614 b2bd 0f47 0c3c 40d3 34bc
00000210: 842e 703d 591e ba3d f61d 1dbc 9761 09be
00000220: e339 97bc 3bee 3e3c 2215 e7bd 06cc b33d
00000230: cf79 043b 8f6b e73c 182b 223c 98ef 98bd
00000240: 42fa 62ba 6eda 783b 3058 1e3e 5111 423d
00000250: b535 ef3d 6823 00bd 7208 e9bd 7070 d63c
00000260: 89a0 8e3c c9d6 a03d 966d 3ebc 4314 33bd
00000270: 4891 32bd a1ac 0d3d 1867 283d 7c33 e13c
00000280: c5e3 2b3d b0fc 08bd 5735 88be 7ed9 0abb
00000290: 0455 153e af87 b83d e74e b8bc 6768 f13c
000002a0: 7c84 a8bd c2b4 a3bd 5a4a fbbd 3e93 a33b
000002b0: a987 c9bc bacf d4bd e693 6dbc 9b7e aabd
000002c0: 1f52 a23c 73ff fbbd ea8a 123d 6efb c9bc
000002d0: 6da2 52bd 3605 da3d 2b0c 923d 0eb4 773d
000002e0: 4e52 79bc f1fa 8dbd 31b7 36bb cefe 253e
000002f0: a18b 4dbd a53a 8c3d 1ad1 143e 4a70 c1bc
00000300: a81c 4a3d de87 02bd 2f89 ea3d c011 d1bd
00000310: cacf ecbd 44b2 82bd 45f2 86bd fb44 ba3c
00000320: a5f5 e33c 548c fc3d 18b1 1dbd bb83 813d
00000330: df1f 1ebd a694 1e3c 53f3 d33d b21e 3c3e
00000340: 59d7 943d 0788 b2bd a4ac 19be 5374 093d
00000350: d2b1 c13d 6bf8 af3d 19ab abbd bbaa 1ebe
00000360: 0ecd 78bc b440 8f3c 1a85 7abc f2db c3bb
00000370: b099 7a3a 6cc6 b83d 5027 433d f5b7 7fbd
00000380: 1991 1ebd 2157 773d 12b9 fdbd 9a13 15be
00000390: 7af4 9bbd 96e6 97bd 30d3 c9bd efff 6b3d
000003a0: 9bd9 4cbe 6d45 ee3b 69e8 32be 385b 2bbc
000003b0: 212f 5cbd 3c97 9cbb 6f00 66bd caaa aa3c
000003c0: a694 c83d 4bc4 6ebd dccf 0ebe 8ddf a0bb
000003d0: b009 2a3c 45c6 9a3c 371b 7dbd 369e d83d
000003e0: 23c4 88bd 3b77 14be 24ee 2abd 6e2c f3bd
000003f0: 2249 43be dd5b 7ebc 8dc0 54bd 1755 a73d

model.block1.3.weight f4 [16]
1.0079583 1.0074028 0.9944999 1.0020531 0.9842288 0.98811805 1.014677 1.0167223
1.0018944 0.9963103 0.9947655 1.00071 0.99783736 1.0073857 0.99644536 0.99774325
00000000: c704 813f 93f2 803f 8c97 7e3f 4743 803f
00000010: 6bf6 7b3f 4ef5 7c3f f0e0 813f f523 823f
00000020: 133e 803f 310e 7f3f f4a8 7e3f 4417 803f
00000030: 4572 7f3f 04f2 803f 0b17 7f3f 1a6c 7f3f

model.block1.3.bias f4 [16]
-0.0071465373 0.010353989 0.01038009 0.0006711576 -0.011857005 -0.004443713 0.009081082 0.015815973
0.0056842263 -0.002206976 0.00060358574 -0.006929157 -0.0035256296 0.0044863066 -0.001706361 -0.017270587
00000000: 802d eabb c7a3 293c 4111 2a3c a0f0 2f3a
00000010: e243 42bc 919c 91bb d2c8 143c 8090 813c
00000020: bf42 ba3b eaa2 10bb f439 1e3a fb0d e3bb
00000030: 400e 67bb de01 933b f9a7 dfba 0c7b 8dbc

model.block1.3.running_mean f4 [16]
0.03552474 -0.015528981 -0.045438077 -0.03225284 -0.04560855 0.010362287 0.0060085226 -0.18764606
0.029694362 -0.034088407 0.011861758 -0.0072544385 0.010684459 0.058032073 0.006502448 -0.036781896
00000000: 6482 113d 446d 7ebc 471d 3abd 8e1b 04bd
00000010: 08d0 3abd 95c6 293c 24e3 c43b 4a26 40be
00000020: 9741 f33c 49a0 0bbd d257 423c a4b6 edbb
00000030: de0d 2f3c 0ab3 6d3d 7d12 d53b 9da8 16bd

model.block1.3.running_var f4 [16]
0.26925945 0.017463628 0.30966276 0.14329833 0.032731842 0.17532201 0.02654795 0.20437051
0.03394425 0.0973906 0.18664056 0.088851266 0.10259401 0.034444682 0.7059869 0.26120684
00000000: 60dc 893e e20f 8f3c 1e8c 9e3e ccbc 123e
00000010: d311 063d 9d87 333e 167b d93c 8146 513e
00000020: 2009 0b3d b974 c73d b41e 3f3e a7f7 b53d
00000030: cf1c d23d de15 0d3d 8fbb 343f e7bc 853e

model.block2.0.weight f4 [16, 1, 1, 16]
-0.028631197 -0.0048448592 0.07338722 -0.0028986805 0.088304736 0.16380861 -0.014964526 0.041552097
-0.07800635 0.05411277 -0.0012033061 -0.15109296 0.09079103 -0.07742041 0.16486296 -0.07271852
-0.01517462 0.12650575 0.027021978 0.1031214 0.10398188 -0.07568124 -0.058019243 0.008083986
-0.08838458 -0.100344166 -0.16971113 -0.10812051 0.04858966 0.065943174 -0.0004254686 0.003777378
0.033928227 0.08754933 0.13021113 -0.09509178 -0.0006884907 0.085442044 0.06534641 -0.1485379
-0.0104601905 0.013086045 0.0032473626 -0.07875953 0.007462493 0.0009676133 -0.107604675 -0.22057919
0.012453854 -0.061222725 -0.14088699 -0.14147256 -0.076624975 -0.07351648 0.010206806 0.057187863
0.12652813 0.038015656 -0.06571277 0.032337543 0.003902363 0.030687565 0.11163641 0.05355332
0.010557726 0.12880805 -0.04235071 -0.23742446 0.031098183 -0.10296641 -0.12519923 -0.08910003
0.050403155 0.02227652 -0.030619027 -0.020679051 0.23275422 0.061064534 -0.11309708 -0.115277044
-0.011635218 0.2420218 0.075809576 -0.08893457 -0.107313745 -0.05578772 -5.8161095e-05 0.038161583
-0.0072925347 -0.044577118 0.0024690903 0.05696522 0.17205434 -0.0816988 0.08945183 -0.11886882
0.0017727272 -0.12179369 0.13882965 0.030251034 0.10183434 -0.022256952 0.16463451 -0.063285835
0.08148144 -0.04658387 0.25581136 -0.09308201 0.09819777 -0.028313119 -0.11902849 -0.046004068
-0.116247155 -0.037299763 0.065505475 -0.072881304 0.06949959 0.06004011 -0.0741891 -0.090047985
-0.05781027 0.11852874 0.04914399 -0.00025580492 -0.13201976 0.03080829 -0.084343165 -0.12665771
-0.13684714 0.03442121 0.050703693 0.044671573 -0.073867306 -0.10485246 0.0077468655 0.104723416
-0.052137844 -0.014918301 -0.025469337 0.0015954714 0.06461608 -0.058232665 0.11598695 0.057754897
0.004163109 -0.052349523 -0.12600501 0.13975503 -0.20526668 0.12100523 -0.05375952 0.02847934
-0.05703341 -0.13249856 0.061780322 -0.0675427 0.06270563 0.06320894 -0.011679222 -0.026802413
0.013543001 -0.08003878 0.08284125 0.040587623 -0.10771332 0.010348831 0.08993928 -0.039709188
-0.09927712 0.028180612 0.03895683 0.007872875 0.1696124 0.011071208 -0.042730484 0.09196046
-0.033072263 -0.054297943 -0.049896684 -0.02733093 -0.07461366 -0.06195164 -0.035698812 -0.027696418
0.019563863 -0.04989611 -0.06578078 0.09678898 0.054556936 0.0357848 0.03535886 0.0122592915
-0.06443007 0.07942178 -0.08564984 -0.023874927 0.102346696 -0.026913695 -0.15445909 -0.11660069
-0.0047770534 -0.15854917 0.15149006 -0.1061959 -0.107540034 -0.076554514 -0.04581093 0.038427263
-0.038404267 0.009621594 -0.18580788 -0.0075059296 0.0018275024 -0.13746764 -0.026548505 -0.17595586
0.09244773 0.036397304 0.0305855 0.10627423 0.015459833 -0.027396895 0.18446234 -0.018323125
0.0074859993 -0.012541109 0.0018712735 -0.06553172 -0.12266851 -0.024372645 0.012176912 -0.080653965
0.13986358 -0.03196307 -0.0066327527 -0.051279426 -0.12455817 -0.023779258 0.012317814 -0.039786313
0.061419524 -0.043578744 0.094008714 -0.084608965 -0.07075613 -0.007796657 0.11085092 0.18078572
0.11626358 0.070782095 0.13938266 -0.095711835 -0.0034890012 0.04142117 -0.013226336 0.10121845
00000000: f98b eabc a0c1 9ebb 0a4c 963d caf7 3dbb
00000010: 1dd9 b43d 72bd 273e c52d 75bc 8832 2a3d
00000020: cbc1 9fbd 5aa5 5d3d 41b8 9dba 1db8 1abe
00000030: a6f0 b93d 988e 9ebd d6d1 283e 73ed 94bd
00000040: f89e 78bc b98a 013e 325d dd3c 5031 d33d
00000050: 74f4 d43d c4fe 9abd 96a5 6dbd b272 043c
00000060: fa02 b5bd 3e81 cdbd c1c8 2dbe 496e ddbd
00000070: f405 473d 370d 873d 6e11 dfb9 e38d 773b
00000080: 53f8 0a3d 104d b33d 1156 053e 7bbf c2bd
00000090: d47b 34ba 3dfc ae3d 57d4 853d 521a 18be
000000a0: 3861 2bbc da66 563c b4d1 543b ad4c a1bd
000000b0: ee87 f43b 6ea7 7d3a d75f dcbd 83df 61be
000000c0: 400b 4c3c aec4 7abd ae44 10be 2fde 10be
000000d0: 8eed 9cbd cf8f 96bd 723a 273c d23d 6a3d
000000e0: 9790 013e 4eb6 1b3d 6b94 86bd 5f74 043d
000000f0: c9be 7f3b 7d64 fb3c a1a1 e43d ba5a 5b3d
00000100: 50fa 2c3c 42e6 033e f077 2dbd 661f 73be
00000110: 9ec1 fe3c 0ee0 d2bd 3a34 00be 147a b6bd
00000120: 8a73 4e3d 407d b63c c1d4 fabc 1d67 a9bc
00000130: 1f57 6e3e ce1e 7a3d 719f e7bd 5f16 ecbd
00000140: a4a1 3ebc 90d4 773e 0d42 9b3d 5423 b6bd
00000150: 4fc7 dbbd aa81 64bd 00f2 73b8 524f 1c3d
00000160: 37f6 eebb 7f96 36bd 76d0 213b 5d54 693d
00000170: 032f 303e b351 a7bd 8532 b73d 7f71 f3bd
00000180: db5a e83a f86e f9bd 5c29 0e3e 04d1 f73c
00000190: 868e d03d 3654 b6bc f395 283e 019c 81bd
000001a0: bedf a63d bace 3ebd b5f9 823e c8a1 bebd
000001b0: ea1b c93d eaf0 e7bc 35c5 f3bd c36e 3cbd
000001c0: fd12 eebd a3c7 18bd bc27 863d cb42 95bd
000001d0: cd55 8e3d 9eec 753d 74f0 97bd 146b b8bd
000001e0: 76ca 6cbd 32bf f23d 354b 493d 8e1d 86b9
000001f0: 3030 07be ab61 fc3c 1cbc acbd 8fb2 01be
00000200: a821 0cbe 41fd 0c3d adae 4f3d 8af9 363d
00000210: be47 97bd e3bc d6bd 6bd9 fd3b 3b79 d63d
00000220: 7e8e 55bd e46b 74bc 12a5 d0bc 231f d13a
00000230: 6f55 843d 6085 6ebd 918a ed3d 6690 6c3d
00000240: b16a 883b 746c 56bd 7507 01be f11b 0f3e
00000250: 6e31 52be 97d1 f73d f132 5cbd 814d e93c
00000260: dd9b 69bd b4ad 07be 5d0d 7d3d d453 8abd
00000270: cf6b 803d b073 813d 355a 3fbc bc90 dbbc
00000280: 77e3 5d3c 5feb a3bd aca8 a93d 353f 263d
00000290: cd98 dcbd 258e 293c 1632 b83d 1aa6 22bd
000002a0: cd51 cbbd 07db e63c 3291 1f3d 3bfd 003c
000002b0: dfae 2d3e 0364 353c 2906 2fbd c455 bc3d
000002c0: c876 07bd 8567 5ebd 7760 4cbd 1de5 dfbc
000002d0: 0ccf 98bd 01c1 7dbd eb38 12bd 99e3 e2bc
000002e0: 6544 a03c dd5f 4cbd 13b8 86bd 4d39 c63d
000002f0: 1877 5f3d 1593 123d 74d4 103d 32db 483c
00000300: eaf3 83bd e3a7 a23d 2f69 afbd 5a95 c3bc
00000310: 259b d13d 1c7a dcbc 862a 1ebe 58cc eebd
00000320: d488 9cbb b75a 22be 3620 1b3e 3c7d d9bd
00000330: f33d dcbd 9dc8 9cbd 3ea4 3bbd e865 1d3d
00000340: cb4d 1dbd e4a3 1d3c 6c44 3ebe 4df4 f5bb
00000350: ce88 ef3a 51c4 0cbe 407c d9bc c62d 34be
00000360: 3c55 bd3d 5715 153d 718e fa3c 4ea6 d93d
00000370: 3d4b 7d3c 746f e0bc b2e3 3c3e 611a 96bc
00000380: 1d4d f53b 3979 4dbc 8545 f53a 7f35 86bd
00000390: a139 fbbd 24a9 c7bc ac81 473c e82d a5bd
000003a0: 6638 0f3e b5eb 02bd 9057 d9bb 600a 52bd
000003b0: 5b18 ffbd b8cc c2bc a8d0 493c f9f6 22bd
000003c0: 0a93 7b3d a07f 32bd a487 c03d 7747 adbd
000003d0: 97e8 90bd 197b ffbb cf05 e33d e41f 393e
000003e0: 9a1b ee3d 34f6 903d 54ba 0e3e 9104 c4bd
000003f0: baa7 64bb 3fa9 293d 46b3 58bc 9e4b cf3d

model.block2.1.weight f4 [16, 16, 1, 1]
-0.2026634 -0.18120122 -0.78324544 0.079956345 -0.10343316 0.123004034 0.13825834 -0.48814452
-0.16168153 0.036454383 0.024543583 0.14048374 0.011072957 -0.40973073 -0.18496197 0.14532049
-0.08460874 0.33315596 -0.13777217 0.35021153 0.10566906 0.3920265 0.4166517 -0.07705771
-0.07427211 -0.28866535 0.65558654 -0.8752013 -0.63089675 -0.19288446 -0.15428632 -0.12102369
0.13915665 0.7813142 -0.4021509 -0.18646383 -0.18016565 -0.07075795 0.21282583 -0.27593845
-0.95783925 -0.24548809 0.89868116 -0.83396 -0.23173018 0.4298081 0.08309921 0.16387127
0.044643432 0.266631 0.16031621 0.19021684 -0.2551576 0.2192075 0.16069177 0.38785502
-0.12932642 -0.38020635 -0.2276507 0.016419372 0.37569234 -0.26715237 -0.037711203 0.49227747
0.20194396 0.056465067 0.35972935 -0.031890795 -0.2686849 -0.058554646 0.4206301 0.43106148
-0.45966014 0.02207298 0.16077513 -0.23980881 -0.02965885 -0.4239423 0.43209487 0.5053063
0.41510195 -0.1428303 0.47519177 0.11468494 0.41236734 -0.5580226 0.33317956 0.22357425
0.24884182 -0.29297057 -0.37781292 -0.50350994 -0.5462914 0.6818146 0.495246 1.0120442
-0.20057458 -0.19310746 -0.2338419 0.17388542 0.376819 0.20128912 0.35522205 -0.23644134
-0.05014396 -0.47921273 0.25928724 -0.27534738 -0.24885911 -0.026806707 0.38586187 -0.21340972
-0.019376637 0.16180915 0.28327647 -0.2490221 -0.02919602 0.5585627 -0.14724268 0.15961228
-0.21001242 -1.0421921 0.18736514 -0.496839 0.14653899 -0.19224264 0.28044727 -0.23406717
-0.16088223 -0.4749683 0.52344984 0.10243548 0.09628304 0.40648532 0.23550016 -0.07065892
-0.24725746 0.5346155 -0.5241811 -0.007984851 -0.34116155 0.1688593 0.031309336 -0.4530508
-0.24418305 0.68124664 0.068929546 0.055418294 -0.39867827 -0.46332014 0.058411427 0.090112366
-0.21935654 -0.27482173 0.15559037 -0.622359 -0.37045947 0.29576442 0.2195838 -0.05843828
0.26762635 -0.31213528 -0.20326483 -0.14738148 0.5467235 0.6687615 0.61693573 -0.23769183
-0.04634563 0.10866377 -0.1552848 -0.05404236 0.24888079 -0.16815868 -0.46547118 -0.33139086
-0.44649965 -0.16542126 0.48721886 -0.22836573 -0.5772929 -0.27105325 0.18781744 -0.43459514
-0.3128185 0.00998929 0.22785603 0.34122744 0.46463943 -0.3100587 -0.074885145 0.1447403
-0.5369328 0.16218722 0.30558822 -0.1422277 0.2431027 -0.6770786 0.23800611 -0.3367577
-0.9605805 -0.14396773 -0.8213518 -0.87253934 -0.15360174 0.119260095 0.9962221 0.23613572
-0.31048673 -0.25950843 0.1711883 -0.23846175 -0.7168331 -0.24031502 0.41141516 0.1143146
-0.3155993 0.68988335 0.7726782 -0.59370834 0.19846684 0.049638763 -0.14327839 0.33053708
-0.5286093 -0.24348207 -0.44292474 -0.68128175 -0.019040808 0.36125368 -0.31024894 0.20255828
0.76630276 -0.41393912 -0.31960195 0.5102207 0.6317679 0.23138866 -0.26215142 0.31286106
0.0013471395 0.22813123 -0.15834397 0.023843894 0.3608141 -0.3040253 -0.30160308 -0.31131628
0.110702924 -0.09862533 0.060353365 -0.4668006 -0.47500962 -0.4652441 0.15762465 0.47087437
00000000: ff86 4fbe d08c 39be c682 48bf 27c0 a33d
00000010: c4d4 d3bd 8ae9 fb3d 9893 0d3e 14ee f9be
00000020: d88f 25be 3151 153d a00f c93c f8da 0f3e
00000030: 596b 353c 3ac8 d1be ac66 3dbe e5ce 143e
00000040: 5947 adbd 6b93 aa3e 2614 0dbe ed4e b33e
00000050: 0569 d83d b3b7 c83e 5f53 d53e 6fd0 9dbd
00000060: fa1b 98bd f2cb 93be 85d4 273f 310d 60bf
00000070: 7382 21bf 8183 45be 3cfd 1dbe 45db f7bd
00000080: 157f 0e3e 3504 483f b9e6 cdbe 60f0 3ebe
00000090: 587d 38be 8be9 90bd 04ef 593e ce47 8dbe
000000a0: f434 75bf 3b61 7bbe f80f 663f 677e 55bf
000000b0: ad4a 6dbe cf0f dc3e eb2f aa3d dfcd 273e
000000c0: 08dc 363d dc83 883e ef29 243e 34c8 423e
000000d0: 04a4 82be ee77 603e 628c 243e ef94 c63e
000000e0: 256e 04be 68aa c2be 441d 69be eb81 863c
000000f0: bf5a c03e 32c8 88be 1077 1abd cb0b fc3e
00000100: 66ca 4e3e ea47 673d 722e b83e ec9f 02bd
00000110: 1191 89be ffd6 6fbd d45c d73e 17b4 dc3e
00000120: 9358 ebbe 65d2 b43c 3ca2 243e 7190 75be
00000130: 1ef7 f2bc f70e d9be 8a3b dd3e c15b 013f
00000140: 3e88 d43e 1b42 12be 564c f33e f0df ea3d
00000150: d021 d33e 92da 0ebf 8396 aa3e a6f0 643e
00000160: 64d0 7e3e 3d00 96be b270 c1be 07e6 00bf
00000170: c1d9 0bbf 678b 2e3f e290 fd3e aa8a 813f
00000180: 6c63 4dbe f6bd 45be 4074 6fbe 050f 323e
00000190: 6cee c03e bc1e 4e3e aadf b53e ae1d 72be
000001a0: c163 4dbd 5f5b f5be 4cc1 843e 55fa 8cbe
000001b0: ecd4 7ebe bd99 dbbc b08f c53e 1488 5abe
000001c0: c1bb 9ebc 4cb1 253e 9d09 913e a6ff 7ebe
000001d0: 7e2c efbc f7fd 0e3f c9c6 16be 6771 233e
000001e0: 7f0d 57be 8d66 85bf a6dc 3f3e ae61 febe
000001f0: 510e 163e 41db 44be c996 8f3e 4eaf 6fbe
00000200: 50be 24be 0c2f f3be cf00 063f b1c9 d13d
00000210: 0b30 c53d d81e d03e f426 713e a0b5 90bd
00000220: 0f31 7dbe 90dc 083f bc30 06bf e4d2 02bc
00000230: baac aebe 74e9 2c3e 383e 003d 46f6 e7be
00000240: 1f0b 7abe 2e66 2e3f ef2a 8d3d 4bfe 623d
00000250: 8f1f ccbe 4c38 edbe d240 6f3d d58c b83d
00000260: 009f 60be 6fb5 8cbe 1553 1f3e eb52 1fbf
00000270: ddac bdbe 6f6e 973e 93da 603e fa5c 6fbd
00000280: 5206 893e 32d0 9fbe a824 50be 2ceb 16be
00000290: 12f6 0b3f f433 2b3f 80ef 1d3f 7d65 73be
000002a0: ead4 3dbd 1c8b de3d fb02 1fbe 865b 5dbd
000002b0: 9bda 7e3e ca31 2cbe 3d52 eebe 10ac a9be
000002c0: 9a9b e4be 3164 29be c074 f93e b5d8 69be
000002d0: 78c9 13bf 7ec7 8abe 3753 403e 4183 debe
000002e0: bf29 a0be 1eaa 233c 1753 693e 5db5 ae3e
000002f0: 38e5 ed3e 04c0 9ebe 625d 99bd cd36 143e
00000300: 6e74 09bf 6814 263e 0f76 9c3e 23a4 11be
00000310: eaef 783e 0655 2dbf e0b7 733e 816b acbe
00000320: 9be8 75bf 476c 13be 1d44 52bf bd5e 5fbf
00000330: c649 1dbe a33e f43d 6908 7f3f 90cd 713e
00000340: 1ef8 9ebe 4ade 84be fc4b 2f3e 512f 74be
00000350: 6082 37bf 2415 76be 02a5 d23e c61d ea3d
00000360: 3b96 a1be 329c 303f 3dce 453f 45fd 17bf
00000370: e43a 4b3e 0452 4b3d 92b7 12be 283c a93e
00000380: f052 07bf 5d53 79be 08c7 e2be 7b68 2ebf
00000390: 78fb 9bbc 3ef6 b83e f3d8 9ebe 706b 4f3e
000003a0: 6b2c 443f d4ef d3be dea2 a3be d39d 023f
000003b0: 8bbb 213f 26f1 6c3e b638 86be 532f a03e
000003c0: 8092 b03a 3c9b 693e ec24 22be 4554 c33c
000003d0: a0bc b83e 34a9 9bbe b86b 9abe d964 9fbe
000003e0: 37b8 e23d 14fc c9bd 1735 773d 7d00 efbe
000003f0: 7634 f3be 7a34 eebe 5b68 213e 7216 f13e

model.block2.2.weight f4 [16]
1.0015125 1.0151564 1.0071045 1.0058061 1.0071963 1.0031109 0.99104184 0.9900037
0.99666345 1.0156747 1.0132681 0.9904227 1.0022881 1.0128019 1.0068468 1.004769
00000000: 9031 803f a5f0 813f cde8 803f 41be 803f
00000010: cfeb 803f f065 803f ebb4 7d3f e270 7d3f
00000020: 5625 7f3f a101 823f c5b2 813f 588c 7d3f
00000030: fa4a 803f 7ea3 813f 5be0 803f 459c 803f

model.block2.2.bias f4 [16]
0.002554985 0.005832068 0.0016172009 -0.0030098828 0.0021305163 -0.0007823172 -0.0004225193 -0.0035569016
-0.00034401246 0.0053525576 -0.0019818142 -0.0009886009 -0.0009864483 0.006074428 0.0012177009 -0.0016478122
00000000: 8971 273b ef1a bf3b 42f8 d33a 7441 45bb
00000010: 22a0 0b3b 6b14 4dba 9585 ddb9 e81a 69bb
00000020: 925c b4b9 8264 af3b 53e1 01bb f193 81ba
00000030: b64b 81ba ff0b c73b 439b 9f3a 67fb d7ba

model.block2.2.running_mean f4 [16]
0.08265797 0.13111624 0.10060163 0.00693255 0.044468336 0.08876177 0.04297093 -0.0013882536
-0.03311369 0.017882291 0.03407599 -0.007434481 -0.04957883 0.06441356 -0.032507844 0.073702246
00000000: 9548 a93d 5643 063e 3a08 ce3d 722a e33b
00000010: 6e24 363d bbc8 b53d 4902 303d 10f6 b5ba
00000020: 38a2 07bd e27d 923c 4493 0b3d f29c f3bb
00000030: 2c13 4bbd 42eb 833d f226 05bd 34f1 963d

model.block2.2.running_var f4 [16]
0.09321156 0.14884809 0.19918615 0.068685465 0.09426935 0.18945467 0.06698471 0.10817142
0.068253234 0.094811745 0.09977858 0.10941762 0.16363461 0.1714953 0.18993612 0.080784716
00000000: b4e5 be3d a26b 183e 74f7 4b3e f7aa 8c3d
00000010: 4a10 c13d 6800 423e 482f 893d fa88 dd3d
00000020: 5ac8 8b3d a92c c23d b658 cc3d 5816 e03d
00000030: d58f 273e 779c 2f3e 9d7e 423e 7572 a53d

model.classifier.weight f4 [1, 64]
-0.4212754 -0.16517758 -0.055649683 -0.20340927 0.084596336 0.08912301 -0.005594185 -0.07833404
0.34825513 -0.07642164 -0.21350339 -0.08980716 -0.014283306 0.33654955 -0.02397167 -0.15531868
0.2143396 0.26400432 -0.045877956 -0.0011967366 0.21615072 0.084461324 0.0121232355 0.111147515
-0.08292435 -0.011921555 -0.20333764 0.029635219 0.15165555 -0.21156855 0.0715557 0.25011623
-0.19762565 0.13914748 -0.2960277 -0.017979518 0.1162094 -0.037037145 -0.09656044 0.08425627
-0.06564151 0.078516334 0.043093134 -0.0989421 -0.18343888 -0.079302676 0.14065236 -0.099381156
0.35931724 0.047546502 -0.19796774 0.18029122 0.13177975 0.12182116 -0.30914256 0.34508178
-0.10572302 -0.3228952 0.0047898046 -0.2220212 -0.14659236 0.020170739 0.044470046 -0.11672157
00000000: 69b1 d7be 5024 29be ecf0 63bd 854a 50be
00000010: d840 ad3d 2086 b63d 6d4f b7bb 996d a0bd
00000020: 7f4e b23e f382 9cbd a2a0 5abe d1ec b7bd
00000030: 8704 6abc 3950 ac3e 3c60 c4bc dc0b 1fbe
00000040: d77b 5b3e 932b 873e 86ea 3bbd d1db 9cba
00000050: 9d56 5d3e 0ffa ac3d 89a0 463c 4fa1 e33d
00000060: 3ed4 a9bd a052 43bc be37 50be 8fc5 f23c
00000070: 984b 1b3e 6da5 58be cb8b 923d 3c0f 803e
00000080: 615e 4abe ad7c 0e3e f190 97be c849 93bc
00000090: 32ff ed3d 43b4 17bd 7bc1 c5bd 8d8e ac3d
000000a0: 0e6f 86bd 2ccd a03d 6d82 303d 28a2 cabd
000000b0: 67d7 3bbe 7169 a2bd 2c07 103e 5988 cbbd
000000c0: 6ef8 b73e 1fc0 423d 0eb8 4abe 439e 383e
000000d0: 45f1 063e 5f7d f93d ef47 9ebe 8fae b03e
000000e0: 5085 d8bd 8552 a5be cbf3 9c3b 8759 63be
000000f0: 4f1c 16be 1b3d a53c 3926 363d b80b efbd

exp_avg f4 [8, 1, 1, 64]
-0.0019577823 -0.0018702484 -0.0017106037 -0.001674158 -0.0011601493 -0.000400422 -0.00043184665 -0.00081152737
-0.000799846 -0.00012118325 0.00032797747 0.0005339513 0.00065371854 0.00080900954 0.0011235335 0.0013902329
0.0015794694 0.0018895207 0.0019971833 0.0021486785 0.0025247808 0.00227602 0.0022169156 0.0026329674
0.0029927907 0.0027133138 0.0030791913 0.003910141 0.004277191 0.0036286647 0.0030315432 0.0024107965
0.001881389 0.0022454583 0.0026418534 0.0024846145 0.0016935964 0.0008964018 0.0010078625 0.0016069126
0.0016639037 0.0012423788 0.001239075 0.0014312327 0.0011472113 0.00063517346 0.000102222715 -0.00042623552
-0.0004786807 5.3900134e-05 0.0005434466 0.0005591846 0.00025786806 -0.00011416101 -0.0008401165 -0.0015020693
-0.0012932108 -0.0010543354 -0.0016334121 -0.0019750437 -0.0015962925 -0.0012701929 -0.0011843177 -0.0009692728
-0.0075724437 -0.0071824105 -0.0067125116 -0.0054235645 -0.0035984155 -0.0023228456 -0.0018425167 -0.00098366
0.00020100169 0.0010829804 0.0029416329 0.0057192175 0.0068759304 0.0068589877 0.0081322985 0.010548492
0.01316665 0.015792064 0.016929913 0.016800787 0.017011883 0.017516013 0.0178354 0.018194852
0.018394236 0.018547712 0.019806275 0.022220373 0.024810676 0.026657358 0.027562076 0.027667258
0.026966546 0.025320312 0.023373825 0.02067369 0.018401396 0.01720488 0.015720146 0.013248491
0.010246569 0.0076610353 0.0055300863 0.0038833793 0.0020684346 -3.8531514e-05 -0.0023613272 -0.004786714
-0.0061549856 -0.005482998 -0.0044285352 -0.0048344056 -0.005367678 -0.0055765365 -0.0067757107 -0.0081021525
-0.0088673625 -0.009988327 -0.011373947 -0.012126058 -0.012573561 -0.012195852 -0.010898242 -0.01057259
0.000969395 0.0009988276 0.00084918377 0.00073773414 0.0006921129 0.00032035363 -0.00014244234 -0.00045614547
-0.0006675351 -0.0007401956 -0.00066186057 -0.00052367523 -0.0005170648 -0.00038309838 -0.0001096982 4.262861e-05
8.3503575e-05 0.00021688633 0.00042867148 0.00052464474 0.0004709691 0.00033293304 0.00021664437 6.86144e-05
-7.635313e-05 -0.00011311648 -4.153045e-06 0.00013272006 -1.0914752e-05 -0.00019876243 -0.0002391442 -0.00031650296
-0.00053686457 -0.0006373928 -0.0006436564 -0.0007433656 -0.00078566675 -0.0009020467 -0.0010771686 -0.0009899791
-0.0005981738 -0.0002032631 7.4996824e-05 0.00026515417 0.00022511359 -0.00016567574 -0.0006671661 -0.0009934878
-0.0013049959 -0.0017226759 -0.0019254381 -0.0020045277 -0.002002662 -0.0018979152 -0.0019439814 -0.002113626
-0.002112068 -0.0019159177 -0.0016850358 -0.001331609 -0.00089349475 -0.00055899774 -0.0006993568 -0.0011598556
-0.0010379462 0.0006424254 0.0019547173 0.003023523 0.003876524 0.0032027846 0.0021299976 0.0021837451
0.0026061055 0.002785724 0.0029202607 0.0028833575 0.002664859 0.0021141937 0.0011236633 0.00051686686
0.0005798075 0.00059435633 0.0010735278 0.0013932595 0.00032991925 -0.00077933195 -0.00073633733 -0.00096594513
-0.001376028 -0.0005804661 7.842986e-05 -0.00097258156 -0.0023562994 -0.003165057 -0.003766885 -0.003354676
-0.0024527 -0.0020148775 -0.0010767102 0.0002017663 0.0012845709 0.001841477 0.0012145076 0.00010624114
-0.0008156931 -0.0013645804 -0.00059633696 0.0006219988 0.0012011818 0.0017375642 0.0022196588 0.002345491
0.0023219043 0.0021654957 0.0022834328 0.003346794 0.0048501235 0.0058717863 0.006378475 0.0065610507
0.006491401 0.0063560396 0.0067343093 0.0076406132 0.008957173 0.01056373 0.011803114 0.012108112
00000000: 234e 00bb 1f23 f5ba 5636 e0ba 6c6f dbba
00000010: 2710 98ba bbef d1b9 7a69 e2b9 aebc 54ba
00000020: c2ac 51ba c323 feb8 64f4 ab39 ddf8 0b3a
00000030: 4f5e 2b3a b613 543a 8743 933a 7a38 b63a
00000040: 3306 cf3a cba9 f73a 2de3 023b d8d0 0c3b
00000050: cb76 253b 4729 153b ac49 113b dd8d 2c3b
00000060: b222 443b dad1 313b 42cc 493b a420 803b
00000070: ae27 8c3b e4ce 6d3b dbac 463b 74fe 1d3b
00000080: f098 f63a 8a28 133b f222 2d3b ead4 223b
00000090: aafb dd3a 82fc 6a3a 411a 843a 0a9f d23a
000000a0: 5817 da3a 51d7 a23a 7568 a23a 3398 bb3a
000000b0: 065e 963a c581 263a 6760 d638 5d78 dfb9
000000c0: 70f7 fab9 d412 6238 1576 0e3a 3e96 123a
000000d0: 7732 8739 ba69 efb8 443b 5cba 15e1 c4ba
000000e0: f480 a9ba a031 8aba 3718 d6ba bc6f 01bb
000000f0: b03a d1ba 9a7c a6ba 1c3b 9bba cc16 7eba
00000100: 4322 f8bb 6d5a ebbb a1f4 dbbb 28b8 b1bb
00000110: 65d3 6bbb e23a 18bb 9a80 f1ba 27ee 80ba
00000120: fbc3 5239 cbf2 8d3a 69c8 403b 4668 bb3b
00000130: 7c4f e13b 5cc1 e03b 553d 053c 95d3 2c3c
00000140: efb8 573c 5c5e 813c 9ab0 8a3c cea1 893c
00000150: 815c 8b3c be7d 8f3c 8b1b 923c 5f0d 953c
00000160: 82af 963c 5ff1 973c c540 a23c 8007 b63c
00000170: c23f cb3c 8860 da3c ddc9 e13c 72a6 e23c
00000180: f2e8 dc3c 8b6c cf3c 777a bf3c df5b a93c
00000190: 86be 963c 40f1 8c3c 89c7 803c 3310 593c
000001a0: 3ae1 273c 6c09 fb3b ba35 b53b 4b80 7e3b
000001b0: 938e 073b e69c 21b8 7fc0 1abb ded9 9cbb
000001c0: c3af c9bb b9aa b3bb 3f1d 91bb ef69 9ebb
000001d0: 59e3 afbb 61bb b6bb c806 debb e4be 04bc
000001e0: 6a48 11bc 14a6 23bc cb59 3abc 60ac 46bc
000001f0: 5601 4ebc 1cd1 47bc 8a8e 32bc a838 2dbc
00000200: ff1e 7e3a 18eb 823a c29b 5e3a 8064 413a
00000210: e96e 353a 23f5 a739 935c 15b9 cf26 efb9
00000220: 86fd 2eba b009 42ba b680 2dba 4047 09ba
00000230: a28b 07ba 98da c8b9 c60d e6b8 1fcc 3238
00000240: a41e af38 fb6b 6339 50bf e039 5088 093a
00000250: 67ec f639 848d ae39 082b 6339 13e5 8f38
00000260: c61f a0b8 f338 edb8 635a 8bb6 c52a 0b39
00000270: 811e 37b7 e26a 50b9 c8c2 7ab9 4ff0 a5b9
00000280: 5fbc 0cba b516 27ba 0dbb 28ba 6cde 42ba
00000290: 34f5 4dba 5477 6cba c82f 8dba 30c2 81ba
000002a0: c4ce 1cba 0623 55b9 9d47 9d38 6404 8b39
000002b0: 780c 6c39 3eb9 2db9 c2e4 2eba eb37 82ba
000002c0: 650c abba 69cb e1ba fb5e fcba 655e 03bb
000002d0: 183f 03bb 77c3 f8ba 31cd feba c384 0abb
000002e0: 9f6a 0abb 881f fbba 6bdc dcba 6289 aeba
000002f0: 6b39 6aba b489 12ba 0a55 37ba 4c06 98ba
00000300: b20b 88ba 7068 283a b71a 003b 4c26 463b
00000310: 480d 7e3b cfe5 513b 6e97 0b3b 2a1d 0f3b
00000320: 32cb 2a3b b190 363b d861 3f3b b6f6 3c3b
00000330: eaa4 2e3b 498e 0a3b e247 933a 597e 073a
00000340: 39fe 173a 94ce 1b3a 9eb5 8c3a 089e b63a
00000350: 03f9 ac39 154c 4cba c306 41ba 7b37 7dba
00000360: d75b b4ba 6c2a 18ba b67a a438 d8f4 7eba
00000370: 256c 1abb d86c 4fbb d8dd 76bb 20da 5bbb
00000380: 7abd 20bb 090c 04bb 6620 8dba 3b91 5339
00000390: 0c5f a83a b75d f13a 1d30 9f3a c7cd de38
000003a0: 3dd4 55ba b8db b2ba 7f53 1cba a20d 233a
000003b0: f970 9d3a fbbe e33a b277 113b cfb6 193b
000003c0: 172b 183b fdea 0d3b a5a5 153b e355 5b3b
000003d0: c9ed 9e3b 1d68 c03b 8702 d13b 15fe d63b
000003e0: d2b5 d43b 5346 d03b 7bab dc3b 1c5e fa3b
000003f0: 1bc1 123c 7f13 2d3c d961 413c 1a61 463c

exp_avg_sq f4 [8, 1, 1, 64]
1.277109e-06 9.860195e-07 7.5403307e-07 6.5814487e-07 5.4362476e-07 4.3532788e-07 3.5003166e-07 2.5275833e-07
1.7409663e-07 8.102249e-08 2.9340214e-08 1.750146e-08 8.246281e-08 9.90923e-08 9.030609e-08 1.0982139e-07
1.4123239e-07 2.857348e-07 5.5027004e-07 8.793655e-07 1.0965018e-06 1.0834464e-06 1.4342597e-06 1.8456368e-06
1.8522904e-06 1.7564159e-06 1.9736376e-06 2.0972716e-06 2.1095188e-06 2.1518126e-06 2.254651e-06 1.96902e-06
1.647107e-06 1.8379496e-06 2.1544663e-06 2.1463006e-06 1.7418572e-06 1.342306e-06 1.1200826e-06 1.1395286e-06
1.2206862e-06 1.0267129e-06 6.913123e-07 4.5222419e-07 1.9004813e-07 2.2639082e-08 3.8940982e-08 6.200578e-08
6.343727e-08 7.575929e-08 1.0124026e-07 1.0097941e-07 1.6125759e-07 3.9504164e-07 5.527818e-07 5.3396616e-07
4.734113e-07 4.6817442e-07 5.1112977e-07 6.714018e-07 8.231864e-07 8.300814e-07 8.0127563e-07 8.870174e-07
3.1809507e-06 3.1332115e-06 3.2928847e-06 3.6942045e-06 4.7662083e-06 5.384742e-06 5.1226925e-06 4.596346e-06
4.258715e-06 4.4990643e-06 6.2649374e-06 9.385068e-06 1.0356952e-05 9.022595e-06 9.586227e-06 1.27555995e-05
1.830193e-05 2.586526e-05 2.8536266e-05 2.5920579e-05 2.4613817e-05 2.4744404e-05 2.5251282e-05 2.635577e-05
2.734714e-05 2.8985844e-05 3.4966062e-05 4.5233068e-05 5.638892e-05 6.4122265e-05 6.67828e-05 6.559869e-05
6.114471e-05 5.3144297e-05 4.567343e-05 3.622586e-05 2.8508453e-05 2.4771278e-05 2.1231144e-05 1.5509126e-05
9.325727e-06 5.518616e-06 3.394765e-06 2.1561584e-06 1.0249616e-06 3.535202e-07 4.2966028e-07 1.3042786e-06
2.127491e-06 1.8919897e-06 1.8351004e-06 2.2528827e-06 2.6091227e-06 3.1003215e-06 4.3017676e-06 6.0746847e-06
7.6560855e-06 8.930337e-06 1.0192461e-05 1.1308928e-05 1.2293836e-05 1.2474397e-05 1.1976518e-05 1.2304369e-05
9.511902e-08 9.459092e-08 6.7186896e-08 6.0297936e-08 8.188411e-08 4.303819e-08 1.2436018e-08 1.6516246e-08
2.4677238e-08 3.5159232e-08 2.8782825e-08 1.9409683e-08 5.323132e-08 7.296354e-08 6.17362e-08 2.5234474e-08
1.996096e-09 4.461095e-09 3.0437498e-08 6.5908495e-08 7.147394e-08 5.8102497e-08 4.4453387e-08 2.9705628e-08
2.5890476e-08 3.9168302e-08 8.054782e-08 1.2908069e-07 1.2454223e-07 9.936295e-08 1.0960028e-07 1.0494195e-07
8.9295206e-08 1.2146386e-07 1.3374174e-07 7.9723876e-08 5.7299633e-08 7.043779e-08 7.249896e-08 5.577457e-08
3.7874358e-08 4.916928e-08 4.638875e-08 7.472772e-08 1.1989457e-07 1.0273677e-07 9.946721e-08 1.3368886e-07
1.7376897e-07 2.3090499e-07 3.0645694e-07 4.060708e-07 4.709063e-07 5.088047e-07 6.0961594e-07 7.528906e-07
8.2669465e-07 8.366041e-07 8.145868e-07 7.3300873e-07 6.398281e-07 5.8831864e-07 5.354904e-07 5.2429226e-07
1.6103302e-06 6.736434e-07 3.6733576e-07 5.33302e-07 8.3079203e-07 5.66559e-07 2.5288338e-07 4.4596365e-07
8.219509e-07 7.2180836e-07 8.36171e-07 1.181744e-06 1.4826331e-06 1.7961778e-06 2.149422e-06 2.532533e-06
2.404811e-06 1.7406296e-06 1.6339891e-06 2.1761966e-06 2.4229894e-06 3.3562997e-06 5.138718e-06 4.7799676e-06
3.5449589e-06 4.0370314e-06 4.10534e-06 2.1345795e-06 1.1493087e-06 1.0331249e-06 1.1311151e-06 1.2277798e-06
1.7300306e-06 2.1236006e-06 1.5683805e-06 9.173305e-07 7.5272186e-07 8.35638e-07 5.6925404e-07 2.236258e-07
1.056668e-07 1.4174736e-07 1.8440058e-07 3.030864e-07 1.18026136e-07 2.6162752e-07 8.3063367e-07 1.8434696e-06
2.6742339e-06 2.769517e-06 3.0164601e-06 3.0591887e-06 2.7863973e-06 3.2954345e-06 4.671171e-06 5.0401104e-06
4.480235e-06 4.6842083e-06 6.289422e-06 9.085867e-06 1.2455273e-05 1.5385782e-05 1.7760543e-05 1.8896431e-05
00000000: 2269 ab35 5f57 8435 c268 4a35 5fab 3035
00000010: 9ced 1135 02b7 e934 fceb bb34 d7b2 8734
00000020: 51ef 3a34 96fe ad33 d007 fc32 1e56 9632
00000030: 6916 b133 91cc d433 4cee c133 f3d6 eb33
00000040: aaa5 1734 1867 9934 45b6 1335 890d 6c35
00000050: 842b 9335 ef6a 9135 ca80 c035 99b7 f735
00000060: 379c f835 febd eb35 d672 0436 dabe 0c36
00000070: 4291 0d36 dc67 1036 9c4e 1736 8223 0436
00000080: 2a12 dd35 78af f635 7395 1036 2a09 1036
00000090: c2c9 e935 4829 b435 bf55 9635 e8f1 9835
000000a0: 75d6 a335 96cd 8935 9f92 3935 38c9 f234
000000b0: 0810 4c34 de77 c232 1040 2733 0a28 8533
000000c0: 023b 8833 1cb1 a233 6c69 d933 05da d833
000000d0: 2626 2d34 1c16 d434 e062 1435 e055 0f35
000000e0: 2729 fe34 6759 fb34 9234 0935 613a 3435
000000f0: f0f8 5c35 c2d2 5e35 3e17 5735 5f1b 6e35
00000100: 5178 5536 2a44 5236 54fb 5c36 f3e9 7736
00000110: 6bed 9f36 95ae b436 98e3 ab36 503a 9a36
00000120: 15e6 8e36 abf6 9636 6737 d236 8f74 1d37
00000130: c5c2 2d37 c05f 1737 88d4 2037 e200 5637
00000140: 1887 9937 39f9 d837 2a61 ef37 0570 d937
00000150: c579 ce37 3492 cf37 b7d2 d337 9616 dd37
00000160: 8967 e537 a026 f337 86a8 1238 a3b8 3d38
00000170: 2483 6c38 6179 8638 be0d 8c38 0792 8938
00000180: d13a 8038 41e7 5e38 7991 3f38 39f1 1738
00000190: 7025 ef37 eacb cf37 8919 b237 9819 8237
000001a0: b175 1c37 8d2c b936 9ed1 6336 85b2 1036
000001b0: 6a91 8935 72cb bd34 0fac e634 ac0e af35
000001c0: 04c6 0e36 45f0 fd35 924d f635 3b30 1736
000001d0: 6318 2f36 1e0f 5036 e757 9036 25d5 cb36
000001e0: a372 0037 81d3 1537 4900 2b37 7abb 3d37
000001f0: a041 4e37 2149 5137 c1ee 4837 dd6e 4e37
00000200: 3c44 cc33 e921 cb33 6348 9033 247d 8133
00000210: 44d8 af33 fed8 3833 30a6 5532 9cdf 8d32
00000220: d2f9 d332 fc01 1733 1a3e f732 58ba a632
00000230: 75a0 6433 21b0 9c33 d693 8433 32c3 d832
00000240: b12b 0931 3548 9931 62ba 0233 9489 8d33
00000250: 377d 9933 5f8c 7933 04ed 3e33 5e2b ff32
00000260: c265 de32 013a 2833 a2f9 ac33 6e99 0a34
00000270: e8b9 0534 5c61 d533 645d eb33 725c e133
00000280: 8fc2 bf33 bb6b 0234 a69a 0f34 aa34 ab33
00000290: 9d19 7633 9643 9733 bab0 9b33 ca8c 6f33
000002a0: 4cab 2233 322e 5333 f83c 4733 007a a033
000002b0: 5ebc 0034 23a0 dc33 ad9a d533 1d8c 0f34
000002c0: 4095 3a34 aeee 7734 1f87 a434 f201 da34
000002d0: ded0 fc34 cb94 0835 7da4 2335 401a 4a35
000002e0: 06ea 5d35 ff92 6035 fba9 5a35 fac3 4435
000002f0: a7c0 2b35 f3ec 1d35 9fbe 0f35 17bd 0c35
00000300: 8622 d835 6cd4 3435 3e36 c534 3c28 0f35
00000310: 9803 5f35 a315 1835 07c4 8734 c76c ef34
00000320: 09a4 5c35 4bc2 4135 3c75 6035 6a9c 9e35
00000330: e3fe c635 3314 f135 ca3e 1036 96f4 2936
00000340: 5762 2136 949f e935 704f db35 c60a 1236
00000350: a49a 2236 ca3c 6136 406d ac36 9c63 a036
00000360: eee5 6d36 d675 8736 9ac0 8936 cc3f 0f36
00000370: f241 9a35 e7a9 8a35 d2d0 9735 31ca a435
00000380: 6633 e835 2e83 0e36 2581 d235 793e 7635
00000390: a70e 4a35 9b50 6035 d7ce 1835 cb1d 7034
000003a0: f0ea e233 3833 1834 a5ff 4534 e1b7 a234
000003b0: 8e75 fd33 d075 8c34 b6f8 5e35 226d f735
000003c0: fd76 3336 f1db 3936 646e 4a36 764c 4d36
000003d0: f1fd 3a36 2227 5d36 0ebd 9c36 381e a936
000003e0: ed54 9636 0b2d 9d36 b909 d336 806f 1837
000003f0: fdf6 5037 b710 8137 7afc 9437 c783 9e37

exp_avg f4 [8]
2.0249456e-07 1.9101562e-07 3.3651037e-07 -4.7435003e-07 3.9054814e-07 -4.2903898e-07 -9.830849e-07 1.2559043e-07
00000000: 486d 5934 f919 4d34 a2a9 b434 2caa feb4
00000010: 87ac d134 ab56 e6b4 8af2 83b5 09da 0634

exp_avg_sq f4 [8]
2.0204435e-13 2.4667696e-15 1.0753297e-14 5.1897364e-13 2.0708707e-14 1.4615941e-14 5.920141e-14 1.1119029e-15
00000000: 527b 632a debf 3127 d4b6 4128 fe13 122b
00000010: 0787 ba28 11a6 8328 4a4f 8529 fa3d a026

exp_avg f4 [8]
2.0262088e-09 4.138565e-10 3.18978e-10 3.0035147e-10 -6.402843e-11 1.1510565e-09 -2.6542696e-10 3.291643e-10
00000000: 713d 0b31 2085 e32f 2a5c af2f b61e a52f
00000010: cdcc 8cae 3333 9e30 86eb 91af c2f5 b42f

exp_avg_sq f4 [8]
2.28256e-19 2.3951364e-20 9.369187e-21 1.222611e-19 4.0996397e-22 2.0046795e-19 2.6932073e-20 8.111728e-21
00000000: 12bd 8620 d836 e21e 9cfa 301e 2657 1020
00000010: dace f71b b8ab 6c20 c25d fe1e e939 191e
