checkpoints/EEGClassificationModel_best.ckpt (torch, 259295 bytes, 103 tensors)

arch.conv.0.weight f4 [16, 16, 11]
0.008016967 0.009965237 0.0015418715 0.013219072 0.0018321864 0.0022346242 0.00079746154 0.003993336
0.011707775 -0.0040705935 0.0114432955 0.0005861388 0.034153573 -0.004478562 0.017624747 -0.024011828
0.03666421 -0.0011937071 -0.042908642 0.00079927244 -0.045738094 -0.02461424 -0.033462744 0.036995016
-0.061394803 -0.040301792 -0.02839102 -0.04645311 0.0022365567 -0.073664665 0.050955586 -0.0688534
0.038181845 0.014981132 -0.019528994 0.04227048 0.011097174 0.055318847 0.011538146 -0.016944641
0.021586297 -0.016517052 0.026702646 0.055579133 0.052115824 -0.011347072 0.051475916 0.027822953
0.04798263 -0.02383463 -0.04880638 -0.008227911 -0.030560698 0.0660563 0.03307224 0.032659117
0.031174498 0.013363044 0.056625724 -0.02673766 0.013353363 -0.03295257 0.027942311 -0.0028718098
0.032360736 0.0024689746 0.043671664 -0.044945862 -0.043859556 -0.043278366 0.04765103 0.012265204
0.052531913 -0.059656274 -0.069231406 -0.055161558 -0.047266006 0.007542692 0.0052277828 0.03547745
-0.04540084 -0.056904703 0.017501999 -0.038103193 0.023377946 -0.030863643 0.017856121 -0.06168291
-0.03730124 0.008974445 0.004305172 -0.02243181 0.026968697 0.031304333 -0.047350105 -0.036069393
0.043740246 -0.029107956 -0.029132567 -0.058094613 -0.033327494 0.018443828 -0.0059943018 -0.043518253
0.0029850742 -0.04073279 -0.050519187 -0.03147318 -0.051462848 -0.036447786 0.06789149 0.019456163
0.026011964 -0.048250888 -0.030968495 -0.013230464 0.014234401 -0.047701012 -0.017661354 -0.025877075
0.010241577 -0.01296358 0.0050091394 -0.02955449 -0.03040967 -0.023040414 -0.009101026 -0.03596645
0.05296953 -0.0005668852 0.059655387 0.029962773 -0.047539927 0.04702183 -0.013063607 -0.019541835
-0.045752496 -0.054837115 0.02300249 -0.008460168 0.028769642 -0.043005187 0.05097361 -0.039540313
-0.006582229 0.014677104 0.032546297 0.050869152 0.058058657 -0.04468199 0.01729642 -0.022705082
-0.003589183 -0.041167367 0.053667832 -0.038429935 0.02941958 0.018977271 0.017902635 -0.029938748
0.05112429 0.01171086 0.0071447464 -0.048640326 0.021919504 -0.0026270465 -0.013836413 0.028612833
0.0061360737 -0.015909214 -0.015015502 0.0018945987 0.021506332 -0.0067719445 -0.016989077 -0.01031168
-0.0074294116 -0.00092719216 0.007297559 -0.0138286855 -0.0014561454 0.0004905161 -0.0020527688 -0.0024441506
0.0005669116 0.00046332742 -0.0013691549 -0.0044147205 -0.009610297 0.01533078 -0.0028125003 -0.012317135
0.04365675 0.05718389 0.0003679901 -0.005960229 0.008648887 0.0024700619 0.023139767 0.02561088
-0.05216894 -0.0156462 0.06481622 0.03332711 0.003505285 -0.032481756 -0.031964563 -0.050418418
-0.0130183 0.029493494 0.049297143 0.03862998 -0.05106434 -0.030824797 -0.0019806465 0.071793
0.017497249 -0.008520802 0.037166968 -0.0152578205 -0.03691586 0.049032606 -0.025881808 -0.007424471
-0.055384822 0.047438566 0.052180074 0.027666207 -0.038313605 -0.05548718 -0.043355245 0.035987794
0.021168305 0.039446045 0.022945173 0.009144771 -0.0028280609 -0.04025839 -0.047023475 -0.054841675
0.018052584 -0.028673084 -0.014552541 -0.036387354 -0.013505014 -0.045988653 -0.04406065 0.01655585
-0.018905599 0.03475431 -0.021986427 -0.046415165 -0.014624532 -0.027904289 -0.016394114 -0.053746
00000000: 9959 033c 3c45 233c 9f18 ca3a ce94 583c
00000010: f925 f03a c672 123b bd0c 513a 88da 823b
00000020: f8d1 3f3c 9d62 85bb a97c 3b3c 1ca7 193a
00000030: 9ee4 0b3d e7c0 92bb c661 903c 74b4 c4bc
00000040: 362d 163d 2a76 9cba f9c0 2fbd 4486 513a
00000050: de57 3bbd cda3 c9bc 3b10 09bd 1688 173d
00000060: 1e79 7bbd 7e13 25bd 4994 e8bc 9e45 3ebd
00000070: 3293 123b 80dd 96bd ceb6 503d 0303 8dbd
00000080: 9164 1c3d 6c73 753c 45fb 9fbc d023 2d3d
00000090: ecd0 353c 0496 623d 7e0a 3d3c 7dcf 8abc
000000a0: bfd5 b03c c54e 87bc 82bf da3c f2a6 633d
000000b0: 6777 553d 12e9 39bc 69d8 523d f6ec e33c
000000c0: 6f89 443d d840 c3bc 33e9 47bd 5cce 06bc
000000d0: 6e5a fabc 8748 873d c276 073d 91c5 053d
000000e0: a961 ff3c abf0 5a3c 60f0 673d f008 dbbc
000000f0: 10c8 5a3c 46f9 06bd 46e7 e43c f934 3cbb
00000100: b18c 043d 85ce 213b 0fe1 323d 2719 38bd
00000110: 14a6 33bd a844 31bd ba2d 433d fff3 483c
00000120: b42b 573d 235a 74bd 32c9 8dbd 16f1 61bd
00000130: 009a 41bd b028 f73b d24d ab3b cd50 113d
00000140: 3bf6 39bd e814 69bd 5a60 8f3c 1812 1cbd
00000150: 1b83 bf3c c0d5 fcbc 0047 923c 38a7 7cbd
00000160: 2fc9 18bd 8d09 133c 6612 8d3b eac2 b7bc
00000170: 75ed dc3c f938 003d 2ff2 41bd 80bd 13bd
00000180: f928 333d cf73 eebc 6ca7 eebc 9ef4 6dbd
00000190: 6982 08bd 8317 973c d96b c4bb 3240 32bd
000001a0: 3ca1 433b 6dd7 26bd 35ed 4ebd 05ea 00bd
000001b0: b5ca 52bd 464a 15bd b20a 8b3d 8862 9f3c
000001c0: 0b17 d53c b9a2 45bd a4b1 fdbc 97c4 58bc
000001d0: 6837 693c 2362 43bd 8bae 90bc 29fc d3bc
000001e0: 4acc 273c 3265 54bc b523 a43b 421c f2bc
000001f0: b31d f9bc 40bf bcbc 781c 15bc 8e51 13bd
00000200: 94f6 583d 069b 14ba 3559 743d 7d74 f53c
00000210: 3ab9 42bd f699 403d bd08 56bc 3316 a0bc
00000220: f866 3bbd e29c 60bd b86f bc3c 849c 0abc
00000230: 50ae eb3c 3526 30bd b4c9 503d 06f5 21bd
00000240: bdaf d7bb 3c78 703c 444f 053d 2c5c 503d
00000250: eace 6d3d 7604 37bd 39b1 8d3c 0200 babc
00000260: 8038 6bbb 1d9f 28bd cdd2 5b3d b568 1dbd
00000270: 5501 f13c 3976 9b3c 8ca8 923c 1b42 f5bc
00000280: b467 513d e8de 3f3c 7a1e ea3b 143b 47bd
00000290: 8890 b33c 872a 2cbb 1fb2 62bc 7665 ea3c
000002a0: 1e11 c93b 0a54 82bc 9503 76bc 2f54 f83a
000002b0: 0c2e b03c 30e7 ddbb ad2c 8bbc 52f2 28bc
000002c0: 6c72 f3bb d00e 73ba 5d20 ef3b b691 62bc
000002d0: 22dc beba fa95 003a bf87 06bb 0b2e 20bb
000002e0: cb9c 143a c1ea f239 3775 b3ba 5ca9 90bb
000002f0: 8274 1dbc f42d 7b3c ed51 38bb cfcd 49bc
00000300: 6cd1 323d a839 6a3d ccee c039 064e c3bb
00000310: 10b4 0d3c c3e0 213b 9c8f bd3c e9cd d13c
00000320: 19af 55bd 762c 80bc 5ebe 843d 0282 083d
00000330: ecb8 653b 970b 05bd 46ed 02bd 8b83 4ebd
00000340: b54a 55bc 579c f13c cdeb 493d 783a 1e3d
00000350: d728 51bd 4984 fcbc bccd 01bb 3508 933d
00000360: 6456 8f3c d59a 0bbc 643c 183d f0fb 79bc
00000370: 1635 17bd 6ad6 483d 1606 d4bc fa48 f3bb
00000380: 32db 62bd f14e 423d c6ba 553d 3ea4 e23c
00000390: baee 1cbd 8646 63bd 4595 31bd f067 133d
000003a0: 2769 ad3c 2d92 213d 84f7 bb3c f3d3 153c
000003b0: fd56 39bb fbe5 24bd b09b 40bd aaa1 60bd
000003c0: 03e3 933c d1e3 eabc c86d 6ebc e80a 15bd
000003d0: 2244 5dbc 995e 3cbd f178 34bd 22a0 873c
000003e0: eadf 9abc 895a 0e3d e11c b4bc d41d 3ebd
000003f0: bc9b 6fbc 8997 e4bc f34c 86bc c424 5cbd

arch.conv.1.weight f4 [16]
0.9175538 0.91777676 0.9192062 0.9232542 0.9174579 0.91837287 0.91797185 0.9169705
0.9198763 0.91777885 0.9181531 0.91743946 0.91869473 0.9179221 0.9167383 0.91682774
00000000: cee4 6a3f 6bf3 6a3f 1951 6b3f 635a 6c3f
00000010: 85de 6a3f 7c1a 6b3f 3400 6b3f 94be 6a3f
00000020: 037d 6b3f 8ef3 6a3f 150c 6b3f 50dd 6a3f
00000030: 942f 6b3f f1fc 6a3f 5caf 6a3f 39b5 6a3f

arch.conv.1.bias f4 [16]
0.006855863 -0.010944765 0.009265508 0.016415715 0.011362333 -0.0025771193 -0.0006044163 -0.008200126
0.016928237 0.007924467 -0.0057242755 -0.0014014231 -6.0988827e-05 0.017685939 0.0066996827 -0.0062313196
00000000: 26a7 e03b ac51 33bc 5bce 173c 407a 863c
00000010: 1429 3a3c e3e4 28bb b171 1eba d259 06bc
00000020: 16ad 8a3c a0d5 013c b492 bbbb f5af b7ba
00000030: 41ce 7fb8 1ae2 903c 0389 db3b 1930 ccbb

arch.conv.1.running_mean f4 [16]
0.1286994 0.07307145 -0.027754933 -0.19787492 0.08003927 0.06202375 0.029837042 0.05356405
0.053110454 0.03079627 0.00081161316 -0.057571236 0.044838667 0.11752314 0.09455055 -0.034446627
00000000: c7c9 033e 7ca6 953d 505e e3bc b99f 4abe
00000010: a1eb a33d 9e0c 7e3d d06c f43c fa65 5b3d
00000020: 598a 593d 7648 fc3c 70c2 543a d1cf 6bbd
00000030: c0a8 373d f9af f03d b8a3 c13d e817 0dbd

arch.conv.1.running_var f4 [16]
101.41345 124.53208 80.9874 188.54524 123.97422 122.73592 80.81425 89.761925
114.21306 90.72816 77.23262 66.35322 58.81171 110.10692 54.609222 110.17619
00000000: b0d3 ca42 6d10 f942 8cf9 a142 958b 3c43
00000010: cdf2 f742 cb78 f542 e5a0 a142 1b86 b342
00000020: 166d e442 d174 b542 1a77 9a42 d9b4 8442
00000030: 313f 6b42 be36 dc42 d86f 5a42 365a dc42

arch.conv.4.weight f4 [32, 16, 11]
0.035725567 -0.02473011 -0.021236466 0.039613303 0.020731831 -0.028531892 0.015901005 0.02621791
-0.045083124 0.009882347 0.012555907 -0.005755757 0.047066703 -0.03936929 0.02655237 -0.032004196
-0.050066136 0.033128522 -0.030141033 -0.0012550141 0.025309179 -0.04978139 -0.04724882 0.016953874
0.04639914 -0.006643061 0.03481048 0.017377768 0.014595643 -0.034954354 0.04785259 0.022253592
0.00846161 0.026010549 -0.05996673 -0.0020315938 -0.03917868 -0.019219048 0.004172763 0.01139211
6.6270164e-05 -0.054231316 -0.04671195 -0.012840969 -0.005230919 -0.041011184 0.056592803 0.0080511
-0.035791148 0.026216289 0.025800396 -0.024696164 0.028684963 -0.03033777 0.02089093 0.05134741
0.035331246 0.025241138 -0.011758674 0.009341013 0.018197587 0.011957187 -0.011880026 0.006129424
-0.023405114 -0.03281683 -0.051907167 -0.046846993 -0.03654248 0.04808502 0.0061543304 -0.050895713
-0.029608438 0.009515169 -0.018317588 -0.01721266 -0.022734199 -0.013416006 0.004369562 0.0015530342
0.033279933 0.034069356 0.04234101 -0.003115784 -0.022599323 0.0007523261 -0.035653666 0.020141374
-0.00013852539 -0.010715253 -0.03869483 0.029277917 0.03402187 0.051549822 -0.013369456 0.020652859
0.008299528 -0.027196268 -0.026852384 0.030306488 -0.025816828 0.039005768 0.020587215 0.021599628
0.037395187 0.027270166 0.024246357 0.029557304 -0.018545922 -0.025409875 -0.013958091 0.025152627
0.03287019 0.034986634 -0.020656748 -0.010675624 -0.040771265 0.028924314 -0.03886546 -0.025670663
0.04020797 0.012934048 -0.020984016 -0.03401391 -0.0340564 0.04298617 -0.047642972 0.044330228
0.040884502 0.0037214614 -0.0047850907 0.03908153 0.015657384 0.04330712 0.035245858 -0.042583615
0.025540253 0.019575559 -0.045541666 0.01716407 -0.03438316 -0.038175665 -0.006497265 -0.0009164106
-0.008321071 -0.028447911 0.032627337 0.054806307 -0.0061157816 -0.02968307 0.002995798 -0.04010994
-0.037357554 -0.012703434 0.037712295 -0.03229662 -0.00099578 -0.019071663 -0.04059413 -0.0054949145
0.0028313203 -0.0018099326 0.042917743 0.026074851 0.036418155 0.016337588 0.0013802841 0.024562381
-0.036717046 0.022613866 0.020829417 -0.025760103 -0.004931434 -0.042179186 -0.04832148 -0.0028783698
0.003910253 -0.013482922 0.009213136 -0.037355714 -0.028248701 0.02965841 -0.047463685 0.0054463125
0.033091016 0.032623492 0.012935279 -0.0380356 0.011754328 -0.012341684 -0.010750121 0.03832285
-0.010543343 -0.028474404 -0.03233305 0.033988103 0.0052872025 0.050821558 0.0023845762 -0.045903992
0.004843918 0.03764476 0.023237199 0.008482517 -0.039164178 -0.032294296 0.024489975 -0.035767864
0.0036810732 0.0023331495 0.024859108 0.013437909 -0.025200326 -0.007698538 0.051982667 0.016156372
0.0353973 -0.012478219 0.04798748 0.0011430706 -0.025118964 -0.003913186 -0.02536652 -0.026519652
-0.0140526565 -0.0099584535 -0.02936861 0.005387962 -0.04619204 0.017628964 0.0319736 0.002620841
-0.014077397 -0.044253744 0.017059295 0.033993773 0.036242083 0.0016090524 0.012448782 0.042084396
0.004242806 -0.023229254 -0.043758813 0.017277386 0.015432711 0.03811242 -0.02104769 0.019738419
-0.013712908 -0.010106346 0.025932567 -0.039787713 0.03125353 0.028276017 -0.01933389 0.029725488
00000000: f954 123d cd96 cabc 19f8 adbc 8f41 223d
00000010: cdd5 a93c b7bb e9bc d342 823c f1c6 d63c
00000020: 15a9 38bd 91e9 213c 4ab7 4d3c ca9a bcbb
00000030: 04c9 403d b141 21bd 5b84 d93c d516 03bd
00000040: 2612 4dbd c6b1 073d 54ea f6bc 497f a4ba
00000050: 3255 cf3c 92e7 4bbd fb87 41bd dae2 8a3c
00000060: 060d 3e3d 09ae d9bb 6f95 0e3d d25b 8e3c
00000070: 9022 6f3c 4c2c 0fbd 1401 443d 2a4d b63c
00000080: 91a2 0a3c 1314 d53c ad9f 75bd 7d24 05bb
00000090: d379 20bd 4471 9dbc acbb 883b f9a5 3a3c
000000a0: 86fa 8a38 a821 5ebd 0855 3fbd ed62 52bc
000000b0: 2168 abbb 58fb 27bd dbcd 673d c3e8 033c
000000c0: bd99 12bd 8bc3 d63c 5a5b d33c 9c4f cabc
000000d0: bafc ea3c ea86 f8bc 7523 ab3c a951 523d
000000e0: 7fb7 103d 81c6 ce3c 74a7 40bc 0c0b 193c
000000f0: 1b13 953c 14e8 433c 71a4 42bc 56d9 c83b
00000100: 15bc bfbc f16a 06bd 9c9c 54bd a2e2 3fbd
00000110: 91ad 15bd ccf4 443d 44aa c93b 0678 50bd
00000120: 658d f2bc 83e5 1b3c c40e 96bc 9001 8dbc
00000130: 123d babc cfce 5bbc 8b2e 8f3b 2e8f cb3a
00000140: 8a50 083d 4f8c 0b3d c46d 2d3d 2e32 4cbb
00000150: 3722 b9bc c037 453a 9409 12bd 86ff a43c
00000160: 2041 11b9 078f 2fbc 787e 1ebd 3ed8 ef3c
00000170: 845a 0b3d e825 533d 900b 5bbc 2f30 a93c
00000180: befa 073c b5ca debc 88f9 dbbc 5045 f83c
00000190: d07d d3bc 83c4 1f3d 85a6 a83c b4f1 b03c
000001a0: b22b 193d af65 df3c 4ca0 c63c 2922 f23c
000001b0: 9eed 97bc 5f28 d0bc 7ab0 64bc e20c ce3c
000001c0: e4a2 063d 254e 0f3d 5738 a9bc d0e8 2ebc
000001d0: c5ff 26bd aff2 ec3c 6331 1fbd 484b d2bc
000001e0: 1db1 243d 54e9 533c ace6 abbc 2b52 0bbd
000001f0: b97e 0bbd 4412 303d 4725 43bd 9d93 353d
00000200: 8276 273d c3e3 733b 40cc 9cbb f413 203d
00000210: ea43 803c cf62 313d f65d 103d 286c 2ebd
00000220: cb39 d13c ec5c a03c e689 3abd aa9b 8c3c
00000230: 5bd5 0cbd 165e 1cbd 02e7 d4bb 463b 70ba
00000240: 1a55 08bc 980b e9bc 3ea4 053d 947c 603d
00000250: e566 c8bb e929 f3bc 2655 443b 524a 24bd
00000260: 3c04 19bd 1022 50bc 3578 1a3d 7649 04bd
00000270: d584 82ba 2d3c 9cbc 0846 26bd af0e b4bb
00000280: ac8d 393b 433b edba 84ca 2f3d ed9a d53c
00000290: 342b 153d 68d6 853c a6ea b43a 0c37 c93c
000002a0: 9d64 16bd b740 b93c 74a2 aa3c da06 d3bc
000002b0: de97 a1bb 15c4 2cbd bfec 45bd 08a3 3cbb
000002c0: 9421 803b 79e7 5cbc b1f2 163c 4e02 19bd
000002d0: d269 e7bc 32f6 f23c 4869 42bd fb76 b23b
000002e0: 728a 073d 36a0 053d 7eee 533c 38cb 1bbd
000002f0: 3a95 403c c634 4abc 4721 30bc 6cf8 1c3d
00000300: fcbd 2cbc 2743 e9bc a96f 04bd 1c37 0b3d
00000310: 4540 ad3b 442a 503d 8d46 1c3b d305 3cbd
00000320: bbb9 9e3b 6431 1a3d f05b be3c 41fa 0a3c
00000330: 9e6a 20bd 0647 04bd 339f c83c 5381 12bd
00000340: 293e 713b c1e7 183b 54a5 cb3c ad2a 5c3c
00000350: ea70 cebc 0444 fcbb c7eb 543d 5e5a 843c
00000360: c2fc 103d 7271 4cbc 858e 443d 16d3 953a
00000370: 49c6 cdbc 2f3a 80bb 73cd cfbc be3f d9bc
00000380: 1d3d 66bc c828 23bc 7096 f0bc 808d b03b
00000390: dd33 3dbd 9e6a 903c c0f6 023d 6ac2 2b3b
000003a0: e2a4 66bc 6a43 35bd efbf 8b3c 0e3d 0b3d
000003b0: 9472 143d d7e6 d23a faf5 4b3c b060 2c3d
000003c0: 3d07 8b3b 474b bebc 713c 33bd 4e89 8d3c
000003d0: 7bd9 7c3c c51b 1c3d 356c acbc 77b2 a13c
000003e0: 1bac 60bc 1695 25bc 8970 d43c 71f8 22bd
000003f0: b403 003d 1ba3 e73c 1b62 9ebc de82 f33c

arch.conv.5.weight f4 [32]
0.9170143 0.91618997 0.91674197 0.9175683 0.9172592 0.9171726 0.9184208 0.91708523
0.9165059 0.91696894 0.9162712 0.9164682 0.92104554 0.9191275 0.9164788 0.91692096
0.916307 0.91698736 0.9171634 0.9173302 0.91655236 0.9165093 0.9192744 0.91665727
0.9172905 0.91768676 0.9167019 0.9166771 0.9179655 0.91897774 0.91619325 0.91713667
00000000: 73c1 6a3f 6d8b 6a3f 9aaf 6a3f c2e5 6a3f
00000010: 80d1 6a3f d3cb 6a3f a01d 6b3f 19c6 6a3f
00000020: 21a0 6a3f 7abe 6a3f c090 6a3f a99d 6a3f
00000030: a4c9 6b3f f14b 6b3f 5b9e 6a3f 55bb 6a3f
00000040: 1893 6a3f afbf 6a3f 38cb 6a3f 27d6 6a3f
00000050: 2da3 6a3f 5aa0 6a3f 9155 6b3f 0daa 6a3f
00000060: 8dd3 6a3f 85ed 6a3f faac 6a3f 5aab 6a3f
00000070: c9ff 6a3f 2042 6b3f a48b 6a3f 78c9 6a3f

arch.conv.5.bias f4 [32]
-0.00084124494 0.0037434066 -0.0024138002 -0.002479552 -5.932679e-05 0.0062960605 4.0660216e-05 0.0011896869
0.0008108628 -0.013260801 -0.0039614155 0.0060597607 -0.00015947514 0.0019459446 0.003134983 0.00521156
0.004328194 0.00047232577 0.0017503344 -0.002206213 -0.0037893753 0.001136958 -0.0003185758 -0.0022812875
-0.0026689833 -0.0031705725 0.005556388 0.00017263956 0.0010830952 -0.0016957603 -0.0043127993 -0.0036287704
00000000: fe86 5cba f153 753b d930 1ebb fb7f 22bb
00000010: a8d5 78b8 2f4f ce3b 938a 2a38 45ef 9b3a
00000020: 1590 543a d543 59bc c3ce 81bb f590 c63b
00000030: c838 27b9 110f ff3a 4974 4d3b bcc5 aa3b
00000040: 86d3 8d3b 7ea2 f739 7a6b e53a 1d96 10bb
00000050: 2b57 78bb fb05 953a 8506 a7b9 a781 15bb
00000060: 1cea 2ebb 61c9 4fbb 5c12 b63b 9406 3539
00000070: a5f6 8d3a 4644 deba 6252 8dbb aad0 6dbb

arch.conv.5.running_mean f4 [32]
-0.0077943634 -0.0025840586 -0.08286908 -0.080840155 -0.061324723 -0.05299473 0.084788404 -0.047558643
0.002990944 -0.10686799 0.14310257 -0.059938867 0.15825212 0.1406632 -0.0262086 0.1613544
-0.029609801 0.1759063 -0.097450584 -0.07165089 0.17436437 0.006421921 0.04359661 -0.113721326
-0.12261682 0.092388555 0.13348165 -0.031264022 -0.07854676 -0.18093511 -0.03793919 0.1927272
00000000: dc67 ffbb 4f59 29bb 44b7 a9bd 868f a5bd
00000010: a22f 7bbd 0111 59bd 8ba5 ad3d dacc 42bd
00000020: b703 443b 9bdd dabd 7b89 123e 7582 75bd
00000030: d80c 223e 040a 103e 6bb3 d6bc 163a 253e
00000040: 4190 f2bc c820 343e 2c94 c7bd b4bd 92bd
00000050: 938c 323e fa6e d23b 5c92 323d bae6 e8bd
00000060: 871e fbbd 3636 bd3d 6aaf 083e b40e 00bd
00000070: 20dd a0bd 0e47 39be 2066 1bbd 475a 453e

arch.conv.5.running_var f4 [32]
0.079825595 0.06464578 0.05151296 0.09793291 0.13759667 0.11218561 0.11599393 0.18370226
0.03997062 0.041724887 0.06308271 0.044793986 0.10092125 0.19279844 0.06008165 0.068408154
0.049567178 0.076664574 0.20429553 0.1021744 0.09632661 0.122389086 0.10786697 0.066695265
0.05110619 0.07211247 0.05540551 0.04586399 0.09587556 0.09045194 0.10815395 0.07542414
00000000: 9a7b a33d 0265 843d 41ff 523d 0d91 c83d
00000010: 24e6 0c3e 92c1 e53d 3a8e ed3d 721c 3c3e
00000020: 3cb8 233d b7e7 2a3d 8231 813d e679 373d
00000030: cdaf ce3d f46c 453e 2d18 763d 9319 8c3d
00000040: f406 4b3d 5102 9d3d d932 513e d040 d13d
00000050: e346 c53d 21a7 fa3d 5ce9 dc3d 8797 883d
00000060: b954 513d b4af 933d e3f0 623d e1db 3b3d
00000070: 685a c43d de3e b93d d17f dd3d f977 9a3d

arch.transformer.1.attention.in_proj_weight f4 [96, 32]
0.11847855 0.012168714 -0.03071757 0.004847104 8.757589e-05 0.11248781 0.025359003 0.108853586
0.00023557419 -0.08950148 -0.06586756 0.11903572 0.11752689 0.009100621 -0.0791989 0.08402958
0.025726834 -0.09527828 0.008854893 0.13119905 -0.07003414 -0.0005575202 0.008071254 -0.02002206
0.068942614 0.11753788 0.13263445 -0.11794605 0.00033721558 0.101456076 0.1091853 -0.016345678
0.0708764 0.08797705 0.00022482393 0.07425327 0.054938596 -0.0012515025 -0.027914336 -0.04506512
-0.09815544 -0.062051073 0.009357134 0.019862767 -0.015903572 -0.00040811204 0.07740804 0.005858994
-0.07709643 0.10862526 0.06606309 0.0011321082 0.04008564 -0.10933645 0.062748194 0.012382043
-0.0013759678 -0.025510106 0.09905595 0.012872681 -0.052146565 0.03805933 0.004287309 -0.031709418
0.079396196 0.13842808 0.00028200462 -0.025097616 -0.04656075 -0.04304557 0.044012565 0.062988184
-0.058318675 0.050819416 0.00051303866 -0.0012445737 -0.017884273 -0.122309685 -0.1098109 0.086749434
-0.00084477756 -0.00029404095 -0.059075262 -0.0018720074 -0.02265046 0.0022141228 -0.1302543 0.0008703157
-0.114882514 -0.08345633 0.0003501728 -0.00045646244 -0.0077601187 0.056166116 0.0008095163 0.01254086
0.02425898 -0.00012452918 -0.115453795 -0.018515218 0.06288597 0.053212922 0.016800787 0.113963075
-0.042948283 -0.010587772 0.0005140826 -0.0043968516 0.1110672 -0.13802858 0.0013819358 0.13528194
-0.049016476 0.09704223 -0.11067333 0.00095242925 -0.051690213 0.015488363 0.0060123736 0.0057556946
-0.0028251263 -0.015304359 -0.1316015 0.004258071 0.12882969 -0.08870448 -0.021434257 0.014716229
0.04279668 0.018608114 0.06687389 0.000113508366 -0.004515078 -0.104387574 -0.13795361 -0.09099565
0.040026564 0.117909566 0.1285286 0.08768926 0.0006750873 0.07559541 0.02127496 -0.07310496
-0.0020357135 -0.12354941 0.110622846 0.0033576728 0.122935385 -0.0021079031 0.09750126 0.037147675
-0.00060529145 -0.0002814143 0.08032516 -0.0011322352 0.09212244 0.005651555 -0.021679442 -0.03959647
-0.038432833 0.06515936 0.08826737 -0.03440028 -0.120929755 0.049808204 -0.002063157 -0.12187929
0.0015610026 -0.0006353516 0.0820999 0.0018692815 -0.061971262 -0.0005441052 -0.0813934 0.034160048
0.0075788754 0.056972492 -0.08657661 -0.04950566 -0.060291763 -0.10443076 -0.1254655 -0.09983399
0.0763623 -0.013783918 -0.00017656731 0.01338437 0.005113322 0.030834293 -0.07989918 0.11624072
0.000119628814 -0.036674906 0.06775349 -0.10398379 -0.057029232 0.05153439 0.024680458 -0.022843737
0.000762282 -0.0052042175 0.02521389 0.00312793 0.023265468 0.10298405 -0.07536276 -0.0926455
-0.0064691557 -0.03209527 -0.081638426 0.12410676 0.10544286 0.101998106 -0.06360902 -0.00039921206
-0.093315355 -0.026190713 0.10377534 0.0059344466 0.015044394 -0.13898379 0.026337799 0.07974341
-0.024660213 0.092357464 0.0339375 -0.084071174 -0.08704399 0.0008125197 -0.13275266 -0.07755509
0.025910622 -0.022616474 -0.0013995246 -0.030109197 0.07449175 0.102583066 0.08293307 -0.118283056
-0.016451074 0.039878998 0.063652754 -0.00798347 0.05188554 -0.0059684683 0.0040661213 0.07515588
0.07442541 -0.09203929 -0.062476676 0.026538525 0.058285818 -0.01895606 0.11938773 -0.017966159
00000000: e2a4 f23d 495f 473c 6aa3 fbbc 75d4 9e3b
00000010: f3a8 b738 0260 e63d afbd cf3c a1ee de3d
00000020: 7704 7739 8d4c b7bd 92e5 86bd 00c9 f33d
00000030: f0b1 f03d c51a 153c 0833 a2bd b317 ac3d
00000040: 15c1 d23c 4221 c3bd 1d14 113c 0b59 063e
00000050: 0f6e 8fbd 8c26 12ba 4b3d 043c 4e05 a4bc
00000060: c931 8d3d b3b7 f03d 53d1 073e b38d f1bd
00000070: 4fcc b039 34c8 cf3d 8b9c df3d 5fe7 85bc
00000080: a527 913d 502d b43d b7be 6b39 1912 983d
00000090: 4b07 613d 7509 a4ba 9bac e4bc 3496 38bd
000000a0: b805 c9bd 4429 7ebd aa4e 193c 3eb7 a23c
000000b0: 3548 82bc dff7 d5b9 1b88 9e3d cefc bf3b
000000c0: bce4 9dbd ec76 de3d 164c 873d 3f63 943a
000000d0: d730 243d caeb dfbd 2082 803d 0dde 4a3c
000000e0: d159 b4ba 92fa d0bc d9dd ca3d f0e7 523c
000000f0: a397 55bd 1ae4 1b3d 8e7c 8c3b bce1 01bd
00000100: 799a a23d 17c0 0d3e 05da 9339 8499 cdbc
00000110: 7cb6 3ebd 8d50 30bd 8546 343d f3ff 803d
00000120: 90df 6ebd 0528 503d 717d 063a f720 a3ba
00000130: 0a82 92bc 807d fabd 8ae4 e0bd b0a9 b13d
00000140: 1074 5dba 8229 9ab9 e7f8 71bd 255e f5ba
00000150: 758d b9bc d11a 113b 6261 05be e625 643a
00000160: 8647 ebbd 27eb aabd 6697 b739 5a51 efb9
00000170: 9848 febb 710e 663d b835 543a 2e78 4d3c
00000180: c5ba c63c 0c94 02b9 0a73 ecbd 3aad 97bc
00000190: 5cca 803d cbf5 593d cea1 893c 7965 e93d
000001a0: 8aea 2fbd 5678 2dbc 80c3 063a 7713 90bb
000001b0: 3377 e33d 5d57 0dbe 1222 b53a 5987 0a3e
000001c0: 80c5 48bd 14be c63d b3a8 e2bd 72ac 793a
000001d0: 1eb9 53bd e7c2 7d3c 7203 c53b 449a bc3b
000001e0: c125 39bb 22bf 7abc 8bc2 06be 4a87 8b3b
000001f0: eeeb 033e b2aa b5bd e596 afbc 571c 713c
00000200: 924b 2f3d 0b70 983c 2ef5 883d 570b ee38
00000210: 38f3 93bb 27c9 d5bd b643 0dbe ed5b babd
00000220: e5f2 233d 927a f13d 009d 033e 6d96 b33d
00000230: 58f8 303a c4d1 9a3d d348 ae3c 0eb8 95bd
00000240: 9b69 05bb 7907 fdbd 3b8e e23d 670c 5c3b
00000250: 8cc5 fb3d bf24 0abb beae c73d 2928 183d
00000260: 6cac 1eba ca8a 93b9 8481 a43d 8267 94ba
00000270: b1aa bc3d ae30 b93b 1699 b1bc e82f 22bd
00000280: bf6b 1dbd 4572 853d 86c5 b43d 4fe7 0cbd
00000290: 05aa f7bd b003 4c3d 0836 07bb d99b f9bd
000002a0: 8e9a cc3a b98d 26ba fe23 a83d ae02 f53a
000002b0: 94d5 7dbd 48a2 0eba 95b1 a6bd 68eb 0b3d
000002c0: 3758 f83b fd5b 693d 144f b1bd 72c6 4abd
000002d0: 7ff4 76bd cbdf d5bd 077a 00be c375 ccbd
000002e0: d663 9c3d f1d5 61bc ed24 39b9 1e4a 5b3c
000002f0: a78d a73b 3398 fc3c 2ea2 a3bd 9d0f ee3d
00000300: 3be1 fa38 6d38 16bd 57c2 8a3d 74f5 d4bd
00000310: 7c97 69bd b915 533d ac2e ca3c ca22 bbbc
00000320: e1d3 473a 2488 aabb 5c8d ce3c f5fd 4c3b
00000330: 3997 be3c 4de9 d23d ca57 9abd edbc bdbd
00000340: 36fb d3bb 5476 03bd 0c32 a7bd af2b fe3d
00000350: 6df2 d73d 62e4 d03d 7245 82bd 564d d1b9
00000360: 1f1c bfbd e88d d6bc 2a88 d43d bf75 c23b
00000370: c37c 763c c451 0ebe 5ec2 d73c 8350 a33d
00000380: 3704 cabc e925 bd3d 0c02 0b3d 822d acbd
00000390: 1f44 b2bd 46ff 543a 50f0 07be 34d5 9ebd
000003a0: 8342 d43c 2f46 b9bc 4170 b7ba 90a7 f6bc
000003b0: 218f 983d 1217 d23d d0d8 a93d 633e f2bd
000003c0: 67c4 86bc 2958 233d 605c 823d 1acd 02bc
000003d0: ef85 543d 2493 c3bb 193d 853b 53eb 993d
000003e0: 596c 983d 187f bcbd 8be7 7fbd 5267 d93c
000003f0: 1cbd 6e3d bd49 9bbc 8e81 f43d c42d 93bc

arch.transformer.1.attention.in_proj_bias f4 [96]
-0.002452338 0.0011504648 0.0011736922 0.0017504374 0.0007235947 0.0021037678 0.0013850265 -0.0037262235
0.00035121132 0.00042294597 -0.001275738 -5.1818828e-05 -0.0022665798 0.0007163768 0.00062865496 0.0003725472
0.0018033495 0.00040608356 -0.00087692746 -0.0001445239 0.00011247022 -0.0003219809 -0.0002724728 -0.00010617064
0.00018686807 -0.0019216177 -0.0006616682 0.0038155536 -0.0016658239 -0.0015855337 0.0023469895 0.0011827719
5.0968684e-11 8.535097e-12 1.9046438e-11 3.4767963e-11 4.9887668e-12 -1.1165206e-11 2.07335e-12 -6.7646834e-12
1.1574802e-11 -1.7166218e-11 1.1146215e-11 -1.5763755e-11 2.6500477e-11 1.0170877e-11 -1.2194351e-10 1.3818198e-11
-4.9961927e-11 -3.8823483e-11 -1.1866271e-11 -4.624075e-12 -1.5313856e-11 1.5885647e-11 1.1276884e-11 -2.644716e-11
1.6899837e-10 -7.293349e-11 2.9892283e-11 1.005042e-10 -5.3163728e-12 4.419558e-11 7.46722e-11 -4.2712472e-11
-0.0012926247 0.0034604343 -0.00087985955 0.0044595334 -0.0009383064 0.002028212 0.0041992995 0.002886135
0.00060989056 0.002009216 -0.003021701 -0.0024336982 -0.0015331524 -0.0012264422 0.0034929786 0.0022402524
0.0035957594 -0.0006616315 -0.0041632345 -0.00040408986 0.0024257642 -0.0009897461 -0.00054024335 0.0029285029
-0.0008858241 -0.0007812733 -0.00089984725 -0.00012228044 -0.00664604 -0.0020326583 -0.0049990714 -0.001195335
00000000: 68b7 20bb 31cb 963a 93d6 993a ef6e e53a
00000010: 9eaf 3d3a 5edf 093b c789 b53a a833 74bb
00000020: c922 b839 d9be dd39 aa36 a7ba 0b58 59b8
00000030: e68a 14bb 3ccb 3b3a 52cc 243a 7052 c339
00000040: 5e5e ec3a 9de7 d439 9be1 65ba 578b 17b9
00000050: fddd eb38 8bcf a8b9 aeda 8eb9 eea7 deb8
00000060: 04f2 4339 cade fbba cd73 2dba 5e0e 7a3b
00000070: c657 daba afd1 cfba f3cf 193b 3d07 9b3a
00000080: a329 602e a926 162d c488 a72d 3fe9 182e
00000090: d186 af2c 9e6b 44ad 27e6 112c da02 eeac
000000a0: 46a0 4b2d e3fe 96ad 1716 442d d2a8 8aad
000000b0: c519 e92d 8fed 322d 0c14 06af a217 732d
000000c0: 21bc 5bae 5bbf 2aae efc0 50ad f7b1 a2ac
000000d0: bdb3 86ad 4cbb 8b2d 9262 462d b6a1 e8ad
000000e0: d0d0 392f e861 a0ae b877 032e d602 dd2e
000000f0: a10d bbac cd5f 422e b634 a42e f8d9 3bae
00000100: 4a6d a9ba 74c8 623b 60a6 66ba 4721 923b
00000110: adf8 75ba c0eb 043b 479a 893b 4f25 3d3b
00000120: 10e1 1f3a 0dad 033b bb07 46bb ae7e 1fbb
00000130: 0ff4 c8ba 92c0 a0ba 75ea 643b 33d1 123b
00000140: d5a6 6b3b 5771 2dba be6b 88bb 06dc d3b9
00000150: 92f9 1e3b 5eba 81ba 1e9f 0dba 20ec 3f3b
00000160: a636 68ba 5dce 4cba bae3 6bba 6838 00b9
00000170: 06c7 d9bb 5936 05bb 40cf a3bb c9ac 9cba

arch.transformer.1.attention.out_proj.weight f4 [32, 32]
-0.047177106 0.031838004 0.08540516 0.04353634 -0.020272974 -0.06897532 -0.07975995 -0.013694461
-0.017388612 -0.06608841 0.018188046 -0.026074333 0.022272406 -0.058335815 -0.0027293516 -0.021195136
0.044304658 -0.10684833 -0.03341379 0.008357731 -0.011383984 -0.0007396915 0.05832309 0.010340653
0.008612307 0.02975373 -0.039839223 -0.018427046 0.03875669 0.006219202 0.059805937 -0.0116228
0.11817117 0.056016274 -0.013735588 -0.050446354 0.022011643 -0.08580451 -0.044287827 0.026803486
0.004271069 0.03985671 -0.04213658 0.09358934 -0.055374067 -0.060725998 0.06646927 -0.026143847
0.01715132 -0.017682785 -0.07505746 -0.0044770315 0.035526264 0.08270214 0.08105729 -0.0051321997
0.07662072 0.035473812 0.0024767544 -0.005341044 -0.011268201 0.021035247 -0.008506513 0.07413762
-0.010702282 -0.038034234 0.009587276 -0.04092706 0.05559297 0.073762394 0.009497484 -0.008832641
-0.0005665662 0.029695237 -0.069867305 -0.014701762 -0.05091213 -0.09906965 -0.058950037 -0.05577503
0.06478413 0.05848942 -0.05943339 -0.06948458 0.087276675 0.020206977 0.026394317 0.0081013115
-0.02319845 -0.0503362 0.035604343 -0.099397 -0.0809721 0.0109065715 -0.015515769 0.014867683
0.07350483 -0.058338095 -0.05347516 -0.0687686 -0.11511338 -0.0096113905 0.0975432 -0.008961919
0.05520768 -0.053734254 0.008443809 -0.08100044 -0.0050256206 0.028596237 -0.04834181 0.1114678
0.019898877 0.06653642 0.12843868 0.036636796 -0.004671898 0.07026956 0.115247086 -0.11649625
-0.023283647 0.06631989 -0.02385801 -0.08669573 -0.074006125 -0.048233103 0.04719102 0.0891303
-0.015173185 -0.091946706 0.02474095 0.026963612 -0.046799183 0.026232611 -0.047655687 0.034056105
0.07722784 0.055468135 -0.013405756 0.119407594 -0.008343956 -0.12745862 0.07796876 0.115551524
0.038533594 0.12155456 0.06600841 0.037592553 0.056061417 -0.10944545 -0.0002667233 -0.05089556
0.03227377 -0.12567115 0.0063458392 0.029380204 -0.049228717 -0.039248556 -0.079526104 0.037789244
-0.09132884 -0.008320129 0.009606829 0.012606565 -0.09136842 -0.0028565398 -0.021195108 -0.007844321
-0.062005747 -0.07099513 0.009178698 0.007857348 0.08655639 0.10614696 0.06343142 0.024026081
0.050765254 0.04556241 -0.1013633 0.060760666 0.0028460936 -0.03325025 -0.012497494 0.07001999
0.06816383 0.0001415143 -0.023327786 -0.03566445 0.044481084 -0.042739667 -0.058224067 -0.06597542
0.034815162 0.07930766 0.002587332 0.038793966 -0.09820127 -0.067307204 -0.055205762 -0.06541753
-0.036926877 -0.061818354 -0.032155223 -0.06897987 0.030774249 0.0029854386 0.009938315 0.06036113
-0.09306792 -0.050928816 -0.004643991 -0.100372195 0.047274984 -0.09901831 0.07039565 0.11525886
0.022535434 -0.06433457 0.071035706 -0.057483457 0.010212255 0.06028111 0.11314277 0.010365455
-0.010060258 -0.0054731723 -0.11752404 0.018200118 -0.11136213 0.00036349177 -0.033483084 0.07980187
-0.05168889 0.0921165 -0.034027845 -0.021099404 -0.12352493 0.13080208 0.007373868 -0.1343572
0.0044841017 0.061992265 -0.027722858 0.097464934 0.05490992 -0.018961426 0.13149935 0.088130556
-0.01798846 -0.012058644 0.0372331 -0.04342612 0.07789975 -0.120526016 -0.075939886 0.06640826
00000000: c83c 41bd 9168 023d e7e8 ae3d 2953 323d
00000010: 8213 a6bc ef42 8dbd 2f59 a3bd bc5e 60bc
00000020: 9072 8ebc 5c59 87bd 19ff 943c d799 d5bc
00000030: 9f74 b63c 89f1 6ebd ecde 32bb 6ca1 adbc
00000040: cd78 353d 4cd3 dabd e6dc 08bd ddee 083c
00000050: e483 3abc dbe7 41ba 31e4 6e3d d86b 293c
00000060: a21a 0d3c 18be f33c 742e 23bd 51f4 96bc
00000070: 56bf 1e3d 73ca cb3b 12f7 743d 8e6d 3ebc
00000080: ba03 f23d 5271 653d 3b0b 61bc d6a0 4ebd
00000090: c351 b43c 46ba afbd 2767 35bd fc92 db3c
000000a0: 53f4 8b3b ca40 233d 6897 2cbd c5ab bf3d
000000b0: ebcf 62bd d3bb 78bd 0a21 883d 9f2b d6bc
000000c0: ed80 8c3c 7ddb 90bc bab7 99bd 10b4 92bb
000000d0: fd83 113d bd5f a93d 5d01 a63d 032c a8bb
000000e0: 53eb 9c3d fd4c 113d 0b51 223b ed03 afbb
000000f0: 439e 38bc 1c52 ac3c e75e 0bbc 77d5 973d
00000100: a058 2fbc c9c9 1bbd f313 1d3c 22a3 27bd
00000110: 74b5 633d bd10 973d 569b 1b3c c8b6 10bc
00000120: 9d85 14ba 6d43 f33c 9716 8fbd a9df 70bc
00000130: 3d89 50bd 07e5 cabd 9875 71bd 5c74 64bd
00000140: 8bad 843d 9a92 6f3d 6d70 73bd ee4d 8ebd
00000150: 1dbe b23d 1a89 a53c e538 d83c 5dbb 043c
00000160: ad0a bebc 552d 4ebd dcd5 113d a890 cbbd
00000170: b3d4 a5bd 7ab1 323c da35 7ebc 9597 733c
00000180: b389 963d edf3 6ebd c508 5bbd 8dd6 8cbd
00000190: 90c0 ebbd 1879 1dbc bbc4 c73d 03d5 12bc
000001a0: 7321 623d 7318 5cbd e757 0a3c 8fe3 a5bd
000001b0: f6ad a4bb a842 ea3c 1002 46bd 3b49 e43d
000001c0: f802 a33c 3f44 883d 6e85 033e 7710 163d
000001d0: b916 99bb 7de9 8f3d aa06 ec3d 9695 eebd
000001e0: 59bd bebc b9d2 873d e071 c3bc 888d b1bd
000001f0: 8690 97bd 1390 45bd 5f4b 413d f289 b63d
00000200: f398 78bc 8e4e bcbd 88ad ca3c cbe2 dc3c
00000210: 80b0 3fbd c6e5 d63c 9c32 43bd 6a7e 0b3d
00000220: a129 9e3d 8e32 633d d1a3 5bbc f88b f43d
00000230: 17b5 08bc 8384 02be 16ae 9f3d 47a6 ec3d
00000240: 67d5 1d3d 99f1 f83d 6b2f 873d a6fa 193d
00000250: a8a0 653d f024 e0bd ffd6 8bb9 dd77 50bd
00000260: 8031 043d f0af 00be c2f0 cf3b c1ae f03c
00000270: 0da4 49bd 18c3 20bd 95de a2bd e5c8 1a3d
00000280: 9d0a bbbd 2651 08bc f665 1d3c c48b 4e3c
00000290: 5e1f bbbd c934 3bbb 5da1 adbc 7885 00bc
000002a0: bdf9 7dbd e565 91bd 4062 163c 1bbc 003c
000002b0: 7a44 b13d 9463 d93d 55e8 813d 58d2 c43c
000002c0: 3aef 4f3d a69f 3a3d 9097 cfbd 2de0 783d
000002d0: 8785 3a3b 6a31 08bd 4ac2 4cbc a466 8f3d
000002e0: 7a99 8b3d 7563 1439 ea19 bfbc e314 12bd
000002f0: cc31 363d ca0f 2fbd 5c7c 6ebd 1f1e 87bd
00000300: 589a 0e3d 0e6c a23d 3a90 293b 6ce6 1e3d
00000310: bf1d c9bd 5cd8 89bd 701f 62bd a0f9 85bd
00000320: a340 17bd 3e35 7dbd 32b5 03bd 5145 8dbd
00000330: 471a fc3c 59a7 433b 50d4 223c 3b3d 773d
00000340: 659a bebd bc9a 50bd 9f2c 98bb f08f cdbd
00000350: 6aa3 413d 1dca cabd 982b 903d d60c ec3d
00000360: 3b9c b83c d8c1 83bd 2b7b 913d c673 6bbd
00000370: 4d51 273c 53e9 763d 66b7 e73d dfd3 293c
00000380: c8d3 24bc 4c58 b3bb 72b0 f0bd 6a18 953c
00000390: d411 e4bd 0a93 be39 8f25 09bd 2a6f a33d
000003a0: bbb7 53bd 93a7 bc3d c860 0bbd a8d8 acbc
000003b0: a3fa fcbd fbf0 053e 7da0 f13b ef94 09be
000003c0: 5fef 923b 9aeb 7d3d 0c1b e3bc b29b c73d
000003d0: 39e9 603d fe54 9bbc c4a7 063e cb7d b43d
000003e0: 895c 93bc 9e91 45bc bc81 183d 96df 31bd
000003f0: e789 9f3d 58d6 f6bd 5f86 9bbd 0e01 883d

arch.transformer.1.attention.out_proj.bias f4 [32]
-0.0018163167 0.0024096991 0.0011765347 -0.0025548171 -0.00085879065 0.009217144 -0.00087211677 0.0006745873
0.0033279054 -0.01155727 -0.0026598214 0.005852701 -0.0011536703 0.0021719355 0.0012848581 0.005519959
0.005122365 -0.00058504037 0.00061402016 -0.0005593469 -0.0038954578 0.0025183675 -0.00019916632 -0.0019239174
-0.002144915 -0.0009950737 0.0034938725 0.0009724477 0.0016242117 -0.000557798 -0.0027029645 -0.0022655448
00000000: 7a11 eeba 0bec 1d3b f435 9a3a b86e 27bb
00000010: 7720 61ba 8103 173c c49e 64ba cad6 303a
00000020: fd18 5a3b b45a 3dbc 6650 2ebb 04c8 bf3b
00000030: c036 97ba 0857 0e3b af68 a83a c6e0 b43b
00000040: 83d9 a73b 655d 19ba 32f6 203a 23a1 12ba
00000050: f04a 7fbb 320b 253b 4dd7 50b9 f52b fcba
00000060: b491 0cbb 226d 82ba 74f9 643b dceb 7e3a
00000070: 80e3 d43a 3139 12ba 3824 31bb 8979 14bb

arch.transformer.1.mlp.0.weight f4 [2, 32]
0.00015422434 0.04026657 0.035261314 0.002075949 0.0059457775 0.004032963 0.019197168 0.0701118
0.009877041 0.03638081 0.053065848 -0.0737134 -0.036406673 0.039825656 0.005406151 -0.038262296
0.0058250795 -0.09312685 -0.017044963 0.030228999 -0.0009052012 -0.05238781 0.027870307 -0.00090165075
-0.002731185 -0.10044479 -0.013375031 -0.00011661839 -0.03696419 0.007535275 -0.05400857 0.06955719
0.11662762 0.073811814 -0.028305516 -0.14326625 -0.06122404 -0.017556243 -0.14673127 0.10576676
0.044130668 0.118006006 -0.13805236 -0.081595756 0.034092788 0.00034103708 -0.09268755 0.10906363
0.045785893 -0.006101237 0.15612778 -0.140738 -0.12393521 0.03865088 0.13549203 0.09511373
-0.08633489 0.12030429 0.07429742 0.013703404 0.09817136 0.032663368 -0.0066011893 -0.039877973
00000000: 48b7 2139 8fee 243d 2b6e 103d a50c 083b
00000010: ccd4 c23b f226 843b 6143 9d3c c796 8f3d
00000020: 50d3 213c 0b04 153d 935b 593d 0df7 96bd
00000030: 2a1f 15bd 3a20 233d 1526 b13b edb8 1cbd
00000040: 4fe0 be3b 4ab9 bebd e1a1 8bbc cea2 f73c
00000050: 064b 6dba 9a94 56bd 4550 e43c c25c 6cba
00000060: aefd 32bb 00b6 cdbd f222 5bbc 0591 f4b8
00000070: c367 17bd 78ea f63b 1738 5dbd 0074 8e3d
00000080: 76da ee3d a62a 973d f8e0 e7bc 63b4 12be
00000090: 0fc6 7abd 1cd2 8fbc b940 16be 3e9c d83d
000000a0: 5cc2 343d 22ad f13d 995d 0dbe ad1b a7bd
000000b0: e1a4 0b3d 39cd b239 f8d2 bdbd c15c df3d
000000c0: fd89 3b3d e3ec c7bb f6df 1f3e 9f1d 10be
000000d0: bed1 fdbd 6350 1e3d 6cbe 0a3e fdca c23d
000000e0: 59d0 b0bd 1862 f63d 3f29 983d 3e84 603c
000000f0: 110e c93d 06ca 053d ca4e d8bb 1657 23bd

arch.transformer.1.mlp.0.bias f4 [2]
-0.042556647 -0.10507918
00000000: e14f 2ebd c133 d7bd

arch.transformer.1.mlp.3.weight f4 [32, 2]
-0.026948906 -0.40238532 0.21958838 0.14146724 -0.60655355 -0.4394468 0.42319164 -0.2937838
0.00020069923 -0.3778572 -0.08015542 0.26835376 0.10533189 0.28348833 -0.008616648 -0.4965321
5.013279e-06 0.3379586 0.08998913 0.083733454 0.066945925 0.49996474 0.2760219 -0.06817733
-0.30296382 0.50200963 -0.28738058 -0.40726876 0.14257933 -0.37131733 -0.52766466 -0.49176586
0.09829326 -0.36365458 0.54316676 -0.01762405 -0.22039922 -0.35476857 -0.13430151 0.5357326
-0.36956778 -0.5714815 0.13259195 0.16229723 -0.5165556 -0.25552875 0.53026265 -0.25908875
0.21732959 -0.26209947 -0.5419981 -0.6064242 0.4570946 0.13941169 0.12368971 0.16577247
0.19305295 0.39054483 0.4608223 0.47403762 0.14883576 0.06498437 0.07789002 -0.4907573
00000000: f4c3 dcbc 7305 cebe c7db 603e cadc 103e
00000010: 1847 1bbf 2cff e0be 93ac d83e d56a 96be
00000020: ca72 5239 8076 c1be 8628 a4bd aa65 893e
00000030: 3fb8 d73d 6225 913e d72c 0dbc 7539 febe
00000040: bd37 a836 e908 ad3e 394c b83d 727c ab3d
00000050: f21a 893d 61fb ff3e be52 8d3e 8ea0 8bbd
00000060: 131e 9bbe b483 003f 8c23 93be 8885 d0be
00000070: 5100 123e 4e1d bebe 0815 07bf bcc8 fbbe
00000080: fa4d c93d ef30 babe fa0c 0b3f 5060 90bc
00000090: 55b0 61be 3aa4 b5be 5686 09be c625 093f
000000a0: fd37 bdbe 9d4c 12bf 2fc6 073e 3f31 263e
000000b0: fd3c 04bf aad4 82be 4bbf 073f 48a7 84be
000000c0: a68b 5e3e e731 86be 63c0 0abf 9e3e 1bbf
000000d0: 4e08 ea3e f0c1 0e3e 0851 fd3d 42c0 293e
000000e0: acaf 453e 7ef5 c73e e7f0 eb3e 0fb5 f23e
000000f0: 6768 183e 8616 853d ce84 9f3d 8a44 fbbe

arch.transformer.1.mlp.3.bias f4 [32]
0.24432495 0.15242535 0.2473425 -0.14222156 0.5256834 0.06615258 -0.15222053 -0.016538268
-0.21185027 -0.07962354 0.5305372 0.19697034 -0.07440595 0.024757158 0.11805342 -0.34736988
-0.31465757 0.5581845 0.004910035 0.1742871 -0.25776604 -0.44190592 0.12359869 0.3204689
-0.5936466 -0.647355 -0.16374634 0.37986487 -0.5665419 0.5204382 0.5616497 -0.12666456
00000000: 5230 7a3e 6415 1c3e 5a47 7d3e 87a2 11be
00000010: 3093 063f 017b 873d b3df 1bbe 437b 87bc
00000020: 47ef 58be ab11 a3bd 49d1 073f 98b2 493e
00000030: 2662 98bd 86cf ca3c fec5 f13d 77da b1be
00000040: cc1a a1be 2ee5 0e3f 5ce4 a03b 5178 323e
00000050: e9f9 83be 7e41 e2be 4f21 fd3d 8014 a43e
00000060: 39f9 17bf 0fb9 25bf 1fad 27be a67d c23e
00000070: e408 11bf 703b 053f 46c8 0f3f 5bb4 01be

arch.transformer.1.layernorm0.weight f4 [32]
0.9173914 0.91702133 0.9170224 0.91646725 0.9185534 0.9167771 0.9189906 0.91994506
0.91669285 0.9166558 0.9158299 0.91767716 0.92079335 0.92833346 0.9167257 0.91636777
0.9165302 0.91833043 0.9165645 0.91829 0.9185389 0.91596836 0.9200363 0.9164922
0.9171205 0.93243116 0.91607654 0.91638887 0.91841424 0.93594474 0.9161668 0.91807765
00000000: 2ada 6a3f e9c1 6a3f fbc1 6a3f 999d 6a3f
00000010: 5126 6b3f e7b1 6a3f f842 6b3f 8581 6b3f
00000020: 62ac 6a3f f4a9 6a3f d473 6a3f e4ec 6a3f
00000030: 1db9 6b3f 43a7 6d3f 89ae 6a3f 1497 6a3f
00000040: b9a1 6a3f b417 6b3f f9a3 6a3f 0e15 6b3f
00000050: 5e25 6b3f e77c 6a3f 8087 6b3f 3c9f 6a3f
00000060: 69c8 6a3f cfb3 6e3f fe83 6a3f 7698 6a3f
00000070: 321d 6b3f 139a 6f3f e889 6a3f 2307 6b3f

arch.transformer.1.layernorm0.bias f4 [32]
-0.0029213112 0.003877066 -1.9261859e-05 -0.0016522434 0.0005908934 0.009259435 -0.0026123335 0.0021647606
0.0027422095 -0.0123357205 -0.0040172385 0.0039157853 -0.0023643014 0.00039450865 0.0023161727 0.0069316
0.0063332072 -0.0012339668 0.002416987 0.0005492449 -0.0038652457 0.000870702 -0.0017801756 -0.0009154311
-0.0026067887 0.0007084004 0.0036181468 0.0010256215 0.0029119896 -0.0019430823 -0.0014694427 -0.0018118534
00000000: 7873 3fbb 6016 7e3b 8794 a1b7 1790 d8ba
00000010: 2fe6 1a3a e3b4 173c af33 2bbb a8de 0d3b
00000020: a4b6 333b c31b 4abc 0aa3 83bb fd4f 803b
00000030: 65f2 1abb 0ed6 ce39 eeca 173b 7a22 e33b
00000040: cb86 cf3b 0ebd a1ba 5066 1e3b 34fb 0f3a
00000050: 1050 7dbb d23f 643a c854 e9ba 8bf9 6fba
00000060: a8d6 2abb f2b3 393a 6e1e 6d3b 266e 863a
00000070: 14d7 3e3b 06af feba 519a c0ba b67b edba

arch.transformer.1.layernorm1.weight f4 [32]
0.9164508 0.9156219 0.9168418 0.9166612 0.9174036 0.9164795 0.9226331 0.92685246
0.9165394 0.9175713 0.91707885 0.91780174 0.9194899 0.93237126 0.91652465 0.9182866
0.9166589 0.91815287 0.9176754 0.91979665 0.9167646 0.9160181 0.91875046 0.9201137
0.9198913 0.9209244 0.9161473 0.917094 0.91993296 0.9518929 0.91687536 0.9166823
00000000: 859c 6a3f 3266 6a3f 25b6 6a3f 4faa 6a3f
00000010: f6da 6a3f 679e 6a3f af31 6c3f 3446 6d3f
00000020: 53a2 6a3f f4e5 6a3f aec5 6a3f 0ef5 6a3f
00000030: b163 6b3f e2af 6e3f 5ca1 6a3f d514 6b3f
00000040: 28aa 6a3f 110c 6b3f c6ec 6a3f cb77 6b3f
00000050: 16b1 6a3f 2a80 6a3f 3b33 6b3f 928c 6b3f
00000060: ff7d 6b3f b4c1 6b3f a188 6a3f acc6 6a3f
00000070: ba80 6b3f 41af 733f 58b8 6a3f b1ab 6a3f

arch.transformer.1.layernorm1.bias f4 [32]
-0.0042710076 0.0032432291 0.00016560171 -0.0024646693 0.0007249875 0.009399957 -0.002005057 0.0019808444
0.0034990676 -0.0066092988 -0.0030904613 0.0026094236 -0.0025492823 0.0003421617 0.003443189 0.0046074153
0.008205533 -0.0013447262 0.0017922149 0.001175298 -0.006838535 0.0008298064 -0.0023074627 -0.0004687744
-0.0027651074 0.0007123585 0.0063893944 0.001093514 0.002327595 -0.0020371154 -0.0012787946 -0.0020041103
00000000: cff3 8bbb 5b8c 543b 5fa5 2d39 4a86 21bb
00000010: 160d 3e3a 4702 1a3c 4667 03bb 0ed1 013b
00000020: 9d50 653b d192 d8bb 5689 4abb dd02 2b3b
00000030: dc11 27bb 2a64 b339 20a7 613b cdf9 963b
00000040: 8070 063c 8641 b0ba c1e8 ea3a 750c 9a3a
00000050: ca15 e0bb 5d87 593a cd38 17bb d6c5 f5b9
00000060: ce36 35bb 92bd 3a3a 205e d13b 3e54 8f3a
00000070: 908a 183b 2081 05bb 3a9d a7ba 6457 03bb

arch.transformer.2.attention.in_proj_weight f4 [96, 32]
0.11191606 -0.059087757 0.11181673 -9.627326e-05 0.12769884 -0.025656382 0.06051925 -0.047762215
-0.10112633 0.08216429 0.013810337 0.13512333 0.022347907 -0.025074683 -0.056087103 0.10116863
-0.0013580295 -0.05642127 -0.084808506 -0.07127849 -0.025065957 -0.09808337 0.1305238 0.0006320159
0.01340047 -0.03749199 3.8860337e-05 0.07368618 -0.01385792 0.09967042 -0.010563967 -0.017787196
-0.084213324 -0.13660738 0.02723673 -0.06559654 -0.047971576 -0.023194022 -0.08986167 -0.09056517
-0.0673465 0.13365784 -7.185881e-05 -0.0184309 -5.6723184e-06 0.10456657 -0.05368543 0.023415882
-0.00031628745 -0.107729994 0.069203496 0.0316859 0.084118165 0.031140361 -0.00023714446 0.009305633
-0.08561445 0.13126463 -0.06543757 0.077847265 -0.062912 -0.08328304 0.022815855 0.06803621
-0.005561365 0.0055048396 -0.112003095 -9.605131e-05 0.1137708 0.12453943 -0.010395085 0.017469948
0.12239351 0.01818272 0.00044418106 -0.09866189 0.0062808185 0.0051309727 -0.05000245 0.039158523
-0.06753386 0.12932429 0.00031137755 0.07308389 -0.0039240597 -0.0396161 0.08225984 0.058804516
0.13545196 0.007903264 -0.024239043 -0.055454277 -0.1284772 0.0015395011 0.12906732 -0.011903639
-0.00028169257 0.07776328 0.11582626 0.005323984 -3.422914e-05 0.13399105 0.10483612 -0.06453812
-0.076666825 -0.003090748 0.021349266 -0.05928276 -0.025783949 0.0005576631 -0.0038665757 0.071315765
0.06375572 0.074799754 0.044112932 -0.053359892 -0.09110966 -0.07138797 0.00034217504 0.09444968
-0.0034644709 0.12181905 0.08600836 -0.12802684 0.031572536 -0.0270822 -0.12860125 0.014613613
-0.013486685 -0.1151777 -0.07745794 0.08483505 -0.0023678872 0.093551144 -0.013977814 0.13408667
-0.0044222185 0.12735622 0.01936093 -0.08710461 0.027326131 0.025550859 -0.104717486 -0.10970869
0.00045211666 0.045813296 0.10756715 -0.0068753813 -0.12482217 0.03052843 -0.0009917779 0.0009019646
0.06517905 0.00036873805 0.11091101 0.09014723 0.0049761306 0.08586037 0.010699669 -0.12757736
0.11737392 0.0008100034 0.0010467626 0.102776304 0.11188576 -0.095678024 0.021176616 -0.04859271
-0.0068534194 0.00364139 -0.019573793 -0.026228873 0.03809899 -0.00538621 0.019095434 0.13089564
0.005135755 0.004176804 0.11301144 -0.020044215 -0.00029572158 -0.122732975 -0.026598034 -0.0018464741
0.12107773 0.05187572 -0.00058986776 -0.012391729 0.007011302 -0.036310192 -0.001982068 0.0067062024
-0.00918614 0.08350318 0.02151484 0.00032433434 0.0002544745 0.00036854402 0.04280135 0.0064924136
-0.0060945395 0.01395716 -0.00021637476 -0.08254877 -0.09457749 -0.0010631362 0.11072932 -0.019453961
0.06324725 -0.008294193 0.056620385 -0.0020813448 -0.023921639 0.0065082223 0.04364388 -0.090446666
-0.0003776849 0.0013937497 -0.00024307471 0.13275193 -0.11285063 0.10775744 0.04194676 -0.12631507
-0.019194491 0.013109291 -0.087937444 0.12487578 -0.018195737 0.018699264 0.00082244823 -0.020682082
-0.1265453 0.0006845655 -0.100433886 -0.0022872763 0.0012104999 -0.015132589 0.051675532 -0.11776188
-0.09562976 0.04514891 -0.042556792 0.10178163 -0.0006341981 0.0001291459 0.12894017 -0.00083034544
-0.09824153 -0.023842188 0.00990097 0.07435691 0.10630946 -0.02023232 -4.824587e-05 0.08277203
00000000: 3f34 e53d 0106 72bd 2b00 e53d 50e6 c9b8
00000010: 7cc3 023e 552d d2bc 08e3 773d 50a2 43bd
00000020: 521b cfbd c045 a83d c044 623c c55d 0a3e
00000030: f512 b73c 6c69 cdbc 97bb 65bd 8031 cf3d
00000040: e9ff b1ba fd19 67bd 15b0 adbd 75fa 91bd
00000050: 1f57 cdbc efdf c8bd 08a8 053e dead 253a
00000060: a58d 5b3c 3391 19bd f8fd 2238 c8e8 963d
00000070: 540c 63bc 0120 cc3d 7d14 2dbc 74b6 91bc
00000080: 0978 acbd cee2 0bbe 901f df3c 7b57 86bd
00000090: d87d 44bd 6401 bebc 6509 b8bd 3b7a b9bd
000000a0: f6ec 89bd 9add 083e e8b2 96b8 66fc 96bc
000000b0: d854 beb6 ff26 d63d 41e5 5bbd aad2 bf3c
000000c0: 62d3 a5b9 8ba1 dcbd 90ba 8d3d 13c9 013d
000000d0: 2546 ac3d 121a ff3c fba9 78b9 a776 183c
000000e0: a156 afbd 3c6a 063e 2204 86bd 636e 9f3d
000000f0: 02d8 80bd 4c90 aabd 51e8 ba3c 9256 8b3d
00000100: 1c3c b6bb f161 b43b e161 e5bd 286f c9b8
00000110: aa00 e93d 870e ff3d 2650 2abc 231d 8f3c
00000120: 73a9 fa3d edf3 943c f9e0 e839 3f0f cabd
00000130: 53cf cd3b b821 a83b 5ecf 4cbd b064 203d
00000140: 314f 8abd 966d 043e 6340 a339 02ad 953d
00000150: 6695 80bb 7e44 22bd d977 a83d 01dd 703d
00000160: ebb3 0a3e b17c 013c f590 c6bc 0624 63bd
00000170: 878f 03be 16c9 c93a 392a 043e 7b07 43bc
00000180: 23b0 93b9 5b42 9f3d 5136 ed3d d174 ae3b
00000190: 4291 0fb8 f334 093e 52b4 d63d 902c 84bd
000001a0: 7f03 9dbd 268e 4abb a8e4 ae3c 7bd2 72bd
000001b0: dc38 d3bc 2330 123a 6066 7dbb 000e 923d
000001c0: 5c92 823d 9d30 993d c3af 343d e78f 5abd
000001d0: b497 babd db33 92bd f565 b339 d56e c13d
000001e0: 2d0c 63bb 447c f93d 2725 b03d 7819 03be
000001f0: 3452 013d 7ddb ddbc 0cb0 03be ef6d 6f3c
00000200: 42f7 5cbc 49e2 ebbd 45a2 9ebd 00be ad3d
00000210: 8e2e 1bbb be97 bf3d 3303 65bc 044e 093e
00000220: 42e8 90bb ab69 023e d09a 9e3c e763 b2bd
00000230: 0ddb df3c 0950 d13c 1f76 d6bd f3ae e0bd
00000240: 120a ed39 b9a6 3b3d 2a4c dc3d e14a e1bb
00000250: c4a2 ffbd c216 fa3c 8bfe 81ba d271 6c3a
00000260: 987c 853d 2f53 c139 5025 e33d 1c9f b83d
00000270: cf0e a33b 90d7 af3d aa4d 2f3c a4a3 02be
00000280: bd61 f03d 6856 543a 8633 893a 627c d23d
00000290: 5d24 e53d d7f2 c3bd 957a ad3c 2609 47bd
000002a0: a692 e0bb 63a4 6e3b 3859 a0bc efdd d6bc
000002b0: b00d 1c3d ce7e b0bb 076e 9c3c 8209 063e
000002c0: d649 a83b 92dd 883b 8b72 e73d c433 a4bc
000002d0: 140b 9bb9 6d5b fbbd 1fe4 d9bc 6405 f2ba
000002e0: 9af7 f73d a37b 543d 5ba1 1aba ae06 4bbc
000002f0: 10bf e53b ffb9 14bd 95e5 01bb b4bf db3b
00000300: 7781 16bc b703 ab3d e43f b03c 6b0b aa39
00000310: fd6a 8539 2439 c139 7850 2f3d 50be d43b
00000320: b4b4 c7bb 92ac 643c a8e2 62b9 540f a9bd
00000330: d8b1 c1bd ee58 8bba 0ec6 e23d ea5d 9fbc
00000340: c687 813d 5ee4 07bc c7ea 673d 2c67 08bb
00000350: 50f7 c3bc ed42 d53b edc3 323d 1a3c b9bd
00000360: 0204 c6b9 7bae b63a dfe1 7eb9 1ff0 073e
00000370: 3b1e e7bd efaf dc3d 5ed0 2b3d bd58 01be
00000380: c43d 9dbc 5ac8 563c 8c18 b4bd dfbe ff3d
00000390: 3a0f 95bc 332f 993c 9199 573a 786d a9bc
000003a0: 1795 01be 6a74 333a 48b0 cdbd 21e6 15bb
000003b0: a3a9 9e3a aeee 77bc b9a9 533d 242d f1bd
000003c0: 89d9 c3bd 10ee 383d 0850 2ebd e372 d03d
000003d0: 5040 26ba 576b 0739 e408 043e 8aab 59ba
000003e0: db32 c9bd b150 c3bc ae37 223c 7048 983d
000003f0: c6b8 d93d 40be a5bc 9c5b 4ab8 6284 a93d

arch.transformer.2.attention.in_proj_bias f4 [96]
0.00010473953 -7.8327146e-05 0.00064158824 -8.279806e-05 0.0017019266 0.00047227985 0.0014249587 -0.0010354479
0.0017073706 0.0015285376 0.0015248494 -0.00041392748 -0.0008277648 -4.0339644e-05 -0.00082803407 -0.0003467243
-0.00021618765 -0.00021421279 -0.0006484793 0.00036705844 0.00041532135 0.00027683962 -0.0008671161 0.00015295287
-0.0007850698 -6.8100075e-05 0.0007691417 -0.00020097854 -0.0005917746 -0.0001805803 -0.0002701183 0.00033315638
3.4182938e-11 -7.7021736e-11 -2.98636e-11 3.7675137e-11 5.971557e-12 3.397251e-11 -9.9889666e-11 1.2336981e-10
1.2986341e-10 -1.0942442e-11 -2.6864063e-11 2.2489103e-11 1.7554711e-11 -5.2912792e-11 -8.156727e-12 -8.141225e-12
2.8231389e-12 -4.327944e-11 -2.9853706e-11 -1.5273415e-12 1.0858318e-11 -2.237825e-11 1.6465121e-11 -1.8222598e-12
3.030516e-11 -9.143814e-12 6.091826e-11 -2.5235924e-11 1.7007994e-11 -2.6525416e-11 5.5346647e-12 5.4839466e-11
0.001246027 -0.0026756842 -0.0006146363 0.0022106816 0.0011363644 -0.0014605301 0.002559935 0.0015121596
0.0032118761 -0.00088533293 -0.003915836 -0.0021605662 -0.00053762476 -0.0003497962 -0.002583438 -0.00049728656
0.0005856159 0.0026527897 0.0016146866 -0.0020188924 -0.0012047016 -0.0022674652 0.0016852729 0.0023002354
-0.0022546272 0.0009759761 -0.00045115035 0.0024499102 -0.0036509272 -0.0009300879 -0.0023554172 -0.0016140192
00000000: 9ba7 db38 9143 a4b8 4230 283a dfa3 adb8
00000010: 2e13 df3a 549c f739 aec5 ba3a deb7 87ba
00000020: dac9 df3a 3659 c83a 75dd c73a 6804 d9b9
00000030: 5bfe 58ba 5d32 29b8 6d10 59ba 8cc8 b5b9
00000040: 6eb0 62b9 4f9e 60b9 b6fe 29ba c071 c039
00000050: 7dbf d939 c924 9139 2d4f 63ba f961 2039
00000060: 24cd 4dba f3d0 8eb8 3aa0 493a c4bd 52b9
00000070: 5221 1bba 285a 3db9 aa9e 8db9 7eab ae39
00000080: 9156 162e 625f a9ae 6d57 03ae 6fb2 252e
00000090: 011b d22c a569 152e e2a8 dbae 84a5 072f
000000a0: 4dc9 0e2f 6180 40ad 7e4c ecad f5d0 c52d
000000b0: b269 9a2d 82b6 68ae a27e 0fad d138 0fad
000000c0: 26a9 462c 5158 3eae 494c 03ae 47f4 d6ab
000000d0: 8405 3f2d 57d7 c4ad 28d4 902d ea3a 00ac
000000e0: 9448 052e 14dc 20ad eef5 852e 40fa ddad
000000f0: 999a 952d ed51 e9ad d4bb c22c c02f 712e
00000100: ba51 a33a 885a 2fbb 8b1f 21ba 15e1 103b
00000110: 10f2 943a 426f bfba 95c4 273b a833 c63a
00000120: 577e 523b b015 68ba 6a50 80bb 4998 0dbb
00000130: 63ef 0cba da64 b7b9 e64e 29bb 565c 02ba
00000140: 0584 193a 6dda 2d3b e4a3 d33a 654f 04bb
00000150: 14e7 9dba c199 14bb 60e4 dc3a 8cbf 163b
00000160: 5ec2 13bb a6d8 7f3a 6088 ecb9 ac8e 203b
00000170: 6544 6fbb 24d1 73ba 585d 1abb 7f8d d3ba
