checkpoints/EEGClassificationModel_best-v7.ckpt (torch, 259103 bytes, 103 tensors)

arch.conv.0.weight f4 [16, 16, 11]
000000 71 92 47 3d 6f 8b 3f 3d de 1c 28 bd 80 4c 3b 3d
       0.04872364 0.046763834 -0.041043155 0.045727253
000010 16 4c 11 bd 7a 39 35 bb 79 e7 5e bd 44 fa d4 3c
       -0.03547295 -0.0027652667 -0.05441997 0.025998242
000020 da 94 45 3d a0 36 94 bd d1 b6 3a 3d c0 5a ea 3b
       0.04823766 -0.072369814 0.045584504 0.0071519315
000030 01 23 40 3d 98 61 ab 3a 42 53 dc 3c 4d c9 bd bc
       0.046908382 0.001307535 0.02689517 -0.023167277
000040 f3 93 2c 3d ed 57 e1 bb f9 99 5b bd a2 a8 00 3b
       0.042133283 -0.0068769366 -0.053613637 0.0019631763
000050 84 95 52 bd 5d 63 e6 bc 3d 17 0d bd ec 77 36 3d
       -0.05141212 -0.028123552 -0.03444599 0.04454796
000060 c7 3e 86 bd 8f 40 29 bd a7 44 f1 bc 8c c6 62 bd
       -0.065549426 -0.041321333 -0.029451681 -0.05536513
000070 e7 d1 93 bb 5a 0a b2 bd d1 6f 66 3d 5c 85 9a bd
       -0.0045111063 -0.08693381 0.05625898 -0.075449675
000080 00 53 38 3d e3 07 6a 3c 58 90 c1 bc f4 de 3e 3d
       0.04500103 0.014284107 -0.023628399 0.046599343
000090 98 68 39 3c f7 f3 78 3d 28 9a 07 3c c3 50 c9 bc
       0.011316441 0.060779538 0.0082765 -0.024574643
0000a0 e1 18 99 3c 9c 1d b2 bc d0 b1 f6 3c 13 94 84 3d
       0.018688621 -0.021742634 0.030114084 0.064735554
0000b0 b0 25 61 3d 03 d4 a8 bc 95 13 64 3d 95 27 ca 3c
       0.054967582 -0.020608908 0.055682737 0.024677077
0000c0 ae 7c 50 3d d8 08 01 bd 40 fc 77 bd 68 cd 78 bc
       0.050900154 -0.031502575 -0.0605433 -0.015185691
0000d0 54 f4 35 bd 31 59 97 3d fb d9 06 3d e0 9e 4f 3d
       -0.044422463 0.07390059 0.032922726 0.050688624
0000e0 8b 68 4b 3d 20 1a e1 3c d6 52 af 3d a7 d5 d7 bc
       0.049660247 0.027478278 0.085607216 -0.026346995
0000f0 d2 0c 0b 3d ae 1d be bc 9a 20 59 3d 85 10 e0 3b
       0.033947773 -0.023207512 0.053009607 0.006837907
000100 7c 46 5f 3d cb 82 65 3c 2e 3e 85 3d 4c 69 1b bd
       0.05451058 0.014008234 0.065060005 -0.037942216
000110 5a 57 0f bd 45 7c 14 bd b9 42 97 3d 0f 1d fb 3c
       -0.034995414 -0.036251325 0.07385773 0.030653505
000120 0e b6 9d 3d cd ea 69 bd 86 ba 87 bd 95 e6 4b bd
       0.0770074 -0.05710869 -0.066273734 -0.049780447
000130 d9 7c 2a bd 5b c1 f7 3c 99 e2 dc 3c 95 a1 83 3d
       -0.04162297 0.030243566 0.026963519 0.06427304
000140 b6 e0 18 bd 08 50 55 bd 3b d5 19 3d e4 a6 05 bd
       -0.037323676 -0.052078277 0.037556868 -0.032629862
000150 53 81 34 3d 8a f6 9b bc 37 ea 34 3d d7 03 62 bd
       0.044068646 -0.019038457 0.044168677 -0.055179443
000160 0f 43 24 bd 11 fe 91 3c 4e 3b 1f 3c ce 64 ba bc
       -0.040103015 0.017821344 0.009718729 -0.022753146
000170 5e ca 24 3d 06 4d 35 3d 9b da 6e bd 30 d7 2a bd
       0.040232055 0.04426291 -0.058313947 -0.041709125
000180 76 32 85 3d 6f 48 e0 bc 79 2f bd bc de 6e b2 bd
       0.06503765 -0.027378289 -0.023093926 -0.087125525
000190 01 39 7d bd 1e b0 40 bb 64 a0 d5 bc 81 b2 8a bd
       -0.06182194 -0.002940185 -0.026077457 -0.06772328
0001a0 a1 2a 50 bc c9 1b 70 bd ce 33 87 bd 89 40 53 bd
       -0.012705476 -0.058620248 -0.06601678 -0.051575217
0001b0 d0 df 9c bd 36 6e 52 bd 4d a2 5c 3d cb df be bb
       -0.07659876 -0.051374637 0.05386572 -0.005825018
0001c0 70 05 82 3b 73 4b ad bd cc a8 74 bd 61 87 10 bd
       0.0039679334 -0.084616564 -0.05973129 -0.035285357
0001d0 9f 3d 2e 3b 38 d1 9b bd 49 75 45 bd 1f d9 85 bd
       0.0026587022 -0.07608265 -0.048207555 -0.06535553
0001e0 97 df a3 bc 48 a3 0e bd bb b5 fd bb 9c d7 52 bd
       -0.020004077 -0.034823686 -0.007742611 -0.051475152
0001f0 e5 45 58 bd 03 37 30 bd c2 ee bd bc 18 f6 7c bd
       -0.05280103 -0.043021213 -0.023185138 -0.06175813
000200 93 d4 63 3d c6 33 c0 bc f8 28 5c 3d a9 4c 08 3c
       0.05562265 -0.023462187 0.05375001 0.008319058
000210 d4 44 62 bd 5f e1 7e 3d 7f 36 42 bc 87 06 d7 bc
       -0.05524142 0.06222665 -0.011853813 -0.02624823
000220 3c 07 74 bd 43 d1 8a bd 4c 3e c5 3c da 4a a6 bc
       -0.05957721 -0.06778195 0.024077557 -0.020299364
000230 2f 80 eb 3c f9 14 7d bd 0f 79 48 3d 14 1e 37 bd
       0.028747646 -0.06178758 0.048943575 -0.04470642
000240 d0 cf f9 bb a0 2a 4b 3c c9 2a ea 3c c9 67 4f 3d
       -0.00762365 0.012400299 0.028584855 0.050636087
000250 d2 53 81 3d 09 f9 83 bd 36 1f 66 3c 5a 19 01 bd
       0.063148156 -0.06443984 0.014045527 -0.031518318
000260 47 b3 a8 bb d4 cf 6e bd c2 41 96 3d 8a 92 67 bd
       -0.0051483246 -0.05830367 0.07336761 -0.056536235
000270 c7 b6 f9 3c bd f2 46 3c eb 54 2d 3c d0 ba 51 bd
       0.030482663 0.012142834 0.010579328 -0.05120355
000280 75 e8 7d 3d 5d 57 4c 3c 02 a0 16 3c 52 78 86 bd
       0.061989266 0.012472001 0.009193422 -0.06565918
000290 9e 6d ee 3c ea d8 de bb 61 e9 f8 bc 81 2c 8c 3d
       0.029105004 -0.0068007605 -0.030384721 0.06844426
0002a0 aa e5 a1 3c 28 e5 1e bd 8b 36 11 bd 49 be 10 bb
       0.019762833 -0.03879276 -0.035452407 -0.0022086075
0002b0 a8 ea 2f 3d ba 08 8f bc 93 3f 2a bd 6b 45 d4 bc
       0.042948395 -0.017460216 -0.041564535 -0.025912007
0002c0 38 47 69 bd 14 cb d2 3c 10 83 65 3d 92 10 96 bd
       -0.056952685 0.0257316 0.056033194 -0.07327379
0002d0 6d c7 96 3c e0 61 3b 3d af e0 bb 3c 55 9c a2 bc
       0.01840564 0.045747638 0.022934286 -0.019849936
0002e0 7f 90 30 3d fe dd 27 3d a1 59 e1 3c 7a b5 a2 bc
       0.043106552 0.040983193 0.027508559 -0.019861925
0002f0 30 14 d3 bc a8 6e 26 3b 07 53 a9 bc fb 99 09 bd
       -0.025766462 0.0025395546 -0.020669473 -0.033594113
000300 0b d9 0b 3d 72 37 4f 3d 9f af a2 bc d2 bf e1 bc
       0.034142535 0.050589986 -0.019859133 -0.027557287
000310 c1 f7 16 bc 5e 34 75 bc 3f 13 4c 3c bd 85 80 3c
       -0.009214343 -0.014966099 0.0124557605 0.015688771
000320 fe 46 97 bd 13 de 0c bd d6 95 5d 3d a4 fb 8d 3c
       -0.073865876 -0.034391474 0.054097973 0.017331906
000330 3d 0d 87 bc 5a 4e 6a bd 50 29 67 bd db 1a 9e bd
       -0.016485805 -0.057203628 -0.056435883 -0.07719966
000340 eb 1f 0b bd 48 55 bf 3c d7 93 39 3d bd 56 03 3d
       -0.033965986 0.023356095 0.045307007 0.032065142
000350 41 3d 8d bd db 5c 46 bd 50 01 88 bc a5 c0 89 3d
       -0.06896449 -0.048428398 -0.016602188 0.06726197
000360 5f c5 b3 3b fc 72 c2 bc 0a ad e6 3c 52 76 fc bc
       0.005486175 -0.02373647 0.028158683 -0.030818138
000370 70 f2 48 bd 29 ff 5b 3d 52 62 0e bd cc ee 52 bc
       -0.04905933 0.053710137 -0.034761734 -0.012874316
000380 7f 9d 91 bd da 64 5e 3d 25 95 78 3d d6 c1 00 3d
       -0.07110118 0.0542954 0.06068911 0.031434856
000390 d2 8b 42 bd c3 8b 8b bd d4 d2 5f bd 24 14 6e 3d
       -0.047496624 -0.06813767 -0.05464442 0.058124676
0003a0 d8 ec 1d 3d 56 67 89 3d 01 ca 37 3d 33 44 cf 3c
       0.03855595 0.06709163 0.04487038 0.025301075
0003b0 26 e2 c3 3b d5 7d 47 bd be 5e 5a bd de fe 69 bd
       0.0059778867 -0.048703987 -0.05331301 -0.057127826
0003c0 96 24 39 3d 76 bd c4 bc da e9 17 bc 04 3f 12 bd
       0.045200907 -0.024016123 -0.009272063 -0.035704628
0003d0 68 e5 bd bb f4 2c 41 bd 33 f1 3c bd 21 0b d6 3c
       -0.0057951696 -0.04716201 -0.046128463 0.026128354
0003e0 26 28 a8 bc c8 13 52 3d 5b c3 8b bc 1f 63 43 bd
       -0.020526957 0.051288396 -0.017060926 -0.04770195
0003f0 06 ae df bb bd f7 ae bc 74 af 04 bc 89 da 6f bd
       -0.006826165 -0.021358365 -0.008098472 -0.05855802

arch.conv.1.weight f4 [16]
000000 a5 49 81 3f c7 0f 81 3f 50 72 80 3f da 10 80 3f
       1.01006 1.008294 1.0034885 1.0005143
000010 ce a0 7f 3f 44 1d 80 3f 70 69 7e 3f 5d 80 7e 3f
       0.99854743 1.0008931 0.99379635 0.99414617
000020 6f 38 7e 3f cd 94 7f 3f 49 ac 7d 3f 03 7e 7e 3f
       0.9930486 0.99836427 0.9909101 0.9941103
000030 b4 45 80 3f df b5 80 3f 78 0a 7d 3f d0 6e 80 3f
       1.0021272 1.0055503 0.988441 1.0033817

arch.conv.1.bias f4 [16]
000000 47 06 48 bc a9 ba e7 bb 3f f4 84 ba 89 23 08 bc
       -0.012208528 -0.007071812 -0.0010143592 -0.0083092535
000010 d4 74 98 ba 1e bb c5 bb 06 99 0d bc 19 f1 16 bc
       -0.0011631497 -0.006034269 -0.008642441 -0.009212756
000020 27 c7 67 bc d1 73 3e bc 05 c8 09 bc 78 3e 10 bb
       -0.014146603 -0.0116242925 -0.008409505 -0.002200989
000030 73 64 33 bc b5 15 dc bc e8 26 36 bc 4d d5 b6 bc
       -0.010949242 -0.02686582 -0.011117674 -0.022318507

arch.conv.1.running_mean f4 [16]
000000 05 c5 0e 3f ba a6 66 3e d9 94 f1 3e a1 6d 3e 3e
       0.5576938 0.22524539 0.47183874 0.18596508
000010 80 c7 d3 ba 87 5c 40 3f aa 9f 19 bf 8b 26 0b be
       -0.0016157478 0.75141186 -0.60009253 -0.13588922
000020 ef 45 b3 bf 9b 50 55 bf 3c b2 83 bf ce 97 f0 be
       -1.4005717 -0.8332612 -1.0288768 -0.46990818
000030 69 32 2a 3f 11 a4 d3 bd b2 04 fb be d1 7a 71 bf
       0.6648317 -0.103340276 -0.4902702 -0.9432803

arch.conv.1.running_var f4 [16]
000000 14 03 b5 42 3e 93 b5 42 b1 e7 16 43 f5 ff 11 43
       90.50601 90.78758 150.90504 145.99983
000010 49 86 98 43 50 03 48 43 9d 69 ca 42 7a 74 2f 42
       305.0491 200.01294 101.206276 43.863747
000020 4f a2 50 43 54 90 ff 42 64 38 b7 43 62 73 a4 42
       208.63402 127.78189 366.44055 82.22536
000030 5f 9f 26 43 b6 27 d1 42 be 07 b5 42 24 80 d6 43
       166.62254 104.57756 90.51512 429.0011

arch.conv.4.weight f4 [32, 16, 11]
000000 00 07 5e 3d 38 84 17 bd c9 d7 00 bd 35 b2 73 3d
       0.054205894 -0.036991328 -0.03145579 0.059496123
000010 65 d7 02 3d 0a 1a 1f bd 93 37 dc 3c 5b 5e 2e 3d
       0.031943697 -0.038843192 0.026881969 0.042570453
000020 e6 02 76 bd e3 42 ac 3c 2f e9 c6 3c 1f 65 e3 3b
       -0.060061358 0.021027988 0.024281112 0.006939545
000030 f0 49 a5 3d 54 5c 22 bd 20 bf 60 3d 13 f2 cc bc
       0.08070743 -0.039638832 0.05486977 -0.025017774
000040 b5 53 4b bd f7 6a 85 3d b4 95 c6 bc 7f b6 74 3c
       -0.049640376 0.065145425 -0.024241306 0.014936089
000050 ae 00 59 3d 5b a0 41 bd a2 d8 78 bd f9 5b cf 3c
       0.052979164 -0.047272068 -0.060753472 0.02531241
000060 76 64 7e 3d 31 05 43 bc f6 11 4e 3d 2a 44 d5 3c
       0.062107526 -0.011903093 0.050310098 0.02603348
000070 64 28 c8 3c 85 14 35 bd e2 83 96 3d c2 0e 08 3d
       0.024433322 -0.044209022 0.073493734 0.0332172
000080 d2 bb 05 3c 39 51 04 3d 10 0b ae bd c2 09 6a bb
       0.008162456 0.032304022 -0.08498204 -0.0035711383
000090 36 ec 60 bd 75 e9 df bc 73 bc 9f 3b 39 81 74 3c
       -0.05491277 -0.027333 0.00487476 0.014923387
0000a0 a0 cb 04 3a 79 88 99 bd b0 38 84 bd 69 54 8d bc
       0.0005065743 -0.07496733 -0.06456125 -0.017252164
0000b0 38 86 1d bc 9c 1a 78 bd 1f ce 9a 3d d7 c4 2e 3c
       -0.00961452 -0.06057225 0.07558846 0.010667047
0000c0 1b d4 58 bd 43 56 04 3d ae b9 04 3d 6a 3a 13 bd
       -0.052936655 0.032308828 0.03240364 -0.03594438
0000d0 c6 99 1c 3d 32 ce 3e bd 09 1b d8 3c a2 58 a6 3d
       0.038232587 -0.046583362 0.026380079 0.08122374
0000e0 2b 8d 6d 3d 8b 12 3f 3d b7 61 87 bb ab d0 d1 3c
       0.057995956 0.046648543 -0.0041315216 0.025612196
0000f0 69 19 1b 3d 77 26 00 3d 21 b7 a8 ba 6c 8b c8 3c
       0.03786603 0.031286683 -0.001287196 0.024480544
000100 9f be 8f bc 44 f4 f6 bc a4 b6 92 bd 54 38 82 bd
       -0.01754695 -0.030145772 -0.07163742 -0.063584
000110 93 66 52 bd 0e af 86 3d 67 75 04 3c 30 e3 97 bd
       -0.051367354 0.06576358 0.0080846315 -0.074163795
000120 03 23 2f bd 53 6b 67 3c 3c 8a d8 bc ef 8f d5 bc
       -0.042758 0.014124709 -0.026433103 -0.02606961
000130 1d af 0a bd 3e 96 85 bc 16 63 26 3c ac fd 86 3b
       -0.033858407 -0.016306993 0.01015546 0.0041195955
000140 fe d3 3f 3d 1e 2e 3e 3d a7 c5 80 3d 8d a4 ad 38
       0.04683303 0.0464307 0.06287699 8.279933e-05
000150 9e 43 ff bc 73 bf 7f 3b 99 ce 36 bd 7b 0e 0e 3d
       -0.031160172 0.0039024025 -0.04463062 0.03468178
000160 09 22 90 ba 84 b3 85 bc fa 8a 66 bd 04 7c 32 3d
       -0.0010996471 -0.016320951 -0.056284882 0.0435753
000170 05 a4 45 3d 80 f8 95 3d ba c6 af bc 7c 7d f4 3c
       0.048252124 0.07322788 -0.021457065 0.029844992
000180 1c a5 30 3c 8f 02 23 bd e6 0a 1d bd 6d 2d 37 3d
       0.010781553 -0.039797362 -0.03834047 0.044721056
000190 9b 93 23 bd 1c 33 68 3d 77 b2 e6 3c 40 81 ec 3c
       -0.03993569 0.056689367 0.02816127 0.028870225
0001a0 61 35 5a 3d aa 29 23 3d 5f c8 10 3d c0 22 2e 3d
       0.053273562 0.039834656 0.03534734 0.04251361
0001b0 ca a7 e8 bc a4 9e 13 bd 15 ae 19 bc dd 12 3a 3d
       -0.02840032 -0.036039963 -0.009379883 0.045428146
0001c0 52 ba 64 3d dd 62 70 3d 14 0b a7 bc 91 95 c4 bb
       0.05584175 0.058688033 -0.020391025 -0.005999275
0001d0 17 d8 43 bd 3d 20 4e 3d 60 fe 3e bd fd a8 e1 bc
       -0.0478135 0.050323714 -0.04662931 -0.0275464
0001e0 3c 6e 88 3d 59 24 87 3c f1 8f 05 bd 29 53 4e bd
       0.066616505 0.016496824 -0.032607976 -0.050372276
0001f0 d2 95 51 bd 4d 2e 7c 3d 91 36 8a bd 0d 30 86 3d
       -0.05116827 0.061567593 -0.06748689 0.06552134
000200 df 70 74 3d 57 70 8f 3b 2f 31 c0 bb 27 46 70 3d
       0.059677955 0.0043774056 -0.005865238 0.058660652
000210 2c a1 1b 3d 30 95 9c 3d a4 98 88 3d a9 ee 33 bd
       0.037995502 0.07645643 0.06669739 -0.043928776
000220 b9 37 51 3d 40 48 2d 3d 02 15 48 bd 26 57 28 3d
       0.051078532 0.04230523 -0.04884816 0.041098736
000230 5f bd 0a bd ff 45 20 bd ca 31 01 3c fb 75 38 ba
       -0.033872005 -0.039129253 0.007885406 -0.00070366234
000240 5a 1f 5b bc fd 90 31 bd f8 dc 3c 3d f9 eb a3 3d
       -0.013374174 -0.043351162 0.04610917 0.080039926
000250 18 17 1f bc bf 3a 2a bd dd da cf 3b 0c bd 5b bd
       -0.009710096 -0.04155993 0.006343229 -0.053647086
000260 7d 21 4a bd 19 4b 62 bc 07 6c 39 3d e3 b4 6c bd
       -0.049348343 -0.01381185 0.04526904 -0.057789695
000270 b2 f9 3d bc e4 7a 20 bd b4 f0 8e bd 2d 76 8c bc
       -0.0115951765 -0.039179698 -0.06979504 -0.017146194
000280 52 45 5d bb 22 eb 4a bc d3 dd 5f 3d 6b 8b f7 3c
       -0.0033763242 -0.012385162 0.054654907 0.030217847
000290 20 ec 3b 3d 92 76 1f 3d a5 7e 8a 3c 37 f1 4b 3d
       0.045879483 0.038931437 0.016906092 0.049790587
0002a0 25 05 21 bd db e7 3f 3d cd 37 33 3d d3 37 c7 bc
       -0.039311547 0.046851974 0.043754388 -0.024318611
0002b0 42 53 a1 3b e1 37 4a bd 25 b0 6c bd 9e 44 12 3c
       0.004923255 -0.049369697 -0.057785172 0.008927492
0002c0 72 8e e0 3c 20 8f 5e bb fc 14 0c 3d c7 d8 43 bd
       0.027411673 -0.003395982 0.0341997 -0.047814157
0002d0 7c 30 fd bc 1a 85 7a 3d e1 2f 83 bd 8f ec b1 3c
       -0.030906908 0.06116209 -0.064056166 0.021719245
0002e0 2e dc 8d 3d 76 0d 8d 3d 8a 74 21 3d 80 81 5f bd
       0.069267616 0.06887333 0.03941778 -0.05456686
0002f0 ab 88 b0 3c 0f 0c 81 bc a0 a3 27 bc ce 50 8e 3d
       0.021549543 -0.01575282 -0.010231882 0.06949006
000300 98 e0 39 bc fb 12 1f bd 91 cf 3d bd d3 52 6f 3d
       -0.011345051 -0.03883646 -0.04634053 0.058428597
000310 36 ca 41 3c 6b f1 a8 3d 7a bf d9 3c e9 77 6f bd
       0.011827996 0.08249172 0.026580561 -0.058463965
000320 bb c7 d9 3c 9f cc 93 3d 40 57 4e 3d f7 0c f8 3c
       0.026584497 0.07216763 0.050376177 0.03027962
000330 6c 71 3f bd cb a6 14 bd 11 fa 6f 3d 28 c0 3c bd
       -0.046739027 -0.03629188 0.05858809 -0.046081692
000340 c8 f2 9f 3c 0b b1 a8 3a 6a 4e 17 3d fc d6 8a 3c
       0.019524947 0.0012870146 0.036940016 0.016948216
000350 c6 ca 3d bd 02 9a ad bc 99 42 95 3d ef 79 6d 3c
       -0.046335958 -0.0211916 0.07288093 0.014494403
000360 a2 47 2c 3d 8f 87 0b bd dd e0 83 3d 29 00 51 bc
       0.042060502 -0.034064826 0.06439374 -0.012756386
000370 2d 4a a3 bc cf 3f 95 3c 48 d8 d3 bc 9d bd ef bc
       -0.01993283 0.018218903 -0.025859967 -0.02926522
000380 8c 1c 22 bc 86 5a 51 bb a8 1a 2b bd 16 72 e3 3c
       -0.009894501 -0.0031944825 -0.04177347 0.027764361
000390 47 27 91 bd 79 4d 43 3d 12 de 8f 3d cb ba 8e 3c
       -0.0708757 0.047681306 0.070247784 0.017423054
0003a0 a8 8e 85 bc 32 04 8b bd 4e 4f 20 3d 90 02 89 3d
       -0.016303375 -0.067879096 0.03913813 0.06689942
0003b0 21 ee 8e 3d f3 46 3c 3c 52 b7 f3 3c 37 95 9f 3d
       0.06979013 0.011491525 0.0297505 0.07792132
0003c0 6d 61 92 3c b9 49 f4 bc 05 c3 a3 bd f3 06 cb 3c
       0.017868722 -0.02982031 -0.079961814 0.024783587
0003d0 c6 7f ac 3c 18 7f 6a 3d c6 83 4c bd 12 59 a3 3c
       0.02105702 0.057250112 -0.049930356 0.019939933
0003e0 e2 52 14 bd 41 c4 e9 bc de ac 0d 3d 4f c4 a2 bd
       -0.036211856 -0.028535964 0.034588687 -0.07947599
0003f0 65 4c 37 3d 7e 66 e3 3c b5 93 45 bd 41 e0 0d 3d
       0.04475059 0.027758833 -0.048236568 0.034637693

arch.conv.5.weight f4 [32]
000000 a5 e2 80 3f 76 5a 7b 3f 1d d8 7e 3f 00 3d 7e 3f
       1.0069166 0.9818491 0.9954851 0.9931183
000010 79 f7 7c 3f 41 38 7c 3f 82 91 7f 3f 9a 78 80 3f
       0.98815113 0.98523337 0.998314 1.0036805
000020 01 42 81 3f f1 21 81 3f d9 e6 7f 3f 4e 71 7b 3f
       1.0098268 1.0088483 0.9996162 0.98219764
000030 c8 5d 81 3f 44 7f 80 3f 3c 8a 7e 3f 9d 67 7d 3f
       1.0106745 1.0038838 0.9942968 0.98986226
000040 5e 8c 7c 3f 07 25 7c 3f 48 90 81 3f 41 7f 7f 3f
       0.98651683 0.98494 1.0122156 0.9980355
000050 1d bc 7d 3f 18 59 81 3f c5 f8 81 3f 37 be 81 3f
       0.99115163 1.0105314 1.0154043 1.0136174
000060 43 cc 80 3f 9b ed 80 3f e5 2b 80 3f 54 69 7c 3f
       1.0062336 1.0072511 1.0013396 0.9859822
000070 eb bf 81 3f f6 cc 7c 3f 9d 12 7e 3f 5f ab 81 3f
       1.0136694 0.98750246 0.9924715 1.0130423

arch.conv.5.bias f4 [32]
000000 8b 20 a2 ba 76 92 86 bc 01 93 dd 3c c1 8a 09 bb
       -0.0012369318 -0.01642726 0.027047636 -0.0020987245
000010 ca 60 03 bc d0 1c 22 bc c6 ad cc bb 81 82 82 ba
       -0.008018682 -0.009894565 -0.0062463013 -0.0009957106
000020 f2 04 09 b9 ca 75 a9 3b 83 c8 b8 3c 35 07 13 bc
       -0.0001306718 0.0051715123 0.022556549 -0.008973886
000030 69 60 1f bc 41 bd e9 bb dc 1e 76 ba db 74 87 bb
       -0.009727576 -0.0071331565 -0.00093887537 -0.0041338033
000040 54 4c 82 bc cd 8e 18 bc a7 01 90 3b a6 ef 22 3c
       -0.015905537 -0.00931139 0.004394728 0.009944832
000050 fd c4 ad 3c 6e 35 fc bb 03 95 77 bb 4c ca d1 3b
       0.021212095 -0.007696799 -0.0037778027 0.0064022895
000060 fc e1 03 3d f5 35 22 3c 24 8b d8 bb 4c 64 e0 3b
       0.032197937 0.00990056 -0.0066083837 0.006847894
000070 c1 9a 22 3c d0 33 e4 3a 84 77 89 3c 46 55 b0 3c
       0.0099245915 0.0017410461 0.016780622 0.021525037

arch.conv.5.running_mean f4 [32]
000000 76 55 75 3e 9d d0 3a 3e 7a 93 10 be f1 f7 a2 be
       0.23958382 0.18243642 -0.14118758 -0.3182979
000010 aa fa 14 bf ef af ee 3c 64 3c ba 3e 3a 42 82 be
       -0.58194983 0.029136626 0.363742 -0.25441152
000020 5d 47 9d 3e 9d f5 01 bf d1 45 1e 3d cf 3d a1 bd
       0.30718508 -0.507654 0.0386408 -0.07873117
000030 e8 a9 b5 3e 89 61 18 3f 7a e6 3b 3e fb 5e 9f 3e
       0.3548119 0.59523827 0.18349639 0.31127152
000040 ad 3a 32 3d bb 45 5e 3e a7 5e 16 bf 61 7c dd be
       0.04351299 0.21706288 -0.5873818 -0.43258956
000050 4f 08 a8 3d 2a 4f 01 3f 96 56 ab 3e 50 34 6a be
       0.0820471 0.5051142 0.33464497 -0.22871518
000060 70 36 18 be b6 c8 07 3d ca b0 bc 3e e5 84 9d bc
       -0.14864516 0.033150397 0.3685363 -0.019228408
000070 ac b5 cf be ef 6a bc be f2 35 79 bd 11 87 07 bc
       -0.40568292 -0.36800334 -0.060842462 -0.008271948

arch.conv.5.running_var f4 [32]
000000 7e 28 27 3e b1 cb 32 3e 2f 32 36 3e 65 13 13 3e
       0.1632404 0.17460515 0.17792581 0.14362867
000010 55 35 14 3e b0 fe 82 3e 56 6d 99 3e 60 d7 18 3e
       0.1447347 0.25584936 0.2996623 0.14925909
000020 4e 00 47 3e 0d d7 8e 3e 79 26 65 3e 77 58 0d 3e
       0.1943371 0.27898446 0.22377957 0.13803278
000030 0d 3d 72 3e 8a a7 aa 3e 14 35 24 3e ef 90 7e 3e
       0.23656102 0.33330947 0.16035873 0.24859975
000040 9b 8b d9 3d 95 91 01 3f 5d 55 fd 3e db ba 9c 3e
       0.10622331 0.50612766 0.4947919 0.3061131
000050 5c ac 82 3e 7d 99 88 3e eb 2b 44 3e 21 55 8d 3e
       0.25522125 0.26679602 0.19157378 0.2760401
000060 a8 46 38 3e 81 e1 4a 3e e8 cb 61 3e 23 d7 2e 3e
       0.17995703 0.19812585 0.2205044 0.17074256
000070 8c 4c ac 3e 78 fb 7a 3e b6 58 72 3e 44 a4 66 3e
       0.3365215 0.2450999 0.23666653 0.225236

arch.transformer.1.attention.in_proj_weight f4 [96, 32]
000000 78 f5 52 3e f6 c8 ae 3d 83 de e6 bd da 6d 1b 3d
       0.20601451 0.08534424 -0.112729095 0.03794656
000010 66 5c 06 3b 86 8c 35 3e 6c 95 d0 3d 7d c1 47 3e
       0.002050185 0.17729387 0.1018475 0.19507404
000020 38 94 12 3d 59 03 3f be 6d 15 17 be e6 fa 46 3e
       0.035785884 -0.18653621 -0.14754267 0.19431648
000030 4a fb 59 3e 03 0f b3 3d 1f 4d 04 be 95 ca 27 3e
       0.21287265 0.08743098 -0.12920044 0.16385873
000040 c3 bf e2 3d fa ed 1f be 3f 0b 7d 3d 6c 61 5e 3e
       0.11071732 -0.15618125 0.061778303 0.21716851
000050 d1 d6 13 be b4 68 02 3d ed 01 9b 3d ce 4e 9d bd
       -0.14437415 0.031838134 0.07568727 -0.076810464
000060 5a 27 03 3e 88 be 44 3e ae 0d 66 3e 68 8d 3d be
       0.1280798 0.19213307 0.22466156 -0.18510973
000070 c4 9f 11 bc 39 8d 39 3e 38 cf 40 3e ee 9c 61 bd
       -0.008888189 0.18120278 0.18829048 -0.0550813
000080 e2 f7 17 3e b0 51 24 3e 10 c8 83 bc 7e 89 20 3e
       0.14840654 0.16046786 -0.016086608 0.15677449
000090 d5 58 03 3e 28 d5 d3 bc cd 98 b8 bd 11 ed 07 be
       0.12826855 -0.025858477 -0.090135194 -0.13274027
0000a0 b0 c8 36 be 0c 94 06 be 19 62 69 3d 72 70 a3 3d
       -0.17849994 -0.13142413 0.05697832 0.079804316
0000b0 cc e3 8b bd 24 eb fc bc 3f 61 0c 3e 09 a0 ea 3c
       -0.06830558 -0.030873843 0.13708971 0.028640764
0000c0 5c 29 1b be e9 c7 28 3e 44 da 07 3e 2b 32 91 3c
       -0.15152496 0.1648251 0.13266855 0.017724117
0000d0 03 c7 e0 3d 06 0a 35 be 23 ce 00 3e 65 ec 68 3d
       0.109754585 -0.17679605 0.12578635 0.05686607
0000e0 ec 85 a8 bc 6c d0 82 bd a5 6b 2a 3e da 48 3e 3d
       -0.020571671 -0.063874096 0.16642626 0.046456195
0000f0 f5 85 ee bd 51 9a d1 3d 33 99 29 3d 5e 73 8f bd
       -0.11646644 0.10234512 0.041405868 -0.070044264
000100 c5 f6 15 3e e9 cc 48 3e ef 01 5f 3c 59 69 a1 bd
       0.14644916 0.19609417 0.013611301 -0.078814216
000110 dc 13 e1 bd 2a 24 d7 bd f4 70 d3 3d b3 8e 01 3e
       -0.10990116 -0.105049446 0.103242785 0.12652092
000120 71 cd 16 be dd f3 01 3e 07 fd dc 3c ca 0f 01 39
       -0.14726807 0.12690683 0.026976122 0.0001230828
000130 cb b2 a2 bd 45 24 52 be 79 7b 55 be c3 b8 26 3e
       -0.07944258 -0.20521648 -0.20847882 0.16281419
000140 cb ce 52 bd 85 fb 81 bc 4f 1b 0a be 8a de 53 bd
       -0.051466744 -0.015867004 -0.1348698 -0.0517259
000150 6c 44 b3 bd 6a e1 aa 3b c8 ad 5a be fe 3a 62 3c
       -0.08753285 0.0052148597 -0.21355355 0.01380801
000160 28 70 3b be 9f 9a 23 be ad 19 ec bb 01 d1 fa bc
       -0.18304503 -0.15976952 -0.007205209 -0.030617239
000170 9c 24 4c bd b3 49 f0 3d 94 56 3b 3b b1 d5 2a 3d
       -0.0498396 0.11732807 0.002858554 0.0417077
000180 b4 94 c5 3d 49 e4 c2 3c 75 05 5e be 3d 18 c2 bd
       0.096475035 0.023790495 -0.21681769 -0.09477279
000190 3b 3a 02 3e f4 95 f2 3d 0c ba a8 3d a1 7d 4a 3e
       0.12717526 0.118450075 0.082386106 0.19774486
0001a0 3e 6c c3 bd a8 26 9d bd 63 14 3d bd 26 99 95 bd
       -0.0954213 -0.07673389 -0.04616202 -0.07304601
0001b0 da 3e 44 3e 86 35 59 be fc 3b 80 3d 56 f4 57 3e
       0.19164601 -0.21211824 0.06261441 0.210893
0001c0 26 5d 02 be 56 2e 3a 3e f0 4b 4f be f8 3e d5 3c
       -0.12730846 0.18181738 -0.20243812 0.026031002
0001d0 42 9a 06 be 12 91 81 3d 4c d8 37 3d 47 09 11 3d
       -0.13144782 0.06326498 0.04488401 0.03540924
0001e0 db ad 82 bd c2 b3 9f bd 0e 8b 58 be 8b 54 c4 3c
       -0.063808165 -0.07797958 -0.21146795 0.023966094
0001f0 80 06 45 3e b7 45 31 be 55 78 a4 bd ff a4 2c 3d
       0.19240761 -0.1731175 -0.08030764 0.04214954
000200 14 06 e9 3d 8a b2 95 3d 2b 51 12 3e c2 4f 0f 3d
       0.113781124 0.07309444 0.14288776 0.034988172
000210 ba 1d 65 bd 84 e3 2f be a2 26 67 be 6f f4 44 be
       -0.055936553 -0.17176634 -0.22573331 -0.19233869
000220 6f 9c c1 3d f1 a4 4f 3e 04 51 59 3e 32 ff 2b 3e
       0.094536655 0.20277764 0.21222311 0.16796568
000230 23 db 51 bb 83 a3 10 3e 26 03 8c 3d f6 db 21 be
       -0.0032021485 0.14124875 0.06836538 -0.15806565
000240 f1 14 2e bd e7 a5 5f be 33 46 43 3e c4 ba 28 3d
       -0.04250044 -0.2184063 0.19069748 0.04119374
000250 40 c0 54 3e e0 9b a4 bc 9c f1 2c 3e 55 2d e0 3d
       0.20776463 -0.020093858 0.16889042 0.109461464
000260 fc dd ca bc 42 5b 15 3b 55 ab 14 3e 3e 84 e3 bc
       -0.024764054 0.002278999 0.14518483 -0.027773019
000270 2b 6e 34 3e 3d 44 65 3d 2e ae a2 bd d4 13 bb bd
       0.1762015 0.05597328 -0.079433784 -0.09134641
000280 2e 16 da bd ca b5 f8 3d 82 f5 3a 3e 54 f0 9f bd
       -0.10648762 0.121440485 0.18257716 -0.07809511
000290 7c 22 3b be 66 90 11 3e 1e b7 81 bd 80 b9 64 be
       -0.18274873 0.1421524 -0.06333755 -0.22336388
0002a0 90 b1 05 3d 0e ef 9f ba 7a 4e 2a 3e ee 71 5e 3d
       0.03264004 -0.0012201981 0.16631499 0.05430787
0002b0 76 db 1e be 23 db 74 bd 5d ad 38 be 18 85 c1 3d
       -0.15513405 -0.059779298 -0.18034883 0.09449214
0002c0 f0 b2 87 3d 2b 4e cd 3d 89 ac 10 be d0 1a f6 bd
       0.066259265 0.10024675 -0.14128317 -0.12016833
0002d0 bc 62 e1 bd b6 75 2a be e0 db 49 be 2d 75 1f be
       -0.1100516 -0.16646466 -0.19712782 -0.15572043
0002e0 ee 8b 2c 3e 5e a6 34 bd 10 8a 51 bd df 90 9a 3d
       0.16850254 -0.044103973 -0.051157057 0.07547163
0002f0 b7 eb 98 3d 90 a7 ea 3d f9 17 19 be 26 9e 58 3e
       0.07466834 0.11457741 -0.14950551 0.21154079
000300 65 b8 23 bc 11 25 cf bd c5 b8 16 3e d7 21 38 be
       -0.009992694 -0.10114492 0.14718921 -0.17981659
000310 ce b0 14 be d6 52 02 3e 54 31 b5 3d 12 ac de bd
       -0.1452057 0.12726912 0.08847299 -0.108726636
000320 2a 6a f9 bb e1 41 4a bd 9c 2f b9 3d e7 bc 6f 3d
       -0.0076115327 -0.049379233 0.09042284 0.05852976
000330 59 14 ac 3d 9c 3b 3c 3e 67 a7 16 be e1 07 2f be
       0.084023185 0.18382114 -0.14712296 -0.1709285
000340 72 84 08 bd 38 4d da bd 60 8a 17 be 2e 99 49 3e
       -0.033329435 -0.106592596 -0.1479888 0.1968734
000350 e9 3f 44 3e e4 91 40 3e 20 09 01 be fe 96 87 bc
       0.19165005 0.18805653 -0.12601137 -0.01655149
000360 6b 00 2b be 5c 0e 8a bd c2 d9 35 3e 57 a0 0c 3d
       -0.16699378 -0.0674102 0.1775885 0.0343326
000370 86 93 91 3d 01 f7 4f be bb 1f a7 3d 4d cf 23 3e
       0.07108216 -0.20309068 0.08160349 0.15997048
000380 fd f1 94 bd ec 72 38 3e 98 d5 ac 3d b3 2c 2e be
       -0.07272718 0.18012589 0.08439177 -0.17009239
000390 84 22 2d be 3e f3 24 bb ac 55 48 be 06 ad 0c be
       -0.16907698 -0.0025169398 -0.19563931 -0.13737878
0003a0 39 26 dd 3d 3a e9 c2 bd 3e 2a 9d bc d1 fd b4 bd
       0.10798306 -0.09517141 -0.019185182 -0.08837474
0003b0 06 43 25 3e dc e3 45 3e 01 8e 31 3e 1a 6e 3d be
       0.16138849 0.19325203 0.17339326 -0.18499032
0003c0 fe 08 4a bd 29 d4 e9 3d 9a c5 fe 3d 58 32 37 bd
       -0.049324982 0.114174195 0.12440033 -0.044725746
0003d0 da 0f f0 3d 43 19 00 3c 8b 07 20 3d 6c 7d 15 3e
       0.117217734 0.007818523 0.039069694 0.14598626
0003e0 2c ce 08 3e 41 89 1d be 8d 4d f4 bd fa df ab 3d
       0.13359898 -0.1538439 -0.11928854 0.083923295
0003f0 90 12 e2 3d 0d 59 38 bd fa fb 45 3e ae b1 c3 bc
       0.11038697 -0.0450068 0.19334403 -0.023888435

arch.transformer.1.attention.in_proj_bias f4 [96]
000000 44 b4 f3 3b c4 57 88 3b bf 1b 21 bc 8a 83 2e bc
       0.007437261 0.004160853 -0.009833275 -0.010651479
000010 6c 39 d8 3b 67 e7 89 3c 37 4c 3b 3c af f8 b9 3b
       0.006598642 0.016833974 0.011431745 0.0056753973
000020 48 bb 12 3c e2 fe 98 3b 3b 29 3e b9 67 70 22 3b
       0.008955784 0.0046690563 -0.00018135172 0.0024786235
000030 2e 1f 74 bc 0c 45 fa 3b a9 20 c6 bb 06 19 09 3b
       -0.014900012 0.0076376256 -0.006046374 0.0020919456
000040 6b 6b 96 bc 0b 3e d7 bb cc da 69 3c 0d c1 6d 3c
       -0.018361768 -0.0065686754 0.014273357 0.014511359
000050 b6 b7 ac 3c 42 fa 2f 3c 4b e3 43 bc 08 4f 65 bc
       0.021083694 0.010740818 -0.011956046 -0.013995893
000060 78 e7 36 bc 8f 70 63 3c 83 53 70 bb 0b bb 16 35
       -0.011163585 0.0138818165 -0.003667087 5.615154e-07
000070 db 40 92 3c 44 57 a3 3c 43 ba 9a bc 4c 34 5a 3c
       0.017853191 0.019939072 -0.018887645 0.013318133
000080 76 0a ff 37 25 93 9a 37 d7 3d 70 b7 aa a4 03 b8
       3.040324e-05 1.842675e-05 -1.4319513e-05 -3.138619e-05
000090 c8 fb d2 36 3a 1b f7 b7 a4 13 94 b7 b5 db a6 36
       6.287799e-06 -2.9457373e-05 -1.765212e-05 4.972763e-06
0000a0 32 9d 21 b6 46 90 bc 36 a3 00 7c b7 58 fd 9e b7
       -2.408237e-06 5.6196322e-06 -1.5020519e-05 -1.895304e-05
0000b0 56 25 c0 37 fd f6 9d 37 0e 70 70 b8 d4 96 dd 36
       2.290557e-05 1.8830871e-05 -5.7324818e-05 6.603872e-06
0000c0 39 da 97 b6 b8 d5 1d 38 72 7a 3d b8 d5 54 ac b8
       -4.525555e-06 3.7630758e-05 -4.5175148e-05 -8.2174e-05
0000d0 b4 9d aa b8 07 3b 64 b6 00 51 0b b8 5d f5 20 38
       -8.135606e-05 -3.4009006e-06 -3.321562e-05 3.8375485e-05
0000e0 8b 22 79 38 ce 52 bf 37 18 38 93 37 34 2a e8 36
       5.9398397e-05 2.2807533e-05 1.7549886e-05 6.919052e-06
0000f0 a3 cd 3f 38 29 68 a8 37 1f 09 23 38 a2 6a ce 38
       4.5729463e-05 2.0075664e-05 3.8870723e-05 9.8427074e-05
000100 83 4a 31 3c e6 55 4a bc b8 63 2a 3c b9 50 1c 3a
       0.010820988 -0.012349581 0.010399751 0.00059629563
000110 53 fc 5e 3a 8b 0d 12 bc 8c bb c0 bb e2 57 2f bc
       0.0008506227 -0.008914362 -0.0058817323 -0.010702105
000120 58 98 4c bc 34 5f 4f bc fa f5 1d 3c 92 85 0e 3c
       -0.012487493 -0.012656976 0.009641165 0.008698838
000130 d0 f6 64 3c a8 56 fd 3b f7 e6 6f bc f6 b8 21 bc
       0.01397486 0.0077312775 -0.014642469 -0.009870758
000140 9d a3 ba bc ac 47 bc 3b 9a 3b a7 3b d5 3e 30 3a
       -0.022783095 0.0057458486 0.0051035406 0.000672323
000150 d6 4b 5e bc a4 03 86 bc 26 8d d8 3b fa 5b 0c bb
       -0.013567885 -0.016359158 0.006608623 -0.0021417127
000160 d5 fc 02 bc cd 07 06 3c 92 f8 a1 3c 62 6d 1b bc
       -0.00799485 0.008180571 0.019771848 -0.009486528
000170 87 ba ed 3b 86 28 99 3c e1 56 0c 3d 67 3e 59 bb
       0.007254902 0.01869608 0.03426254 -0.0033148767

arch.transformer.1.attention.out_proj.weight f4 [32, 32]
000000 b4 af ce bd 8b 3d ed 3d 77 f0 ec 3d 7e d7 dd 3d
       -0.100921065 0.11584004 0.115693025 0.108321175
000010 f2 c6 33 bd f7 72 d1 bd a7 0f ff bd f5 4f 25 bd
       -0.0438909 -0.10227006 -0.12454157 -0.040359456
000020 4c 53 d7 bc 16 5a ed bd 34 81 cf 3c 2a 40 ad bd
       -0.026284836 -0.11589448 0.025330164 -0.08459504
000030 32 1d 4e 3d f2 12 c4 bd 3d 51 ed ba db 4e 96 bc
       0.05032081 -0.09573926 -0.0018105876 -0.018348148
000040 08 5c 13 3e 6e b9 41 be 5e 5e d4 bd d7 f4 5b 3d
       0.14390576 -0.18918392 -0.103695616 0.053700294
000050 fd 9b c1 bc 09 78 6c 3c d4 43 bd 3d 09 22 44 3b
       -0.023633951 0.0144329155 0.09241453 0.0029927513
000060 74 9c 6c 3a 17 d5 9a 3c 62 8a c7 bd e6 60 47 bd
       0.0009025999 0.018900437 -0.09743191 -0.048676394
000070 08 c6 4a 3d d4 b0 e3 3c 3e ea 08 3e b8 ab 4c 3c
       0.049505264 0.02779428 0.13370606 0.012492113
000080 3e 25 2d 3e 36 02 9c 3d c1 d2 e2 bc 04 f0 ab bd
       0.16908738 0.07617609 -0.027688386 -0.08395389
000090 b5 ee d4 3c 53 8d 30 be a7 97 d3 bd 1a 53 92 3d
       0.02599273 -0.17241411 -0.1033166 0.071447566
0000a0 69 8b 1f bc 44 14 80 3d e8 50 6e bd 62 fd 32 3e
       -0.009737828 0.06253865 -0.058182627 0.1747947
0000b0 3a 09 a8 bd 4c 02 e0 bd f4 03 cc 3d 0c 9c 8e bd
       -0.08204885 -0.10937938 0.099616915 -0.06963357
0000c0 78 a7 98 3c f3 14 aa b9 e5 5c b3 bd d1 a7 ac bc
       0.018634543 -0.00032440535 -0.087579526 -0.021076115
0000d0 46 02 40 3d 49 b6 e6 3d 13 a1 2f 3e 5a e5 24 3c
       0.046877168 0.11265237 0.17151289 0.010064447
0000e0 10 95 1b 3e f4 82 ac 3d a1 5e 5b 3c 4a 10 d6 bc
       0.15193582 0.08423415 0.0133892605 -0.026130814
0000f0 46 12 c5 3c b7 94 fc 3c 6d f0 0b bd df f7 98 3d
       0.024056565 0.030832632 -0.034164835 0.07469153
000100 a1 bb 21 bd 81 0e cf bd d1 b8 2a 3d 85 80 b8 bd
       -0.039485577 -0.10110188 0.04168016 -0.09008888
000110 47 08 ca 3d 0f 32 20 3e c5 03 a1 3c 26 98 a5 bc
       0.0986486 0.15644096 0.019655118 -0.020214152
000120 c7 b2 43 3b 08 4a cf 3d 2d 4c 19 be c9 84 32 bd
       0.0029861198 0.10121542 -0.14970465 -0.043583665
000130 65 e3 c0 bd a0 61 31 be 4d 47 f0 bd e4 32 be bd
       -0.09418372 -0.17322397 -0.117323495 -0.0928705
000140 a7 a5 0c 3e ad 76 db 3d d0 56 eb bd d1 72 ed bd
       0.13735066 0.10715995 -0.114911675 -0.11594165
000150 68 c0 1f 3e 1c eb 58 3d c6 fd b6 3d 58 e0 e3 3c
       0.15600741 0.052958593 0.08935122 0.027816936
000160 12 ab 85 bd ff 72 d8 bd b2 2f d4 3d be 5f 3b be
       -0.0652677 -0.10568809 0.1036066 -0.18298241
000170 44 6b 19 be 8f f9 16 3d 4a db 5d bd 2a 3c 07 3d
       -0.14982325 0.03685909 -0.05416421 0.03301636
000180 85 90 ed 3d a4 ce 08 be f1 a0 85 bd 25 5f fb bd
       0.115998305 -0.13360077 -0.06524838 -0.12274007
000190 75 47 17 be df 8f 2e bd cf 39 12 3e 7d c0 99 bc
       -0.14773352 -0.042617675 0.14279865 -0.018768543
0001a0 cb 6b 98 3d 39 c8 d4 bd 6e 0b 21 3d 51 79 fc bd
       0.07442435 -0.10389752 0.03931754 -0.12327827
0001b0 cc 2d 69 bc 75 80 36 3d 4c f1 ad bd 4d 1b 09 3e
       -0.01423211 0.0445561 -0.08493289 0.1338932
0001c0 61 ae d4 3c 16 c5 e0 3d f2 ed 48 3e eb fe 7c 3d
       0.025962057 0.10975091 0.19622019 0.061766546
0001d0 c9 c1 d3 bc 5a a1 8b 3d f1 cb 3d 3e be a9 21 be
       -0.02584924 0.06817885 0.18534829 -0.15787408
0001e0 f6 84 95 bc bb a7 eb 3d 9a ad 40 bd 1b ef 1e be
       -0.018251877 0.115066014 -0.04704056 -0.15520899
0001f0 16 33 92 bd 92 b1 b0 bd f8 ff 81 3d 53 c4 a7 3d
       -0.0713865 -0.08627619 0.0634765 0.08191743
000200 21 ce cf ba d6 c4 34 be c3 e5 5f 3d 17 cd 29 3d
       -0.0015854278 -0.17653212 0.054662477 0.041455355
000210 c7 fd 81 bd 24 bd fd 3c 6a 73 ac bd 2a 50 71 3d
       -0.06347232 0.030973978 -0.08420451 0.05891434
000220 20 d0 d1 3d dd d1 88 3d f4 f0 29 3c 46 cc 3d 3e
       0.10244775 0.06680653 0.010372389 0.18534955
000230 8f a0 55 bc e2 23 23 be 11 8f e6 3d 27 df 08 3e
       -0.013038768 -0.15931657 0.112577565 0.13366376
000240 7c af 57 3d d2 9f 40 3e fc a9 02 3e 8e 93 57 3d
       0.05265759 0.18810967 0.12760156 0.052630953
000250 25 bf 9a 3d 10 66 1f be 3d 6c b2 3c 25 93 6a bd
       0.07555989 -0.15566278 0.021780128 -0.057269234
000260 98 49 90 3d 9b 21 f9 bd 6f dc 1e 3c ed d3 42 3d
       0.07045287 -0.12164613 0.00969611 0.04756539
000270 e9 0d e9 bc 31 a7 9e bd 58 99 0a be e8 6d 53 3c
       -0.028449016 -0.07746733 -0.13535058 0.012904622
000280 a2 43 20 be b5 45 1f bd 32 ab 87 3b ef 59 67 3d
       -0.156508 -0.038884837 0.004140281 0.05648225
000290 0e ab 28 be 20 2c c7 3c f9 de b9 bd 8b 80 60 bb
       -0.16471502 0.024313033 -0.09075732 -0.0034256305
0002a0 05 ae 13 be d7 02 0d be 3e a5 77 3c ad 3d 60 3d
       -0.14421852 -0.13770615 0.01511508 0.05474632
0002b0 36 8c 2c 3e 88 d2 18 3e c0 c3 ec 3d e8 b5 78 3d
       0.16850361 0.14924061 0.11560774 0.060720354
0002c0 75 c2 c2 3d 2b 35 92 3d b5 a9 1a be 58 f3 11 3e
       0.09509746 0.07139047 -0.151038 0.14252985
0002d0 ce 6e 6f 3c d1 a7 11 bd b3 8d 05 bd 04 f8 21 3e
       0.01461382 -0.035560433 -0.032605838 0.15817267
0002e0 26 1b f8 3d c9 ad ea bc ff d6 6b bd 8f 12 c9 bd
       0.12114553 -0.02864732 -0.057578083 -0.09817993
0002f0 65 74 c8 3d 36 c8 ec bd 3f 73 db bd 60 2f d0 bd
       0.097878255 -0.11561625 -0.10715341 -0.10165286
000300 52 e3 ce 3c a0 9b 32 3e e7 1a dd ba ee 66 a2 3d
       0.02525488 0.17442179 -0.001686898 0.079297885
000310 c5 52 14 be 9b 4a b5 bd fd 34 a9 bd b6 6d e7 bd
       -0.14484699 -0.088521205 -0.0826206 -0.113002226
000320 51 73 53 bd 8b 00 ba bd 34 68 a3 bd d9 2e 03 be
       -0.051623646 -0.09082135 -0.079788595 -0.1281084
000330 85 20 4d 3d 7a 04 81 3b df 88 e1 3c 39 2e de 3d
       0.05007984 0.003937301 0.027531086 0.1084866
000340 be 20 00 be b3 4b d1 bd 18 58 28 bd cd d7 19 be
       -0.1251249 -0.102195166 -0.041099638 -0.15023728
000350 cf d4 f5 3d 60 69 e3 bd 92 15 c6 3d b8 c0 1b 3e
       0.12003481 -0.11104083 0.09672083 0.15210235
000360 c8 2f 70 3c b0 ff fb bd f8 32 fb 3d 08 1d c0 bd
       0.014659829 -0.12304628 0.12265581 -0.09380537
000370 c5 f6 e5 bc 2d d3 e7 3d a4 57 3b 3e d2 e0 47 3d
       -0.02807177 0.113195755 0.18295151 0.04879839
000380 df 21 35 3c 92 ee 4d bd 5f 4d 09 be 5d cb a2 3c
       0.011055439 -0.050276347 -0.13408421 0.019872362
000390 5d 75 07 be 2d 73 b8 bc 6b 6f 60 bd db ec dc 3d
       -0.13228364 -0.022515858 -0.054793756 0.10787364
0003a0 78 96 c6 bd 24 98 d0 3d c0 7d 62 bc 74 b5 a1 bc
       -0.096966684 0.101852685 -0.013823926 -0.019739844
0003b0 e7 ea 26 be 4b 3e 21 3e 57 56 18 3b 4c f8 47 be
       -0.16300546 0.15746419 0.0023244822 -0.19528311
0003c0 e0 da c3 bc 4f 6b e2 3d 8d 90 1b bb 0f 7b f8 3d
       -0.023908079 0.11055624 -0.0023737282 0.121328466
0003d0 49 58 65 3d a3 db 3d bd 18 86 4c 3e 80 15 13 3e
       0.0559924 -0.04635204 0.19973028 0.1436367
0003e0 5c a0 e3 ba 2a 43 bd 3c 5e 2f 5c 3d 53 df a3 bd
       -0.0017366516 0.023103315 0.05375611 -0.0800158
0003f0 00 e0 15 3e 8e ff 2c be de 40 e7 bd b2 f6 34 3d
       0.1463623 -0.16894361 -0.11291669 0.04418058

arch.transformer.1.attention.out_proj.bias f4 [32]
000000 b1 5f f6 ba c8 2d 8f bc 6d 51 4e bc 74 76 b4 3b
       -0.0018796829 -0.017477885 -0.012592656 0.005507285
000010 43 61 2d ba 19 c4 95 bc 5d 90 7f 3a cf e3 7d 3b
       -0.00066139194 -0.018281983 0.000974899 0.003874052
000020 1e 6f de bb 6c a0 05 3c c8 9d 8f 3c a8 24 06 bc
       -0.0067881485 0.008155923 0.01753129 -0.0081874505
000030 0f c1 a1 bb 95 3f 53 bc 0b 77 4e bb a4 54 cb ba
       -0.0049363445 -0.012893577 -0.003150406 -0.0015512896
000040 8f c1 f5 bb 1e 2e 13 3b b9 54 09 3c 24 7e 10 bb
       -0.0074998806 0.0022457908 0.008382016 -0.0022047842
000050 47 e6 52 3c 55 86 72 bc 44 f6 de ba 3d 01 b6 39
       0.012872285 -0.014802535 -0.0017010649 0.00034714668
000060 98 fe d2 3c 3b 0d 24 3c f6 3d 37 bc 3b 24 d1 ba
       0.025756165 0.01001292 -0.011184206 -0.0015956232
000070 ed ec 2d 3c c3 40 ec bb e9 54 9d 3b 0d 99 ab 3c
       0.01061557 -0.0072098686 0.004801382 0.020947004

arch.transformer.1.mlp.0.weight f4 [2, 32]
000000 5a ab 94 bb 48 d1 de 3d cd ba 99 3d e8 29 15 3d
       -0.0045370283 0.10879761 0.075063325 0.036416918
000010 33 f2 d4 3c c0 64 83 3d 94 e0 3c 3d 72 f0 1f 3e
       0.025994396 0.06415701 0.046112612 0.15619066
000020 39 f9 01 3d 33 58 f7 3d a1 f9 03 3e 68 78 2a be
       0.031731818 0.120773695 0.12888195 -0.16647494
000030 19 68 e2 bd 1a 02 80 3d 84 9b ba 3c f6 ae b2 bd
       -0.11055011 0.06250401 0.022779234 -0.087247774
000040 03 53 f2 3c 3a 73 2b be fb 10 24 bd 26 07 ce 3d
       0.029580599 -0.16743174 -0.040055256 0.10059957
000050 e7 9a d6 3c c6 f3 ad bd fe 66 5c 3d 43 13 4a 3c
       0.02619691 -0.08493762 0.05380916 0.012333694
000060 ee 31 82 bc 4a 09 0c be d4 08 83 bd 9d 7f 01 3d
       -0.015892949 -0.13675418 -0.06398168 0.031615842
000070 e4 86 81 bd 39 e2 90 3c f6 35 da bd 08 4c e5 3d
       -0.063245565 0.017685996 -0.106548235 0.111961424
000080 75 46 13 3e cf f8 d7 3d eb 42 94 bb d7 26 1e be
       0.14382346 0.10545503 -0.004524579 -0.15444504
000090 da e7 43 bd c2 b8 40 bc c7 e8 1e be 60 05 05 3e
       -0.047828533 -0.0117628 -0.15518485 0.12990332
0000a0 6a 4a 8a 3d 3f 2f f3 3d b0 0e 1a be 04 af 89 bd
       0.067524746 0.11874246 -0.15044665 -0.06722835
0000b0 54 c9 75 3d 00 0e a0 3c 50 be be bd 68 79 0f 3e
       0.060006455 0.019537926 -0.09313643 0.14011157
0000c0 81 b0 a0 3d f7 08 f1 ba 81 f8 1d 3e e5 b3 38 be
       0.078461654 -0.0018389513 0.15426828 -0.18037374
0000d0 e4 17 39 be 2b 2a bb 3c 38 cd 2d 3e 5e 02 b9 3d
       -0.1807552 0.022847256 0.16972816 0.09033655
0000e0 cd ea eb bd 12 33 da 3d 01 31 ca 3d 82 a9 8f 3a
       -0.11519394 0.10654272 0.09872628 0.0010960551
0000f0 52 f1 bc 3d 11 cd b1 3c a6 da 28 3b df ee 66 bd
       0.09225716 0.021704229 0.002576509 -0.05638015

arch.transformer.1.mlp.0.bias f4 [2]
000000 ff 8d f0 bd e8 54 ff bd
       -0.117458336 -0.124673665

arch.transformer.1.mlp.3.weight f4 [32, 2]
000000 d1 16 a7 bd 2e 4e f8 be 02 eb 8c 3e 8e 33 42 3e
       -0.08158649 -0.48497146 0.27523047 0.18964979
000010 55 fe 30 bf 85 80 06 bf 8e 96 fe 3e 99 08 bb be
       -0.6913808 -0.52539855 0.4972424 -0.36529997
000020 fc c0 d3 bc 5b 43 e7 be 1e c3 34 be ad ba a7 3e
       -0.025848858 -0.45168576 -0.17652556 0.3275961
000030 06 25 43 3e 0a 6d b0 3e 3d 4f 53 bd 49 3f 0f bf
       0.19057092 0.3445819 -0.05158924 -0.5595594
000040 89 62 c1 ba 72 2f d1 3e 84 22 2a 3e d2 de 1f 3e
       -0.0014754097 0.4085651 0.16614729 0.15612343
000050 90 67 1c 3e 34 04 17 3f 61 9c b9 3e d4 a9 fb bd
       0.15273881 0.5899079 0.3625212 -0.122882515
000060 e4 96 bf be b5 d2 11 3f 93 67 bb be f4 41 f7 be
       -0.37419808 0.5696214 -0.36602458 -0.48292506
000070 41 66 4f 3e ae 14 ea be 13 3a 1a bf b1 a1 13 bf
       0.2025385 -0.45718902 -0.60244864 -0.57668597
000080 52 5c 35 3e b6 65 e7 be d0 0e 21 3f e8 31 dc bc
       0.17710999 -0.45194787 0.6291323 -0.026879266
000090 28 e3 9a be e6 31 da be 8c 4e 6b be 21 a3 1c 3f
       -0.3025143 -0.42616194 -0.22979182 0.61186415
0000a0 f1 8c e1 be 6f 37 24 bf 90 b3 46 3e 6f 19 63 3e
       -0.44052842 -0.64147085 0.19404435 0.22177671
0000b0 8d 06 16 bf 56 27 a3 be fa 3a 1a 3f 8b 86 a7 be
       -0.58603746 -0.31865948 0.6024624 -0.32719836
0000c0 15 e3 a6 3e 9e 50 a4 be 60 06 1f bf c2 92 2b bf
       0.32595125 -0.32092756 -0.621191 -0.6702081
0000d0 2a 31 05 3f e4 f3 4b 3e 36 63 40 3e 25 4c 6f 3e
       0.52028143 0.19917256 0.18787846 0.2336889
0000e0 6c 95 8b 3e 57 9b f3 3e 4a 4c 0a 3f 4d 0b 09 3f
       0.27262437 0.47579452 0.5402266 0.5353287
0000f0 9b 73 61 3e d6 fb 01 3e 5d a6 2c 3e f0 d0 0c bf
       0.22016756 0.12693724 0.16860338 -0.55006313

arch.transformer.1.mlp.3.bias f4 [32]
000000 0d 66 a4 3e a8 fb 1d 3e 00 22 97 3e 3f ba 32 be
       0.3210911 0.1542803 0.29518127 -0.1745386
000010 70 be 13 3f 3c 5d 7e 3d b1 e5 29 be 47 07 9b bc
       0.5771246 0.062100634 -0.16591527 -0.018924369
000020 05 28 93 be 09 c1 bd bd 01 d8 1b 3f 01 c1 68 3e
       -0.2874147 -0.09265334 0.6087647 0.22729875
000030 f8 42 a4 bd 7d 9e 8d 3c 3c ab 16 3e 8f 30 cf be
       -0.08020586 0.017287487 0.14713758 -0.40466735
000040 d0 e4 c7 be 9f 27 20 3f 5d 57 1a 3c 2e 97 4c 3e
       -0.39041758 0.62560457 0.009420243 0.19979545
000050 46 c1 a0 be f5 fb 08 bf 38 ca 14 3e 71 3e c3 3e
       -0.31397456 -0.53509456 0.14530265 0.38133577
000060 ad 46 23 bf 47 c2 30 bf 46 b4 7d be b1 2f e7 3e
       -0.6377972 -0.69046444 -0.247758 0.45153573
000070 df 75 1f bf e8 f6 0e 3f 6d 73 23 3f 73 c9 07 be
       -0.6228923 0.558455 0.63848 -0.1326044

arch.transformer.1.layernorm0.weight f4 [32]
000000 3e 7f 7c 3f 0b dd 7e 3f 3b 3e 79 3f 96 b9 77 3f
       0.98631656 0.99556035 0.9736058 0.96767557
000010 e1 44 7a 3f db de 78 3f bf b8 7c 3f 06 4f 80 3f
       0.9776135 0.9721505 0.987194 1.0024116
000020 7b 0a 81 3f 6d c0 77 3f 2e 56 78 3f de 36 84 3f
       1.0081323 0.96777993 0.970065 1.0329244
000030 4d 8f 83 3f 05 c1 85 3f 51 a7 7a 3f cd b6 78 3f
       1.0278107 1.044953 0.97911555 0.9715393
000040 8c 00 7d 3f b3 5e 7a 3f fe 1e 83 3f 37 7d 7b 3f
       0.9882896 0.9780075 1.0243833 0.9823794
000050 42 12 81 3f af 2f 77 3f 78 f1 83 3f 97 c6 7e 3f
       1.0083697 0.96557134 1.0308065 0.99521774
000060 cc 56 80 3f 9e 5c 82 3f 5e ea 7a 3f c5 ef 78 3f
       1.0026488 1.0184515 0.98013866 0.9724086
000070 95 ac 83 3f 74 aa 7b 3f 0a f9 78 3f 41 8e 81 3f
       1.0287043 0.98306966 0.97255003 1.0121537

arch.transformer.1.layernorm0.bias f4 [32]
000000 50 0d b8 39 86 87 d4 bc be ec 5c bc c6 91 48 3b
       0.00035105133 -0.025943529 -0.013484178 0.0030604466
000010 23 cc de bb 3a bd bc bc f8 29 a5 3b 19 d3 a7 ba
       -0.0067992373 -0.023039449 0.0050404035 -0.0012804001
000020 9b ad 17 bc 51 07 07 3c 2b c8 93 3c 36 31 ab bb
       -0.009257699 0.00824149 0.018039783 -0.0052243723
000030 dc a4 a5 ba 57 a3 22 bc a8 76 16 bc ed 93 5c bb
       -0.0012637633 -0.009926639 -0.009183563 -0.0033657507
000040 20 7e c8 bb b5 e4 98 3b f2 27 81 3b df 9d 73 bb
       -0.006118551 0.004665936 0.0039415294 -0.0037172956
000050 13 fa 4c 3c 8b af 7e bc 01 e8 01 3b fb 5e 4d bb
       0.012510794 -0.015544782 0.0019822123 -0.003133713
000060 66 e6 f4 3c 5c a1 07 3c d8 13 4d bc 03 d8 ba bb
       0.029895019 0.008278217 -0.012516938 -0.00570202
000070 ad 9b 04 3c f8 28 c6 bb 1c 6e 18 3b 00 4b c2 3c
       0.008093757 -0.0060473643 0.002325899 0.023717403

arch.transformer.1.layernorm1.weight f4 [32]
000000 4f 04 7b 3f cc 00 7a 3f 98 0e 77 3f 5f 83 78 3f
       0.9805345 0.97657466 0.96506643 0.97075456
000010 c3 1a 79 3f 2f 80 76 3f 24 05 7f 3f 92 1f 80 3f
       0.9730646 0.9628934 0.9961722 1.0009634
000020 28 f3 80 3f 4f e7 77 3f ca 25 7b 3f b3 5f 83 3f
       1.0074205 0.96837324 0.98104537 1.026358
000030 6e 48 83 3f 3b a9 85 3f 79 23 79 3f 03 f8 7a 3f
       1.0256479 1.044227 0.9731975 0.98034686
000040 58 66 7f 3f a5 37 7c 3f 64 f2 83 3f c4 31 7c 3f
       0.9976554 0.98522407 1.0308347 0.98513436
000050 fe a9 7b 3f ef c8 79 3f 04 54 84 3f 23 54 7f 3f
       0.9830626 0.97572225 1.033814 0.9973776
000060 41 03 79 3f 93 57 83 3f 75 56 7c 3f 53 91 7a 3f
       0.9727059 1.02611 0.9856942 0.97878
000070 7d 69 81 3f ab a2 7c 3f 71 35 7d 3f b1 a7 7f 3f
       1.0110317 0.9868571 0.9890967 0.9986525

arch.transformer.1.layernorm1.bias f4 [32]
000000 8a 9d b7 3b 9c 3b af bc 00 0d 49 bc 5a 3b bc ba
       0.005603497 -0.021390729 -0.012271166 -0.001436095
000010 dc ca 2d bc f4 8d cb bc e2 01 fd 3a 33 a7 4b 39
       -0.0106074475 -0.024847962 0.0019302929 0.00019421875
000020 42 8e a0 bb 4a f2 1d 3c 0c 6f 1a 3c d7 26 d1 bb
       -0.004899771 0.009640286 0.00942589 -0.006382804
000030 a1 38 a0 b9 39 77 0b bc a1 11 7e bc 79 42 a8 39
       -0.0003055977 -0.008512312 -0.015507133 0.00032092983
000040 f4 6b 48 bb fb e8 54 3b 5c 42 82 3b 3e 8a 30 bc
       -0.0030581923 0.00324875 0.003975196 -0.010775147
000050 99 fd 1b 3c 9a 97 93 bc 9f e1 ad 3b 8d 50 a1 ba
       0.009520912 -0.018016625 0.005306437 -0.0012307331
000060 1b 79 e5 3c 25 10 e3 3b 93 de 50 bc 9b 36 bb bb
       0.02801185 0.006929415 -0.012748378 -0.0057132966
000070 68 3a d9 3b 9c 1e cc bb be c3 ca ba 15 12 cc 3c
       0.006629277 -0.006229235 -0.0015469713 0.024910966
