checkpoints/EEGClassificationModel_best.ckpt (torch, 259103 bytes, 103 tensors)

arch.conv.0.weight f4 [16, 16, 11]
0.03956812 0.045868874 -0.034342565 0.049408205 -0.037610747 -0.0038490505 -0.05700026 0.020692667
0.039228152 -0.08334483 0.038965005 0.050282147 0.08861246 0.039723895 0.06297806 0.013919086
0.08085049 0.032334052 -0.014657404 0.03946583 -0.014798517 0.010313069 -0.038028903 0.04160951
-0.068939164 -0.044873625 -0.03162969 -0.055828705 -0.0038669412 -0.08518409 0.057905067 -0.07391779
0.047716476 0.0073431088 -0.030115183 0.04021874 0.0053781006 0.055080984 0.0028594323 -0.029142445
0.015466879 -0.024555191 0.027770493 0.06323169 0.074060634 -0.0035948858 0.072046496 0.040078122
0.064895414 -0.01784189 -0.04646789 -0.0008165834 -0.029375702 0.08731026 0.045828868 0.05406066
0.047878318 0.024019144 0.082018785 -0.033892475 0.025123902 -0.02966937 0.04610095 -0.0030092816
0.043996014 0.002871491 0.082691476 -0.024187474 -0.025331847 -0.025780622 0.08600802 0.041634377
0.089385316 -0.04340746 -0.054677725 -0.03871093 -0.031331643 0.03286519 0.029556738 0.06573723
-0.03483119 -0.046210725 0.045061942 -0.025735304 0.05119509 -0.01128546 0.050209865 -0.050735775
-0.03894829 0.019717615 0.012472921 -0.0190638 0.04705745 0.05516765 -0.045549035 -0.029254925
0.079258576 -0.012526899 -0.010442029 -0.06428083 -0.038118094 0.019032355 -0.004778804 -0.049171
0.0016074979 -0.04677873 -0.04996941 -0.025024423 -0.047400646 -0.031215392 0.059221175 -0.0006099411
0.009918239 -0.08012294 -0.057786837 -0.03616433 -0.0011236081 -0.07731279 -0.039486118 -0.05202463
-0.008639564 -0.02841545 -0.003204719 -0.04587588 -0.046374705 -0.03868507 -0.020613406 -0.057294387
0.062350065 -0.01601655 0.06321813 0.020330034 -0.030390522 0.08200118 0.0056322804 -0.0033285555
-0.038399644 -0.05204511 0.045471217 0.008311292 0.054598782 -0.036873538 0.07698796 -0.034924883
0.003321807 0.029396407 0.051815007 0.074571095 0.08414674 -0.043067724 0.03710731 -0.010866499
0.014162364 -0.03619331 0.067050345 -0.05600746 0.04192006 0.028921807 0.026149334 -0.041242067
0.06508553 0.0110819135 0.0039460324 -0.072162986 0.025106236 -0.013409746 -0.03555668 0.06496005
0.017173652 -0.04157585 -0.03807762 -0.0038925481 0.040168837 -0.022685962 -0.046765205 -0.028676068
-0.07212603 0.013635266 0.048244055 -0.082471654 -0.00029886045 0.01518003 -0.01110082 -0.05027892
0.016552784 0.017458687 0.0074342433 0.017397441 0.009231814 0.035295863 0.010281418 -0.0037516165
0.062228933 0.076588675 0.004772376 -0.0037740034 0.013789032 0.007994743 0.020205459 0.023426127
-0.06635487 -0.026950648 0.062417537 0.026817681 -0.006903972 -0.048634794 -0.049086653 -0.071083225
-0.028471999 0.03217683 0.055276148 0.042096216 -0.059764024 -0.039412268 -0.0069006677 0.07762721
0.01570671 -0.014433334 0.03610127 -0.02379295 -0.017051186 0.08663781 -0.0017874071 0.017419716
-0.043816485 0.079818435 0.085647576 0.056066673 -0.025023313 -0.04605507 -0.033191994 0.069939725
0.04901986 0.07680549 0.054065507 0.034346715 0.014347841 -0.042921405 -0.049830046 -0.05458934
0.045485176 -0.023985678 0.008273857 -0.021308664 0.0065248166 -0.033176035 -0.0292266 0.044319075
-0.0034666427 0.066344604 -0.0035613717 -0.035169348 0.0051971553 -0.028245455 -0.015322241 -0.06383053
00000000: 2e12 223d 00e1 3b3d caaa 0cbd 4260 4a3d
00000010: ba0d 1abd 5a40 7cbb 1b79 69bd ab83 a93c
00000020: b3ad 203d b2b0 aabd c599 1f3d a7f4 4d3d
00000030: 737a b53d 86b5 223d a4fa 803d e10c 643c
00000040: f194 a53d b670 043d 9c25 70bc eca6 213d
00000050: 7b75 72bc 26f8 283c 32c4 1bbd bc6e 2a3d
00000060: fa2f 8dbd 68cd 37bd 228e 01bd a4ac 64bd
00000070: 826c 7dbb ff74 aebd dd2d 6d3d 3662 97bd
00000080: 5a72 433d 769e f03b 1eb4 f6bc 68bc 243d
00000090: c73a b03b 999c 613d 5065 3b3b 23bc eebc
000000a0: cb68 7d3c f827 c9bc f27e e33c 9e7f 813d
000000b0: 1aad 973d 2d98 6bbb 1d8d 933d f528 243d
000000c0: e3e7 843d 2829 92bc 1d55 3ebd fc0f 56ba
000000d0: 50a5 f0bc b9cf b23d 0db7 3b3d b66e 5d3d
000000e0: 0e1c 443d ccc3 c43c 77f9 a73d d6d2 0abd
000000f0: a4d0 cd3c 2e0d f3bc 5ad4 3c3d 5e37 45bb
00000100: 2a35 343d a02f 3c3b 265a a93d cf24 c6bc
00000110: bc84 cfbc e231 d3bc f924 b03d cf88 2a3d
00000120: a60f b73d 05cc 31bd c0f5 5fbd 5a8f 1ebd
00000130: 9c55 00bd a69d 063d f920 f23c 3ea1 863d
00000140: 26ab 0ebd 7547 3dbd df92 383d d8d2 d2bc
00000150: f1b1 513d a6e6 38bc dca8 4d3d 51d0 4fbd
00000160: 3e88 1fbd d686 a13c 395b 4c3c b02b 9cbc
00000170: 50bf 403d 79f7 613d a091 3abd 06a8 efbc
00000180: 5252 a23d 9f3d 4dbc 0b15 2bbc aba5 83bd
00000190: b821 1cbd bee9 9b3c 8397 9cbb 8867 49bd
000001a0: aeb2 d23a 0e9b 3fbd b9ac 4cbd 0500 cdbc
000001b0: 2e27 42bd 6cb7 ffbc e791 723d 74e4 1fba
000001c0: 1c80 223c 7f17 a4bd e4b1 6cbd 0c21 14bd
000001d0: 0846 93ba 2b56 9ebd 32bc 21bd c717 55bd
000001e0: f58c 0dbc 85c7 e8bc 4306 52bb 59e8 3bbd
000001f0: 67f3 3dbd 3c74 1ebd 72dd a8bc 85ad 6abd
00000200: c862 7f3d 2435 83bc 8278 813d 2c8b a63c
00000210: 8bf5 f8bc 3cf0 a73d fe8e b83b e523 5abb
00000220: f248 1dbd 412d 55bd 0740 3a3d 162c 083c
00000230: f9a2 5f3d b508 17bd ddab 9d3d 650d 0fbd
00000240: acb2 593b bcd0 f03c f93b 543d bbb8 983d
00000250: 2055 ac3d c867 30bd d6fd 173d 6609 32bc
00000260: 4309 683c 703f 14bd b151 893d 1468 65bd
00000270: 5eb4 2b3d 6ded ec3c 2137 d63c 71ed 28bd
00000280: 904b 853d ea90 353c b84d 813b 30ca 93bd
00000290: 98ab cd3c 8db4 5bbc e2a3 11bd c609 853d
000002a0: c2af 8c3c 704b 2abd 47f7 1bbd 1f1a 7fbb
000002b0: 1488 243d e9d7 b9bc df8c 3fbd 13ea eabc
000002c0: d0b6 93bd 7366 5f3c 8f9b 453d e6e6 a8bd
000002d0: 5fb0 9cb9 a9b5 783c 37e0 35bc 45f1 4dbd
000002e0: b499 873c 8505 8f3c f49a f33b 1485 8e3c
000002f0: 0941 173c 6592 103d 6573 283c aedd 75bb
00000300: c4e3 7e3d 86da 9c3d 9761 9c3b 4555 77bb
00000310: 64eb 613c 62fc 023c eb85 a53c 26e8 bf3c
00000320: 10e5 87bd 9bc7 dcbc 88a9 7f3d c1b0 db3c
00000330: b73a e2bb 4735 47bd 160f 49bd 1594 91bd
00000340: 1c3e e9bc dacb 033d 3e69 623d 156d 2c3d
00000350: 1fcb 74bd c26e 21bd ff1e e2bb 04fb 9e3d
00000360: 5cab 803c ca79 6cbc edde 133d 6fe9 c2bc
00000370: eeae 8bbc 2a6f b13d 6e47 eaba cbb3 8e3c
00000380: ea78 33bd d977 a33d ff67 af3d 2ba6 653d
00000390: b1fd ccbc 3ea4 3cbd 54f4 07bd 8f3c 8f3d
000003a0: 0cc9 483d 324c 9d3d cb73 5d3d 24af 0c3d
000003b0: 3513 6b3c 5bce 2fbd 971a 4cbd 1299 5fbd
000003c0: aa4e 3a3d 9d7d c4bc 128f 073c 828f aebc
000003d0: 21ce d53b 98e3 07bd 9f6c efbc eb87 353d
000003e0: 9d30 63bb aedf 873d e765 69bb bc0d 10bd
000003f0: e64c aa3b 0363 e7bc 230a 7bbc 95b9 82bd

arch.conv.1.weight f4 [16]
1.0029712 1.0096056 1.0003417 0.99619573 1.0102489 0.99852395 0.9881441 1.0034198
1.0002235 1.0005399 0.99314296 0.9881279 1.0089242 0.98901117 0.98664343 1.003376
00000000: 5c61 803f c23a 813f 320b 803f af06 7f3f
00000010: d64f 813f 449f 7f3f 03f7 7c3f 0f70 803f
00000020: 5307 803f b111 803f 9e3e 7e3f f3f5 7c3f
00000030: 6e24 813f d62f 7d3f aa94 7c3f a06e 803f

arch.conv.1.bias f4 [16]
-0.010505719 -0.0047052046 -0.002744676 -0.009271546 -0.006869802 -0.009572684 -0.00675156 -0.01578371
-0.0039481265 -0.006716731 -0.008759513 -0.008718454 -0.011118312 -0.019612387 -0.01753023 -0.02088849
00000000: 2e20 2cbc 1e2e 9abb 06e0 33bb afe7 17bc
00000010: 131c e1bb bfd6 1cbc 313c ddbb d74c 81bc
00000020: 495f 81bb 0618 dcbb 0f84 0fbc d9d7 0ebc
00000030: 9529 36bc 28aa a0bc 8f9b 8fbc 571e abbc

arch.conv.1.running_mean f4 [16]
0.2812905 1.038147 0.12850875 -0.9688779 -0.24752289 1.0313643 -1.4243617 -0.0543212
-2.7572906 -1.4493406 -0.913003 -0.20015465 -0.12764925 1.5958319 -1.0090727 -0.50156707
00000000: 4f05 903e 00e2 843f cc97 033e 6208 78bf
00000010: a476 7dbe bf03 843f 7c51 b6bf e87f 5ebd
00000020: 7377 30c0 fe83 b9bf 91ba 69bf 57f5 4cbe
00000030: 7cb6 02be 3844 cc3f 4b29 81bf b366 00bf

arch.conv.1.running_var f4 [16]
167.99097 445.3012 276.03268 166.33333 321.90915 374.95636 258.44083 229.67233
732.9625 444.10803 400.66727 132.13364 333.14413 580.0552 297.45242 799.0101
00000000: b0fd 2743 8ea6 de43 2f04 8a43 5555 2643
00000010: 5ff4 a043 6a7a bb43 6d38 8143 1eac 6543
00000020: 9a3d 3744 d40d de43 6955 c843 3622 0443
00000030: 7392 a643 8803 1144 e9b9 9443 a5c0 4744

arch.conv.4.weight f4 [32, 16, 11]
0.059404135 -0.03326194 -0.02869096 0.061738785 0.033149567 -0.038092017 0.028306844 0.044087183
-0.058646318 0.021990009 0.024865972 0.005345303 0.07969208 -0.042992212 0.047838897 -0.03232596
-0.05634567 0.0591332 -0.028408911 0.011478275 0.047128066 -0.055772997 -0.059318163 0.028689245
0.066889055 -0.007614483 0.05467315 0.030442232 0.026826032 -0.042152938 0.077246994 0.039660893
0.015964193 0.06898212 -0.049507692 0.031327505 -0.020779343 0.0065229647 0.03782631 0.046554204
0.031074272 -0.044077937 -0.032830313 0.0149992965 0.006175141 -0.044114117 0.09250747 0.027671805
-0.035729177 0.050460275 0.050488833 -0.019046694 0.055676844 -0.029324476 0.04337163 0.073124774
0.04951319 0.036288857 -0.015853731 0.014183871 0.027203657 0.01997681 -0.013475403 0.012426683
-0.028260356 -0.03984262 -0.057694774 -0.04977897 -0.03521657 0.08378256 0.026006522 -0.056718457
-0.026504595 0.029349333 -0.011042007 -0.009799428 -0.016771767 -0.010800587 0.015364007 0.009461316
0.0518821 0.050742764 0.064981386 0.0019516171 -0.027971558 0.007048383 -0.04220654 0.039018814
0.0015917937 -0.014764311 -0.05563242 0.043795582 0.04891029 0.07521168 -0.019637316 0.030520335
0.011196904 -0.039045624 -0.03751359 0.047424838 -0.035146456 0.063168086 0.035168994 0.034023356
0.056968838 0.043692116 0.038850866 0.04514044 -0.025789332 -0.03347154 -0.0042985277 0.049973972
0.06089368 0.06471216 -0.014020517 0.00011487765 -0.042886127 0.054257877 -0.04215146 -0.022057796
0.07202997 0.012332806 -0.036101528 -0.053607885 -0.05512342 0.056496963 -0.07394198 0.058920983
0.054386187 0.0003778975 -0.009777676 0.054047532 0.037339333 0.076366715 0.06661326 -0.043879353
0.050490893 0.04054234 -0.05139997 0.038351405 -0.03665816 -0.04148288 0.006178383 -0.011259367
-0.022055637 -0.05157348 0.036433317 0.06864507 -0.022071693 -0.05294786 -0.004234329 -0.06436781
-0.06070298 -0.027120892 0.042789117 -0.06238478 -0.016235337 -0.042586587 -0.07286951 -0.020835157
-0.008094553 -0.01665763 0.05129494 0.026835114 0.04340985 0.04155798 0.019341305 0.052568745
-0.03616315 0.049996834 0.047017522 -0.021066098 0.008269509 -0.04579133 -0.05432486 0.012008705
0.03019045 -0.00071059895 0.036643147 -0.046362337 -0.02998082 0.06305846 -0.063213766 0.02126881
0.068219654 0.06660269 0.03590338 -0.04451369 0.032760542 -0.004150268 0.0010708001 0.07972731
-0.0030606487 -0.03279618 -0.039327588 0.06888997 0.023934398 0.094020076 0.018849293 -0.06951239
0.015006411 0.062477343 0.043405496 0.02346179 -0.05472337 -0.0439111 0.05048926 -0.050003804
0.018977612 -0.004381169 0.031657573 0.014677417 -0.044676255 -0.018385256 0.073675275 0.013540312
0.04191706 -0.032664433 0.06635946 -0.009503036 -0.015717043 0.024060812 -0.01756834 -0.020144712
-0.00052008405 0.005566212 -0.033826776 0.03476784 -0.06290966 0.05667475 0.07887118 0.020611156
-0.0104108425 -0.061437335 0.044615187 0.07258902 0.07562972 0.018044375 0.03645284 0.08362175
0.022507219 -0.024131186 -0.062463734 0.03897414 0.033645708 0.07179385 -0.037598968 0.030702557
-0.025365958 -0.016874228 0.048535336 -0.06076368 0.06634488 0.036576 -0.041706305 0.043750335
00000000: c051 733d ac3d 08bd 4e09 ebbc cfe1 7c3d
00000010: d7c7 073d 6006 1cbd c1e3 e73c c394 343d
00000020: 1f37 70bd 6424 b43c b9b3 cb3c a727 af3b
00000030: 9a35 a33d 9a18 30bd b8f2 433d 3a68 04bd
00000040: b8ca 66bd a835 723d ceb9 e8bc 600f 3c3c
00000050: 5c09 413d 3a72 64bd 9af7 72bd b505 eb3c
00000060: 21fd 883d ea82 f9bb f4f0 5f3d fd61 f93c
00000070: 44c2 db3c 8fa8 2cbd ac33 9e3d 7673 223d
00000080: 57c7 823c 7f46 8d3d 94c8 4abd 4551 003d
00000090: 7139 aabc 98be d53b c3ef 1a3d 9faf 3e3d
000000a0: 798f fe3c 118b 34bd 1479 06bd 9cbf 753c
000000b0: d658 ca3b 01b1 34bd 8e74 bd3d fbaf e23c
000000c0: c258 12bd 6faf 4e3d 61cd 4e3d d007 9cbc
000000d0: 670d 643d e239 f0bc 73a6 313d 71c2 953d
000000e0: 58ce 4a3d a0a3 143d afdf 81bc 7863 683c
000000f0: 34da de3c 68a6 a33c f0c7 5cbc 4999 4b3c
00000100: 4382 e7bc 0432 23bd 5b51 6cbd 09e5 4bbd
00000110: 403f 10bd 3196 ab3d a10b d53c 9d51 68bd
00000120: 2a20 d9bc 036e f03c 89e9 34bc c88d 20bc
00000130: f264 89bc f2f4 30bc 51b9 7b3c a303 1b3c
00000140: 5382 543d a5d7 4f3d f614 853d 67cd ff3a
00000150: 9c24 e5bc 1ff6 e63b c4e0 2cbd 31d2 1f3d
00000160: bca3 d03a 02e6 71bc d2de 63bd ff62 333d
00000170: 2856 483d 9508 9a3d 70de a0bc c805 fa3c
00000180: 3873 373c 4eee 1fbd daa7 19bd 8c40 423d
00000190: bbf5 0fbd 455e 813d 5d0d 103d 135c 0b3d
000001a0: 2858 693d 81f6 323d 1622 1f3d 2fe5 383d
000001b0: 2644 d3bc 7419 09bd aada 8cbb 82b1 4c3d
000001c0: a76b 793d cf87 843d 4fb6 65bc 78ea f038
000001d0: 5da9 2fbd 823d 5e3d 02a7 2cbd 8db2 b4bc
000001e0: 7384 933d 8a0f 4a3c 32df 13bd f193 5bbd
000001f0: 18c9 61bd 5c69 673d e56e 97bd 2157 713d
00000200: 0dc4 5e3d 8b20 c639 8c32 20bc f260 5d3d
00000210: 21f1 183d 2766 9c3d 886c 883d d6ba 33bd
00000220: 8acf 4e3d ba0f 263d c688 52bd 5d16 1d3d
00000230: de26 16bd f4e9 29bd 0874 ca3b 3579 38bc
00000240: 06ae b4bc b73e 53bd 1a3b 153d c995 8c3d
00000250: b2cf b4bc dbdf 58bd 20c0 8abb 45d3 83bd
00000260: b0a3 78bd a22c debc a443 2f3d 2f87 7fbd
00000270: f8ff 84bc 466f 2ebd 9c3c 95bd 7eae aabc
00000280: 049f 04bc 9575 88bc a51a 523d 50d5 db3c
00000290: 87ce 313d b338 2a3d a871 9e3c 5352 573d
000002a0: d01f 14bd 7bc9 4c3d 7295 403d cf92 acbc
000002b0: d67c 073c b18f 3bbd bf83 5ebd 29c0 443c
000002c0: f651 f73c 7d47 3aba 2017 163d 6fe6 3dbd
000002d0: 569a f5bc cb24 813d 3876 81bd ed3b ae3c
000002e0: bfb6 8b3d fe66 883d 6c0f 133d fd53 36bd
000002f0: eb2f 063d f9fe 87bb 175a 8c3a 1248 a33d
00000300: 2a95 48bb 4a55 06bd f715 21bd 2f16 8d3d
00000310: 1212 c43c 998d c03d d569 9a3c 835c 8ebd
00000320: 73dd 753c 3ee8 7f3d f6c9 313d f132 c03c
00000330: 9d25 60bd 20dc 33bd d4cd 4e3d cad0 4cbd
00000340: f076 9b3c e98f 8fbb 5fab 013d 8d79 703c
00000350: 73fe 36bd ad9c 96bc 10e3 963d 2fd8 5d3c
00000360: 39b1 2b3d 24cb 05bd 78e7 873d 9fb2 1bbc
00000370: 07c1 80bc 2e1b c53c 7beb 8fbc 8606 a5bc
00000380: 4056 08ba c564 b63b f28d 0abd b968 0e3d
00000390: c8d6 80bd c823 683d 3787 a13d bad8 a83c
000003a0: 3d92 2abc b7a5 7bbd 6abe 363d 8da9 943d
000003b0: c1e3 9a3d ccd1 933c 934f 153d e141 ab3d
000003c0: 0f61 b83c c4ae c5bc f9d9 7fbd 59a3 1f3d
000003d0: 15d0 093d a708 933d 6001 1abd ee83 fb3c
000003e0: 45cc cfbc d23b 8abc fdcc 463d 56e3 78bd
000003f0: d3df 873d b7d0 153d 3bd4 2abd 8d33 333d

arch.conv.5.weight f4 [32]
0.9985709 0.99828 0.9994831 0.9802364 0.9834308 0.98591036 0.99837947 1.0025066
1.0087047 1.0066754 1.000226 0.9914027 1.016273 1.0173055 1.0048773 0.99918306
0.9981234 0.9809397 1.0039874 0.98589385 0.99239165 1.0009565 1.0139688 1.0099195
1.002594 0.9912416 0.9969639 0.99404967 1.017867 0.99713045 0.99707675 1.0022695
00000000: 58a2 7f3f 478f 7f3f 20de 7f3f c6f0 7a3f
00000010: 1fc2 7b3f 9f64 7c3f cc95 7f3f 2352 803f
00000020: 3c1d 813f bdda 803f 6807 803f 91cc 7d3f
00000030: 3c15 823f 1137 823f d29f 803f 76ca 7f3f
00000040: 0485 7f3f dd1e 7b3f a982 803f 8a63 7c3f
00000050: 610d 7e3f 581f 803f bbc9 813f 0b45 813f
00000060: 0055 803f 02c2 7d3f 0739 7f3f 0a7a 7e3f
00000070: 7749 823f f143 7f3f 6c40 7f3f 5e4a 803f

arch.conv.5.bias f4 [32]
-0.00087742 -0.0029053404 0.022777174 -0.003009456 -0.01181945 -0.014398743 -0.007620187 0.0012841593
-0.005156472 0.005930115 0.023869492 -0.00989361 -0.009792334 -0.011274546 0.0011870406 -0.0050046113
-0.0115866065 -0.0057632416 0.009937423 0.011053726 0.019880831 -0.0038439217 -0.0040849475 0.013056842
0.03348625 0.0071855956 -0.004568523 0.008078414 0.0094831195 0.011234526 0.010456963 0.026178202
00000000: a902 66ba 8667 3ebb 3297 ba3c 4b3a 45bb
00000010: 5ea6 41bc b5e8 6bbc c3b2 f9bb 3c51 a83a
00000020: 9ff7 a8bb 6951 c23b f489 c33c cf18 22bc
00000030: 0770 20bc e0b8 38bc 7996 9b3a b9fd a3bb
00000040: c0d5 3dbc 93d9 bcbb 93d0 223c b01a 353c
00000050: 20dd a23c 4eea 7bbb 06db 85bb 5dec 553c
00000060: e128 093d 2575 eb3b 8cb3 95bb 535b 043c
00000070: 165f 1b3c 0411 383c af53 2b3c ab73 d63c

arch.conv.5.running_mean f4 [32]
0.47601742 0.49276286 -0.29185006 -0.5569215 -0.50239366 -0.12288455 0.6849086 -0.25024918
0.41998506 -0.68856066 -0.076692194 -0.24099255 0.5121188 0.61551505 0.38084146 0.48041937
0.115504615 0.20715319 -0.84073174 -0.43920216 -0.06314704 0.82292646 0.50256383 -0.29753646
-0.41867352 -0.26369074 0.5345658 0.27215633 -0.7100055 -0.41418985 -0.18985376 -0.22231127
00000000: 8eb8 f33e 6a4b fc3e 5f6d 95be 6892 0ebf
00000010: df9c 00bf e5aa fbbd 2c56 2f3f a920 80be
00000020: 4808 d73e 8345 30bf cc10 9dbd c0c6 76be
00000030: 381a 033f 6592 1d3f a7fd c23e 87f9 f53e
00000040: af8d ec3d f71f 543e 323a 57bf 1bdf e0be
00000050: 3c53 81bd 4fab 523f 06a8 003f b356 98be
00000060: 605c d6be 7902 87be 4ed9 083f 1358 8b3e
00000070: ecc2 35bf b110 d4be 0669 42be 91a5 63be

arch.conv.5.running_var f4 [32]
0.24371384 0.18590395 0.2235304 0.1473601 0.16860405 0.17743842 0.2471529 0.14411037
0.23932219 0.32128403 0.21004444 0.20294684 0.2622288 0.33696425 0.2296961 0.27380803
0.14393912 0.16228591 0.55327284 0.22407664 0.3270486 0.3824661 0.21585175 0.31547302
0.24576673 0.2456867 0.3034951 0.12338313 0.4167298 0.30124703 0.18049827 0.27772453
00000000: 1f90 793e 9b5d 3e3e 27e5 643e 91e5 163e
00000010: 8aa6 2c3e 6bb2 353e a615 7d3e ab91 133e
00000020: e010 753e 577f a43e e415 573e 4cd1 4f3e
00000030: da42 863e 9486 ac3e 7435 6b3e 9130 8c3e
00000040: c764 133e 472e 263e 4aa3 0d3f 5974 653e
00000050: ea72 a73e 99d2 c33e 3e08 5d3e ae85 a13e
00000060: 46aa 7b3e 4b95 7b3e b663 9b3e 4bb0 fc3d
00000070: 9c5d d53e 0d3d 9a3e 8ad4 383e e931 8e3e

arch.transformer.1.attention.in_proj_weight f4 [96, 32]
0.20279555 0.07067549 -0.11401232 0.037587464 0.002786085 0.18856557 0.09945235 0.21380705
0.02739328 -0.1711136 -0.14348586 0.18678907 0.20647055 0.07627528 -0.1449659 0.18139982
0.102006726 -0.17338425 0.055112913 0.20298843 -0.15360522 0.01591781 0.055775806 -0.08631133
0.1257228 0.1805318 0.23016238 -0.19214013 -0.0018763582 0.16591582 0.16558883 -0.06320552
0.14453234 0.16903462 -0.0005378795 0.1539652 0.12553678 -0.044467475 -0.079372615 -0.12546714
-0.17716081 -0.1389966 0.064438224 0.06996237 -0.05894757 -0.016913906 0.15131558 0.041491445
-0.15247907 0.18262796 0.13439608 0.01791963 0.11347554 -0.17593455 0.14242706 0.05814037
-0.012352174 -0.06163689 0.16633594 0.04854573 -0.122326165 0.10134888 0.03909415 -0.0669645
0.15191028 0.20508604 -0.01599579 -0.09514084 -0.117797345 -0.09835109 0.109527506 0.1368486
-0.114396945 0.11247447 0.0061725723 0.005151091 -0.06708235 -0.18884906 -0.18593039 0.15086219
-0.030052053 -0.0021791214 -0.13580112 -0.033455495 -0.09402215 0.014144261 -0.21949525 0.015326961
-0.19646756 -0.16169614 -0.00035572253 -0.028086964 -0.06457162 0.11908171 0.018907066 0.038563833
0.09822815 0.029122636 -0.19881573 -0.105631165 0.12007639 0.12220309 0.092150584 0.19317107
-0.104314156 -0.086747006 -0.034271054 -0.054729752 0.20151173 -0.20097746 0.06805113 0.21859998
-0.12686726 0.19327028 -0.19006684 0.012782239 -0.12132266 0.06763084 0.05551197 0.041384447
-0.05803778 -0.07454125 -0.19613671 0.03082298 0.18989788 -0.17732152 -0.098793596 0.05011732
0.103817165 0.07520091 0.15621117 0.03661239 -0.052050497 -0.18692778 -0.21131817 -0.18236497
0.101030245 0.19814081 0.21863411 0.162684 0.0035370372 0.14395438 0.07870034 -0.14509232
-0.044491746 -0.20267813 0.19549976 0.04576439 0.21136443 -0.016206812 0.18176465 0.112572804
-0.010741895 0.0064840885 0.14347607 -0.02531227 0.17456208 0.055252753 -0.0813307 -0.08422266
-0.12481202 0.11940003 0.17517447 -0.07656258 -0.18330236 0.12763344 -0.062844425 -0.21882941
0.020071082 0.0021299238 0.1621559 0.04281838 -0.15257695 -0.057431936 -0.18474843 0.08796456
0.06632104 0.113915175 -0.14629869 -0.09779252 -0.12186461 -0.17429322 -0.20692632 -0.1581983
0.17054953 -0.044484697 -0.065432906 0.0772804 0.078901425 0.1185238 -0.1390142 0.20903718
-0.016481487 -0.10475401 0.1411742 -0.18360314 -0.14383905 0.119017646 0.09404384 -0.08601543
-0.012305294 -0.052991264 0.09122937 0.047593925 0.086315505 0.18957902 -0.14092651 -0.16261119
-0.04303235 -0.08845412 -0.14969274 0.19840397 0.1892509 0.18524018 -0.12231482 -0.021597352
-0.17031714 -0.07479693 0.18569596 0.03738977 0.06534675 -0.21443652 0.076860584 0.15127599
-0.060739618 0.18132934 0.09222682 -0.17209823 -0.16747017 -0.012774071 -0.1920319 -0.14913288
0.098618865 -0.104111336 -0.008196098 -0.099537686 0.16580175 0.2003637 0.17025992 -0.17593351
-0.07193476 0.11479889 0.11408341 -0.07795534 0.11206736 -0.010359669 0.034475453 0.13094509
0.12367774 -0.1682889 -0.11443752 0.0664182 0.097053416 -0.067438185 0.19054028 -0.038748488
00000000: a3a9 4f3e 50be 903d 4b7f e9bd 50f5 193d
00000010: c096 363b 5517 413e acad cb3d 3cf0 5a3e
00000020: df67 e03c 6738 2fbe f5ed 12be a245 3f3e
00000030: 046d 533e 3736 9c3d f171 14be e0c0 393e
00000040: e7e8 d03d a48b 31be 14be 613d 33dc 4f3e
00000050: b04a 1dbe 1166 823c 2c75 643d ffc3 b0bd
00000060: 7abd 003e 54dd 383e b0af 6b3e 62c0 44be
00000070: 22f0 f5ba d6e5 293e 1e90 293e e571 81bd
00000080: 4900 143e 6917 2d3e 7b00 0dba 0ea9 1d3e
00000090: b78c 003e 8723 36bd 1c8e a2bd 757a 00be
000000a0: a569 35be 2055 0ebe 30f8 833d 6e48 8f3d
000000b0: 0273 71bd 088f 8abc 79f2 1a3e eff2 293d
000000c0: 7923 1cbe d302 3b3e 209f 093e 30cc 923c
000000d0: dd65 e83d 3028 34be 66d8 113e 9924 6e3d
000000e0: c660 4abc f776 7cbd f853 2a3e e3d7 463d
000000f0: 2486 fabd 0090 cf3d 3021 203d af24 89bd
00000100: 5e8e 1b3e 1302 523e 9a09 83bc 33d9 c2bd
00000110: bc3f f1bd 4c6c c9bd f54f e03d 0a22 0c3e
00000120: f248 eabd 0459 e63d 4a43 ca3b 7cca a83b
00000130: 7962 89bd a661 41be 8964 3ebe 9e7b 1a3e
00000140: b92f f6bc 97cf 0ebb 730f 0bbe a108 09bd
00000150: af8e c0bd 55bd 673c 5dc3 60be ef1d 7b3c
00000160: cb2e 49be ac93 25be 4580 bab9 a216 e6bc
00000170: 203e 84bd 1de1 f33d fee2 9a3c 1cf5 1d3d
00000180: d72b c93d 9892 ee3c 5a96 4bbe 2755 d8bd
00000190: 9cea f53d 9d45 fa3d 72b9 bc3d a3ce 453e
000001a0: a9a2 d5bd 6aa8 b1bd ce5f 0cbd 4e2c 60bd
000001b0: 1759 4e3e 09cd 4dbe 645e 8b3d acd8 5f3e
000001c0: 7ee9 01be a5e8 453e e2a0 42be 996c 513c
000001d0: 0478 f8bd 0a82 8a3d 8560 633d bd82 293d
000001e0: 06b9 6dbd 15a9 98bd 10d8 48be 7980 fc3c
000001f0: 9774 423e c693 35be 4c54 cabd d247 4d3d
00000200: 189e d43d ef02 9a3d d2f5 1f3e e0f6 153d
00000210: e732 55bd ff69 3fbe ca63 58be e2bd 3abe
00000220: f2e8 ce3d 6de5 4a3e 9fe1 5f3e a296 263e
00000230: a3cd 673b c768 133e a52d a13d 1593 14be
00000240: fa3c 36bd db8a 4fbe 1731 483e 7173 3b3d
00000250: eb6f 583e 26c4 84bc 8320 3a3e 928c e63d
00000260: c6fe 2fbc 7a78 d43b 64eb 123e ad5b cfbc
00000270: 67c0 323e b650 623d b690 a6bd ee7c acbd
00000280: 729d ffbd 0188 f43d f060 333e d8cc 9cbd
00000290: 9db3 3bbe 57b2 023e 94b4 80bd d114 60be
000002a0: 1c6c a43c 3196 0b3b 320c 263e 5362 2f3d
000002b0: 223d 1cbe c03d 6bbd b12e 3dbe c326 b43d
000002c0: 53d3 873d 5c4c e93d 53cf 15be 7247 c8bd
000002d0: 2794 f9bd ec79 32be 7ee4 53be bcfe 21be
000002e0: 89a4 2e3e 9635 36bd b001 86bd 3045 9e3d
000002f0: 1297 a13d 9bbc f23d bd59 0ebe d80d 563e
00000300: 2f04 87bc 4589 d6bd f88f 103e 7602 3cbe
00000310: 8b4a 13be 86bf f33d 0f9a c03d dc28 b0bd
00000320: 259c 49bc 5e0d 59bd 77d6 ba3d d9f1 423d
00000330: 2fc6 b03d 0121 423e 0a4f 10be 8c83 26be
00000340: b042 30bd 6f27 b5bd 0e49 19be 692a 4b3e
00000350: fdca 413e 9aaf 3d3e 3180 fabd eeec b0bc
00000360: 9e67 2ebe 222f 99bd 1527 3e3e 0426 193d
00000370: 84d4 853d 3f95 5bbe 1569 9d3d 18e8 1a3e
00000380: 1bca 78bd 66ae 393e 6ae1 bc3d 853a 30be
00000390: 4d7d 2bbe 564a 51bc 03a4 44be 4ab6 18be
000003a0: b0f8 c93d 5338 d5bd ed48 06bc 6ada cbbd
000003b0: efc7 293e 242c 4d3e 9e58 2e3e ea27 34be
000003c0: 8852 93bd ae1b eb3d 90a4 e93d 0da7 9fbd
000003d0: 9283 e53d 9abb 29bc 2236 0d3d 7816 063e
000003e0: c14a fd3d ed53 2cbe 385e eabd 4406 883d
000003f0: f1c3 c63d 081d 8abd fe1c 433e bcb6 1ebd

arch.transformer.1.attention.in_proj_bias f4 [96]
-0.0059406506 0.0065852813 -0.007375702 -0.005952174 0.010449675 0.01662961 0.007044279 -0.011711022
0.008983761 -0.0008777194 0.0065724324 -0.0056332233 -0.01631236 0.019088462 -0.00089310005 0.004759575
-0.012113038 -0.011096367 0.026260437 0.020394348 0.02134335 0.015283144 -0.011130564 -0.015264704
-0.011269951 0.018478608 -0.012419974 -0.015475512 0.01391667 0.018150201 -0.012059199 0.010011613
-2.3413057e-07 2.296243e-05 -2.820663e-05 -1.14161185e-05 2.9616409e-05 1.1892465e-05 -1.2074511e-05 -6.667611e-06
-3.8401682e-05 -1.9335781e-05 -9.433238e-07 5.5855735e-06 -7.971778e-07 1.6106176e-05 -4.946411e-05 7.1399386e-06
5.6360026e-05 3.1194904e-05 6.890209e-06 5.1785344e-05 -9.390398e-06 -5.276267e-05 1.0750186e-05 -1.0046864e-05
1.6208192e-05 1.2565602e-05 6.9732094e-05 -0.00014292885 -6.224615e-05 -4.7461723e-05 -1.7382867e-05 -5.2515334e-05
0.012087918 -0.012164643 0.0076989955 0.002006868 0.00048567544 -0.0064901826 -0.0041763876 -0.006084507
-0.015204275 -0.010529477 0.010299901 0.010232515 0.018163946 0.008575893 -0.022337165 -0.012740543
-0.022431973 0.005729003 0.005378957 0.0023394488 -0.019483743 -0.018053297 0.008137454 -0.0046117553
-0.008222292 0.01040154 0.024637727 -0.011266629 0.01015395 0.0170379 0.026202273 -0.003084882
00000000: caa9 c2bb 58c9 d73b dfaf f1bb 740a c3bb
00000010: 1d35 2b3c d23a 883c b2d3 e63b 96df 3fbc
00000020: a030 133c c016 66ba 8f5d d73b e796 b8bb
00000030: 80a1 85bc 685f 9c3c ee1e 6aba 35f6 9b3b
00000040: c475 46bc 89cd 35bc 2120 d73c 0c12 a73c
00000050: 40d8 ae3c 2766 7a3c f85c 36bc cf18 7abc
00000060: 9aa5 38bc 7360 973c 267d 4bbc 008d 7dbc
00000070: bf02 643c bbaf 943c f293 45bc c007 243c
00000080: 5265 7bb4 719f c037 479d ecb7 db87 3fb7
00000090: c170 f837 c085 4737 a193 4ab7 58ba dfb6
000000a0: 7e11 21b8 4633 a2b7 b838 7db5 b66b bb36
000000b0: a4fd 55b5 c01b 8737 af77 4fb8 9b93 ef36
000000c0: 1e64 6c38 46d7 0238 7232 e736 1734 5938
000000d0: 748b 1db7 7c4d 5db8 b35b 3437 f48e 28b7
000000e0: d4f6 8737 dad0 5237 223d 9238 2cdf 15b9
000000f0: 268a 82b8 a311 47b8 6cd1 91b7 e943 5cb8
00000100: 670c 463c 364e 47bc db47 fc3b a885 033b
00000110: 41a2 fe39 99ab d4bb 14da 88bb 8b60 c7bb
00000120: 5a1b 79bc d483 2cbc eac0 283c 47a6 273c
00000130: 8ecc 943c e781 0c3c 6efc b6bc b6bd 50bc
00000140: 42c3 b7bc 5cba bb3b f641 b03b 7051 193b
00000150: 5f9c 9fbc 82e4 93bc f552 053c 351e 97bb
00000160: cbb6 06bc 396b 2a3c 0fd5 c93c ab97 38bc
00000170: c15c 263c 1193 8b3c 26a6 d63c bb2b 4abb

arch.transformer.1.attention.out_proj.weight f4 [32, 32]
-0.10668562 0.123105444 0.12985258 0.10762658 -0.05175628 -0.109896444 -0.12435667 -0.03930456
-0.027191956 -0.12379223 0.0152426325 -0.07594059 0.056469798 -0.097429305 0.0023602832 -0.022325011
0.13946553 -0.19058132 -0.09963675 0.03356442 -0.031068873 0.017276926 0.098916344 0.006854715
0.0018104094 0.020192582 -0.09386083 -0.04917201 0.047701586 0.024279697 0.13440193 0.009939296
0.15323551 0.09493988 -0.052176956 -0.07168986 0.01950292 -0.14946893 -0.09819213 0.077910066
-0.0026180123 0.07899677 -0.060315236 0.17540134 -0.08402221 -0.11752508 0.08841488 -0.06539627
0.019619746 0.0019914666 -0.08736273 0.018766658 0.056023978 0.123853624 0.17581826 -0.009782035
0.1362842 0.06664184 0.010259175 -0.029502805 0.020139437 0.023592789 -0.03697417 0.078535415
-0.03478399 -0.09528989 0.052315995 -0.08962575 0.09357884 0.13797188 0.01672968 -0.021017045
0.0063469745 0.09615148 -0.15431479 -0.044091627 -0.09796878 -0.17194149 -0.11983781 -0.095879585
0.13874294 0.10356676 -0.11965482 -0.12729405 0.15825592 0.056285843 0.08835705 0.017139427
-0.07911343 -0.10616655 0.10195125 -0.17172495 -0.16059262 0.03439023 -0.04827118 0.041775987
0.1197582 -0.13632177 -0.072376154 -0.11921591 -0.14079544 -0.03636648 0.13797636 -0.013057307
0.073956564 -0.09398108 0.04370303 -0.12685288 -0.016299933 0.043634757 -0.09029128 0.13607551
0.024040045 0.11748536 0.20086505 0.07758228 -0.024502525 0.06464999 0.18565658 -0.156057
-0.014374122 0.11405242 -0.04456774 -0.16188903 -0.06800746 -0.0919239 0.05578335 0.07955398
0.008353729 -0.18409431 0.052009147 0.044317484 -0.056839213 0.032487728 -0.09188934 0.0649755
0.09878812 0.07951861 0.016977277 0.18295687 -0.01730083 -0.15970409 0.10315817 0.12958267
0.047380697 0.19618191 0.13016766 0.08294161 0.08174492 -0.1592677 0.02227254 -0.061305717
0.07183161 -0.11759388 0.010476823 0.04004321 -0.02217679 -0.08160492 -0.14252983 0.0069258898
-0.1669932 -0.022400325 -0.008624689 0.06697328 -0.17016913 0.04572065 -0.07753056 -0.0070262416
-0.13245888 -0.13376608 0.018265542 0.047005687 0.16383849 0.1494818 0.111944504 0.0634325
0.106720306 0.07610378 -0.14933679 0.14100598 0.01895289 -0.030801062 -0.031768553 0.13489553
0.111221425 -0.042327195 -0.06182896 -0.0910603 0.07967475 -0.11596336 -0.107220456 -0.09025244
0.020536166 0.17446475 0.01176534 0.07476711 -0.15637195 -0.102071226 -0.083572686 -0.11340949
-0.05446013 -0.099613905 -0.08533924 -0.12021897 0.054873146 0.0031255286 0.028912548 0.10402944
-0.1273464 -0.10924527 -0.039316315 -0.17118613 0.113551505 -0.107031144 0.097659625 0.15817682
0.014741563 -0.12340779 0.12469993 -0.092276454 -0.03068931 0.11746102 0.18687952 0.04845703
0.013259134 -0.05115066 -0.14761178 0.022176124 -0.12501444 -0.012776856 -0.05609806 0.111027434
-0.09739252 0.11381801 -0.009078454 -0.025561322 -0.16649182 0.15878034 -0.0041511212 -0.19442715
-0.024890715 0.116367444 -9.722598e-05 0.1482904 0.0625451 -0.05124667 0.1974608 0.14360105
0.00035296686 0.021015238 0.053249355 -0.08421922 0.14844537 -0.17123087 -0.11645487 0.044339597
00000000: fe7d dabd b51e fc3d 13f8 043e 536b dc3d
00000010: 65fe 53bd 6311 e1bd b6ae febd d1fd 20bd
00000020: aac1 debc c886 fdbd 3cbc 793c bd86 9bbd
00000030: e04c 673d 0489 c7bd fbae 1a3b f1e2 b6bc
00000040: 0dd0 0e3e c027 43be 5a0e ccbd d87a 093d
00000050: 2684 febc 5788 8d3c a794 ca3d 849d e03b
00000060: 424b ed3a ea6a a53c 1b3a c0bd 9768 49bd
00000070: bd62 433d 37e6 c63c a9a0 093e 6ed8 223c
00000080: c5e9 1c3e d76f c23d 81b7 55bd 22d2 92bd
00000090: 96c4 9f3c 620e 19be f518 c9bd 508f 9f3d
000000a0: f592 2bbb 0fc9 a13d 1c0d 77bd 699c 333e
000000b0: d613 acbd fdb0 f0bd dc12 b53d 7bee 85bd
000000c0: 97b9 a03c 4483 023b 3beb b2bd 89bc 993c
000000d0: 6679 653d f8a6 fd3d b409 343e d444 20bc
000000e0: 168e 0b3e 847b 883d 1916 283c deaf f1bc
000000f0: 76fb a43c aa45 c13c 3a72 17bd 2dd7 a03d
00000100: a879 0ebd 5927 c3bd 4c49 563d b58d b7bd
00000110: 43a6 bf3d 8048 0d3e af0c 893c f02b acbc
00000120: 48fa cf3b 11eb c43d b204 1ebe 6c99 34bd
00000130: dba3 c8bd 6e11 30be 876d f5bd 845c c4bd
00000140: a112 0e3e cf1a d43d 960d f5bd 5f59 02be
00000150: d70d 223e fc8b 663d 8bf4 b43d fc67 8c3c
00000160: 3906 a2bd d96d d9bd d1cb d03d aad8 2fbe
00000170: 6472 24be c5dc 0c3d 00b8 45bd 4c1d 2b3d
00000180: ca43 f53d ef97 0bbe f339 94bd 7927 f4bd
00000190: ae2c 10be 05f5 14bd ad49 0d3e 51ee 55bc
000001a0: 8a76 973d 2779 c0bd f301 333d b9e5 01be
000001b0: 7087 85bc 5cba 323d a2ea b8bd 6157 0b3e
000001c0: a1ef c43c 2a9c f03d 91af 4d3e 75e3 9e3d
000001d0: 85b9 c8bc 3767 843d c21c 3e3e 68cd 1fbe
000001e0: 7081 6bbc 5194 e93d aa8c 36bd 3dc6 25be
000001f0: 7f47 8bbd 9942 bcbd 157d 643d 32ed a23d
00000200: 14de 083c 3883 3cbe 8b07 553d 4086 353d
00000210: 3cd0 68bd da11 053d 7a30 bcbd e011 853d
00000220: 6d51 ca3d a7da a23d ee13 8b3c 0c59 3b3e
00000230: 78ba 8dbc 7889 23be 9744 d33d 52b1 043e
00000240: 4312 423d e9e3 483e ac4a 053e 4add a93d
00000250: e169 a73d 1217 23be e774 b63c b41b 7bbd
00000260: 731c 933d 0fd5 f0bd fba6 2b3c 5904 243d
00000270: 19ac b5bc 7b20 a7bd 57f3 11be 93f2 e23b
00000280: 4400 2bbe e380 b7bc 914e 0dbc 4929 893d
00000290: d140 2ebe 9445 3b3d 58c8 9ebd 633c e6bb
000002a0: 4da3 07be faf9 08be 9ea1 953c 0989 403d
000002b0: 47c5 273e c211 193e 2943 e53d e6e8 813d
000002c0: 2d90 da3d 4cdc 9b3d beeb 18be df63 103e
000002d0: 1743 9b3c 8252 fcbc be1f 02bd 0e22 0a3e
000002e0: 0fc8 e33d 485f 2dbd 5d40 7dbd d37d babd
000002f0: 842c a33d 337e edbd 6696 dbbd 45d6 b8bd
00000300: 763b a83c e3a6 323e 6ac3 403c 801f 993d
00000310: f81f 20be b80a d1bd 2828 abbd 3c43 e8bd
00000320: 9611 5fbd 6002 ccbd 57c6 aebd 5d35 f6bd
00000330: aac2 603d abd5 4c3b 02da ec3c 630d d53d
00000340: 1867 02be fcbb dfbd 250a 21bd 6b4b 2fbe
00000350: b18d e83d 2533 dbbd c501 c83d 1bf9 213e
00000360: 9986 713c 39bd fcbd ad62 ff3d 70fb bcbd
00000370: 2668 fbbc 678f f03d 585d 3f3e e17a 463d
00000380: d73c 593c 5b83 51bd 8b27 17be b4aa b53c
00000390: c903 00be 0556 51bc 14c7 65bd 5a62 e33d
000003a0: bb75 c7bd 6b19 e93d ccbd 14bc fa65 d1bc
000003b0: d57c 2abe 5097 223e 2106 88bb e917 47be
000003c0: 9de7 cbbc 0e52 ee3d cde5 cbb8 70d9 173e
000003d0: a517 803d 07e8 51bd 2a33 4a3e 270c 133e
000003e0: 690e b939 2628 ac3c ff1b 5a3d 207b acbd
000003f0: 1002 183e 2557 2fbe e47f eebd 709d 353d

arch.transformer.1.attention.out_proj.bias f4 [32]
-0.0036866493 -0.02593573 -0.0126435105 0.005211854 -0.0016536401 -0.019022608 -0.0012894553 0.0055276435
-0.008583869 0.007016825 0.015632588 -0.009770101 -0.0047055525 -0.013960823 -0.00024495754 -0.0008717357
-0.004152362 0.0009891044 0.012774943 -0.002794387 0.0098538725 -0.013054437 -0.0019640285 0.0015054983
0.02839338 0.009219329 -0.008761751 -0.0004887603 0.011049858 -0.00490107 0.0014892522 0.020293387
00000000: b69b 71bb 2b77 d4bc ba26 4fbc 33c8 aa3b
00000010: f4be d8ba 4dd5 9bbc f102 a9ba 3c21 b53b
00000020: 5ba3 0cbc 65ed e53b ea0f 803c c612 20bc
00000030: 0931 9abb f0bb 64bc a56d 80b9 3185 64ba
00000040: 8910 88bb d6a4 813a ff4d 513c 0922 37bb
00000050: 2372 213c 47e2 55bc eeb6 00bb 2454 c53a
00000060: 3c99 e83c ab0c 173c 738d 0fbc 2620 00ba
00000070: 770a 353c 2899 a0bb 0333 c33a 513e a63c

arch.transformer.1.mlp.0.weight f4 [2, 32]
-0.019817106 0.10278598 0.06780218 0.030666584 0.026983894 0.060196977 0.038405474 0.16019659
0.04850009 0.11171392 0.11371891 -0.17064999 -0.09252857 0.059427485 0.048785828 -0.084567256
0.037338287 -0.17605689 -0.05705996 0.103334345 0.024851874 -0.07537905 0.05354133 0.0061115674
-0.03491194 -0.13419838 -0.049940366 0.03670396 -0.07189767 0.022165015 -0.11755425 0.12313712
0.14118867 0.11093676 -0.0018038353 -0.15334088 -0.05033286 -0.010117931 -0.15622932 0.12672453
0.066666625 0.11408481 -0.15065373 -0.06473193 0.05521773 0.021074846 -0.10104048 0.13054577
0.08726068 0.0005033086 0.16037431 -0.17839816 -0.18198572 0.014756888 0.16852821 0.0936367
-0.11247373 0.10959569 0.08190288 -0.004297537 0.089362144 0.020668933 0.012821775 -0.0600669
00000000: 7c57 a2bc 7581 d23d dfdb 8a3d 7d38 fb3c
00000010: 540d dd3c 1b91 763d 0f4f 1d3d 930a 243e
00000020: 08a8 463d 45ca e43d 76e5 e83d dfbe 2ebe
00000030: 9e7f bdbd 3c6a 733d a6d3 473d 9931 adbd
00000040: 08f0 183d 4248 34be b4b7 69bd f5a0 d33d
00000050: 2896 cb3c 5560 9abd 274e 5b3d 8b43 c83b
00000060: d3ff 0ebd 4d6b 09be 458e 4cbd e456 163d
00000070: 163f 93bd 6893 b53c 48c0 f0bd 502f fc3d
00000080: c393 103e d032 e33d ab6e ecba 6405 1dbe
00000090: d429 4ebd aec5 25bc 94fa 1fbe 13c4 013e
000000a0: 8388 883d 4ca5 e93d f944 1abe 2d92 84bd
000000b0: fd2b 623d 28a5 ac3c 50ee cebd caad 053e
000000c0: bab5 b23d 78f0 033a 2a39 243e 02ae 36be
000000d0: 775a 3abe e0c6 713c a992 2c3e 99c4 bf3d
000000e0: a158 e6bd b573 e03d b2bc a73d 5ad2 8cbb
000000f0: 8003 b73d e551 a93c 6c12 523c b608 76bd

arch.transformer.1.mlp.0.bias f4 [2]
-0.112261474 -0.121696696
00000000: 58e9 e5bd 1e3c f9bd

arch.transformer.1.mlp.3.weight f4 [32, 2]
-0.08381952 -0.48680276 0.27278864 0.17745526 -0.6880959 -0.523315 0.4998439 -0.367678
-0.022673031 -0.45911643 -0.16954894 0.3271732 0.1867085 0.34668106 -0.047977384 -0.56456834
-0.004254192 0.4065099 0.16536276 0.15524346 0.14619604 0.59228134 0.36226925 -0.12026604
-0.37549555 0.5735288 -0.36808655 -0.47863764 0.20934495 -0.4574332 -0.6019146 -0.5793229
0.17906182 -0.4439299 0.6309986 -0.024155386 -0.2970423 -0.42753938 -0.22420369 0.6069654
-0.44823536 -0.6408578 0.1915564 0.22577333 -0.5886732 -0.3147472 0.6059442 -0.3318415
0.32432327 -0.31440318 -0.6209235 -0.67514694 0.5216622 0.19685088 0.18477717 0.23478983
0.2731909 0.4735909 0.5420394 0.5434357 0.22157383 0.12618223 0.16245168 -0.54894084
00000000: 92a9 abbd 363e f9be f4aa 8b3e d5b6 353e
00000010: 0e27 30bf f9f7 05bf 8aeb ff3e 4a40 bcbe
00000020: cbbc b9bc 4f11 ebbe 3d9e 2dbe 3f83 a73e
00000030: 8330 3f3e 2e80 b13e ef83 44bd 8d87 10bf
00000040: c066 8bbb 1122 d03e db54 293e 24f8 1e3e
00000050: 6ab4 153e c09f 173f 5b7b b93e 0b4e f6bd
00000060: f440 c0be c9d2 123f d775 bcbe fe0f f5be
00000070: 865e 563e af34 eabe 1317 1abf 814e 14bf
00000080: fb5b 373e c84a e3be 2089 213f 84e1 c5bc
00000090: ee15 98be 71e6 dabe a795 65be 1662 1b3f
000000a0: 1b7f e5be 420f 24bf 5c27 443e 2031 673e
000000b0: 49b3 16bf 8c26 a1be 291f 1b3f 21e7 a9be
000000c0: b30d a63e 74f9 a0be d8f4 1ebf 6ed6 2cbf
000000d0: a78b 053f 4793 493e 3a36 3d3e bf6c 703e
000000e0: addf 8b3e 827a f23e 18c3 0a3f 9a1e 0b3f
000000f0: 40e4 623e ea35 013e bc59 263e 6387 0cbf

arch.transformer.1.mlp.3.bias f4 [32]
0.31704608 0.14824033 0.2938009 -0.17390098 0.57719356 0.064424045 -0.16763623 -0.017031316
-0.28938746 -0.09420239 0.6077072 0.22598341 -0.08052227 0.015976917 0.15424858 -0.40348807
-0.38781288 0.62522465 0.013224996 0.20082054 -0.31597897 -0.5338979 0.1439862 0.38231894
-0.63561034 -0.69088316 -0.24611591 0.45459065 -0.6219363 0.5615622 0.6368223 -0.13572773
00000000: dd53 a23e 50cc 173e 126d 963e 1913 32be
00000010: f5c2 133f c1f0 833d d5a8 2bbe 4285 8bbc
00000020: 982a 94be 2fed c0bd b392 1b3f 3268 673e
00000030: dce8 a4bd 06e2 823c 57f3 1d3e fd95 cebe
00000040: 698f c6be b90e 203f a7ad 583c e6a3 4d3e
00000050: ffc7 a1be 88ad 08bf 1e71 133e 4fbf c33e
00000060: 5cb7 22bf b8dd 30bf cf05 7cbe 1bc0 e83e
00000070: 3837 1fbf 8ac2 0f3f c906 233f 36fc 0abe

arch.transformer.1.layernorm0.weight f4 [32]
0.9883828 0.9877156 0.98890567 0.9669947 0.98768854 0.9813866 0.995597 1.0086362
1.0078645 0.97006714 0.9673653 1.0337471 1.0141904 1.0497369 0.9921469 0.9635408
1.0125982 0.9834309 1.0150958 0.9960332 1.0052899 0.9682729 1.0257434 0.996566
0.9882705 1.0152102 0.9719306 0.97431624 1.0293387 0.9861157 0.9830189 1.0129248
00000000: a806 7d3f eeda 7c3f ec28 7d3f f78c 773f
00000010: 28d9 7c3f 273c 7b3f 72df 7e3f fe1a 813f
00000020: b401 813f 5256 783f 41a5 773f d351 843f
00000030: fed0 813f c75d 863f 57fd 7d3f 9caa 763f
00000040: d19c 813f 21c2 7b3f a9ee 813f 08fc 7e3f
00000050: 57ad 803f bce0 773f 8f4b 833f f31e 7f3f
00000060: 4cff 7c3f 68f2 813f 72d0 783f ca6c 793f
00000070: 5fc1 833f 1472 7c3f 20a7 7b3f 85a7 813f

arch.transformer.1.layernorm0.bias f4 [32]
-0.0017665975 -0.03202654 -0.014409251 0.0025654396 -0.0073896456 -0.020705352 0.002185426 0.0016210985
-0.008474686 0.007949194 0.015419515 -0.007505255 -0.0016923076 -0.011260954 -0.004668463 -0.0018476252
-0.0027331298 0.003171811 0.009400045 -0.0041642315 0.009872445 -0.015169649 0.0011910904 -0.0008655577
0.031548273 0.007932533 -0.011038291 -0.0017776949 0.009646819 -0.0029162623 -8.4750434e-05 0.021105971
00000000: 2d8d e7ba 432e 03bd c714 6cbc ef20 283b
00000010: d724 f2bb 459e a9bc 5d39 0f3b 0a7b d43a
00000020: 69d9 0abc 563d 023c 22a2 7c3c a4ee f5bb
00000030: 6cd0 ddba dd7f 38bc e8f9 98bb 042c f2ba
00000040: 4f1e 33bb 29de 4f3b a502 1a3c 1b74 88bb
00000050: 09c0 213c 1f8a 78bc 5d1e 9c3a 98e6 62ba
00000060: c338 013d 74f7 013c f3d9 34bc 8b01 e9ba
00000070: b10d 1e3c c31e 3fbb 0bbc b1b8 6ee6 ac3c

arch.transformer.1.layernorm1.weight f4 [32]
0.9843448 0.9654046 0.97992784 0.9760751 0.9806978 0.9713293 1.0022042 1.0044798
1.0056164 0.9752285 0.98193324 1.0263306 1.0151638 1.0483835 0.98511 0.9786091
1.005871 0.9921037 1.018278 0.9922409 0.982546 0.9880205 1.0277022 0.9983072
0.9698059 1.0227243 0.9813815 0.9832494 1.0071534 0.9904638 0.989079 1.0015283
00000000: 05fe 7b3f c224 773f 8ddc 7a3f 0fe0 793f
00000010: 030f 7b3f 09a9 783f 3a48 803f cb92 803f
00000020: 0ab8 803f 93a8 793f fa5f 7b3f cd5e 833f
00000030: e3f0 813f 6e31 863f 2b30 7c3f 2086 7a3f
00000040: 62c0 803f 82fa 7d3f ef56 823f 8003 7e3f
00000050: 2288 7b3f e9ee 7c3f bf8b 833f 1091 7f3f
00000060: 3345 783f a1e8 823f d13b 7b3f 3cb6 7b3f
00000070: 67ea 803f 098f 7d3f 4834 7d3f 1432 803f

arch.transformer.1.layernorm1.bias f4 [32]
0.0017221879 -0.026935738 -0.013806944 -0.00094971654 -0.010001265 -0.021180965 0.000254336 0.0020314949
-0.0065418007 0.008246041 0.008548135 -0.007434703 -0.0010248532 -0.009899739 -0.0081368 0.0022324678
-0.00064848573 0.0024558192 0.007831786 -0.009287665 0.007976652 -0.016227366 0.0037243261 -0.00037020026
0.030032484 0.006475291 -0.012454448 -0.0026559772 0.007718777 -0.0030899753 -0.0026513338 0.02142353
00000000: 09bb e13a 56a8 dcbc 8536 62bc 66f6 78ba
00000010: 59dc 23bc b483 adbc 6658 8539 d422 053b
00000020: 9a5c d6bb 671a 073c 7a0d 0c3c cf9e f3bb
00000030: 5e54 86ba 8432 22bc 3650 05bc 984e 123b
00000040: 24ff 29ba cff1 203b e450 003c 4a2b 18bc
00000050: 81b0 023c 41ef 84bc d313 743b 7017 c2b9
00000060: af06 f63c ae2e d43b be0d 4cbc e70f 2ebb
00000070: cbed fc3b 2f81 4abb 00c2 2dbb 6680 af3c

arch.transformer.2.attention.in_proj_weight f4 [96, 32]
0.19366923 -0.105633706 0.20130259 0.009029222 0.2057864 -0.10007441 0.14980716 -0.12032032
-0.16376637 0.13076378 0.066809155 0.24504836 0.106691174 -0.05761729 -0.12521157 0.17714055
-0.030940305 -0.12737475 -0.1762667 -0.15509243 -0.11205404 -0.18654755 0.23765525 0.021120148
0.06514507 -0.13770352 0.0039557195 0.1437922 -0.09016765 0.17224559 -0.06695276 -0.092429794
-0.16621487 -0.23066372 0.08676152 -0.14051151 -0.11396905 -0.07745238 -0.17982024 -0.16329522
-0.15102193 0.22801742 0.0149665745 -0.09280658 -0.022704875 0.15951133 -0.13573962 0.08418976
-0.053408924 -0.19022879 0.15346965 0.10822836 0.1727732 0.10139058 0.024099605 0.06848264
-0.15733019 0.23039423 -0.14215003 0.1554013 -0.1249078 -0.15159743 0.09397985 0.14204429
-0.06260486 0.05803706 -0.20013979 -0.030201165 0.1956676 0.20371538 -0.07848251 0.07143342
0.19403176 0.08811346 0.044407032 -0.18137352 0.055029288 0.038219627 -0.13542359 0.102766134
-0.15119329 0.21127793 0.0006637269 0.15955871 -0.05698693 -0.10460978 0.14954224 0.13923995
0.20525266 0.07508415 -0.09629679 -0.11810719 -0.20911591 0.023056675 0.21697168 -0.074340805
-0.025159461 0.18285924 0.19910544 0.060336333 0.011121787 0.2084743 0.19692369 -0.12987271
-0.1313983 -0.07025001 0.072518155 -0.10974511 -0.06897825 0.047416333 -0.047411732 0.15282525
0.1556868 0.1411864 0.0975464 -0.14011627 -0.17837726 -0.14259292 -0.0038624827 0.15909477
-0.047651745 0.17404918 0.17586783 -0.21281953 0.09172799 -0.1030215 -0.21322232 0.058443118
-0.08383765 -0.21495725 -0.16927595 0.15696317 -0.04098279 0.16642267 -0.08573377 0.2083139
-0.071097896 0.22476183 0.0950617 -0.18073069 0.07676807 0.06536399 -0.18661419 -0.1942817
-0.0017154022 0.12311879 0.20146333 -0.043607928 -0.19268219 0.09292721 0.007637896 0.015870424
0.13320218 0.040803175 0.18268658 0.17547943 0.059503518 0.17201608 0.07679143 -0.19917902
0.1785775 -0.025013488 -0.04322095 0.17812394 0.2007832 -0.1652275 0.069809936 -0.12065199
-0.07263713 0.06962211 -0.07072264 -0.1128753 0.08244258 -0.08290545 0.07730643 0.20201635
0.03477372 0.05203391 0.21025756 -0.06497777 0.01593534 -0.19468315 -0.11300888 -0.0077675437
0.19592907 0.14882565 -0.049039677 -0.05123888 0.063704655 -0.08519833 -0.027383765 0.073096015
-0.08603684 0.121439934 0.075367115 -0.015202161 -0.020862032 0.021200316 0.091045 0.059436247
-0.079111345 0.1011013 0.0030777554 -0.18757959 -0.20127042 -0.03778766 0.18208505 -0.08465175
0.11418555 -0.06480256 0.15555437 -0.03283932 -0.06875701 0.06953016 0.0866398 -0.15379885
-0.0132015925 0.07707609 0.02812178 0.21977344 -0.1724745 0.19252239 0.115523785 -0.18071978
-0.10253429 0.047822453 -0.17233136 0.20590433 -0.07947062 0.100673065 0.019414058 -0.0791779
-0.21758421 0.04459213 -0.17270586 -0.07371396 0.020522846 -0.103470325 0.11302197 -0.19561042
-0.18677261 0.10820566 -0.09206012 0.18924698 -0.024026794 -0.028215531 0.1812183 -0.020126075
-0.1653974 -0.06090463 0.064421766 0.15166403 0.20131801 -0.07669438 0.033060953 0.16861136
00000000: 3a51 463e 7c56 d8bd 4422 4e3e 4def 133c
00000010: acb9 523e d0f3 ccbd 0c67 193e 806a f6bd
00000020: 5fb2 27be f1e6 053e 3dd3 883d f5ed 7a3e
00000030: e780 da3d 1c00 6cbd 7637 00be 5564 353e
00000040: 8676 fdbc 876e 02be 427f 34be 8dd0 1ebe
00000050: 977c e5bd 5206 3fbe e65b 733e 2904 ad3c
00000060: c76a 853d 2702 0dbe fb9e 813b 433e 133e
00000070: d1a9 b8bd 2661 303e 871e 89bd d54b bdbd
00000080: 3b34 2abe 1c33 6cbe 06b0 b13d 40e2 0fbe
00000090: 9b68 e9bd 5a9f 9ebd cc22 38be dd36 27be
000000a0: 7ea5 1abe 667d 693e 5d36 753c 6011 bebd
000000b0: 93ff b9bc f056 233e 54ff 0abe ae6b ac3d
000000c0: 51c3 5abd 56cb 42be 2627 1d3e d5a6 dd3d
000000d0: 75eb 303e dda5 cf3d 896c c53c a040 8c3d
000000e0: 2a1b 21be 77ec 6b3e c78f 11be 8521 1f3e
000000f0: a9cf ffbd 5b3c 1bbe 8278 c03d 0f74 113e
00000100: fa36 80bd 45b8 6d3d 72f1 4cbe 6f68 f7bc
00000110: 165d 483e c49a 503e 70bb a0bd af4b 923d
00000120: 43b0 463e d474 b43d 26e4 353d fbb9 39be
00000130: 6466 613d 2f8c 1c3d 7bac 0abe 0d77 d23d
00000140: 6ad2 1abe 3e59 583e f5fd 2d3a 5c63 233e
00000150: 216b 69bd a73d d6bd 9a21 193e eb94 0e3e
00000160: c12d 523e b8c5 993d 4037 c5bd 2fe2 f1bd
00000170: 7b22 56be 5ae1 bc3c d32d 5e3e fe3f 98bd
00000180: 371b cebc 743f 3b3e 4ce2 4b3e 3b23 773d
00000190: 2838 363c 497a 553e 5da6 493e 5afd 04be
000001a0: 478d 06be 3ddf 8fbd 6684 943d 0bc2 e0bd
000001b0: 7844 8dbd a137 423d ce32 42bd 397e 1c3e
000001c0: 5c6c 1f3e 2b93 103e 68c6 c73d a47a 0fbe
000001d0: 87a8 36be e103 12be b521 7dbb bde9 223e
000001e0: 7a2e 43bd f339 323e b216 343e 5ded 59be
000001f0: e2db bb3d f0fc d2bd f456 5abe 0d62 6f3d
00000200: 13b3 abbd c11d 5cbe ad56 2dbe f4ba 203e
00000210: 92dd 27bd b46a 2a3e 3095 afbd 3d50 553e
00000220: c69b 91bd f727 663e b5af c23d 7711 39be
00000230: 9438 9d3d 8edd 853d ca17 3fbe c8f1 46be
00000240: 59d7 e0ba b425 fc3d 674c 4e3e 3a9e 32bd
00000250: 7b4e 45be 9f50 be3d 5147 fa3b b102 823c
00000260: 2766 083e 3b21 273d 3112 3b3e e1b0 333e
00000270: f6b9 733d fc24 303e d344 9d3d 96f5 4bbe
00000280: 05dd 363e 16e9 ccbc 7308 31bd 1f66 363e
00000290: 1c9a 4d3e 6631 29be 83f8 8e3d 6418 f7bd
000002a0: c7c2 94bd 0996 8e3d 08d7 90bd 2a2b e7bd
000002b0: a8d7 a83d 55ca a9bd d552 9e3d 60dd 4e3e
000002c0: e36e 0e3d 8221 553d c24d 573e 1113 85bd
000002d0: d58a 823c 055b 47be 3371 e7bd e186 febb
000002e0: a1a1 483e c065 183e d4dd 48bd dcdf 51bd
000002f0: 9677 823d 767c aebd eb53 e0bc 5db3 953d
00000300: 1534 b0bd 80b5 f83d 135a 9a3d 7c12 79bc
00000310: dae6 aabc 49ac ad3c cd75 ba3d 6c73 733d
00000320: 2105 a2bd 330e cf3d 2bb4 493b dd14 40be
00000330: d519 4ebe 3cc7 1abd 8174 3a3e e65d adbd
00000340: 1dda e93d 34b7 84bd a549 1f3e 8682 06bd
00000350: 7ad0 8cbd d465 8e3d 3570 b13d 727d 1dbe
00000360: 7e4b 58bc 12da 9d3d a65f e63c 4a0c 613e
00000370: 289d 30be 9724 453e bc97 ec3d 9b0e 39be
00000380: 7ffd d1bd 7ae1 433d a277 30be 96d8 523e
00000390: 7ec1 a2bd ae2d ce3d 3b0a 9f3c 0628 a2bd
000003a0: 65ce 5ebe 3da6 363d ced9 30be 58f7 96bd
000003b0: 871f a83c 40e8 d3bd 1078 e73d 194e 48be
000003c0: 5241 3fbe ee9a dd3d 048a bcbd f6c9 413e
000003d0: d7d3 c4bc 4224 e7bc 4a91 393e 70df a4bc
000003e0: f05d 29be 2277 79bd 8fef 833d d14d 1b3e
000003f0: 4f26 4e3e f111 9dbd ec6a 073d 75a8 2c3e

arch.transformer.2.attention.in_proj_bias f4 [96]
-0.00023283751 0.0013667312 0.007819526 -0.0083182035 0.008400868 0.0057398323 0.0049179876 -0.0013174058
-0.010315861 0.006968703 0.004792151 -0.015681652 0.014575063 -0.009141436 -0.0042879614 -0.002606188
-0.012268616 0.0058290376 -0.0012985345 0.005219947 -0.0069312747 -0.0024865593 0.017420731 0.0065894155
-0.008267058 0.020282067 -0.011243196 0.019045787 -0.008279777 -0.0049085617 0.013926309 0.0038650578
-2.4253674e-07 -4.502278e-06 3.796863e-07 4.94529e-07 5.2394626e-06 -1.2671089e-06 -1.3735167e-06 1.2613342e-06
-1.7461825e-05 2.444761e-06 1.2608184e-05 1.16252095e-05 2.762257e-07 1.6593765e-08 -3.00735e-06 -2.209928e-06
-2.7430744e-06 -1.420159e-06 4.258624e-09 2.0186253e-06 1.1531516e-05 2.1760313e-06 2.4011701e-06 4.3975765e-06
-5.2840774e-06 7.413111e-06 -1.3129594e-05 -9.204018e-06 2.09758e-05 -6.897566e-06 -4.459292e-06 1.821221e-05
-0.0011183883 0.010847236 -0.0160455 0.004517037 -0.003320901 0.00025540608 0.0052734935 0.003499536
-0.009112131 -0.0033196097 0.01421705 -0.005254107 -0.013038683 -0.0007067184 0.0015652132 0.00083169166
0.0035554618 -0.019929519 -0.013634534 0.027548254 -0.014753202 0.0028369937 -0.0071675167 -0.033397358
0.0068131876 -0.0023044443 0.015563612 -0.0074302307 0.013709848 -0.013663567 0.032621484 -0.0065572835
00000000: d825 74b9 e423 b33a 781d 003c 1349 08bc
00000010: cba3 093c 3415 bc3b 1227 a13b ceac acba
00000020: db03 29bc b859 e43b 7a07 9d3b cf76 80bc
00000030: 3fcc 6e3c f6c5 15bc 0782 8cbb 94cc 2abb
00000040: 4e02 49bc 8301 bf3b 9633 aaba 170c ab3b
00000050: bf1f e3bb 8bf5 22bb ecb5 8e3c 06ec d73b
00000060: 8e72 07bc 9426 a63c 6235 38bc e905 9c3c
00000070: e7a7 07bc 00d8 a0bb 2c2b 643c e94c 7d3b
00000080: ff35 82b4 4612 97b6 b0d7 cb34 c6bf 0435
00000090: a4ce af36 8811 aab5 ad59 b8b5 1d4b a935
000000a0: fc7a 92b7 ad10 2436 bd87 5337 e509 4337
000000b0: 2c4c 9434 138a 8e32 e1d1 49b6 464e 14b6
000000c0: a915 38b6 4b9c beb5 4153 9231 b877 0736
000000d0: 7c77 4137 ef07 1236 ca23 2136 e58e 9336
000000e0: e14d b1b6 23be f836 2d47 5cb7 f56a 1ab7
000000f0: 30f5 af37 a471 e7b6 07a1 95b6 6cc6 9837
00000100: e296 92ba 9bb8 313c da71 83bc a703 943b
00000110: 79a3 59bb 06e8 8539 45cd ac3b 7958 653b
00000120: 0c4b 15bc cf8d 59bb a1ee 683c a52a acbb
00000130: 33a0 55bc 1243 39ba d727 cd3a e205 5a3a
00000140: c002 693b 3b43 a3bc 6163 5fbc e0ac e13c
00000150: 6ab7 71bc dbec 393b 7ddd eabb abcb 08bd
00000160: 2941 df3b 2906 17bb 85fe 7e3c 4b79 f3bb
00000170: 459f 603c 27dd 5fbc 1b9e 053d 7bde d6bb
