checkpoints/EEGClassificationModel_best-v3.ckpt (torch, 259103 bytes, 103 tensors)

arch.conv.0.weight f4 [16, 16, 11]
00000000: 3e08 6c3d 62d8 7f3d 4285 92bc 3a25 8b3d
00000010: 6a73 92bc 40ce 623c 90f4 1bbd 3e73 2f3d
00000020: 2c13 853d 1294 68bd e42e 833d ac15 7c3c
00000030: 692b 693d 7a3e 3b3c c6cb 193d ac6f 1bbc
00000040: 2fa4 723d 1c71 4a3c 51b2 0abd 4fcf a83c
00000050: 985f 08bd 33bc f1bb 3c8a f4bc 41ec 4f3d
00000060: 31a5 70bd fc42 0bbd a61f a8bc 757f 36bd
00000070: fffb 003c afef 96bd 0bf6 8c3d 22a1 81bd
00000080: 1a3f 713d ab3e 593c 49ab c2bc e0b5 413d
00000090: 9f35 4c3c 726a 7c3d 92f0 123c d4d2 bcbc
000000a0: d4ce ab3c 5bbf a1bc 6787 043d 87f5 883d
000000b0: b888 383d 55ee 00bd 844f 383d 15ad 743c
000000c0: 1d57 223d 8680 36bd 87c9 95bd ce26 e3bc
000000d0: 6305 68bd c904 813d 72a1 bc3c 7287 033d
000000e0: a981 ca3c f873 d7b9 c05b 753d b68d 57bd
000000f0: c12b bb3b 6bd6 4ebd 64ef c53c e81d cdbc
00000100: d2b2 c43c 79ca 72bc 85dc 823d f064 31bd
00000110: 6a84 32bd 3874 32bd 4ab8 8d3d 6e49 d93c
00000120: 7876 973d e1e3 78bd 8727 96bd 898d 6bbd
00000130: 6197 49bd c42b f83c 9010 db3c 25ad 7f3d
00000140: db1c 20bd 611e 53bd fa2b 233d 29e5 fabc
00000150: a3be 3a3d 5c67 93bc 9077 303d 2ef2 6fbd
00000160: fc03 1ebd 75f1 b73c 8fe6 7c3c c2d8 a0bc
00000170: 4abf 363d 4aca 503d 66f6 60bd c9d6 25bd
00000180: 21e2 8c3d b2de d1bc a951 dcbc a6ac 97bd
00000190: ab8f 35bd 2ce0 903c 00c0 34bc 8dd2 64bd
000001a0: 6d01 f739 a9f2 57bd f722 85bd ca78 2ebd
000001b0: d4d6 89bd 3001 4abd 5b24 983d 869a 583c
000001c0: 39f6 b63c b1b4 91bd 3762 4ebd 65eb d4bc
000001d0: e934 333c 4884 89bd b854 08bd 4546 3cbd
000001e0: 8859 27ba 6d75 ecbc 230f c2bb 1d5a 53bd
000001f0: 7e7a 55bd 1920 31bd 53e9 ccbc 4486 70bd
00000200: 7ef0 823d 3add 67bc 9e8a 863d 1348 c73c
00000210: 82e6 7fbd 663a 5b3d 16e2 9fbc b2c2 e3bc
00000220: 7479 7bbd 0dcf 96bd 0dd8 bb3c 0873 77bc
00000230: f33c fb3c 7120 78bd e879 6a3d 591b 5dbd
00000240: d78f 44bc bfd4 893c a083 243d 0f03 7f3d
00000250: 66a0 8f3d f3d2 6ebd 553a a73c 62fd fdbc
00000260: 91fe e0bb 1c6b 61bd 6bb6 8a3d faff 65bd
00000270: 689f 223d 411c d63c 588e c63c 2ac4 23bd
00000280: a2e0 8d3d 3767 853c 25b3 1a3c 8841 88bd
00000290: 4dbf 053d 81a2 46bc cfc7 10bd ffeb 823d
000002a0: 7fdf 823c 6b47 2ebd 86b3 1fbd d192 90bb
000002b0: 8822 293d 1f46 a4bc 4050 33bd ef7e d9bc
000002c0: 9cb5 65bd b490 e13c 1640 723d 509d 8fbd
000002d0: 31d4 953c 4e4e 213d 6976 633c 1a24 d8bc
000002e0: 2eb2 233d 41bc 243d 637d ea3c f95b 46bc
000002f0: 5e69 99bc 3cfc 193c 1875 43bc 257c acbc
00000300: 450f 4b3d 4d7e 873d 448c c5bb 8e23 7cbc
00000310: 767c 293b e32e 45bb ab50 9c3c 861e b53c
00000320: f133 8abd 04c8 dbbc fe12 843d a7fb f83c
00000330: 3d5f 31bb bac3 35bd ad71 38bd f219 88bd
00000340: d9c9 c0bc 6df8 d73c 05ae 483d 5461 123d
00000350: d684 86bd 76bb 35bd 24f0 32bc 865a 973d
00000360: 9c2a 433c ba87 97bc e1d9 033d d152 e3bc
00000370: 369a 47bd af6e 613d 9a26 08bd c5b4 66bc
00000380: 4963 97bd 6245 533d 479b 6e3d f142 eb3c
00000390: 67c7 51bd b3c0 95bd 02d9 75bd 9712 6b3d
000003a0: 7413 193d f24d 843d fc73 263d 23fa a53c
000003b0: ffcd f239 df02 66bd 5dcf 81bd 61e7 8dbd
000003c0: a00a 033d 7f46 13bd d9af 60bc 2da7 2bbd
000003d0: 8b8c 49bc 30f4 53bd 15cd 48bd cd03 ce3c
000003e0: 2062 b7bc dbf5 3e3d cb67 c4bc 538c 61bd
000003f0: aa0e 59bc dd62 18bd 61bf c2bc a064 94bd
0.057625048 0.062462218 -0.017885808 0.0679421 -0.0178773 0.013843119 -0.03807503 0.042834513
0.06497797 -0.056781836 0.06405428 0.015386026 0.056926165 0.01142847 0.03754785 -0.009487074
0.05923861 0.012356069 -0.033861462 0.020606665 -0.03329429 -0.0073771714 -0.029851072 0.05076242
-0.05875129 -0.03399943 -0.020522904 -0.044555146 0.007872581 -0.07369935 0.068828665 -0.06329562
0.05889807 0.01325957 -0.023763316 0.04729259 0.012463956 0.06162495 0.008968489 -0.02304975
0.020972647 -0.019744566 0.032355692 0.066874556 0.04505226 -0.03147729 0.044997707 0.014933844
0.03963386 -0.044556163 -0.07313829 -0.027728464 -0.056645762 0.06299741 0.023026202 0.032111593
0.02472003 -0.000410944 0.059901953 -0.05262538 0.005712003 -0.050497454 0.024162002 -0.025038674
0.02401105 -0.014818781 0.06389717 -0.043309152 -0.04358331 -0.043567866 0.06919916 0.026524272
0.07395643 -0.060764197 -0.07331758 -0.057508025 -0.04921663 0.030294307 0.026741296 0.062420983
-0.03909002 -0.051542643 0.03983686 -0.03062685 0.04559196 -0.017993622 0.043082774 -0.05858057
-0.03857802 0.022454003 0.015435829 -0.019634608 0.04461602 0.050974168 -0.054922484 -0.04048804
0.06879068 -0.025618885 -0.026894407 -0.07405977 -0.044326466 0.017685018 -0.0110321045 -0.05586486
0.00047112574 -0.052721653 -0.0650081 -0.042595662 -0.06730428 -0.04931754 0.07428809 0.013220435
0.022334205 -0.07114542 -0.050386634 -0.025991151 0.010937908 -0.06714684 -0.03328392 -0.04596545
-0.00063838856 -0.028864587 -0.0059222146 -0.05159961 -0.05211877 -0.0432435 -0.025013601 -0.058721796
0.063935265 -0.014151866 0.06569408 0.02432636 -0.06247569 0.05352249 -0.019516986 -0.027802799
-0.061395124 -0.073637106 0.02293017 -0.015103109 0.030668711 -0.060577814 0.057245165 -0.05398116
-0.011997185 0.016825078 0.04016459 0.062258776 0.070130154 -0.058306646 0.020413557 -0.031004611
-0.006866284 -0.055033788 0.06773075 -0.05615232 0.039702803 0.02613652 0.024237797 -0.039982
0.06927611 0.016284568 0.009442125 -0.06653124 0.03265314 -0.012123705 -0.035346802 0.06392669
0.015975712 -0.04254858 -0.038989566 -0.004412033 0.041292697 -0.020052968 -0.043777704 -0.026549784
-0.0560814 0.02753482 0.05914315 -0.07012427 0.018289657 0.039381318 0.013883212 -0.026384402
0.039964847 0.040218595 0.028624242 -0.012106889 -0.018727 0.009398516 -0.011929773 -0.02105529
0.04957511 0.06615887 -0.006028684 -0.015389336 0.0025861538 -0.003008776 0.019081434 0.022109281
-0.06748188 -0.026828773 0.06448935 0.030393435 -0.0027064823 -0.044376113 -0.045030285 -0.06645574
-0.023533748 0.026363576 0.048994083 0.03573735 -0.06568305 -0.04436823 -0.010921512 0.07390313
0.011912014 -0.018497337 0.032190207 -0.02774945 -0.04873105 0.055037197 -0.03323994 -0.014081185
-0.07391984 0.05157984 0.058253553 0.028718444 -0.051215556 -0.07312145 -0.060021408 0.057390776
0.037372068 0.064601794 0.040637955 0.020260876 0.00046311316 -0.05615508 -0.063383795 -0.06928898
0.031992555 -0.035955902 -0.0137138 -0.041907478 -0.012301574 -0.051746547 -0.049023706 0.025148297
-0.022385657 0.046621185 -0.023975274 -0.055065464 -0.013248125 -0.03720366 -0.023772897 -0.07245755

arch.conv.1.weight f4 [16]
00000000: 8d1f 803f b1b1 7f3f 6db6 7f3f 37f3 7f3f
00000010: fb26 803f ddb2 7f3f cbba 7f3f ce2f 803f
00000020: 130e 803f c714 803f a3af 7f3f df22 803f
00000030: 5329 803f 2a9e 7f3f ce0c 803f 8ad7 7f3f
1.0009629 0.9988051 0.99887735 0.9998049 1.0011896 0.998823 0.998944 1.0014589
1.0004295 1.0006341 0.99877375 1.0010642 1.0012611 0.99850714 1.0003908 0.9993826

arch.conv.1.bias f4 [16]
00000000: d8e4 f038 4c86 96ba d7e5 89ba 21c9 afba
00000010: ce9c 0f3a 1d0b 9aba b169 93ba 442b b63a
00000020: b015 6bba 92b5 c239 93d5 a03a 46ca b93a
00000030: a0d2 9338 7ef1 a7ba ba02 213a 3aac c1ba
0.00011486717 -0.0011484115 -0.0010520768 -0.0013411382 0.0005478383 -0.001175258 -0.0011246708 0.0013898392
-0.000896777 0.00037137844 0.0012270681 0.0014174662 7.048738e-05 -0.0012813059 0.0006142069 -0.0014776059

arch.conv.1.running_mean f4 [16]
00000000: a118 c13e 6298 cf3d d006 02bd e8d5 b0bd
00000010: a931 e4bd d662 f83d f7da 9bbe 686b 4f3d
00000020: 2b19 00bf 6757 8abe 0612 8cbe 3e4a c4bd
00000030: ee55 603e f40f 403e c80b 5dbe 6515 11be
0.37714103 0.101364866 -0.03174478 -0.086345494 -0.111422844 0.121282265 -0.30440494 0.05063954
-0.50038403 -0.27019808 -0.273575 -0.09584473 0.2190778 0.18756086 -0.21586525 -0.14168318

arch.conv.1.running_var f4 [16]
00000000: 6a4d 9f42 7694 3c42 774d c041 3b3c 7242
00000010: de7c 1442 1688 2d42 be6c 7742 e36a 1142
00000020: 51c7 bb42 9b91 a142 f3af b242 c64c 0742
00000030: 01ee e842 0d36 8e42 c551 5542 38ee 2b43
79.6512 47.14498 24.037825 60.55882 37.12194 43.382896 61.856194 36.35438
93.88929 80.784386 89.34365 33.824974 116.46485 71.10557 53.329853 171.93054

arch.conv.4.weight f4 [32, 16, 11]
00000000: 4a4a 583d 4354 21bd b785 05bd 6b42 713d
00000010: 19bd f93c 5723 2bbd 4be2 c33c b63d 203d
00000020: bfcc 86bd eaa1 783c c3c6 953c b01a 90bb
00000030: affc 903d 8e36 52bd 5046 213d 2028 2abd
00000040: 1016 87bd d242 513d 99ce 14bd f29a 603b
00000050: e6ee 213d bcc1 80bd b2f9 85bd b512 c93c
00000060: 2900 843d 45ac 15bc e31d 553d 8085 d03c
00000070: 0dd2 a83c 6c49 48bd 06b8 903d 8d4f 093d
00000080: e4e3 2f3c ea2a 553d 5944 87bd 6c3b 753c
00000090: 954f 12bd 9939 12bc e88b bf3c 5673 033d
000000a0: fb15 833c a54e 74bd 187d 46bd 7444 9638
000000b0: c814 45bc b05d 7ebd 63ff 993d e397 2a3c
000000c0: ab8f 57bd 0563 0b3d c50f 0a3d f2a2 13bd
000000d0: 59fa 1e3d c851 3bbd 89d4 dd3c 4da9 8f3d
000000e0: dedb 453d 129c 123d e70b 89bc bcbe 503c
000000f0: 74c4 cb3c f675 8b3c ec28 88bc 7fa0 153c
00000100: 55bd 02bd 0b29 34bd 6e89 8cbd 7495 77bd
00000110: 18ea 3dbd 9e50 953d 6e94 823c 56dc 89bd
00000120: 30a9 1abd 1b1d 963c 18b3 b2bc f9b5 a8bc
00000130: 2c95 e1bc 1a1e 8bbc fde5 253c 37fb c13b
00000140: 3a39 4c3d 2d7b 4b3d 2609 823d 5cee 73ba
00000150: 94f6 03bd f2ae dc3a 308b 46bd b728 043d
00000160: 00a2 21bc f1e9 cbbc 536f 84bd cb96 113d
00000170: 6d28 293d 782f 8b3d 768d e1bc 195b b33c
00000180: f0f2 053b 47eb 47bd 4849 44bd 6e3f 203d
00000190: 8c5f 2fbd 8ecb 623d 56fe db3c 5107 d73c
000001a0: 8c29 4d3d 85d0 183d f2fb 063d d945 223d
000001b0: 99f3 00bd d7c4 21bd 2fc5 50bc 78a5 2f3d
000001c0: 384f 5c3d aec6 673d 39b7 b9bc a0de 0abc
000001d0: a4b3 4fbd 7d98 423d c493 48bd adb3 f5bc
000001e0: 62a2 813d 3c13 9a3c 4e59 febc 4e33 4ebd
000001f0: aaea 52bd 5faf 7a3d ca57 8cbd ca24 863d
00000200: 827f 783d 7d15 a93b 166a bbbb 14a8 703d
00000210: bded 0c3d 1d68 943d 8f7a 7e3d 2758 45bd
00000220: a299 433d b7d7 203d 0fef 55bd 13a0 193d
00000230: a50d 1bbd 2499 32bd f64b 323b 5522 24bc
00000240: 8701 acbc db82 4dbd 52ae 253d 525e 983d
00000250: c8f0 8dbc bc55 52bd 9512 90bb 44eb 86bd
00000260: 850a 7cbd d014 d2bc 371f 433d e67b 6bbd
00000270: 1638 41bc a52f 1fbd 7159 8dbd d247 87bc
00000280: 019e 80bb 40b9 49bc 2b03 633d e0db f93c
00000290: 31a4 413d 5da9 f73c 8943 0d3c 9b63 2a3d
000002a0: 7d58 46bd d8de 1b3d 7668 113d 1fdd 04bd
000002b0: e413 46bb 853a 6bbd 1fdf 87bd 64d1 f3b9
000002c0: 585f 733c 4a42 74bc 9bce c93c 20bd 68bd
000002d0: 8512 24bd 12ad 5a3d 5769 93bd 1623 593c
000002e0: e88a 733d 2f47 6d3d d916 de3c 8e90 89bd
000002f0: b05d 373c 53fc ccbc aa66 a1bc 6a9d 723d
00000300: 2be4 c5bc f421 57bd 7cda 71bd bee9 483d
00000310: 0119 a73b 0a81 9b3d 9a24 643c eea0 92bd
00000320: f6e7 8c3c 4d4e 8a3d 4988 393d bc24 ae3c
00000330: c7fa 68bd 0e84 3ebd f35c 4c3d 8e36 53bd
00000340: 7675 8c3c bf6d 26bc 32d8 c93c 9db3 8d3b
00000350: 1843 6dbd 7775 fabc 6640 853d 5305 053c
00000360: af52 193d 6fed 1ebd a3b8 713d 3c0d 88bc
00000370: fe47 cabc 1e99 823c 0bd9 d8bc 86a8 f4bc
00000380: 9b4c 2abc 28af 7dbb ccc0 2dbd f9cc d73c
00000390: de2a 94bd 2353 403d 4f49 903d 08c6 5d3c
000003a0: 4341 85bc f184 8abd f5e8 163d 6575 813d
000003b0: daf0 863d 0fab 053c 8716 d93c 61d6 963d
000003c0: f0bb 4e3c 4699 0fbd 200c 91bd 2b2c 093d
000003d0: eff0 f33c b393 893d 7594 22bd b4ce fd3c
000003e0: 631a d8bc df7b a4bc 1bab 2e3d b55b 90bd
000003f0: 9b13 5e3d 53e7 143d 87d6 31bd 8c35 233d
0.052805223 -0.039387 -0.032598224 0.05890123 0.030485677 -0.04178175 0.023911616 0.039121352
-0.06582021 0.015175322 0.018283254 -0.0043977126 0.070794456 -0.05132156 0.039373696 -0.041542172
-0.06596005 0.051089115 -0.03632984 0.0034272042 0.039534472 -0.06286952 -0.06541766 0.024545053
0.06445343 -0.009135311 0.052030455 0.025454283 0.020607973 -0.048898146 0.0706635 0.03352313
0.010735486 0.05204288 -0.06604833 0.014967781 -0.035720427 -0.008924865 0.023382142 0.032092415
0.016001692 -0.059645314 -0.048459142 7.165308e-05 -0.01202888 -0.062101066 0.07519414 0.010412189
-0.052627247 0.03402998 0.033706445 -0.03604407 0.03881297 -0.04573229 0.027078884 0.070147134
0.048305385 0.03579337 -0.016729308 0.012740787 0.02487395 0.017024022 -0.016621076 0.0091325035
-0.031918842 -0.043984454 -0.0686215 -0.060445264 -0.046365827 0.07290767 0.015939917 -0.06731479
-0.037759006 0.018324425 -0.021813914 -0.020594584 -0.027536951 -0.016982127 0.010125634 0.0059198397
0.049859263 0.049678016 0.06349401 -0.00093052327 -0.032217577 0.0016836806 -0.048472583 0.03226539
-0.009865284 -0.024891825 -0.06466546 0.035544198 0.04129832 0.06796163 -0.027533274 0.021894025
0.0020438991 -0.048808362 -0.04792145 0.03912299 -0.04281573 0.055369906 0.026854675 0.026248606
0.05008845 0.037308235 0.032955118 0.039617393 -0.031482313 -0.03949436 -0.012742325 0.042882413
0.053786486 0.05658596 -0.022670375 -0.0084759295 -0.050708428 0.047508705 -0.048969045 -0.029992903
0.063298 0.018808 -0.031048443 -0.050341897 -0.051493324 0.061202403 -0.06852682 0.06549986
0.060668476 0.0051600323 -0.0057194335 0.05875404 0.034406412 0.072464205 0.0621286 -0.04817977
0.047753938 0.03926822 -0.052229937 0.037506174 -0.03785481 -0.043603078 0.002720592 -0.010017951
-0.020996822 -0.05017362 0.040449448 0.07439865 -0.017326728 -0.051351294 -0.0043967464 -0.06587842
-0.06153347 -0.02564469 0.04763719 -0.057491206 -0.011793157 -0.038863797 -0.06901825 -0.016513739
-0.0039250855 -0.012312233 0.055422943 0.030500352 0.047275726 0.030232126 0.008622059 0.041598897
-0.048424233 0.038054317 0.035500012 -0.03243744 -0.0030224258 -0.057428855 -0.06634354 -0.0004650458
0.014854275 -0.014908383 0.02463465 -0.05682099 -0.040056724 0.05338771 -0.07197826 0.013252994
0.059458643 0.057929214 0.027110504 -0.06717025 0.01119177 -0.025022661 -0.019702274 0.059232153
-0.02415665 -0.052522615 -0.059046254 0.04905104 0.0050994162 0.075929716 0.013924742 -0.07159601
0.017200451 0.06753216 0.045295987 0.02125775 -0.056879785 -0.046512656 0.04989333 -0.0515657
0.017145853 -0.010158001 0.024639223 0.00432439 -0.057925314 -0.03057359 0.06506424 0.008118945
0.03743237 -0.038800653 0.059013974 -0.016607873 -0.024692532 0.015942153 -0.026470682 -0.029865514
-0.010394241 -0.0038709138 -0.042420194 0.026342856 -0.07234739 0.046954285 0.070452325 0.013535984
-0.01626647 -0.06763638 0.03684326 0.06321219 0.065889075 0.008158459 0.0265 0.07365108
0.01261805 -0.035058282 -0.07082391 0.033489387 0.029777972 0.067176245 -0.03969236 0.030982353
-0.02637977 -0.020078598 0.042643648 -0.07048742 0.054217916 0.03635342 -0.04341748 0.03984599

arch.conv.5.weight f4 [32]
00000000: 6309 803f cd0e 803f 6cab 7f3f a811 803f
00000010: 7220 803f 37f8 7f3f 5ba5 7f3f 1a0b 803f
00000020: 1bb4 7f3f 96a0 7f3f ac0c 803f 3e00 803f
00000030: 042c 803f 88fc 7f3f 15b8 7f3f 20a9 7f3f
00000040: 662e 803f 07f6 7f3f c110 803f 1106 803f
00000050: 81a9 7f3f e3b8 7f3f 31d0 7f3f d602 803f
00000060: 49ca 7f3f bf01 803f 5d1b 803f 17a3 7f3f
00000070: 1821 803f 91b4 7f3f c91e 803f 92c8 7f3f
1.0002865 1.0004517 0.99870944 1.0005388 1.0009902 0.9998812 0.9986169 1.0003388
0.99884194 0.9985441 1.0003867 1.0000074 1.0013433 0.9999471 0.9989026 0.9986744
1.001416 0.9998478 1.0005113 1.0001851 0.9986802 0.9989149 0.9992705 1.0000865
0.9991804 1.0000533 1.0008351 0.9985823 1.00101 0.998849 1.0009395 0.9991542

arch.conv.5.bias f4 [32]
00000000: 4da5 cd39 b5ee a23a bd0e 623a d1ab 8f3a
00000010: 14b0 933a 8824 8039 4d97 a8ba cd3e a73a
00000020: e67c 39ba 992e a6b9 120f b03a f161 683a
00000030: de7e 3b39 b4c0 a4ba 44ad 503a d834 52ba
00000040: ddb0 96ba 09e9 a9ba a723 ac3a 494b a23a
00000050: 291a 32ba e498 9038 e094 f0b6 cd09 b03a
00000060: f8b1 a53a 183b 9b3a f954 c739 ee6f b4ba
00000070: 7ce9 4838 c546 a6ba 9607 28ba f837 a03a
0.00039223806 0.0012430759 0.0008623412 0.001096124 0.0011267685 0.0002444128 -0.0012862474 0.0012759805
-0.0007075801 -0.00031696705 0.0013432226 0.0008864692 0.00017880971 -0.0012569637 0.0007960389 -0.00080187386
-0.0011496801 -0.0012963127 0.0013133184 0.0012382056 -0.00067940593 6.894933e-05 -7.1698887e-06 0.0013430655
0.001264154 0.0011843173 0.00038019547 -0.0013766268 4.7901165e-05 -0.0012685886 -0.0006409822 0.0012223711

arch.conv.5.running_mean f4 [32]
00000000: 8960 b93c e482 e339 bcd8 c3bb ff49 7abd
00000010: b20f 16bd 8061 53bc fc37 723d db19 08bc
00000020: 81be 913b f440 11be 887f 5e3d f47a 2c3d
00000030: 72b5 ba3d 9356 b43d f9ff fd3b add6 b33d
00000040: 7a82 93bc f4d0 8b3d 1f3f 01be 7ad2 72bd
00000050: 12f9 423d 1e9c bc3d aa29 8e3d 7ae3 f0bc
00000060: 92a5 65bd d415 4d3c 67fd 453d 9a6b 8dbc
00000070: 5f50 d8bd 0901 a3bd 4271 8e3d 1e5f 843d
0.02262904 0.00043394335 -0.0059767645 -0.061105724 -0.036636062 -0.012901664 0.059135422 -0.008306946
0.0044477587 -0.14184934 0.054320842 0.042109445 0.09116639 0.08805575 0.0077514616 0.087811805
-0.018006552 0.06826964 -0.12621735 -0.059282757 0.047600813 0.092094645 0.069415405 -0.029405344
-0.056066103 0.012517411 0.048337366 -0.017263222 -0.105622046 -0.07959182 0.06955196 0.06463455

arch.conv.5.running_var f4 [32]
00000000: 68f9 403f 8316 403f 44e3 413f 188b 3e3f
00000010: a703 403f 56e8 413f 60d0 423f 88b1 423f
00000020: 4397 3f3f 0246 453f 777f 3f3f 6b85 413f
00000030: 3d2a 413f 45fa 423f 0b6d 413f 17fe 413f
00000040: b9fc 403f 94fa 423f 1a21 513f 6fe5 433f
00000050: dcc5 433f 38c2 423f 6a92 423f 0b89 433f
00000060: 4176 413f 3afc 443f d05d 413f 6d67 403f
00000070: ff6e 463f ab9c 463f 804a 433f 971e 453f
0.75380564 0.7503435 0.75737405 0.7443099 0.75005573 0.7574514 0.76099205 0.7605214
0.7484018 0.7705995 0.7480387 0.75594205 0.75455076 0.7616313 0.7555701 0.75778335
0.75385624 0.761636 0.81691134 0.7652196 0.76473784 0.76077604 0.7600466 0.76380986
0.75571066 0.7694737 0.7553377 0.75157815 0.77513117 0.77582806 0.7628555 0.769998

arch.transformer.1.attention.in_proj_weight f4 [96, 32]
00000000: 6cf7 483e f3d4 8c3d d998 c6bd ee37 5f3d
00000010: 6485 433c b78c 403e 9f73 b53d 3f64 3c3e
00000020: e8e0 783c 4f70 28be fdee 0cbe 9bf2 483e
00000030: c558 473e 51e7 873d 5fd8 1cbe 2f53 233e
00000040: e757 b83d db5f 30be 5567 833d 1c50 543e
00000050: 6f31 11be a6e7 8e3c 519c 803d 0bea 9cbd
00000060: 170e 113e 1722 463e 6433 593e 5403 45be
00000070: c65f 483c aa6c 363e 52d3 3b3e baa6 5fbd
00000080: 38e0 133e d47f 243e 2765 70bc cfe2 163e
00000090: af0c fe3d e3a2 febc 1f76 b8bd 0d4d ebbd
000000a0: b8be 33be 5cb7 05be 5885 6c3d b806 a13d
000000b0: dd7b 78bd 5e98 87bc 39f8 1a3e ef50 093d
000000c0: cee2 1abe 1bed 3a3e 5d26 073e 4817 c33c
000000d0: 9058 d63d 9e64 3abe ca7f 033e 3652 5b3d
000000e0: 6a24 a5bc 4809 8dbd 3148 343e dd4e 433d
000000f0: 2242 f5bd 0b57 c43d 9bd1 183d 9a50 99bd
00000100: b513 1b3e bc47 5b3e 9e4b 05bc 10d4 b4bd
00000110: 669e eebd d1e9 e4bd cb59 e63d 43da 0a3e
00000120: 2b21 07be fc52 f63d 7f6d 063c 524c 0abc
00000130: 31c5 8dbd 16bf 4abe 5351 3fbe 6654 223e
00000140: 4c2d 0ebd 3b09 08bc b2e6 05be 0f58 1ebd
00000150: 936e aebd 0145 973c af17 54be 2bdc a43c
00000160: 3c9e 44be 9073 1ebe 8bd9 c0bb 7027 c6bc
00000170: b6fb 7cbd 72f2 fe3d 024d 8b3c 3143 353d
00000180: a1a0 b43d 515f 393c 9d9f 44be ce9a a6bd
00000190: 4dff 0a3e 775f 003e 0235 973d 7981 433e
000001a0: 38e9 e7bd 5e77 86bd 7d88 ffbc 9e51 55bd
000001b0: ad7f 403e 3c04 5cbe e649 2d3d 2813 5b3e
000001c0: a923 f7bd c13b 2f3e 0cb6 3dbe 0eeb 103d
000001d0: 4f1d fabd 5a3b 8e3d 29b0 473d 8b23 473d
000001e0: 4f25 43bd 6322 87bd b49c 55be 5536 173d
000001f0: 09b7 543e 3ada 25be c0d5 abbd d443 6d3d
00000200: 4b59 e43d 541f 9f3d cf2a 0f3e db68 d83c
00000210: 233a 5bbd 4197 37be 9da5 5ebe a4ee 29be
00000220: 9b91 dc3d 0f2b 463e ee4e 543e 204e 273e
00000230: 7cc6 4c3c 36fb 193e eb99 ab3d 71a7 14be
00000240: 79f7 28bd 23b2 4ebe 9262 3f3e e73d 3d3d
00000250: 9df7 4c3e 82b7 cdbc 0e81 313e 55c3 d13d
00000260: 3243 d6bc a7c2 c5bb 5f4a 1f3e afb9 dfbc
00000270: 9284 2d3e 650b 463d 301f afbd 9322 cbbd
00000280: d5cd d5bd 527f 0f3e 9ac2 273e e10b cebd
00000290: 6413 49be dc9d fb3d 7da9 4abd ed6c 4abe
000002a0: 08d8 3e3d a85d a6bc 036f 1e3e d28c 383d
000002b0: d6f7 09be 4b58 26bd 9cb5 1fbe dae4 cc3d
000002c0: dccc 7f3d 3cd2 033e c324 25be 7c25 f6bd
000002d0: 191d 08be 20d8 38be 5fed 4fbe b7e8 33be
000002e0: 1dba 1a3e 05d9 87bd ab20 29bd ce82 833d
000002f0: be09 683d 9370 c53d e6ae 1bbe 07df 433e
00000300: f780 8ebc 2556 d5bd 880c 103e 3f03 37be
00000310: b666 03be 6a92 fb3d 6d30 aa3d c773 adbd
00000320: 644b 95bc d69e 1fbd de76 b33d 51f6 2d3d
00000330: d5e5 a03d f3de 363e 117d 19be ff5e 2bbe
00000340: 5fd4 50bd a04c cbbd 8995 1ebe 23f7 4e3e
00000350: e052 383e 6d10 323e 8957 09be 7e45 d9bc
00000360: 384e 2dbe 4fa3 a1bd a987 373e b3ea d73c
00000370: 6d41 983d 4053 5dbe 9cdb b73d 7f98 143e
00000380: 716a a7bd 8689 273e 232f c63d 5feb 22be
00000390: 099d 27be c97e 783b 4644 55be 2773 19be
000003a0: 9740 ab3d 0da2 93bd f46c d1bb 993e b3bd
000003b0: 05cf 103e 4b26 373e 889c 203e 8ff5 43be
000003c0: c26d 82bd 4604 d83d 3f01 033e 7c27 4cbd
000003d0: e2fb f43d 0684 bcbb 96bc c63c b3a2 153e
000003e0: 8024 163e c78e 1cbe 8c17 05be 2e62 9e3d
000003f0: da45 043e 78d8 4dbd fb5c 433e 8edf c7bc
0.19625634 0.06876554 -0.09697122 0.054496698 0.011933658 0.18803678 0.088599436 0.18397616
0.015190341 -0.16449092 -0.13763042 0.19623797 0.19467457 0.06635917 -0.15316914 0.15949701
0.09001141 -0.17224066 0.064161934 0.20733684 -0.14179014 0.017444443 0.06279815 -0.07661828
0.14165531 0.19348942 0.2121101 -0.19239551 0.012229865 0.1781489 0.18342331 -0.054602362
0.14441001 0.16064388 -0.014672554 0.14734958 0.12404763 -0.03108353 -0.09006905 -0.11489306
-0.17553222 -0.13058227 0.057744354 0.078626096 -0.060665 -0.016552147 0.15133752 0.03352445
-0.15125582 0.18254511 0.13198228 0.023814812 0.10466111 -0.18202445 0.12841716 0.0535452
-0.020158965 -0.06886536 0.17605664 0.04768263 -0.119755045 0.09586915 0.03730927 -0.07486077
0.15144236 0.21414083 -0.008135704 -0.0882951 -0.11651306 -0.111774094 0.112475954 0.13559823
-0.13196246 0.12027547 0.008204817 -0.008441048 -0.06922377 -0.19799456 -0.18683366 0.15852508
-0.034711167 -0.008302982 -0.13076285 -0.038658198 -0.08517184 0.01846552 -0.2071216 0.020124516
-0.19200987 -0.15473771 -0.005885308 -0.024188727 -0.061763488 0.124485865 0.017004494 0.04425353
0.088197 0.011314229 -0.19201513 -0.081349954 0.13573952 0.12536417 0.07383157 0.19092359
-0.1132378 -0.06565736 -0.031193012 -0.05207979 0.18798704 -0.2148599 0.042306803 0.21394026
-0.120673485 0.17112638 -0.18526477 0.035380416 -0.122126214 0.06944914 0.048751984 0.04861788
-0.047643002 -0.065983556 -0.20860559 0.03691705 0.20772947 -0.16196528 -0.08390379 0.057926014
0.11149844 0.07769647 0.13981174 0.026417186 -0.05352224 -0.17928793 -0.21742864 -0.1659494
0.107699595 0.19352363 0.20733234 0.16338396 0.012498494 0.15037236 0.08378967 -0.14516999
-0.041251633 -0.20185141 0.18689945 0.046201613 0.20016332 -0.025111917 0.17334387 0.10242335
-0.026155088 -0.0060351673 0.15555714 -0.02731022 0.16945103 0.04835071 -0.085508704 -0.09918704
-0.1043965 0.14013413 0.16382828 -0.100608595 -0.19636303 0.12285969 -0.049478043 -0.19768114
0.046592742 -0.02030833 0.15472035 0.04505617 -0.13473448 -0.040611546 -0.15596622 0.100045875
0.06245123 0.12873167 -0.16127305 -0.12018868 -0.1329235 -0.18051195 -0.20305394 -0.17569242
0.15110059 -0.0663319 -0.04129092 0.064214334 0.056649916 0.096406125 -0.15203437 0.19128047
-0.01739548 -0.104168214 0.1406728 -0.17872332 -0.1283215 0.12283786 0.08310018 -0.084693484
-0.018224426 -0.038969837 0.087629065 0.042471234 0.07856337 0.17858486 -0.14989115 -0.16735457
-0.050983783 -0.099267244 -0.1548673 0.20211463 0.18000364 0.17389078 -0.13412298 -0.026522394
-0.1692437 -0.07892477 0.17922844 0.02635703 0.07434354 -0.21613789 0.08977434 0.14511298
-0.08174599 0.16361055 0.09676959 -0.159101 -0.16368498 0.0037917367 -0.20826825 -0.14985333
0.08361929 -0.07208643 -0.006391162 -0.08752174 0.14141472 0.17885701 0.15684712 -0.19136642
-0.06368591 0.1054769 0.12793444 -0.049842343 0.11962105 -0.005753043 0.024259847 0.14612846
0.14662361 -0.1528884 -0.12997264 0.0773357 0.12917271 -0.05025527 0.19078438 -0.024398591

arch.transformer.1.attention.in_proj_bias f4 [96]
00000000: 5b8e aa3a cc06 923a f2ef 65ba 5071 8d3a
00000010: f3d7 8a3a ac1e 8bba 08e5 6aba f855 b739
00000020: 61c6 8dba 9c76 f7b9 9cf5 bbba 3a62 8fba
00000030: faf7 b7ba 0a46 acba 77ef 683a a0d2 9439
00000040: 0b2b 6fba 51d2 0eba ce49 933a 0b4f 3c3a
00000050: 86ba a7b9 1dd4 9d3a a102 39ba c3af 1eba
00000060: 1460 23ba 0029 86b7 8ae5 1db9 3b3c 493a
00000070: 3494 a2ba b318 a6ba 6d5f 883a 6da3 68ba
00000080: e911 2836 5652 5e35 5a36 f9b5 ff48 ddb5
00000090: a9a9 6db5 4319 5135 6a45 ff35 2bc3 3ab5
000000a0: 855e 9f34 045a 3c36 d4b2 94b4 9ce8 2736
000000b0: fc8f bdb4 9dbd d835 a136 a8b6 9f7a 3436
000000c0: 40b5 0536 6040 2c32 d7d2 f3b4 3b23 39b6
000000d0: b72a 5435 48ac e634 0572 1cb6 0fd0 c235
000000e0: 159b e036 e21a 1d36 6f86 8bb4 705c bc36
000000f0: 70fd 1035 c8ad 3ab6 62f0 1a35 7bd7 1336
00000100: 90ea 8fb7 2959 a2ba f6a0 0139 7d5c 20ba
00000110: cb42 91ba 5560 0439 1d0f 8cba c9d8 e8b9
00000120: 2241 c8b9 34b9 2539 b76a 463a 1916 a03a
00000130: 70ab a7b7 dc60 aa3a 2e88 af3a 70cb 7038
00000140: 914a 343a db97 8e3a fadc 99b9 a2b6 a83a
00000150: 8a4d 5639 52f5 a2ba e643 a33a 48c2 92b8
00000160: 54db 9aba 900f 54b7 8bd4 96b9 1aa4 a0ba
00000170: 000e 58b6 66d6 a9ba f6bb a13a 28e7 7039
0.0013012396 0.0011140942 -0.00087714114 0.0010791216 0.0010592922 -0.0010613999 -0.000896052 0.00034968532
-0.0010816568 -0.00047199882 -0.0014340165 -0.0010939308 -0.0014035695 -0.0013143432 0.00088857807 0.00028385688
-0.00091235404 -0.00054482097 0.0011237205 0.0007183409 -0.00031991693 0.0012041364 -0.00070575817 -0.0006053412
-0.00062322733 -1.5993137e-05 -0.00015058197 0.00076765165 -0.0012403787 -0.0012672156 0.0010404416 -0.000887445
2.5044376e-06 8.282126e-07 -1.8567764e-06 -1.6487028e-06 -8.853627e-07 7.789533e-07 1.9019183e-06 -6.9574406e-07
2.968483e-07 2.806658e-06 -2.7697263e-07 2.5020336e-06 -3.5308756e-07 1.6148439e-06 -5.01315e-06 2.6893465e-06
1.9924046e-06 1.0026355e-08 -4.5415683e-07 -2.7587655e-06 7.903831e-07 4.296619e-07 -2.331218e-06 1.4514679e-06
6.693774e-06 2.341047e-06 -2.598858e-07 5.6135978e-06 5.401298e-07 -2.7817314e-06 5.7719274e-07 2.2030133e-06
-1.7156155e-05 -0.0012386191 0.00012362361 -0.00061172975 -0.0011082528 0.00012624387 -0.0010685656 -0.00044412006
-0.000381955 0.0001580462 0.00075690023 0.0012213617 -1.9987783e-05 0.0012998837 0.0013392025 5.7409925e-05
0.00068775663 0.0010878997 -0.00029347074 0.0012871812 0.00020437516 -0.001243273 0.0012456148 -6.99801e-05
-0.0011814632 -1.2639808e-05 -0.00028768586 -0.0012255937 -3.2194657e-06 -0.0012957572 0.0012339342 0.00022974296

arch.transformer.1.attention.out_proj.weight f4 [32, 32]
00000000: 3217 9ebd 6786 a93d f60e 1f3e fd05 c33d
00000010: 9016 14bd 1021 0ebe f9f2 15be 0ea9 2ebd
00000020: 7cb7 66bd 4d56 0abe 9420 2d3d 75f1 8bbd
00000030: 5ff1 523d 5095 bfbd c76f 6dbc dad2 59bd
00000040: 15e4 de3d a16c 24be e33b 91bd 6325 173d
00000050: 24af 51bd e36b 86bb bfeb f43d ea9b d13c
00000060: b92c b13c 382b 563d 5c73 c3bd 5751 92bd
00000070: d615 ae3d 2eb3 d03c 4514 eb3d f7e1 bebc
00000080: 5c52 2b3e 73ea d83d d632 4abd ea2f b9bd
00000090: dc3c 103d 778c 18be de21 a8bd a241 5d3d
000000a0: 2836 723c 6344 a63d 6620 97bd 4b27 193e
000000b0: e6b9 c9bd ff5e b9bd 234c ef3d 66d4 10bd
000000c0: 994c 493d 9ccb 00bd 8a51 fdbd 54a0 dabb
000000d0: 639b a63d 8ea8 f43d 4011 0a3e 1b31 a5bb
000000e0: 5f89 043e dc02 4b3d 4aab b03b 1640 633b
000000f0: f60f 8abc 8f94 4e3d f61e 18bc dddd e53d
00000100: 31c9 dbbc 32a6 c9bd 5d99 563d bf64 cbbd
00000110: e63a e23d 1815 143e c6f3 e63c 4926 12bd
00000120: 75db 02bc bc24 a73d 619e 0bbe e69c 43bd
00000130: 9f1c dcbd b79e 23be ec14 00be 5f8c e8bd
00000140: 72f6 093e 57fe dd3d 1c12 f6bd 6b59 0fbe
00000150: 23d6 203e a7ef 293d b522 a93d 104c e33c
00000160: 157e 87bd 12d9 c2bd c452 c23d 877f 33be
00000170: 906e 16be 66da 5a3d a9f9 3ebd bed5 073d
00000180: 94be c33d 75d3 d1bd 593c cdbd 0bee debd
00000190: b745 1dbe 1907 5bbc 58af 193e ae4f 45bc
000001a0: 6c24 c43d 41f4 b1bd 99ef 9b3c 6931 07be
000001b0: 11fa 56bc daee 223d e2cd 9dbd e2c6 243e
000001c0: 4387 463d 4526 b83d 1897 353e 9a91 9a3d
000001d0: 8c03 4dbc de11 ab3d 8b98 323e 306a 2ebe
000001e0: 5fbf 02bd 0596 af3d f442 34bd 0ea7 12be
000001f0: 42a0 d1bd a728 bcbd b423 933d 74cd e33d
00000200: 8554 9abc bc0c 14be 541d c73c 6e1c 4a3d
00000210: 4f55 86bd 2ab2 733d 29b6 93bd 7504 733d
00000220: 1366 003e ea87 b63d cd39 79bc 6780 2e3e
00000230: dae0 8abc 855c 20be eea4 003e a8f2 263e
00000240: 2255 a23d 092d 203e 7461 c63d 3bdf 943d
00000250: 8a66 d43d 7afc 0bbe f5d9 07bb 16d4 9abd
00000260: 350e 4d3d 9334 20be dc4d 183c 4ae2 8e3d
00000270: 5708 86bd 86f9 91bd beb0 edbd 0af0 413d
00000280: e769 17be 5691 15bd 80e6 323c 7a2b 4d3d
00000290: 28dd 1abe f5bf 103d be58 8bbd 2526 acbc
000002a0: e64c 04be 5124 0fbe 6b42 c93c 356a f33c
000002b0: 6c99 1b3e 7c8f 2a3e 552c 043e 2a02 8c3d
000002c0: 9fef ee3d e3a0 9b3d 2b62 28be 3ea4 033e
000002d0: cc77 ad3c 6b94 36bd cb9d 57bd 12ba 103e
000002e0: 7199 fd3d 22da 81bc 9284 89bd 99b9 c3bd
000002f0: ca86 d13d ba55 dabd a11a f1bd 0c16 dbbd
00000300: 8bf6 4c3d 58b8 0b3e 9339 143d 2411 873d
00000310: 0928 13be 6615 02be cbd5 d3bd e051 e7bd
00000320: 1a5a 9fbd 91b1 ddbd 190a 73bd 8b2b e2bd
00000330: eb7a 5d3d 5d9b 933b 5925 2b3c 5933 9c3d
00000340: 8587 21be 2cc5 90bd 08ae f2bb 20e1 29be
00000350: 7b8d bd3d ef12 07be ca8c f43d 042c 333e
00000360: d146 0f3d f2d1 afbd 3bf8 003e 5071 efbd
00000370: d294 043c 3cf2 e23d 8417 2b3e 0366 6a3c
00000380: 8284 46bc c564 79bc 8f58 30be ad53 003d
00000390: 338c 0ebe faba 6c3c 2433 2cbd 96cb e53d
000003a0: 3f06 93bd 39b4 013e 4869 26bd 2c10 09bd
000003b0: 8238 26be 1c65 1d3e 7f15 633c 9c84 24be
000003c0: d180 0b3c c14f 973d 0c50 13bd e934 143e
000003d0: 46cf b33d 3717 c1bc ce03 353e d4aa 003e
000003e0: 79cc a5bc 7f1c 7cbc 0e7e 593d 2142 79bd
000003f0: 1c57 df3d ac26 2ebe e2cf c4bd 5b24 a33d
-0.07719268 0.08277588 0.15533051 0.095226265 -0.03615433 -0.138798 -0.14643468 -0.042641692
-0.056327328 -0.13509484 0.042267397 -0.06833164 0.05149972 -0.09354651 -0.014491982 -0.0531796
0.10883347 -0.16057064 -0.070915006 0.03690089 -0.051192418 -0.0041022166 0.119590275 0.02558704
0.02162777 0.05228731 -0.095434874 -0.071444206 0.085002586 0.025476065 0.114784755 -0.023301108
0.16730636 0.10591593 -0.049364887 -0.09042342 0.03521429 -0.14897333 -0.08209585 0.05401767
0.01478342 0.081185125 -0.073792264 0.14956395 -0.098499104 -0.09051322 0.11684444 -0.03535881
0.049145315 -0.031444177 -0.12369068 -0.0066719446 0.081351064 0.11946212 0.13483143 -0.005041254
0.12943028 0.049563274 0.005391513 0.003467565 -0.016853314 0.050434645 -0.009284725 0.11223958
-0.026829334 -0.09846152 0.052392352 -0.09931325 0.1104639 0.14461172 0.028192412 -0.035681043
-0.007986893 0.081613034 -0.13634636 -0.047757052 -0.107476465 -0.15978514 -0.12507981 -0.11354899
0.13472918 0.10839527 -0.12015173 -0.13998954 0.15706687 0.041488316 0.08258573 0.02774623
-0.06615845 -0.09514059 0.094884425 -0.17529117 -0.14690614 0.053430937 -0.046624813 0.033162825
0.09557834 -0.1024541 -0.10021276 -0.10885247 -0.15358625 -0.013368391 0.15008295 -0.012042923
0.095772594 -0.08689166 0.019035148 -0.13202442 -0.013121144 0.039778568 -0.07705285 0.16091493
0.04846884 0.08991674 0.17733419 0.075473025 -0.012513053 0.08353017 0.17441003 -0.17032695
-0.031920787 0.08573536 -0.044009164 -0.14321539 -0.10235645 -0.09187441 0.07184544 0.111231714
-0.01883913 -0.14457983 0.024305977 0.04934352 -0.0655924 0.059496082 -0.07212479 0.059330422
0.12538938 0.08912642 -0.015211535 0.17041169 -0.01695292 -0.15660293 0.12562916 0.16303504
0.07926394 0.1564218 0.096865565 0.0726914 0.1037112 -0.13670531 -0.0020729278 -0.075599834
0.050062377 -0.15645055 0.009295907 0.06976755 -0.065445594 -0.07127671 -0.116059765 0.04734806
-0.14786492 -0.036515556 0.010919213 0.05009029 -0.15123427 0.035339314 -0.068040356 -0.021014282
-0.1291996 -0.13978697 0.024567803 0.02971373 0.15195245 0.16656297 0.12907536 0.0683635
0.11666798 0.07599046 -0.16443698 0.12855622 0.021175288 -0.044575136 -0.052640717 0.1413348
0.12382782 -0.015851084 -0.06714739 -0.09556884 0.10230787 -0.10660882 -0.11772657 -0.106975645
0.05003981 0.1364454 0.03618772 0.06595066 -0.14370741 -0.12703475 -0.10343512 -0.11294913
-0.077808574 -0.10824884 -0.0593358 -0.110434614 0.0540723 0.0045046047 0.010445916 0.07626981
-0.15774353 -0.070688576 -0.007406 -0.16589785 0.09255501 -0.13190816 0.11940916 0.1749726
0.034979645 -0.08584966 0.12594692 -0.116915345 0.008092122 0.11081359 0.16708189 0.014306548
-0.012116553 -0.015221779 -0.17221282 0.0313298 -0.1392067 0.014448876 -0.04204096 0.112204716
-0.07178926 0.12666406 -0.040627748 -0.03346269 -0.16232494 0.15370601 0.013860106 -0.16066211
0.008514599 0.07388259 -0.03596501 0.14473309 0.08779769 -0.02357064 0.17677233 0.12565166
-0.020239102 -0.015387653 0.05309873 -0.06085408 0.10905287 -0.1700694 -0.09609963 0.07965919

arch.transformer.1.attention.out_proj.bias f4 [32]
00000000: 8d0a 213a 2056 a3b7 9075 2239 470f 993a
00000010: baed 9d3a b9a0 9439 cc1b 98ba 15d2 9b3a
00000020: 007b 3eba fecc eeb9 0db4 543a 1752 e739
00000030: cbfa 6b39 5c26 9fba d45c 8e3a 47f6 84ba
00000040: 8df5 a3ba ac01 a7ba 9aec b73a 3750 9a3a
00000050: 956e 16ba 7e74 4f39 1337 8fba 1066 ad3a
00000060: 3da6 a13a d266 963a b10d a139 ce5d aeba
00000070: bce0 02b8 2c79 95ba 89c5 50ba e428 a33a
0.0006143235 -1.947122e-05 0.0001549332 0.0011677527 0.0012048997 0.00028348507 -0.0011604964 0.0011888171
-0.0007266253 -0.00045547629 0.0008113988 0.00044120915 0.00022504774 -0.0012142169 0.0010861405 -0.0010144197
-0.0012509093 -0.0012741587 0.0014032305 0.0011773173 -0.0005738524 0.00019784455 -0.0010926448 0.001322927
0.0012332868 0.0011474735 0.00030718514 -0.0013303102 -3.1203715e-05 -0.001140391 -0.00079640053 0.00124481

arch.transformer.1.mlp.0.weight f4 [2, 32]
00000000: 23fb 99bc e802 d83d bb1a c13d f7bd 9d3c
00000010: 2139 903c 701a 233d bbbb 8b3d c205 0f3e
00000020: f106 423d 526f c83d 85c4 fe3d b51e 0dbe
00000030: 4b57 c2bd eab2 c93d a3b7 0b3d 2c6b cfbd
00000040: fee4 513d d7c9 25be b534 85bd 921a b73d
00000050: bfc5 72bb bab6 f1bd 912e b53d 5e8c 4c3c
00000060: 58fe c2bc 7558 2fbe f585 7fbd 9697 a73c
00000070: cbc2 c7bd 3704 fa3c 3cdf febd 0e61 0b3e
00000080: d2c7 0c3e 1e4a d33d 25d8 a4bc df46 34be
00000090: 51e0 8abd 89d3 55bc 9249 26be 7d1b 0e3e
000000a0: 3924 4d3d 1728 083e c303 21be 0846 b7bd
000000b0: 36be 283d deac 2bbb 9e13 d3bd acce 053e
000000c0: f53a 983d a989 fcbb cd4b 2b3e 2cc9 31be
000000d0: d8f5 25be 901b 0b3d 9df4 223e e87d cc3d
000000e0: 013e cabd acac 013e 1603 bf3d 223a 2f3c
000000f0: 57a2 e43d d2fc 0a3d be90 f5b9 c842 49bd
-0.01879651 0.10547429 0.094289266 0.019255621 0.017605366 0.039820135 0.06822916 0.1396704
0.0473699 0.09786858 0.12439827 -0.13781245 -0.09489306 0.09848578 0.034110676 -0.10127863
0.051243775 -0.16190277 -0.06504194 0.08940615 -0.0037044135 -0.118024305 0.088467725 0.012484638
-0.023802921 -0.17123587 -0.06238361 0.020458024 -0.09753951 0.030519588 -0.12444922 0.13611242
0.137481 0.10316871 -0.020122597 -0.1760516 -0.06781066 -0.013050922 -0.16239002 0.13877673
0.050083373 0.13296543 -0.15724091 -0.08948904 0.041197024 -0.0026195566 -0.10306476 0.1306712
0.0743312 -0.00770684 0.16728134 -0.17361897 -0.16207063 0.033961833 0.15913625 0.09984952
-0.098751076 0.12663525 0.093267605 0.010695012 0.11163776 0.033932514 -0.00046837883 -0.049135953

arch.transformer.1.mlp.0.bias f4 [2]
00000000: 2404 bebd 213c e4bd
-0.092781335 -0.11144281

arch.transformer.1.mlp.3.weight f4 [32, 2]
00000000: d49f bcbd 464c f7be ce12 993e 944d 4c3e
00000010: f38b 30bf 3517 05bf 3b9e 013f fe42 bdbe
00000020: 0ae2 c3bb ee40 e7be 7060 1ebe 0fa8 b23e
00000030: e3a2 373e f2c0 b13e bf7c 24bd 3425 10bf
00000040: 0e12 16bc c231 d63e 4d1e 293e 5e4b 153e
00000050: e9d3 0e3e 3fb6 143f 46d8 b63e 7e27 ecbd
00000060: 9004 c4be 2d63 133f ceef bcbe 6ba3 f2be
00000070: 4dc4 623e 92be e6be 8274 1cbf 5dd6 12bf
00000080: 5d56 313e be1e e4be 41fa 1f3f 9f80 f0bc
00000090: d804 99be 3a53 ddbe dfcb 57be 2732 1e3f
000000a0: 9b68 e7be 4bc9 27bf c252 573e a3d7 753e
000000b0: 9434 19bf 5074 a2be a82a 1d3f 8b73 aabe
000000c0: 90c6 973e e41c adbe 2775 1fbf 1758 2ebf
000000d0: e728 0a3f 5c44 5e3e b591 4c3e c7e4 773e
000000e0: 4aa4 8b3e 05f6 ee3e bc8c 0a3f fb4d 0b3f
000000f0: 85d7 673e 6e89 003e 56ab 1a3e 834a 12bf
-0.09210172 -0.4830038 0.2989716 0.19951469 -0.68963546 -0.51988536 0.50632066 -0.36965173
-0.0059778737 -0.45166725 -0.15466475 0.34893844 0.1793323 0.34717518 -0.04015803 -0.5630677
-0.009159578 0.41834837 0.16515465 0.14579532 0.13948025 0.58090585 0.3571188 -0.1153097
-0.3828473 0.57573205 -0.36901706 -0.47390303 0.22145195 -0.4506727 -0.61115277 -0.5735834
0.17318101 -0.44554704 0.6249123 -0.029358206 -0.29886508 -0.4322756 -0.21073864 0.61795276
-0.45196995 -0.65541524 0.21027663 0.2400804 -0.5984585 -0.31729364 0.61393213 -0.33291277
0.2964368 -0.33811104 -0.62288135 -0.68103164 0.5396866 0.21705765 0.19977458 0.24208365
0.2727378 0.46672073 0.54120994 0.54415864 0.22640808 0.12552425 0.15104422 -0.57144946

arch.transformer.1.mlp.3.bias f4 [32]
00000000: b0d3 a13e 887a 323e 5b6e 9d3e d75f 31be
00000010: 9dad 163f fc52 ae3d 04c8 2bbe 4f99 a2bc
00000020: 59d6 90be 1f79 d5bd cbc2 193f 1c95 703e
00000030: 6b62 a1bd c864 d03c 9739 263e 5165 d1be
00000040: b63d c7be 984d 1f3f e43a ac3b 54ec 583e
00000050: 2cfc a6be a9fd 04bf 16a6 0f3e aa45 c43e
00000060: 7437 2abf a9ff 32bf 8718 71be 5873 e93e
00000070: 13c3 21bf 6492 103f 517e 233f 8411 21be
0.31606817 0.17429554 0.30748257 -0.17321716 0.5885866 0.08511922 -0.16775519 -0.019848494
-0.28288534 -0.10423493 0.60062855 0.2349438 -0.078801 0.025438681 0.16232906 -0.4089761
-0.3891427 0.62227774 0.0052560437 0.21183902 -0.32614267 -0.51949555 0.140282 0.383344
-0.66490865 -0.69921356 -0.23544513 0.45595813 -0.63188285 0.56473374 0.6386462 -0.15729338

arch.transformer.1.layernorm0.weight f4 [32]
00000000: ad02 803f 8906 803f 731a 803f 80f2 7f3f
00000010: ffb6 7f3f 9324 803f 4700 803f 2014 803f
00000020: 3e12 803f 45ad 7f3f 4c25 803f af2a 803f
00000030: 93fa 7f3f 2105 803f 1b18 803f 5bdc 7f3f
00000040: 552e 803f 5ffe 7f3f 892a 803f 0d30 803f
00000050: ded4 7f3f a703 803f 18b7 7f3f 172e 803f
00000060: 202e 803f 7004 803f ba2b 803f 13a6 7f3f
00000070: 85eb 7f3f a8b0 7f3f f8c8 7f3f 4cef 7f3f
1.0000817 1.0001994 1.0008072 0.999794 0.99888605 1.0011162 1.0000085 1.0006142
1.0005567 0.99873763 1.0011382 1.0013026 0.9999172 1.0001565 1.0007356 0.9994561
1.001414 0.99997514 1.0012981 1.0014664 0.99934185 1.0001115 0.99888754 1.0014066
1.0014076 1.0001354 1.0013344 0.99862784 0.9996875 0.9987893 0.9991603 0.99974513

arch.transformer.1.layernorm0.bias f4 [32]
00000000: c81b 083a 78da aeb8 707c 1339 cca5 9b3a
00000010: a6c6 9d3a 46d0 5539 a07c 48b9 561a 4439
00000020: fdfe 3bba ec74 c3b9 19c8 413a 2167 db39
00000030: 9c81 8439 2ebd a6ba 87eb 7e3a 65f5 8eba
00000040: 46ed b4ba 88a2 afba 146b ba3a 4e64 a93a
00000050: bc94 26ba 1d37 5d39 4015 4336 cc7e b63a
00000060: b674 a53a 607d 2f39 2081 3439 123e adba
00000070: 8cae c4b8 f1be 9eba fb5f 5cba 9d19 b83a
0.0005192128 -8.3376595e-05 0.00014065369 0.0011874973 0.0012037351 0.00020390851 -0.00019119913 0.00018701828
-0.000717148 -0.00037280412 0.00073921826 0.00041847772 0.00025273568 -0.0012721175 0.00097244274 -0.0010906874
-0.0013803623 -0.0013399879 0.0014222586 0.001292357 -0.00063545606 0.00021096734 2.9069633e-06 0.0013923286
0.0012623284 0.00016736006 0.0001721424 -0.0013217351 -9.37852e-05 -0.0012111348 -0.0008406636 0.0014045719

arch.transformer.1.layernorm1.weight f4 [32]
00000000: c902 803f f80c 803f 1b1c 803f 09a9 7f3f
00000010: d7c9 7f3f a326 803f 0704 803f d20e 803f
00000020: dc10 803f 15b0 7f3f 7417 803f 892e 803f
00000030: cbf4 7f3f 9605 803f bbe4 7f3f fc0d 803f
00000040: 232f 803f dbf2 7f3f 8629 803f d92e 803f
00000050: e90f 803f 9ec0 7f3f b0b4 7f3f 2a2f 803f
00000060: 83b6 7f3f f903 803f 56ef 7f3f 1fa8 7f3f
00000070: 5803 803f 44af 7f3f 25ce 7f3f bddb 7f3f
1.000085 1.0003958 1.0008577 0.998673 0.9991736 1.0011791 1.0001229 1.0004523
1.0005145 0.99878055 1.0007157 1.0014201 0.999829 1.0001705 0.9995839 1.0004268
1.0014385 0.99979943 1.0012672 1.0014297 1.0004855 0.99903286 0.9988508 1.0014393
0.99887866 1.0001212 0.9997457 0.9986591 1.000102 0.9987681 0.99923927 0.9994467

arch.transformer.1.layernorm1.bias f4 [32]
00000000: 7d1f 4a3a 28da 80b8 3ec2 0339 dea6 a93a
00000010: cf33 a43a a2ab 6639 3638 17b9 5ec8 2e39
00000020: a809 2cba 8183 9bb9 b40e fd39 6c0e d639
00000030: b0d8 9a39 6dfa a7ba f70c 4d3a d435 6fba
00000040: 800a b1ba 6c66 a6ba c737 b83a bc3b ba3a
00000050: 24ad 40ba f8c3 8539 40bf 0a37 cb36 b93a
00000060: 44f4 913a fa38 4039 22cc c139 2088 abba
00000070: 1cf0 49b8 0a90 9fba f211 54ba 10dd ba3a
0.00077103806 -6.1441504e-05 0.00012565494 0.0012943407 0.0012527647 0.00021998447 -0.00014421422 0.00016668576
-0.0006562718 -0.00029661882 0.00048266875 0.00040828006 0.00029534614 -0.0012815722 0.00078220613 -0.00091251475
-0.0013507158 -0.0012695319 0.0014054709 0.0014208476 -0.0007350019 0.00025513745 8.26997e-06 0.001413071
0.0011135419 0.00018331772 0.0003696392 -0.0013086833 -4.8145754e-05 -0.0012173664 -0.0008089832 0.0014256556

arch.transformer.2.attention.in_proj_weight f4 [96, 32]
00000000: 3dbc 423e 65c5 08be 40c1 403e c1af 233c
00000010: 5274 533e e56c babd fb25 073e d484 f5bd
00000020: ef52 36be 842b 203e 6dfe 9a3d 5c14 5a3e
00000030: b124 b33d 427d bbbd 2f01 05be 034d 353e
00000040: 236a 30bd b172 03be a04b 23be f828 14be
00000050: 7607 bcbd af94 33be 3d0b 543e e178 d13c
00000060: d6a5 903d fb84 dabd 2c4c f73b 6bbf 173e
00000070: a0d5 98bd 9159 333e 758c 88bd 75e8 a3bd
00000080: 4f39 23be b7f5 5abe 5b1a c23d d725 0ebe
00000090: 1b3d f5bd a55c b8bd 0443 28be 314e 29be
000000a0: b9e2 0fbe 8def 583e fc39 3f3c f846 a7bd
000000b0: f8f2 89bc abde 393e a6e8 ffbd 675a b53d
000000c0: 4f01 22bd a02e 3dbe 379a 113e 7155 cb3d
000000d0: 8be3 233e 8e50 cb3d 5201 153d b92f 863d
000000e0: 2568 24be 68c8 553e 2a15 0fbe 0177 1b3e
000000f0: 3610 0bbe 7f28 21be aa7e b43d 9a37 113e
00000100: 8b55 72bd 99be 7b3d 59aa 40be 9ce0 c2bc
00000110: 1f3a 423e 49a7 4d3e af9d 8abd d0fd a43d
00000120: 0b12 4d3e 9214 a63d 7cca 1f3d 23bd 32be
00000130: 92de 7e3d 96cb 6c3d f698 f8bd 1514 de3d
00000140: 6156 10be 52ed 533e 6b9c 3abc bbb2 163e
00000150: 0579 66bd 4bda debd b338 223e 7aea 053e
00000160: 558d 5a3e b025 853d b304 bdbd 06e2 02be
00000170: 337c 52be c317 5a3c 0783 533e df43 90bd
00000180: 5c64 25bd 970f 1d3e 0f8d 443e 2169 713d
00000190: e983 8b3c c9bb 593e 79df 393e 1df6 0cbe
000001a0: 334e 19be 4592 4fbd 2785 ad3d 6740 06be
000001b0: 6c1c bbbd 6aba 9e3c 148f 5abd 9a1c 163e
000001c0: adcb 0d3e f0a0 183e ed44 e93d 6575 01be
000001d0: 16bb 2abe 84ba 14be 5122 e0bc c810 2d3e
000001e0: 3d09 46bd 2e7c 4a3e 4bbd 263e 173c 53be
000001f0: da58 cc3d 8b21 bdbd dee0 54be 60ee 9a3d
00000200: 4338 98bd 1679 43be c73c 1dbe 8e33 233e
00000210: 385e 57bd b492 2d3e 9398 97bd ea02 593e
00000220: ae06 5cbd 82bc 523e 1eac aa3d 199d 25be
00000230: e658 c33d 0fcc ba3d 177d 39be 7c64 3fbe
00000240: 10ca 593c 7a99 ef3d e62d 3c3e 533a 77bd
00000250: bc77 4fbe 5d19 c93d e465 833c b61c a73b
00000260: 054b 0c3e ddfa ca3c 1e20 403e e5bf 293e
00000270: e820 653d ee09 253e 9c16 8d3d ac39 53be
00000280: 0392 453e 06ef 013c 167b e1bc ae93 353e
00000290: 2d0d 403e 5aef 30be 7cda ae3d 3e01 f1bd
000002a0: a439 5ebd f34f 423d 9808 a7bd 0f92 bbbd
000002b0: 30c3 dc3d b790 59bd 78b7 a93d 87b3 533e
000002c0: 9a62 533d 708d 523d 0e46 433e aeaa a4bd
000002d0: eb85 653a 10f9 4cbe bd33 bbbd 7ef0 94bc
000002e0: 9710 493e e6c1 fa3d 821e 2abd d20e 6fbd
000002f0: b729 5e3d 4eef bebd ebc4 00bd 8703 6b3d
00000300: 116c 89bd 6b2e 213e 9d3a ae3d b4b2 bbbc
00000310: c43d 17bd 1849 b13c d6cf e63d 5305 753d
00000320: 0b64 74bd 4eef 973d 1f4c 0bbc 7273 20be
00000330: 7e04 30be bc3d 813a 57f2 3e3e daf1 adbd
00000340: 6581 0a3e 75ec 81bd 9f6e 053e 8186 43bd
00000350: 06b8 b9bd 582b 813d 4aab e93d b234 28be
00000360: 1c0a 88bc 237a 3a3d 9364 223d 82e2 583e
00000370: 8c54 43be bbde 3d3e 9511 e73d e71e 51be
00000380: 72f6 acbd 51a6 9b3d 1684 27be e3be 4f3e
00000390: 8c88 a9bd ce72 a73d 69c2 293d a4ff aabd
000003a0: 840c 50be 7f36 8c3c b5d6 35be b31a 42bd
000003b0: 7501 3b3d bb25 9dbd 4ee9 fe3d 852f 48be
000003c0: bfd9 2ebe 08b6 eb3d 0801 e8bd 3112 373e
000003d0: 91ff 36bd bd27 1ebd 1c6a 543e 320c c9bc
000003e0: 1953 31be a1a1 b8bd 32f5 873d 3692 163e
000003f0: a90f 3a3e 1b01 a1bd cfe0 063d 419b 213e
0.1901712 -0.1335655 0.18823719 0.009990633 0.20649841 -0.09102801 0.13198082 -0.119882256
-0.17805074 0.156416 0.07568059 0.21296829 0.08747233 -0.091547504 -0.12988733 0.17705159
-0.04306997 -0.1283672 -0.15946817 -0.14468753 -0.091811106 -0.17537187 0.20707412 0.025570335
0.07062881 -0.10669895 0.007546922 0.14819114 -0.07462621 0.17514636 -0.06667415 -0.08003322
-0.1593983 -0.21382795 0.09477683 -0.13881622 -0.119745456 -0.090020455 -0.16431814 -0.16533734
-0.14051332 0.21185131 0.011671539 -0.08167833 -0.01683949 0.18151347 -0.12495546 0.088551335
-0.03955203 -0.18474817 0.14218985 0.09928406 0.1600477 0.09927474 0.036378212 0.06552071
-0.16055353 0.2087723 -0.13972917 0.15182115 -0.13580403 -0.15738104 0.08813222 0.14181367
-0.05916361 0.061461065 -0.18814982 -0.023788743 0.18967484 0.20083345 -0.06768357 0.080562234
0.20026414 0.08109392 0.039011464 -0.17454962 0.06222398 0.057811342 -0.1213855 0.10843674
-0.14095451 0.20696 -0.011389832 0.14716618 -0.056267757 -0.1088148 0.15841942 0.13077727
0.21342976 0.06501329 -0.09229412 -0.12781534 -0.2055519 0.013311329 0.20655452 -0.070441954
-0.040378913 0.15337978 0.19194435 0.05893815 0.017030673 0.2126304 0.18151654 -0.1376576
-0.14971237 -0.050676603 0.084726624 -0.13110505 -0.091362804 0.019375999 -0.053359106 0.14659348
0.13847227 0.14905143 0.113901 -0.12642439 -0.1667293 -0.14524275 -0.027360113 0.16900933
-0.048348654 0.19773933 0.16283147 -0.20628391 0.099778846 -0.092349134 -0.20788905 0.07564998
-0.07432606 -0.1908916 -0.15355216 0.15937635 -0.05258009 0.16950494 -0.07402148 0.21192518
-0.053717308 0.20579723 0.0833361 -0.16173209 0.095384404 0.09120952 -0.18114124 -0.18690675
0.013292804 0.11699195 0.18376884 -0.060358357 -0.20260519 0.09819291 0.016039796 0.005099858
0.13700493 0.024777824 0.18762252 0.16577108 0.055939585 0.16117069 0.06889078 -0.20627469
0.1929398 0.007930523 -0.027524512 0.17732117 0.18755026 -0.17278805 0.08537766 -0.11767815
-0.05425419 0.047439527 -0.08155936 -0.09158718 0.107794166 -0.053116526 0.08286947 0.20673953
0.051607706 0.051404417 0.19069692 -0.08040367 0.0008755612 -0.20016885 -0.09140728 -0.018181082
0.19635235 0.122440144 -0.041533 -0.058363743 0.054239 -0.093229875 -0.031437796 0.05737641
-0.06710065 0.15740363 0.08507273 -0.02291236 -0.03692414 0.0216413 0.1127011 0.05981953
-0.05966572 0.074186906 -0.008502035 -0.15669039 -0.17189214 0.0009860317 0.18647133 -0.08493395
0.13525923 -0.06343929 0.1303048 -0.047735695 -0.09068303 0.06307095 0.11409624 -0.16426352
-0.016606383 0.045526635 0.039646696 0.21180156 -0.19075221 0.18541996 0.112826504 -0.20421945
-0.08445443 0.07600082 -0.1635898 0.20287661 -0.082779974 0.08176194 0.04144517 -0.08349541
-0.20317274 0.01711583 -0.17757685 -0.047388744 0.045655686 -0.07673212 0.12446843 -0.19549377
-0.17075251 0.11509329 -0.11328322 0.17878033 -0.04467732 -0.038612116 0.20743603 -0.024541948
-0.17316855 -0.09015203 0.06638564 0.14704213 0.18170036 -0.07861539 0.032929238 0.15781881

arch.transformer.2.attention.in_proj_bias f4 [96]
00000000: 80ac 0f3a b3e9 84ba 1fd3 28ba 321f 98ba
00000010: fcd1 a6b9 38f1 c439 06a4 403a eb48 353a
00000020: ee3c 0db9 f19e c6b9 5177 963a e2d0 59ba
00000030: c8fc b33a 0f0c 903a 5db5 70ba 7e0a 7c3a
00000040: bec2 7839 625a 4039 975b 8fb9 408d 263a
00000050: f533 a539 f6aa 3aba d0d2 f7b9 fd60 373a
00000060: e40f ddb9 a858 9a3a 38d0 9bba e800 b23a
00000070: 8aaf 273a a5f1 6aba 9390 8439 ba70 c33a
00000080: d33d 6435 7546 d3b5 3e82 35b5 9edf 36b6
00000090: 066d ef35 4d79 0836 e02b dfb3 1eb2 9235
000000a0: dae8 c5b5 1f56 9835 d93e 7d34 04c5 bd35
000000b0: 4a5b 09b5 3d33 0d35 7db7 fc33 da75 0335
000000c0: 3553 0ab5 a839 3b35 745a 9235 464b 48b3
000000d0: dcb1 60b4 437c a235 f52b ccb4 80ee 0b36
000000e0: b2d8 b233 8f96 0a36 4b06 1cb6 ca36 d835
000000f0: 4674 b035 ce80 6235 a865 c5b4 fb58 1935
00000100: 7069 beb9 be15 8d39 b6b4 9c3a 9eed 36b9
00000110: b2b5 12b9 6da2 2a39 2ca3 fcb8 80f4 6337
00000120: c4e8 363a 9b55 4239 2a2b 703a f69d 0bb9
00000130: e28a a1ba b82d e539 9032 b53a 6cea b43a
00000140: f71e 7f3a 05a9 8dba 7a07 b23a 9888 0ab8
00000150: b2b9 b8ba 8051 baba 3a0f af39 98ca 8039
00000160: 20fb bfba d140 40b9 daa8 a43a 8054 60b7
00000170: 8eed 0a39 f760 3b39 f1c8 323a 2faa e239
0.00054807216 -0.0010140449 -0.0006440151 -0.0011605977 -0.00031818438 0.00037563755 0.000734866 0.00069154677
-0.00013469506 -0.00037883924 0.0011479651 -0.0008309019 0.0013731951 0.0010989922 -0.00091822987 0.00096146006
0.0002372367 0.00018344217 -0.00027343325 0.00063534454 0.00031509963 -0.0007120812 -0.0004726858 0.00069953484
-0.00042164244 0.0011775689 -0.0011887616 0.0013580592 0.0006396702 -0.00089623994 0.00025284718 0.0014910914
8.5026585e-07 -1.5741231e-06 -6.761728e-07 -2.7250276e-06 1.7838618e-06 2.0336186e-06 -1.03922275e-07 1.0929687e-06
-1.4745412e-06 1.1349947e-06 2.3585325e-07 1.4138936e-06 -5.116932e-07 5.2601155e-07 1.1768041e-07 4.89728e-07
-5.153009e-07 6.974683e-07 1.0904173e-06 -4.663459e-08 -2.092633e-07 1.2106105e-06 -3.8029944e-07 2.085144e-06
8.3281876e-08 2.065124e-06 -2.3249474e-06 1.61092e-06 1.3146862e-06 8.4378996e-07 -3.6768074e-07 5.7126425e-07
-0.0003631818 0.00026909815 0.0011955712 -0.00017445392 -0.00013991332 0.00016272972 -0.000120466895 1.35871815e-05
0.0006977434 0.00018533172 0.00091617054 -0.00013314918 -0.0012324715 0.00043712347 0.0013824273 0.0013802773
0.0009732092 -0.0010807818 0.001358255 -3.3028977e-05 -0.0014093427 -0.0014214963 0.00033389946 0.00024565007
-0.0014646985 -0.00018334693 0.0012562529 -1.3371115e-05 0.00013249202 0.00017869832 0.0006820104 0.00043232876
