checkpoints/EEGClassificationModel-epoch=02-val_acc=0.59.ckpt (torch, 259231 bytes, 103 tensors)

arch.conv.0.weight f4 [16, 16, 11]
0	0x3b3df357	0.0028984153
1	0x3b8e0401	0.0043339734
2	0xb9e5c53a	-0.0004382523
3	0x3bd44248	0.006477628
4	0x3906c3ec	0.00012852222
5	0x3a6395ed	0.00086817035
6	0x3a83ebcd	0.0010064781
7	0x3add87e5	0.0016901462
8	0x3bc0655d	0.0058714584
9	0xbae41bf6	-0.0017403353
10	0x3ba73833	0.005103135
11	0xb9ebc5be	-0.00044970022
12	0x3d01a62b	0.03165261
13	0xbba839c3	-0.005133839
14	0x3c837c0d	0.016050363
15	0xbcc3d060	-0.023903072
16	0x3d0c6435	0.034275252
17	0xbab10bf9	-0.0013507596
18	0xbd29da98	-0.041468233
19	0xb9d7c6dd	-0.0004115616
20	0xbd384c87	-0.044994857
21	0xbcc84430	-0.024446577
22	0xbd04c36e	-0.03241294
23	0x3d11b0ca	0.03556899
24	0xbd76e8d9	-0.060280655
25	0xbd23ca65	-0.03998794
26	0xbce45156	-0.027870815
27	0xbd34b0c1	-0.04411388
28	0x3b693ab1	0.0035587961
29	0xbd914568	-0.07093316
30	0x3d4777ba	0.048698165
31	0xbd8ae6e5	-0.06782321
32	0x3d137d20	0.036008
33	0x3c831268	0.015999988
34	0xbc94748e	-0.018121984
35	0x3d254d84	0.040357128
36	0x3c1ec237	0.009689859
37	0x3d5c578a	0.05379442
38	0x3c613fcf	0.013748123
39	0xbc5f9ac1	-0.013647736
40	0x3cba1a7d	0.022717709
41	0xbc7e05da	-0.015504325
42	0x3ccc943d	0.02497303
43	0x3d583687	0.052786376
44	0x3d53e4a1	0.05173171
45	0xbc0a29a6	-0.008432781
46	0x3d49350e	0.049122863
47	0x3cd09e91	0.025466235
48	0x3d3d0b24	0.046153203
49	0xbc9dfde0	-0.019286096
50	0xbd304f35	-0.043044288
51	0xbbab1088	-0.0052204765
52	0xbcdad0f7	-0.02671097
53	0x3d7e9bad	0.062160183
54	0x3cfec24f	0.031098513
55	0x3cf273ed	0.029596293
56	0x3cf2fd0a	0.029661674
57	0x3c6c0745	0.01440603
58	0x3d5c388e	0.053764872
59	0xbcc406a7	-0.023928953
60	0x3c37d0aa	0.011219183
61	0xbd047cab	-0.032345455
62	0x3cceefbc	0.025260799
63	0xb9c541e1	-0.00037623852
64	0x3d03d2c5	0.032183427
65	0x3b76813e	0.0037613655
66	0x3d22db69	0.039760027
67	0xbd314516	-0.043278776
68	0xbd24d077	-0.04023787
69	0xbd1f01dd	-0.038820136
70	0x3d399f0c	0.045317695
71	0x3c1a55e0	0.009419888
72	0x3d41bea8	0.047300965
73	0xbd6c005f	-0.05761754
74	0xbd834132	-0.064089194
75	0xbd4dbdac	-0.050229713
76	0xbd3133c9	-0.043262277
77	0x3bd1d576	0.0064036204
78	0x3b835aa7	0.0040086093
79	0x3d0aba7b	0.033869248
80	0xbd2123d8	-0.039340824
81	0xbd514c47	-0.051098134
82	0x3c80c8ea	0.015720803
83	0xbd16be87	-0.036802795
84	0x3cb1ec65	0.021719167
85	0xbceb0313	-0.02868799
86	0x3c8fa365	0.017533967
87	0xbd67d911	-0.056603495
88	0xbd041bdd	-0.032253135
89	0x3c096096	0.008384844
90	0x3b8ecfb2	0.0043582553
91	0xbc97838c	-0.018495344
92	0x3cd9bb20	0.026578486
93	0x3cf1e970	0.029530257
94	0xbd2c2268	-0.042025
95	0xbd07282c	-0.032997295
96	0x3d1d7aef	0.038447317
97	0xbce90c07	-0.028448118
98	0xbce4b727	-0.027919365
99	0xbd615d7b	-0.05502079
100	0xbd01a74d	-0.03165369
101	0x3c8c693f	0.017140029
102	0xbbd05f94	-0.00635905
103	0xbd2d1b47	-0.04226234
104	0x3ade621e	0.0016966497
105	0xbd234c7d	-0.039867867
106	0xbd4b3f02	-0.049620636
107	0xbd03aad0	-0.03214532
108	0xbd50eea9	-0.051008854
109	0xbd154107	-0.036438968
110	0x3d80945d	0.06278298
111	0x3c8e2d87	0.017355694
112	0x3cba151a	0.02271514
113	0xbd449e1a	-0.04800234
114	0xbd0349d3	-0.032052826
115	0xbc7f0fcf	-0.015567734
116	0x3c2b1d0f	0.01044394
117	0xbd4107f7	-0.047126736
118	0xbc943c9c	-0.018095307
119	0xbccfbe7e	-0.025359388
120	0x3c0fdeea	0.008781174
121	0xbc5c94af	-0.013463183
122	0x3b4e553d	0.0031483911
123	0xbceec778	-0.029147848
124	0xbcfe7c97	-0.031065268
125	0xbcc4a737	-0.024005516
126	0xbc2a3eff	-0.010390996
127	0xbd0c9b28	-0.034327656
128	0x3d451d75	0.048123796
129	0x3ada415a	0.0016651556
130	0x3d69052f	0.05688971
131	0x3cf44c37	0.029821498
132	0xbd386f4c	-0.045028016
133	0x3d358b09	0.044322047
134	0xbc4eef3c	-0.01263028
135	0xbc9d4104	-0.01919604
136	0xbd317f46	-0.043334268
137	0xbd5029dc	-0.05082117
138	0x3cbd74dd	0.023127014
139	0xbbcf161f	-0.0063197757
140	0x3cefd8bf	0.029278157
141	0xbd1cbcf3	-0.038266134
142	0x3d4bd847	0.049766805
143	0xbd174d1d	-0.036938775
144	0xbbb525e7	-0.0055282
145	0x3c6a4356	0.014298281
146	0x3cfa1be8	0.030530885
147	0x3d461cd4	0.048367336
148	0x3d66519d	0.056230176
149	0xbd2751b3	-0.0408494
150	0x3c878e4b	0.016547343
151	0xbcafeed2	-0.021476183
152	0xbb835987	-0.004008475
153	0xbd21439b	-0.039371114
154	0x3d4b9385	0.049701232
155	0xbd0dd744	-0.03462912
156	0x3ce244c9	0.02762069
157	0x3c8eadde	0.01741689
158	0x3c89e461	0.016832532
159	0xbcdad4d6	-0.026712816
160	0x3d429af1	0.047511045
161	0x3c1d14b8	0.009587459
162	0x3b8ee172	0.0043603713
163	0xbd42aae7	-0.047526266
164	0x3c8d1df3	0.017226195
165	0xba6b872f	-0.00089846825
166	0xbc239074	-0.009983171
167	0x3cb717ff	0.02235031
168	0x3b84de20	0.0040547997
169	0xbc3aa67c	-0.011392232
170	0xbc1d32c8	-0.009594627
171	0x3b8bd263	0.0042670234
172	0x3c9a11e7	0.018807365
173	0xbb8dbb12	-0.004325279
174	0xbc512612	-0.012765424
175	0xbbfb5879	-0.007670459
176	0xbb2d1524	-0.0026410306
177	0x39ccf35e	0.00039091235
178	0x3b716c88	0.0036838371
179	0xbbd5fb05	-0.006530168
180	0x3a71bc0e	0.0009221443
181	0x3a7f2e7b	0.0009734404
182	0x3a8477cd	0.0010106504
183	0x3a71a612	0.0009218167
184	0x3a748592	0.0009327765
185	0x3a3e738b	0.0007265142
186	0x39b61668	0.0003473044
187	0xbb555fa7	-0.0032558234
188	0xbbfff1c5	-0.0078108036
189	0x3c7cf6c1	0.01543969
190	0xbb171db8	-0.0023058485
191	0xbc3b5d9d	-0.011435893
192	0x3d291725	0.041281838
193	0x3d5e6a33	0.0543005
194	0x3a948e3c	0.0011333893
195	0xbba71dd9	-0.0050999937
196	0x3c0d8630	0.00863795
197	0x3b4f2bc9	0.0031611791
198	0x3cc274cc	0.023737334
199	0x3cd784f1	0.026308509
200	0xbd48e428	-0.04904571
201	0xbc6d37ad	-0.014478606
202	0x3d810ddf	0.06301474
203	0x3d08e401	0.033420566
204	0x3ba86839	0.0051393774
205	0xbcf5735e	-0.029962238
206	0xbcf5d7fe	-0.03001022
207	0xbd43262f	-0.047643837
208	0xbc37fb2f	-0.01122932
209	0x3cf87e16	0.03033356
210	0x3d4a4a4f	0.049387272
211	0x3d1e5b22	0.03866113
212	0xbd46a0ca	-0.048493184
213	0xbcea3ae2	-0.02859253
214	0x38e2e524	0.000108192005
215	0x3d91d553	0.071207665
216	0x3c974798	0.018466756
217	0xbbeb390f	-0.007178433
218	0x3d16c4e1	0.036808852
219	0xbc56973e	-0.013097582
220	0xbd06f464	-0.032947913
221	0x3d419211	0.04725844
222	0xbcbd7c69	-0.023130612
223	0xbbbfeeea	-0.005857338
224	0xbd4f9c45	-0.05068614
225	0x3d3b44cb	0.045719903
226	0x3d4ee000	0.05050659
227	0x3ce0a102	0.027420525
228	0xbd0d8bb3	-0.034557056
229	0xbd4f39b1	-0.05059213
230	0xbd20111f	-0.039078828
231	0x3cf857f4	0.030315377
232	0x3c886939	0.016651737
233	0x3d0aeb5d	0.033915866
234	0x3ca5e2bb	0.020249715
235	0x3beba92d	0.007191798
236	0xbb94b0d3	-0.0045376807
237	0xbd193f46	-0.037413858
238	0xbd2d7294	-0.0423456
239	0xbd49b964	-0.049249068
240	0x3c81d0ae	0.015846577
241	0xbcd731bf	-0.026268838
242	0xbc7a86bc	-0.015290912
243	0xbd121db1	-0.035672847
244	0xbc67bf23	-0.014144692
245	0xbd329182	-0.0435958
246	0xbd2be4e2	-0.041966327
247	0x3c4f3687	0.012647278
248	0xbca504dc	-0.020143919
249	0x3cf19bd6	0.029493254
250	0xbcb265ce	-0.02177706
251	0xbd3367cb	-0.043800157
252	0xbc77bc14	-0.015120525
253	0xbcdc03f7	-0.02685736
254	0xbc8849d4	-0.016636766
255	0xbd4f0c4f	-0.050548848

arch.conv.1.weight f4 [16]
0	0x3f654d27	0.8957085
1	0x3f6505b1	0.8946181
2	0x3f655082	0.8957597
3	0x3f6654ad	0.89972955
4	0x3f64d7e0	0.893919
5	0x3f65299d	0.8951662
6	0x3f650ed2	0.8947574
7	0x3f64b43d	0.8933752
8	0x3f65d06a	0.8977114
9	0x3f64ff3b	0.8945195
10	0x3f65738f	0.89629453
11	0x3f64c6fa	0.89366114
12	0x3f6595e1	0.8968182
13	0x3f651428	0.8948388
14	0x3f64af43	0.8932993
15	0x3f64c11b	0.89357156

arch.conv.1.bias f4 [16]
0	0x3c850d23	0.016241616
1	0xbc4b4b55	-0.012408097
2	0x3c3d5f94	0.011558432
3	0x3c7b4c7c	0.0153380595
4	0x3c7a21bb	0.015266831
5	0xb8c7084a	-9.4906034e-05
6	0xb9b4fab6	-0.0003451907
7	0xbc2ba35a	-0.010475958
8	0x3ca633ef	0.020288436
9	0x3c687f62	0.014190527
10	0xbb99f2aa	-0.0046981173
11	0xbb86273e	-0.0040940335
12	0x38e3e018	0.00010865944
13	0x3cd76e0c	0.026297592
14	0x3c48129b	0.012211467
15	0xbc26e54b	-0.010186504

arch.conv.1.running_mean f4 [16]
0	0xbe14ffd5	-0.14550717
1	0x3e28f505	0.16499718
2	0xbde75fda	-0.11297579
3	0x3e0a3dd7	0.13500153
4	0xbe933b87	-0.28756353
5	0x3bf1e760	0.0073823184
6	0x3e09efed	0.1347043
7	0x3d797769	0.060904894
8	0xbeb12a08	-0.3460238
9	0xbe2983e2	-0.16554216
10	0x3e056069	0.13025059
11	0xbe0731e5	-0.13202627
12	0x3e5d016b	0.21582572
13	0xbe502e86	-0.20330247
14	0xbd75b61a	-0.05998812
15	0xbc73082c	-0.014833491

arch.conv.1.running_var f4 [16]
0	0x42fc53e8	126.16388
1	0x4338c470	184.76733
2	0x434cf44c	204.95428
3	0x43894fc2	274.6231
4	0x434fa067	207.62657
5	0x43115451	145.32936
6	0x42b63004	91.09378
7	0x42a6bfd6	83.37468
8	0x430c069d	140.02583
9	0x42f11d20	120.556885
10	0x42ffba20	127.863525
11	0x42fa77a8	125.2337
12	0x42b00424	88.00809
13	0x431d2455	157.14192
14	0x42a15f39	80.68598
15	0x4338b076	184.6893

arch.conv.4.weight f4 [32, 16, 11]
0	0x3cec6436	0.028856378
1	0xbccbb9a8	-0.024868801
2	0xbcb102a5	-0.021607706
3	0x3d03c32a	0.032168545
4	0x3c7ab8cb	0.015302847
5	0xbce8def6	-0.028426629
6	0x3c33269d	0.010934499
7	0x3ca2a7fd	0.019855494
8	0xbd325557	-0.043538418
9	0x3bb2a533	0.005451822
10	0x3c008cc1	0.007846058
11	0xbb4594c3	-0.0030148483
12	0x3d354045	0.044250745
13	0xbd0991fc	-0.033586487
14	0x3cce9925	0.02521951
15	0xbce03d7c	-0.027373068
16	0xbd32d124	-0.043656483
17	0x3d00ba99	0.031427953
18	0xbcd0ad23	-0.025473183
19	0x3907482f	0.00012901494
20	0x3cc2379d	0.02370816
21	0xbd34725f	-0.044054385
22	0xbd3499fc	-0.044092163
23	0x3c58ddec	0.013236504
24	0x3d241b40	0.04006505
25	0xbbdfe9f3	-0.006833309
26	0x3ceff425	0.029291222
27	0x3c5ddedc	0.013541903
28	0x3c3e2820	0.011606246
29	0xbd04b346	-0.03239753
30	0x3d280b4d	0.041026402
31	0x3c956675	0.018237332
32	0x3bd41296	0.006471942
33	0x3cbba2fd	0.022904867
34	0xbd5d9d29	-0.054104958
35	0xbb0bab71	-0.0021311904
36	0xbd110f08	-0.035414726
37	0xbc8fc1ac	-0.017548405
38	0x3b691b66	0.003556931
39	0x3c212689	0.009835848
40	0xba3d0402	-0.0007210375
41	0xbd4ad282	-0.049517162
42	0xbd30ea70	-0.043192327
43	0xbc546f2f	-0.012965961
44	0xbbc16f75	-0.0059031793
45	0xbd1c3425	-0.038135666
46	0x3d4c669b	0.04990254
47	0x3bc94fc4	0.006143542
48	0xbd08c5a9	-0.03339163
49	0x3cb5477b	0.022128811
50	0x3cb28b9c	0.021795087
51	0xbcc22e89	-0.02370383
52	0x3cc32db6	0.023825508
53	0xbcee7f59	-0.029113458
54	0x3c893b0e	0.016751792
55	0x3d3906d6	0.045172535
56	0x3cfce846	0.030872475
57	0x3cb1316f	0.021630017
58	0xbc3ee1f2	-0.011650549
59	0x3be73ff0	0.0070571825
60	0x3c73e33e	0.014885722
61	0x3c1128d0	0.008859828
62	0xbc4beeaa	-0.012447039
63	0x3b68b136	0.0035506017
64	0xbcba9a5b	-0.02277868
65	0xbd004178	-0.031312436
66	0xbd41b266	-0.047289275
67	0xbd2f191b	-0.04274855
68	0xbd0844f2	-0.033268876
69	0x3d2fc2c6	0.04291036
70	0x3ba23c39	0.0049510268
71	0xbd3d42bc	-0.04620622
72	0xbcdd9cf8	-0.027052388
73	0x3c0105b8	0.007874899
74	0xbc8a7795	-0.016902724
75	0xbc832df6	-0.016013127
76	0xbcad7b93	-0.021177089
77	0xbc51a40e	-0.012795461
78	0x3b3e1483	0.0029003925
79	0xb95fe4ca	-0.00021352168
80	0x3ce6b3a9	0.02816184
81	0x3cf04cbb	0.029333463
82	0x3d1624a8	0.036656052
83	0xbb82ea61	-0.0039952253
84	0xbcad3194	-0.021141805
85	0xba2b0300	-0.00065235794
86	0xbd08c916	-0.033394895
87	0x3c8556d6	0.016276758
88	0xbab8ab9e	-0.0014089232
89	0xbc37105d	-0.011173335
90	0xbd15be9f	-0.036558744
91	0x3cbe2e7b	0.023215523
92	0x3ce4ea15	0.02794365
93	0x3d337b23	0.043818604
94	0xbc60e6f6	-0.01372694
95	0x3c847402	0.016168598
96	0x3bb15071	0.0054112007
97	0xbcd3437a	-0.025789011
98	0xbcd13413	-0.025537526
99	0x3ce60deb	0.028082808
100	0xbcad7da6	-0.021178078
101	0x3d1005c3	0.035161745
102	0x3c9d6656	0.019213837
103	0x3ca697c4	0.02033604
104	0x3d0c4b20	0.034251332
105	0x3cceec46	0.025259148
106	0x3cb9ef85	0.02269722
107	0x3ce0512d	0.027382458
108	0xbc718874	-0.014742006
109	0xbcac2d8a	-0.021017808
110	0xbc5a379d	-0.013318923
111	0x3cafa1d5	0.021439472
112	0x3ce6c450	0.028169781
113	0x3cf7b895	0.030239383
114	0xbc9e467a	-0.019320715
115	0xbc28bf92	-0.01029958
116	0xbd184c6f	-0.037182268
117	0x3cccf45e	0.025018867
118	0xbd112c21	-0.035442475
119	0xbcc11f01	-0.023574354
120	0x3d101627	0.035177376
121	0x3c232ab8	0.009958915
122	0xbca23161	-0.019798936
123	0xbcffba75	-0.03121684
124	0xbcff8a9a	-0.03119402
125	0x3d16f0b3	0.036850642
126	0xbd314d06	-0.043286346
127	0x3d1a3a7f	0.037653442
128	0x3d0c55c3	0.034261476
129	0x3aeb0c51	0.0017932748
130	0xbbb2c438	-0.00545552
131	0x3d0827d2	0.0332411
132	0x3c6a69b8	0.014307432
133	0x3d211f7f	0.039336678
134	0x3d0327f5	0.032020528
135	0xbd192314	-0.03738697
136	0x3cbcb7bd	0.023036832
137	0x3c910f0e	0.017707374
138	0xbd24a4fe	-0.04019641
139	0x3c7cf23c	0.015438613
140	0xbcf660df	-0.030075489
141	0xbd0aedf6	-0.033918343
142	0xbbd1660a	-0.006390338
143	0xba772833	-0.00094282924
144	0xbc00164d	-0.007817817
145	0xbcd4e59d	-0.025988394
146	0x3ce15b99	0.027509497
147	0x3d40de59	0.047087047
148	0xbbd5a569	-0.0065199626
149	0xbce2e8c3	-0.02769888
150	0x3a6e038c	0.0009079508
151	0xbd18317a	-0.03715656
152	0xbd0d5e70	-0.03451389
153	0xbc4c6de6	-0.012477374
154	0x3d0967e8	0.03354636
155	0xbce5dbeb	-0.028058967
156	0xba15e6e0	-0.0005718302
157	0xbc84c175	-0.016205529
158	0xbd10e372	-0.03537316
159	0xbba307a0	-0.004975274
160	0x3b0037fc	0.001956462
161	0xbb09d2af	-0.0021030118
162	0x3d192bc7	0.037395265
163	0x3cbbe20a	0.022934932
164	0x3d0325eb	0.032018583
165	0x3c3490ee	0.011020882
166	0xbb1d45a0	-0.0023997799
167	0x3c965824	0.018352576
168	0xbd1428a0	-0.036171556
169	0x3c857a2e	0.016293611
170	0x3c729aa8	0.014807381
171	0xbcd684cb	-0.026186367
172	0xbbf876c2	-0.0075825164
173	0xbd2670a4	-0.040634766
174	0xbd3d218d	-0.046174575
175	0xbbc504a8	-0.006012518
176	0xbb4bdeda	-0.0031108172
177	0xbc8ddb8d	-0.017316604
178	0x3ab003f7	0.0013428916
179	0xbd158fb0	-0.036513984
180	0xbcedd741	-0.029033305
181	0x3ca14033	0.019683933
182	0xbd373ffe	-0.044738762
183	0xba8a8d03	-0.0010570589
184	0x3cb81462	0.022470657
185	0x3cb8793c	0.022518747
186	0x3bbd2e7c	0.0057733636
187	0xbd10142b	-0.035175484
188	0x3bef9aa4	0.007312136
189	0xbc5b6306	-0.013390308
190	0xbc498566	-0.012299871
191	0x3cf1044e	0.029420998
192	0xbc45d716	-0.012075206
193	0xbcde4a26	-0.027134966
194	0xbcf94c4a	-0.030431885
195	0x3cd69fa9	0.026199179
196	0x3aadf3eb	0.0013271546
197	0x3d280e69	0.041029368
198	0x3a84125c	0.0010076272
199	0xbd237b18	-0.039912313
200	0x3b58a1c6	0.003305541
201	0x3d026874	0.031837896
202	0x3c9c8e44	0.019110806
203	0x3bd0212c	0.0063516106
204	0xbd0ce41e	-0.034397237
205	0xbceaa67f	-0.028643845
206	0x3ca56378	0.020189032
207	0xbd02fbea	-0.031978525
208	0x3af066b0	0.001834115
209	0x3b23b7ed	0.0024981454
210	0x3cb6faf3	0.022336459
211	0x3c4a6acc	0.012354564
212	0xbcb054ca	-0.021524806
213	0xbbcdc4d7	-0.0062795687
214	0x3d3bd0cb	0.045853417
215	0x3c70b92d	0.014692587
216	0x3d00a80d	0.031410266
217	0xbc2a468b	-0.010392795
218	0x3d2cd536	0.04219552
219	0x3aa3e5b1	0.0012504366
220	0xbcc10d7b	-0.023565998
221	0xbbd9f6fa	-0.0066517564
222	0xbcc163d2	-0.023607168
223	0xbcc6fb11	-0.02428964
224	0xbc6c5b8c	-0.014426123
225	0xbc378d14	-0.011203069
226	0xbcda3b92	-0.026639733
227	0x3ab37c05	0.0013693577
228	0xbd2555ae	-0.040364914
229	0x3c456b84	0.0120495595
230	0x3cc90bc1	0.024541738
231	0xba85d806	-0.0010211475
232	0xbc6f2aec	-0.014597636
233	0xbd21bd83	-0.039487373
234	0x3c32953c	0.010899838
235	0x3cd0642c	0.02543839
236	0x3cdfb73e	0.027309056
237	0xbae64223	-0.0017567318
238	0x3bf21722	0.0073880116
239	0x3d055555	0.032552082
240	0x3a3ad46e	0.00071269914
241	0xbcb2dd37	-0.021834
242	0xbd27d9ce	-0.0409792
243	0x3c29de7b	0.010367985
244	0x3c13330c	0.0089843385
245	0x3cedf277	0.02904628
246	0xbcab1a88	-0.020886675
247	0x3c5d195a	0.013494814
248	0xbc7a5d03	-0.015280965
249	0xbc482577	-0.012215964
250	0x3c9aa48f	0.018877296
251	0xbd16555e	-0.036702506
252	0x3cc416cc	0.023936652
253	0x3cc181b7	0.023621423
254	0xbc88e5fe	-0.016711231
255	0x3cca28d8	0.024677679

arch.conv.5.weight f4 [32]
0	0x3f64be52	0.89352906
1	0x3f64839f	0.8926334
2	0x3f64a355	0.89311725
3	0x3f64e611	0.89413553
4	0x3f64da8a	0.89395964
5	0x3f64d298	0.8938384
6	0x3f6534f8	0.8953395
7	0x3f64f045	0.8942912
8	0x3f64941d	0.892885
9	0x3f64d0a0	0.89380836
10	0x3f6486d6	0.89268243
11	0x3f649619	0.8929153
12	0x3f65f96d	0.8983372
13	0x3f6594d7	0.89680237
14	0x3f6494a7	0.89289325
15	0x3f64bff9	0.8935543
16	0x3f648f83	0.8928148
17	0x3f64d03b	0.89380234
18	0x3f64e9ca	0.89419234
19	0x3f64d143	0.8938181
20	0x3f649c97	0.8930144
21	0x3f648eb3	0.8928024
22	0x3f655ac7	0.8959164
23	0x3f64b66c	0.89340854
24	0x3f64d78a	0.89391387
25	0x3f64f1fc	0.8943174
26	0x3f64b161	0.8933316
27	0x3f64afc7	0.89330715
28	0x3f652f15	0.89524966
29	0x3f657e97	0.89646286
30	0x3f648c50	0.892766
31	0x3f64d3d4	0.89385724

arch.conv.5.bias f4 [32]
0	0x3a0173de	0.0004938225
1	0x3b2443d1	0.0025064836
2	0xbaa2c4cc	-0.0012418269
3	0xbb144b84	-0.0022628019
4	0xb81616be	-3.5783967e-05
5	0x3bc16632	0.005902075
6	0x39ebbed4	0.0004496487
7	0x3a98f15b	0.0011668609
8	0x3a675602	0.0008824767
9	0xbc550adc	-0.013003077
10	0xbb2978d0	-0.0025859363
11	0x3bc317a4	0.005953746
12	0x39308f7f	0.00016838124
13	0x3b0e57e7	0.0021719874
14	0x3b31b9a6	0.0027118712
15	0x3bd67ab0	0.006545387
16	0x3b5887f1	0.0033040012
17	0xb980027b	-0.0002441591
18	0x3ab31105	0.0013661688
19	0xbb4523db	-0.0030081186
20	0xbb77ddda	-0.0037821443
21	0x38f98df8	0.00011899689
22	0xb9976ef8	-0.00028883643
23	0xbb5ff9ff	-0.003417611
24	0xbae9c4ba	-0.0017835118
25	0xbb531434	-0.0032208087
26	0x3bcd2eb3	0.0062616705
27	0xbb724557	-0.00369676
28	0x3b18ed4f	0.0023334806
29	0xbb284cce	-0.0025680545
30	0xbb94d0c8	-0.00454149
31	0xbb8506b7	-0.0040596384

arch.conv.5.running_mean f4 [32]
0	0xbd94ae8f	-0.07259857
1	0xbdfef263	-0.12448575
2	0x3e05e350	0.13074994
3	0xbe18be74	-0.14916402
4	0xbe0af0e5	-0.13568456
5	0x3da1c584	0.07899001
6	0x3dd79d60	0.10528064
7	0xbdb4fed4	-0.08837667
8	0x3d54bcd8	0.051937908
9	0xbe72c219	-0.23706855
10	0x3e2ecf49	0.1707126
11	0x3cf0c1ac	0.029389225
12	0x3e61b041	0.22039892
13	0x3e1da181	0.1539364
14	0xbd4d9932	-0.050194927
15	0x3dd7d483	0.1053858
16	0x3e1651de	0.14679667
17	0x3e5bb4e2	0.2145572
18	0xbdaf2afc	-0.085531205
19	0xbe18deb4	-0.14928705
20	0xbcccba69	-0.024991231
21	0x3dd7e0b1	0.10540903
22	0x3def32a2	0.11679579
23	0xbe4bb11c	-0.1989178
24	0xbc2fbfcc	-0.01072688
25	0xbd0c726f	-0.03428882
26	0x3e27cb8a	0.16386238
27	0xbc1e8656	-0.009675583
28	0xbdc0198c	-0.09379873
29	0xbdad7b21	-0.084707506
30	0xbdedecdb	-0.11617442
31	0x3e5e3fab	0.21703975

arch.conv.5.running_var f4 [32]
0	0x3d553989	0.052056823
1	0x3da2cb99	0.079489894
2	0x3d7c6a86	0.061625026
3	0x3dca6bf0	0.09883869
4	0x3e04ae88	0.12957203
5	0x3d9601b4	0.073245436
6	0x3e019d88	0.1265775
7	0x3e1eed1c	0.15520138
8	0x3d22cd1f	0.0397464
9	0x3d9b8b67	0.07594948
10	0x3d90e9f9	0.07075877
11	0x3d4c71b4	0.049913123
12	0x3de29bd9	0.11064882
13	0x3e0c20b2	0.13684347
14	0x3d5ee082	0.054413326
15	0x3d841599	0.06449432
16	0x3d3a40de	0.04547202
17	0x3da1d91f	0.07902741
18	0x3e33dc64	0.17564541
19	0x3dc8162a	0.097698525
20	0x3db9836b	0.09058269
21	0x3def41a7	0.11682444
22	0x3e007307	0.1254388
23	0x3d9ded78	0.07711309
24	0x3d0e7e01	0.034788135
25	0x3da52478	0.080635965
26	0x3d484241	0.04889131
27	0x3d600a4d	0.054697324
28	0x3da30c2f	0.07961308
29	0x3dd014df	0.10160231
30	0x3dc1b2b6	0.094579145
31	0x3dbe4f21	0.092924364

arch.transformer.1.attention.in_proj_weight f4 [96, 32]
0	0x3dcdf9b3	0.10057392
1	0x3bd1da5f	0.0064042057
2	0xbca2b801	-0.01986313
3	0x3b0805c1	0.0020755383
4	0x3a7d29bf	0.0009657405
5	0x3dc23f9d	0.094847895
6	0x3c83a180	0.01606822
7	0x3dbb3201	0.09140397
8	0xb9e2a51a	-0.0004322909
9	0xbd95c2bd	-0.07312534
10	0xbd50463c	-0.05084823
11	0x3dcf7551	0.10129798
12	0x3dcc2f7f	0.09969997
13	0x3b852cf9	0.004064199
14	0xbd814749	-0.06312425
15	0x3d8bf0e1	0.068330534
16	0x3c864eea	0.016395051
17	0xbda07d45	-0.07836393
18	0x3b91a516	0.0044447286
19	0x3de753c4	0.11295274
20	0xbd5f282c	-0.05448167
21	0xba64e991	-0.0008732314
22	0x3b554c6c	0.0032546772
23	0xbc3b5bfd	-0.011435506
24	0x3d5dc6ea	0.054144777
25	0x3dcdef44	0.10055402
26	0x3dea02db	0.11426326
27	0xbdcc9ab6	-0.09990446
28	0x3a3fa41e	0.0007310527
29	0x3dad7356	0.08469264
30	0x3dbc6b07	0.09200101
31	0xbc146962	-0.009058328
32	0x3d65c0ab	0.056091946
33	0x3d92d5ac	0.07169661
34	0xbacb19d2	-0.0015495366
35	0x3d70ca59	0.058786724
36	0x3d291d17	0.041287508
37	0xbae7ac55	-0.001767526
38	0xbc960758	-0.018314049
39	0xbd073cbc	-0.033016905
40	0xbda67724	-0.08128193
41	0xbd45d1eb	-0.048295897
42	0x3ba2b035	0.004964853
43	0x3c425c6b	0.0118628545
44	0xbc226bbf	-0.009913384
45	0x39f234f8	0.00046197302
46	0x3d7cbad1	0.0617016
47	0x3b3f0d04	0.0029152045
48	0xbd7eb212	-0.06218154
49	0x3dbb0000	0.091308594
50	0x3d54cfbf	0.051955935
51	0xb8f69bc3	-0.00011759207
52	0x3cec0819	0.028812455
53	0xbdbd1478	-0.0923242
54	0x3d4b1e44	0.04958941
55	0x3be54a7b	0.006997404
56	0xbac39c79	-0.0014923952
57	0xbc9707be	-0.018436309
58	0x3da7a2de	0.08185361
59	0x3bf881be	0.007583826
60	0xbd1fc802	-0.0390091
61	0x3ce4a39d	0.027910048
62	0x3a95346e	0.0011383423
63	0xbcc745c7	-0.024325265
64	0x3d821391	0.06351388
65	0x3df59157	0.11990612
66	0xba7cbf24	-0.0009641519
67	0xbc7e64a4	-0.015526924
68	0xbd0a7cae	-0.03381031
69	0xbcfb0da3	-0.030646151
70	0x3d021fe5	0.0317687
71	0x3d4611d6	0.048356853
72	0xbd363cb1	-0.044491474
73	0x3d1bb972	0.03801865
74	0xb95316de	-0.00020131047
75	0xba6df0bf	-0.00090767065
76	0xbc386192	-0.011253731
77	0xbdd538c5	-0.104112186
78	0xbdbd63c7	-0.09247547
79	0x3d90eb1e	0.07076095
80	0xba6fda92	-0.0009149696
81	0xb9202e3d	-0.00015276014
82	0xbd3b19cc	-0.0456789
83	0xba0cc4b9	-0.000536989
84	0xbc669286	-0.01407302
85	0x3a405dec	0.0007338214
86	0xbde60165	-0.11230735
87	0x39588fc7	0.00020652926
88	0xbdc68483	-0.09693243
89	0xbd8b4dd0	-0.06801951
90	0xba1acaac	-0.0005904834
91	0xb9ddac4c	-0.00042280776
92	0xbb58f533	-0.0033105134
93	0x3d2ebcc5	0.042660493
94	0x38f30fff	0.000115901224
95	0x3c058477	0.008149258
96	0x3c79351e	0.015210418
97	0xba50a7b7	-0.0007959562
98	0xbdc839b6	-0.097766325
99	0xbc300d4b	-0.010745357
100	0x3d44bd2a	0.048031963
101	0x3d21f350	0.03953868
102	0x3c1c012e	0.009521766
103	0x3dc4bad2	0.09605946
104	0xbcf7da29	-0.030255394
105	0xbba089c9	-0.004899238
106	0x39817560	0.0002469225
107	0xbb07695c	-0.0020662164
108	0x3dbf0f20	0.09329057
109	0xbdf476dc	-0.11936733
110	0xb981018f	-0.0002460596
111	0x3dee7cc4	0.11644891
112	0xbd138cf6	-0.036023103
113	0x3da3e2f2	0.08002271
114	0xbdbf1b77	-0.093314104
115	0xba6023c9	-0.0008550254
116	0xbd1d95e2	-0.038473018
117	0x3c0beda4	0.008540545
118	0x3b307214	0.0026923465
119	0x3aeee882	0.0018227252
120	0xbabad4d8	-0.0014254106
121	0xbc1c58b4	-0.009542633
122	0xbde7d857	-0.113205604
123	0x3a85c967	0.0010207117
124	0x3de21724	0.1103957
125	0xbd944f27	-0.072416596
126	0xbc583c1a	-0.013197923
127	0x3bf80f79	0.007570204
128	0x3cf8d56e	0.030375209
129	0x3c313dd2	0.010817962
130	0x3d54c628	0.05194679
131	0xb9bfab62	-0.0003655805
132	0xbaeea177	-0.0018206079
133	0xbdb27640	-0.08713961
134	0xbdf44ca2	-0.11928679
135	0xbd98e029	-0.0746463
136	0x3ce4c014	0.027923621
137	0x3dcd2215	0.10016266
138	0x3de1a11c	0.11017057
139	0x3d924221	0.07141519
140	0x39e57592	0.0004376588
141	0x3d7686ad	0.06018703
142	0x3c50af4c	0.0127371065
143	0xbd6d7626	-0.057974003
144	0xba33351c	-0.0006836222
145	0xbdd7cd15	-0.10537163
146	0x3dbe97b5	0.093062796
147	0x3a316771	0.0006767428
148	0x3dd7060c	0.104992
149	0xb9d7d504	-0.00041166705
150	0x3da4fa62	0.08055569
151	0x3cd50d76	0.026007395
152	0xb9e1d484	-0.0004307368
153	0xb99bb96c	-0.00029702054
154	0x3d83f0f6	0.06442444
155	0xb9c0c6e6	-0.00036769285
156	0x3d9a3995	0.07530514
157	0x3b22c493	0.0024836406
158	0xbc56b10c	-0.013103735
159	0xbce91f78	-0.028457388
160	0xbcdc1c6e	-0.026869025
161	0x3d4eae48	0.050459176
162	0x3d92adaa	0.0716203
163	0xbcbdd3a5	-0.023172209
164	0xbdd2a95a	-0.102862075
165	0x3d14f33c	0.03636478
166	0xb9c7cc0f	-0.00038108273
167	0xbdd46aab	-0.10371908
168	0x3a1a5aeb	0.00058881816
169	0x38af5b99	8.361712e-05
170	0x3d86d840	0.06584215
171	0x38f5f052	0.000117272735
172	0xbd43f27b	-0.04783867
173	0x39024daa	0.00012426698
174	0xbd85e415	-0.06537644
175	0x3cb80a54	0.022465862
176	0x3b244ec8	0.0025071371
177	0x3d2ffdb2	0.042966552
178	0xbd90dd49	-0.07073457
179	0xbd14d2c5	-0.036333818
180	0xbd3ea643	-0.04654528
181	0xbdb3bd0b	-0.087762915
182	0xbddc74a5	-0.10764436
183	0xbdaa923f	-0.083286755
184	0x3d780708	0.06055358
185	0xbc0b4c85	-0.00850213
186	0xb9d9afd5	-0.0004152047
187	0x3bcec63c	0.0063102525
188	0x3aebb053	0.0017981626
189	0x3ca155d0	0.019694239
190	0xbd837745	-0.06419233
191	0x3dc7fa2e	0.09764515
192	0x39b5a089	0.00034642618
193	0xbcd307dc	-0.025760584
194	0x3d57f21f	0.05272114
195	0xbdb1ab72	-0.08675279
196	0xbd30ed34	-0.043194965
197	0x3d1b9884	0.037987247
198	0x3c857fd1	0.0162963
199	0xbc700b67	-0.014651156
200	0x3989341d	0.00026169504
201	0xbb0a2183	-0.0021077103
202	0x3c848c32	0.016180132
203	0x3a16f45d	0.0005758459
204	0x3c7a6399	0.015282535
205	0x3db018b6	0.08598463
206	0xbd767d12	-0.06017787
207	0xbd9cef9a	-0.07662888
208	0xbb80de14	-0.003932724
209	0xbcb06389	-0.021531837
210	0xbd886357	-0.066595726
211	0x3dd9343d	0.10605667
212	0x3db4c11e	0.08825897
213	0x3daf316c	0.08554348
214	0xbd4b94d8	-0.049702495
215	0xb8407a1e	-4.5890098e-05
216	0xbd9cc9ab	-0.076556526
217	0xbc95b923	-0.018276757
218	0x3db0bf2a	0.08630212
219	0x3b31449d	0.0027048953
220	0x3c016072	0.0078965295
221	0xbdf6932a	-0.12039788
222	0x3c8769aa	0.016529877
223	0x3d8601c0	0.065433025
224	0xbc8072e7	-0.01567979
225	0x3d9b8eb3	0.07595577
226	0x3cbe7bf9	0.023252474
227	0xbd8b4dbe	-0.068019375
228	0xbd90e0c6	-0.07074122
229	0x3a205e9d	0.0006117614
230	0xbdea0f66	-0.11428718
231	0xbd7f50f7	-0.062333073
232	0x3c8733dd	0.016504223
233	0xbc7fee30	-0.015620753
234	0xba6dba0f	-0.00090685574
235	0xbca30e82	-0.019904379
236	0x3d7a09c2	0.061044462
237	0x3dafc31b	0.08582135
238	0x3d893ef2	0.06701459
239	0xbdcdba2d	-0.10045276
240	0xbc246dc4	-0.010035936
241	0x3ceb4127	0.02871759
242	0x3d4ec076	0.050476514
243	0xbb553957	-0.0032535398
244	0x3d23679f	0.039893743
245	0xbb84c751	-0.0040520807
246	0x3b2a0aab	0.00259463
247	0x3d78d229	0.0607473
248	0x3d73b484	0.059498325
249	0xbd9c8f9e	-0.0764458
250	0xbd46bc4c	-0.048519418
251	0x3c99d19c	0.018776707
252	0x3d351b7e	0.04421567
253	0xbc4c244d	-0.012459827
254	0x3dd12485	0.10212044
255	0xbc62d5e3	-0.01384494

arch.transformer.1.attention.in_proj_bias f4 [96]
0	0xba882b12	-0.0010388813
1	0x3a73babc	0.000929754
2	0x39c0c395	0.00036766814
3	0x3797c081	1.8090244e-05
4	0x398e84cf	0.000271833
5	0xb96b2316	-0.00022424417
6	0x3a4f94a5	0.0007918573
7	0xbb1614c5	-0.0022900563
8	0xba9155ec	-0.0011088229
9	0x3a8183ec	0.0009881235
10	0xbb10e763	-0.0022110573
11	0x39dfb0ee	0.00042665697
12	0xbb682876	-0.0035424507
13	0xb9f7d9ce	-0.00047273788
14	0x3adf16fd	0.0017020401
15	0x3aa0ae58	0.001225899
16	0x3b42c029	0.0029716587
17	0xb8b81509	-8.777722e-05
18	0xb633cea4	-2.679336e-06
19	0xba312376	-0.0006757298
20	0x3a3cecea	0.0007206934
21	0xba7a5a70	-0.00095502194
22	0xb82ed67c	-4.1684587e-05
23	0xba8dd5ed	-0.0010821201
24	0xb884c301	-6.330573e-05
25	0xbb6fbaf9	-0.003657995
26	0x3aeb9622	0.001797382
27	0x3b4ecac1	0.0031553956
28	0xbacda2ba	-0.0015688755
29	0xbb5e99ff	-0.00339663
30	0x3b615919	0.0034385382
31	0x3b0b0bb1	0.0021216685
32	0xb14e6a9c	-3.0037546e-09
33	0xb12cdafa	-2.5153768e-09
34	0xb11e1dd0	-2.3008973e-09
35	0x2fd21a10	3.8217296e-10
36	0xb12cc102	-2.5139006e-09
37	0xb0c39cc1	-1.423267e-09
38	0xb0a674d4	-1.2111294e-09
39	0xb158a258	-3.1524419e-09
40	0x315c6b0b	3.207506e-09
41	0xb0d9214f	-1.5798295e-09
42	0x315ff537	3.259016e-09
43	0xb030e810	-6.435821e-10
44	0xb0d0936c	-1.5175892e-09
45	0xb1ddfb9a	-6.4605503e-09
46	0xb1843114	-3.847285e-09
47	0x309565a3	1.0870064e-09
48	0x311afcb9	2.2553606e-09
49	0xb0e3c5ce	-1.6572643e-09
50	0x30aa7e90	1.2405099e-09
51	0x314c6e68	2.9748666e-09
52	0xb10b5bb6	-2.0279294e-09
53	0xb137902e	-2.6711962e-09
54	0x3128a487	2.454074e-09
55	0x313e8220	2.7722606e-09
56	0xb0e46511	-1.6617908e-09
57	0x30e98bbe	1.6992698e-09
58	0x31205ec2	2.3336928e-09
59	0xb07e48e3	-9.250824e-10
60	0x30a81d84	1.2231998e-09
61	0xb0d5b1ae	-1.5548289e-09
62	0x30c2a2b0	1.4161596e-09
63	0x310c6740	2.0431372e-09
64	0xba397f1c	-0.0007076131
65	0x3b375a82	0.002797753
66	0xba1c483e	-0.00059616927
67	0x3b8ef239	0.0043623713
68	0xba95c828	-0.0011427449
69	0x3aeb0f4c	0.0017933636
70	0x3b5ead24	0.0033977712
71	0x3b3d783a	0.0028910772
72	0x38d578d8	0.000101791404
73	0x3a7588d2	0.0009366396
74	0xbb2b4936	-0.0026136166
75	0xbb082448	-0.0020773578
76	0xba9e39c7	-0.0012071662
77	0xb9e85267	-0.00044311883
78	0x3b58a197	0.00330553
79	0x3b10206e	0.0021991986
80	0x3b2b6670	0.0026153587
81	0xba213901	-0.0006150157
82	0xbb97feea	-0.0046385424
83	0xb9a7c6be	-0.00032000797
84	0x39389d07	0.00017606105
85	0xbb347c38	-0.002753986
86	0xb91454de	-0.00014145995
87	0x3b33a49b	0.0027411345
88	0xbaa78b63	-0.0012782629
89	0xba840ff6	-0.0010075558
90	0xba490588	-0.0007668366
91	0xb9a667c8	-0.0003173931
92	0xbbd7a0c0	-0.006580442
93	0xbae81b74	-0.0017708377
94	0xbb4ac218	-0.0030938443
95	0xba71658e	-0.0009208553

arch.transformer.1.attention.out_proj.weight f4 [32, 32]
0	0xbd1e0d2b	-0.038586777
1	0x3cb0731a	0.02153926
2	0x3d91ae65	0.07113341
3	0x3d02a2b9	0.031893466
4	0xbc6bdfa0	-0.014396578
5	0xbd62ca0b	-0.055368464
6	0xbd83f0bd	-0.064424016
7	0xbc358ee5	-0.011081432
8	0xbc4e762a	-0.012601415
9	0xbd5b84a0	-0.053593278
10	0x3c77bd26	0.01512078
11	0xbca4e786	-0.02012993
12	0x3c8189b8	0.01581274
13	0xbd471182	-0.04860068
14	0xbab6d16c	-0.0013947911
15	0xbc8879fe	-0.016659733
16	0x3d0369be	0.032083265
17	0xbdbb6ef0	-0.09152019
18	0xbccbf48b	-0.02489688
19	0x3b7f8daf	0.0038994362
20	0xbbce6794	-0.0062989686
21	0xbaecab58	-0.0018056436
22	0x3d3a9e58	0.045561165
23	0x3c0d9fec	0.008644085
24	0x3c0c2989	0.008554825
25	0x3cd80598	0.026369855
26	0xbcf6620e	-0.030076053
27	0xbc337624	-0.01095346
28	0x3cf1aac2	0.029500369
29	0x3b888c68	0.0041671284
30	0x3d3ebf21	0.046568993
31	0xbc2f918b	-0.0107158525
32	0x3dd92cf4	0.10604277
33	0x3d356dcb	0.04429416
34	0xbc10810a	-0.008819828
35	0xbd24473d	-0.040107
36	0x3c938b1c	0.018010668
37	0xbd8f83ec	-0.07007584
38	0xbd08d31e	-0.033404462
39	0x3cabe144	0.020981438
40	0x3b6ceed6	0.00361531
41	0x3d04e589	0.032445464
42	0xbd0e5e94	-0.034758165
43	0x3da4b484	0.08042243
44	0xbd37eeca	-0.04490546
45	0xbd5c2411	-0.053745333
46	0x3d629e5e	0.055326812
47	0xbcbe469e	-0.023227032
48	0x3c59b6f0	0.013288245
49	0xbc71f3d9	-0.0147676105
50	0xbd816ca9	-0.063195534
51	0xba9edbd3	-0.0012119956
52	0x3cdeb3fc	0.027185433
53	0x3d963f76	0.07336323
54	0x3d8c327d	0.068455674
55	0xbbb41c36	-0.005496527
56	0x3d84585a	0.06462164
57	0x3cff1662	0.031138603
58	0x3ad2bb65	0.0016077576
59	0xbbe906ff	-0.0071114297
60	0xbc071665	-0.008245085
61	0x3c71226e	0.014717681
62	0xbbc71822	-0.006075875
63	0x3d83abef	0.06429278
64	0xbc18b879	-0.009321325
65	0xbcd4ec7b	-0.025991669
66	0x3bb02044	0.00537494
67	0xbcfcf37c	-0.030877821
68	0x3d31facf	0.04345208
69	0x3d6cf37d	0.057849396
70	0x3b6ff190	0.0036612488
71	0xbbb94646	-0.005654129
72	0xba79fc47	-0.00095361884
73	0x3ca0ca2c	0.019627653
74	0xbd63360d	-0.05547147
75	0xbc21a010	-0.009864822
76	0xbd1fc221	-0.039003495
77	0xbdab9dc4	-0.08379701
78	0xbd3a77ce	-0.04552441
79	0xbd336d3a	-0.04380534
80	0x3d4acb5d	0.04951035
81	0x3d40922e	0.047014408
82	0xbd3ef5c1	-0.046621088
83	0xbd6479b6	-0.055780135
84	0x3d9189cf	0.07106363
85	0x3c7c988c	0.015417229
86	0x3c949dda	0.018141676
87	0x3be15d84	0.006877603
88	0xbc86fda3	-0.016478365
89	0xbd25089f	-0.040291425
90	0x3cca81d8	0.024720117
91	0xbda97a32	-0.0827526
92	0xbd887646	-0.06663184
93	0x3be12126	0.0068704067
94	0xbc45c182	-0.012070062
95	0x3c30a483	0.01078141
96	0x3d8bf038	0.068329275
97	0xbd475747	-0.04866722
98	0xbd321c6b	-0.043484133
99	0xbd6eb268	-0.05827561
100	0xbdd41c47	-0.10356956
101	0xbbf68478	-0.0075231157
102	0x3dad3fe7	0.08459454
103	0xbc0d3cff	-0.0086205
104	0x3d3ca761	0.046058062
105	0xbd34a6de	-0.04410445
106	0x3be474f1	0.0069719483
107	0xbd8e0fac	-0.06936583
108	0xbb68f594	-0.0035546767
109	0x3cd6e6d5	0.026233116
110	0xbd22f579	-0.039784882
111	0x3dc8c7d2	0.09803738
112	0x3c76e4f7	0.015069238
113	0x3d799c7b	0.060940247
114	0x3deb3a17	0.11485689
115	0x3cf6a166	0.030106258
116	0xbac6b5d6	-0.0015160393
117	0x3d835c25	0.064140595
118	0x3dcc1da4	0.09966591
119	0xbdd0cf06	-0.101957366
120	0xbc9deac5	-0.019276986
121	0x3d79c66c	0.060980245
122	0xbca47062	-0.02007312
123	0xbd97c8c6	-0.07411341
124	0xbd813ba4	-0.06310204
125	0xbd1e3ffe	-0.038635246
126	0x3d23244c	0.039829537
127	0x3da443c0	0.08020735
128	0xbc37d1c9	-0.01121945
129	0xbda25af9	-0.07927508
130	0x3cb5c9e0	0.022190988
131	0x3cb13dc7	0.021635903
132	0xbd282f13	-0.04106052
133	0x3ca9afe5	0.020713756
134	0xbd1cef7b	-0.038314324
135	0x3cdde5f9	0.027087199
136	0x3d8810a8	0.06643802
137	0x3d477849	0.048698697
138	0xbc421837	-0.011846594
139	0x3dd87e4e	0.10570966
140	0xbbcc2804	-0.006230356
141	0xbdf0cd8c	-0.11757955
142	0x3d8a31ef	0.06747805
143	0x3dd28153	0.10278573
144	0x3cfdbfef	0.03097531
145	0x3de50802	0.11183168
146	0x3d6d2225	0.05789389
147	0x3d0450c4	0.032303587
148	0x3d3ff1e6	0.04686155
149	0xbdd04091	-0.10168565
150	0xbab911c7	-0.0014119678
151	0xbd360216	-0.044435583
152	0x3ce8d492	0.028421674
153	0xbdec99bf	-0.11552762
154	0x3b851e4c	0.0040624496
155	0x3c9ece43	0.019385463
156	0xbd2b2fbf	-0.04179358
157	0xbd0695ab	-0.03285758
158	0xbd8d6bf4	-0.06905356
159	0x3d07cb43	0.03315283
160	0xbda2ee9f	-0.079556696
161	0xbb17cefa	-0.002316414
162	0x3bfbadc2	0.0076806257
163	0x3c1566a1	0.009118707
164	0xbda1f908	-0.07908827
165	0xbb5d2406	-0.0033743395
166	0xbc69facb	-0.014280985
167	0xbbb8477f	-0.0056237574
168	0xbd40d50e	-0.047078185
169	0xbd5f9446	-0.054584764
170	0x3b8f8402	0.00437975
171	0x3bad914b	0.0052968613
172	0x3d94f10b	0.07272538
173	0x3dbd2c6a	0.09236987
174	0x3d50ebed	0.051006246
175	0x3c966370	0.018357962
176	0x3d1afaec	0.037836954
177	0x3d1af077	0.03782698
178	0xbdb50e35	-0.088406004
179	0x3d420737	0.04737016
180	0x3b398e16	0.002831345
181	0xbce85d7b	-0.028364887
182	0xbc2e3040	-0.010631621
183	0x3d61ca03	0.055124294
184	0x3d61938a	0.055072345
185	0x38ffcd3c	0.000121975754
186	0xbc89bda5	-0.016814062
187	0xbce29719	-0.02765994
188	0x3d090801	0.0334549
189	0xbcff0de9	-0.031134563
190	0xbd3e3948	-0.046441346
191	0xbd64e3c2	-0.05588127
192	0x3ceb11e7	0.02869506
193	0x3d8713f0	0.065956
194	0xbaa2bd99	-0.0012416124
195	0x3d00ba7a	0.031427838
196	0xbdadd713	-0.08488288
197	0xbd64d569	-0.055867586
198	0xbd3ad5ae	-0.045613937
199	0xbd5dd8b8	-0.054161757
200	0xbcfa6f81	-0.030570747
201	0xbd5f8911	-0.054574076
202	0xbccbddd4	-0.02488605
203	0xbd72e8b7	-0.059303965
204	0x3cca5055	0.024696508
205	0x3b24a90e	0.0025125179
206	0x3bfcd79d	0.007716133
207	0x3d60b811	0.05486304
208	0xbda12e26	-0.0787013
209	0xbd3aba8a	-0.045588054
210	0xbb6b2b11	-0.0035883824
211	0xbdb23fac	-0.08703551
212	0x3d1199c2	0.035547026
213	0xbdb77730	-0.0895828
214	0x3d7b76f1	0.06139273
215	0x3dd0c67f	0.1019411
216	0x3ca695f3	0.020335173
217	0xbd6da8af	-0.058022197
218	0x3d7508d1	0.05982286
219	0xbd2fe85b	-0.0429462
220	0x3c0295e4	0.007970307
221	0x3d4f5b05	0.050623912
222	0x3dcaab42	0.09895946
223	0x3c1ff600	0.009763241
224	0xbbdf4a5a	-0.0068142833
225	0xbba56202	-0.005047084
226	0xbdd6a9aa	-0.104815796
227	0x3c7a8e47	0.015292711
228	0xbdd21775	-0.1025838
229	0xb9733755	-0.00023194899
230	0xbce44837	-0.027866466
231	0x3d901ffe	0.07037352
232	0xbd387081	-0.045029167
233	0x3dac64a0	0.0841763
234	0xbcfd27db	-0.030902794
235	0xbc96c839	-0.01840602
236	0xbde57a63	-0.11204984
237	0x3dfce50e	0.12348376
238	0x3bd382a9	0.006454785
239	0xbe00a3aa	-0.12562433
240	0x3ba2941f	0.004961505
241	0x3d71b949	0.059014592
242	0xbcc5ebcb	-0.024160286
243	0x3db376a7	0.087628655
244	0x3d46ca7b	0.048532944
245	0xbc994afc	-0.018712513
246	0x3df2724b	0.11838206
247	0x3d9fce4f	0.07803022
248	0xbc815d0e	-0.015791442
249	0xbc2e87b3	-0.01065247
250	0x3cfdf6f0	0.031001538
251	0xbd2a402c	-0.041565105
252	0x3d91a6e6	0.071119115
253	0xbddd973c	-0.10819861
254	0xbd8d33b9	-0.06894631
255	0x3d790011	0.06079108

arch.transformer.1.attention.out_proj.bias f4 [32]
0	0xb98f4002	-0.00027322775
1	0x3ae0cee3	0.0017151501
2	0x3ad88f52	0.0016522205
3	0xbb1c5d51	-0.0023859332
4	0xba649280	-0.000871934
5	0x3c0d80e3	0.008636686
6	0xb9d7a916	-0.00041133974
7	0x3a61cb9d	0.00086134096
8	0x3b40f444	0.0029442469
9	0xbc33d97a	-0.010977143
10	0xbac0d26c	-0.0014711148
11	0x3bc7e6a2	0.0061004916
12	0xba855184	-0.0010171388
13	0x3b110a64	0.0022131437
14	0x3aa2a829	0.0012409735
15	0x3be5883d	0.0070047663
16	0x3b85ac8f	0.0040794085
17	0xba80899c	-0.0009806636
18	0x3a243734	0.00062643294
19	0xba9502b1	-0.00113686
20	0xbb78eec3	-0.003798411
21	0x3a5de92b	0.00084652257
22	0xb8d7da64	-0.00010292677
23	0xbb63bf80	-0.0034751594
24	0xba9f0eb8	-0.0012135124
25	0xba61bffa	-0.00086116756
26	0x3b8c1fbd	0.0042762444
27	0xbb3ecd5d	-0.0029114105
28	0x3b4be436	0.0031111366
29	0xba9b8848	-0.0011866177
30	0xbb43a3dd	-0.0029852309
31	0xbb2e68f1	-0.0026612843

arch.transformer.1.mlp.0.weight f4 [2, 32]
0	0xba1566f4	-0.000569924
1	0x3ceabc31	0.02865419
2	0x3cda3c6d	0.026640141
3	0xba22e66e	-0.0006214146
4	0x3b47c369	0.0030481464
5	0x3af9aa25	0.0019047899
6	0x3c522ee1	0.01282856
7	0x3d6174a3	0.055042874
8	0x3bf31929	0.007418771
9	0x3cd0a03c	0.02546703
10	0x3d21bb18	0.039485067
11	0xbd7362dd	-0.059420455
12	0xbcd3eee6	-0.025870752
13	0x3cf52727	0.029925896
14	0x3b4639ca	0.0030246847
15	0xbccee256	-0.02525441
16	0x3b5517ad	0.0032515333
17	0xbd9e7cbf	-0.07738637
18	0xbc3e34ea	-0.011609295
19	0x3ca026dc	0.01954978
20	0xbadea926	-0.0016987666
21	0xbd23314b	-0.03984193
22	0x3c9bf148	0.01903595
23	0xbb617a1a	-0.0034405054
24	0x3b27e9c8	0.0025621522
25	0xbdaed170	-0.08536041
26	0xbbc7f3c0	-0.0061020553
27	0xbb0ec807	-0.0021786706
28	0xbcde3cb8	-0.027128562
29	0x3b26dc78	0.0025461
30	0xbd292b28	-0.041300923
31	0x3d63c003	0.05560304
32	0x3de30d86	0.11086564
33	0x3d8e0696	0.0693485
34	0xbce93e1c	-0.028471999
35	0xbe096735	-0.13418277
36	0xbd7315d1	-0.059346978
37	0xbca4fff4	-0.02014158
38	0xbe0fa0c9	-0.14026178
39	0x3dc07f3c	0.09399268
40	0x3d347298	0.044054598
41	0x3de7159f	0.11283421
42	0xbe06be01	-0.13158418
43	0xbda282f1	-0.07935131
44	0x3d0a7138	0.03379938
45	0x3b32d536	0.0027287728
46	0xbdb555d8	-0.08854264
47	0x3dd2a126	0.10284643
48	0x3d1d9f31	0.038481895
49	0xbb8b843c	-0.004257707
50	0x3e1a6005	0.15075691
51	0xbe07c51d	-0.13258786
52	0xbde6d29c	-0.11270639
53	0x3d194770	0.037421644
54	0x3e046811	0.12930323
55	0x3dbcfbea	0.09227736
56	0xbda9435f	-0.08264803
57	0x3df18c33	0.11794319
58	0x3d8dea28	0.069294274
59	0x3c3c72b2	0.011501955
60	0x3dbbec85	0.09175972
61	0x3cfff758	0.031245872
62	0xbbe0075f	-0.006836816
63	0xbd19c47b	-0.037540894

arch.transformer.1.mlp.0.bias f4 [2]
0	0xbd0c3d91	-0.0342384
1	0xbdd2c78d	-0.102919675

arch.transformer.1.mlp.3.weight f4 [32, 2]
0	0xbc89dc83	-0.016828781
1	0xbec28f87	-0.38000128
2	0x3e4b903e	0.19879243
3	0x3e005820	0.12533617
4	0xbf156264	-0.5835326
5	0xbed58f78	-0.4171102
6	0x3ecd397d	0.40082923
7	0xbe8bcf9e	-0.27306837
8	0x3a1d841b	0.000600876
9	0xbeb6f762	-0.35735613
10	0xbd83b952	-0.064318314
11	0x3e7d5de4	0.24742848
12	0x3db5dddf	0.08880209
13	0x3e8844d2	0.26615006
14	0xbba69d14	-0.005084643
15	0xbef44687	-0.47710058
16	0xbaa7f8c6	-0.0012815229
17	0x3ea1dd90	0.3161435
18	0x3d96562c	0.07340655
19	0x3d8e89f0	0.06959903
20	0x3d56b093	0.052414488
21	0x3ef4cf45	0.47814384
22	0x3e829378	0.25503135
23	0xbd6bc03c	-0.057556376
24	0xbe8ff845	-0.28119102
25	0x3ef6a8f1	0.48175767
26	0xbe881ac3	-0.26582918
27	0xbec6a926	-0.38800925
28	0x3dfd3b33	0.12364807
29	0xbeb30e14	-0.34971678
30	0xbf014d50	-0.50508595
31	0xbef082a7	-0.4697468
32	0x3da6413f	0.081179135
33	0xbeaf491d	-0.34235469
34	0x3f0542ac	0.5205486
35	0xbc78278b	-0.0151461465
36	0xbe4cf3ee	-0.20014927
37	0xbeaada16	-0.3336951
38	0xbdedde5a	-0.11614676
39	0x3f035487	0.51300853
40	0xbeb1f914	-0.34760344
41	0xbf0c6d3d	-0.54854184
42	0x3de9ec96	0.11422078
43	0x3e1275cf	0.14302753
44	0xbefcbff5	-0.49365202
45	0xbe72e55e	-0.23720309
46	0x3f01e8b5	0.5074571
47	0xbe752bbe	-0.23942468
48	0x3e49ebf7	0.1971892
49	0xbe77f955	-0.24216206
50	0xbf04fe2f	-0.51950353
51	0xbf15cab2	-0.58512414
52	0x3ede8bf7	0.4346616
53	0x3df849de	0.12123464
54	0x3dd7fb10	0.10545933
55	0x3e15b55f	0.14619969
56	0x3e30fda9	0.17284264
57	0x3ebd1bb3	0.36935195
58	0x3ee0a0cc	0.43872678
59	0x3ee86966	0.45392913
60	0x3e04dbe8	0.12974513
61	0x3d561786	0.052268527
62	0x3d7e40e9	0.062073622
63	0xbeefee52	-0.4686151

arch.transformer.1.mlp.3.bias f4 [32]
0	0x3e6a0e75	0.22857077
1	0x3e1399c2	0.14414123
2	0x3e6d12d3	0.23151712
3	0xbe072fe8	-0.13201869
4	0x3f01eeb4	0.5075486
5	0x3d78e9ef	0.06076997
6	0xbe166dec	-0.1469037
7	0xbc818174	-0.015808798
8	0xbe478c99	-0.19487227
9	0xbd95d4d0	-0.073159814
10	0x3f02ec57	0.51141876
11	0x3e3ef0a9	0.18646492
12	0xbd936777	-0.07197469
13	0x3cc3d2c7	0.023904217
14	0x3dd7f80c	0.10545358
15	0xbea90fec	-0.3301996
16	0xbe97c102	-0.2963944
17	0x3f0a04d6	0.5391363
18	0x3ba52cd2	0.0050407434
19	0x3e26e22c	0.16297215
20	0xbe76d181	-0.24103357
21	0xbed752f0	-0.42055464
22	0x3df38220	0.11890054
23	0x3e9b0259	0.3027523
24	0xbf12d12a	-0.5735041
25	0xbf21a943	-0.631489
26	0xbe14e7b9	-0.1454152
27	0x3eb7292f	0.35773608
28	0xbf0c1a9a	-0.5472809
29	0x3f01b4da	0.5066658
30	0x3f0a40c4	0.54005075
31	0xbdf1794e	-0.11790715

arch.transformer.1.layernorm0.weight f4 [32]
0	0x3f64c54c	0.8936355
1	0x3f64c530	0.89363384
2	0x3f64b158	0.89333105
3	0x3f6493c0	0.8928795
4	0x3f65504e	0.8957566
5	0x3f64b369	0.8933626
6	0x3f6563e9	0.89605576
7	0x3f65cd7b	0.89766663
8	0x3f64a9e6	0.89321744
9	0x3f64b693	0.89341086
10	0x3f645e86	0.8920673
11	0x3f64dd3f	0.89400095
12	0x3f65e6c0	0.8980522
13	0x3f684f03	0.9074556
14	0x3f649c49	0.8930097
15	0x3f64867a	0.89267695
16	0x3f64a0da	0.8930794
17	0x3f653537	0.89534324
18	0x3f64aced	0.89326364
19	0x3f65143c	0.89484
20	0x3f652e10	0.8952341
21	0x3f6475e4	0.89242387
22	0x3f65ae49	0.89719063
23	0x3f64a2dc	0.89311004
24	0x3f64bee7	0.89353794
25	0x3f696979	0.91176564
26	0x3f6477ca	0.89245284
27	0x3f647fab	0.89257306
28	0x3f6542e0	0.8955517
29	0x3f6aa9cf	0.9166536
30	0x3f6488e0	0.89271355
31	0x3f6514f5	0.894851

arch.transformer.1.layernorm0.bias f4 [32]
0	0xbaec39dd	-0.0018022616
1	0x3b495982	0.0030723517
2	0x3a6e871a	0.0009099111
3	0xbad704c9	-0.0016404624
4	0x39e3229c	0.000433226
5	0x3c1a6873	0.009424317
6	0xbb2bcce9	-0.0026214665
7	0x3b1d94e4	0.0024045045
8	0x3b018a16	0.0019766144
9	0xbc4643a9	-0.012101092
10	0xbb5dbbb0	-0.0033833794
11	0x3b9aa7ce	0.004719711
12	0xbb1cc598	-0.0023921486
13	0x397ba1c9	0.00023997495
14	0x3b0a95d8	0.0021146443
15	0x3c0dacdc	0.00864717
16	0x3bccb864	0.006247567
17	0xbace4e5a	-0.0015739903
18	0x3b3f5153	0.002919276
19	0xb91f59de	-0.000151969
20	0xbb9799fd	-0.004626511
21	0xb935f7ec	-0.00017353863
22	0xbae5fdcf	-0.0017546954
23	0xbb2190bd	-0.002465292
24	0xba8cbcad	-0.0010737382
25	0x3a423e01	0.0007409752
26	0x3b95cb73	0.004571372
27	0xbb18adb6	-0.00232969
28	0x3b93ec95	0.0045142868
29	0xbb26668e	-0.0025390717
30	0xbb0552d5	-0.0020343561
31	0xbaf1bb51	-0.0018442665

arch.transformer.1.layernorm1.weight f4 [32]
0	0x3f6485b6	0.89266527
1	0x3f643cac	0.8915508
2	0x3f64a69c	0.89316726
3	0x3f64a118	0.8930831
4	0x3f64e2c6	0.8940853
5	0x3f649aa6	0.89298475
6	0x3f667a4f	0.9003038
7	0x3f67f58c	0.9060905
8	0x3f64a2ed	0.89311105
9	0x3f64edfb	0.8942563
10	0x3f64d59e	0.89388454
11	0x3f64e0e4	0.89405656
12	0x3f6584a0	0.89655495
13	0x3f698b22	0.91227925
14	0x3f648925	0.89271766
15	0x3f65364f	0.89535993
16	0x3f64b8c3	0.89344424
17	0x3f653c54	0.8954518
18	0x3f650599	0.89461666
19	0x3f65814e	0.8965043
20	0x3f64acde	0.89326274
21	0x3f6475d6	0.89242303
22	0x3f6543fe	0.8955687
23	0x3f65b9fb	0.8973691
24	0x3f65b488	0.89728594
25	0x3f65e081	0.8979569
26	0x3f647ba3	0.89251155
27	0x3f64ab12	0.8932353
28	0x3f65c01a	0.8974625
29	0x3f6fae4e	0.9362534
30	0x3f64bb47	0.8934826
31	0x3f64ac8b	0.8932578

arch.transformer.1.layernorm1.bias f4 [32]
0	0xbb29a404	-0.0025885114
1	0x3b2ee55b	0.0026687
2	0x3a83464c	0.0010015457
3	0xbb207270	-0.0024482273
4	0x3a086872	0.0005203552
5	0x3c1d253d	0.009591398
6	0xbb08013c	-0.002075269
7	0x3b134acc	0.0022475002
8	0x3b21e503	0.0024703152
9	0xbbe7121a	-0.0070517184
10	0xbb36f115	-0.0027914692
11	0x3b576a03	0.0032869584
12	0xbb280294	-0.0025636302
13	0x393972e3	0.00017685773
14	0x3b4c2286	0.0031148507
15	0x3bc0af5c	0.0058802795
16	0x3c041596	0.008061787
17	0xbad77636	-0.0016438428
18	0x3b0ae59a	0.0021193982
19	0x3968d06f	0.00022202892
20	0xbbf64a1d	-0.007516159
21	0xb9c2ec24	-0.00037178502
22	0xbb128825	-0.002235898
23	0xbabfa946	-0.0014622591
24	0xbaae165b	-0.0013281809
25	0x3a496142	0.0007682034
26	0x3bf75587	0.0075480375
27	0xbb166a81	-0.0022951665
28	0x3b6ed13f	0.0036440638
29	0xbb2d15e0	-0.0026410744
30	0xbaf3fe83	-0.0018615279
31	0xbb04dde6	-0.0020273863
