checkpoints/epoch=2-step=27.ckpt (torch, 229387 bytes, 133 tensors)

arch.net.inception_block_1.branches.0.0.weight f4 [8, 1, 1, 62]
0	0x3a1a9e03	0.00058981794
1	0xbc5bea04	-0.013422493
2	0x3bcd5efc	0.0062674265
3	0x3c03c940	0.008043587
4	0xbc0b428e	-0.008499755
5	0x3ceb8a2e	0.028752413
6	0x3d173d21	0.03692353
7	0xbd624b5a	-0.055247642
8	0x3d073c31	0.033016387
9	0xbdbb7128	-0.09152442
10	0x3ab2fad2	0.0013655073
11	0x3dc7f62c	0.097637504
12	0x3d5ba037	0.05361959
13	0x3d8cef73	0.06881609
14	0x3dcb81cb	0.099368654
15	0xbc575c46	-0.013144558
16	0x3cd810fa	0.026375283
17	0x3cc9057a	0.024538744
18	0x3d2dbb78	0.042415112
19	0xbce1a75f	-0.02754563
20	0xbb885482	-0.0041604647
21	0xbd9726ec	-0.07380471
22	0x3daf91f9	0.08572764
23	0xbd814f0f	-0.06313907
24	0x3caa690b	0.020802042
25	0x3ca7b414	0.02047161
26	0xbd6370d8	-0.055527538
27	0x3dd0d597	0.10196989
28	0xbc38521c	-0.011250045
29	0x3c71bb1e	0.014754085
30	0x3d97b5c5	0.07407717
31	0xbd38863b	-0.045049887
32	0xbd68cb27	-0.056834366
33	0x3d0983eb	0.033573072
34	0x3dadb1d9	0.084811874
35	0x3d70fa66	0.05883255
36	0xbd238bfe	-0.03992843
37	0xbd51da72	-0.051233716
38	0x3d3259b1	0.043542568
39	0xbcec2463	-0.028825944
40	0xbc228560	-0.009919494
41	0x3d1f1f9a	0.038848497
42	0xbcc71526	-0.024302077
43	0x3daaa0f5	0.08331481
44	0xbd81be29	-0.06335098
45	0xbd5a6233	-0.053316306
46	0x3d35e30a	0.044405974
47	0x3d028317	0.0318633
48	0xbdcdfe4e	-0.100582704
49	0xbdaf8925	-0.0857108
50	0xbc5796ba	-0.013158495
51	0xbda1f0bc	-0.079072446
52	0x3c55abf2	0.013041483
53	0xbd0cb7a8	-0.034354836
54	0xbd7bc48b	-0.061466735
55	0x3b9f335e	0.0048584184
56	0xbd958302	-0.073003784
57	0x3c966a4c	0.018361233
58	0x3d82ae32	0.06380881
59	0x3de57def	0.112056606
60	0x3dc17c80	0.094475746
61	0x3bb0c5a9	0.0053946567
62	0xbdae2b4c	-0.08504352
63	0xbd766131	-0.060151283
64	0x3dbaa1d0	0.091128945
65	0x3d0b3d1b	0.03399382
66	0x3dc0989f	0.0940411
67	0xbd253edc	-0.04034315
68	0xbc8fca69	-0.017552571
69	0x3c656e12	0.014003294
70	0x3d9313ae	0.07181488
71	0x3d8f2063	0.06988599
72	0xbcaa5974	-0.020794608
73	0x3bed7945	0.0072471225
74	0x3d3c28f6	0.0459375
75	0xbddd8709	-0.108167715
76	0x3d8ea69e	0.069653735
77	0x3b36bb4f	0.002788264
78	0xbd944292	-0.0723926
79	0xbd916176	-0.07098667
80	0x3dc9b099	0.098481365
81	0x3dab70fe	0.08371161
82	0xbdac7228	-0.08420211
83	0xbde3709f	-0.11105465
84	0x3d591deb	0.053007048
85	0xbdc11832	-0.09428443
86	0x3d9db90e	0.07701312
87	0x3d1d1ae5	0.038355727
88	0xbcf90ab5	-0.030400613
89	0x3d811661	0.063030966
90	0xbcc8e530	-0.024523348
91	0xbd2d4be5	-0.042308707
92	0x3d08dff3	0.0334167
93	0xbaee71da	-0.0018191889
94	0xbd89da6a	-0.06731112
95	0x3d185444	0.037189737
96	0xbd147d3f	-0.036252256
97	0x3ddcdfb3	0.10784855
98	0x3d2ec25f	0.042665835
99	0xbd33bd67	-0.0438818
100	0x3da5dd87	0.080988936
101	0xbd40f6b5	-0.04711028
102	0xbd96eba9	-0.07369167
103	0xbdaed197	-0.0853607
104	0xbdc255a5	-0.09488992
105	0x3ce46cdf	0.027883945
106	0xbc6202c6	-0.013794607
107	0xbdc97e9f	-0.09838604
108	0x3c777fc3	0.015106144
109	0xbd88c547	-0.06678253
110	0x3d5ab1a6	0.053392075
111	0xbdac8215	-0.08423249
112	0x3da9f080	0.08297825
113	0xbda405aa	-0.08008893
114	0x3d379157	0.04481634
115	0x3d537483	0.051624786
116	0x3d4c220c	0.049837157
117	0xbdaeae9c	-0.08529398
118	0xbd766f14	-0.060164526
119	0x3bdeaf83	0.006795825
120	0xbd1829a7	-0.037149098
121	0xbcf9cb70	-0.030492514
122	0x3d52358e	0.051320605
123	0x3d81fe7d	0.06347368
124	0xbd90eb89	-0.07076175
125	0xbd04cedc	-0.03242384
126	0xbceab04d	-0.02864852
127	0x3d38e765	0.04514255
128	0xbd9cdc2a	-0.076591805
129	0x3b05d022	0.0020418246
130	0xbd9e0e3b	-0.07717558
131	0xbdb500e9	-0.08838064
132	0xbc783f38	-0.015151791
133	0x3c6fc4cd	0.014634323
134	0x3d42fbae	0.0476033
135	0xbcd8d57d	-0.026468987
136	0xbd43fb91	-0.047847334
137	0xbcad8ef9	-0.021186339
138	0xbd5bf8a5	-0.053703923
139	0x3dddcf4f	0.108305566
140	0x3d9ccefc	0.07656667
141	0xbdba5e71	-0.091000445
142	0xbd292b77	-0.041301217
143	0x3d30c941	0.04316068
144	0xbd8e6ec8	-0.069547236
145	0x3d06f443	0.03294779
146	0xbd1fb0d2	-0.03898699
147	0xbd91339f	-0.07089924
148	0xbd155343	-0.036456358
149	0xbd467df1	-0.04845995
150	0x3c8e0b71	0.01733944
151	0x3b751a59	0.0037399738
152	0xbd27e544	-0.04099013
153	0xbd862cf5	-0.065515436
154	0x3d1afe10	0.03783995
155	0xbd87bb2d	-0.06627498
156	0xbd6bbaa8	-0.057551056
157	0xbd83a120	-0.064272165
158	0x3dc521ab	0.09625562
159	0x3d25521d	0.040361512
160	0x3cadffe2	0.021240178
161	0x3da94776	0.08265583
162	0x3c5d2d2f	0.013499542
163	0x3d9a2622	0.075268045
164	0xbd5ac2c0	-0.053408384
165	0x3dd3c35e	0.10339998
166	0x3dbcb967	0.0921505
167	0x3db9c46b	0.09070667
168	0x3d22c2d5	0.039736588
169	0x3da0758b	0.078349195
170	0x3d56caf4	0.052439645
171	0xbda78179	-0.08178992
172	0x3cc004fe	0.02343988
173	0xbd907f15	-0.07055489
174	0x3db1819b	0.086672984
175	0xbcac0fcc	-0.021003626
176	0xbd638fc3	-0.055557024
177	0x3cfad3c6	0.03061856
178	0x3c58b6b7	0.013227156
179	0x3d9cd3af	0.07657563
180	0x3d9e3314	0.07724586
181	0xbbe38063	-0.006942795
182	0xbcefaa91	-0.029256137
183	0xbd33a0e2	-0.0438546
184	0x3d2bf1bc	0.041978583
185	0xbd278ade	-0.04090392
186	0x3db95b29	0.090505905
187	0xbd951666	-0.07279663
188	0x3daf35bd	0.08555172
189	0xbdb0a89d	-0.086259104
190	0xbc3735e8	-0.011182286
191	0x3dcb5d23	0.09929874
192	0xbd9ced89	-0.07662494
193	0x3ba1fb41	0.004943282
194	0x3daaf3ba	0.083472684
195	0xbc7feae2	-0.015619965
196	0xbd3982e5	-0.045290846
197	0xbdae14b7	-0.08500045
198	0xbc22c433	-0.009934473
199	0xbd3bc269	-0.0458397
200	0x3b47af10	0.0030469336
201	0xbd538606	-0.051641487
202	0x3dcbdee5	0.09954623
203	0xbda88866	-0.08229141
204	0x3d37dcc6	0.04488828
205	0xbcdf19d3	-0.027233994
206	0x3d02885f	0.031868335
207	0xbd8f0878	-0.06984037
208	0xbcdca424	-0.026933737
209	0xbdb8f07b	-0.09030243
210	0xbcb6a965	-0.02229757
211	0x3d6766d5	0.056494553
212	0xbd393ea4	-0.045225754
213	0xbd9f1bd6	-0.07768981
214	0x3c4f2525	0.012643133
215	0x3c62760e	0.013822092
216	0x3daae173	0.08343782
217	0x3d78ce0b	0.060743373
218	0x3dbaa461	0.09113384
219	0x3cd6a614	0.02620224
220	0x3c8b727d	0.017022366
221	0x3dc2bea2	0.095090166
222	0x3db2b593	0.08726039
223	0x3d0c989e	0.034325235
224	0xbd5256c1	-0.051352266
225	0xbda7bc70	-0.081902385
226	0x3d9d4d7a	0.07680793
227	0xbdd3668b	-0.10322293
228	0xbc7a7f7d	-0.015289185
229	0x3d47203c	0.048614725
230	0xbd9868f1	-0.07441891
231	0xbcb88a39	-0.022526847
232	0xbcb6e285	-0.02232481
233	0xbd1d8a61	-0.038462047
234	0xbd746114	-0.059662893
235	0xbc3b3738	-0.011426739
236	0x3d98e09f	0.07464718
237	0x3d00aa92	0.03141267
238	0xbdc0748e	-0.09397231
239	0x3cd3939e	0.025827225
240	0x3da8c1f3	0.08240118
241	0xbca997c7	-0.020702256
242	0xbdc54563	-0.09632375
243	0x3d5ada79	0.053431008
244	0xbd1ee3a2	-0.038791306
245	0xbadc939c	-0.0016828659
246	0x3da910ea	0.08255179
247	0x3cb08a02	0.021550182
248	0x3c2bcd5b	0.010485972
249	0x3d1624b6	0.036656104
250	0xbce707d2	-0.028201971
251	0xbd71cd40	-0.059033632
252	0x3c196c09	0.0093641365
253	0x3dca6f91	0.09884561
254	0xbd9e9405	-0.07743076
255	0xbc8e90d9	-0.017403053

arch.net.inception_block_1.branches.0.0.bias f4 [8]
0	0x3b7bd235	0.0038424854
1	0x3b46d833	0.0030341267
2	0xba6e6d70	-0.0009095287
3	0xbbb1ebfe	-0.005429744
4	0xbb576b66	-0.003287041
5	0x3c165dad	0.0091776075
6	0x3c3b2b4a	0.011423895
7	0x3b225755	0.0024771292

arch.net.inception_block_1.branches.0.1.weight f4 [8]
0	0x3f7f61e3	0.9975874
1	0x3f7ed9b0	0.99550915
2	0x3f814177	1.0098103
3	0x3f7cd1df	0.9875774
4	0x3f81a5ee	1.0128763
5	0x3f7d56aa	0.98960364
6	0x3f7fda08	0.99942064
7	0x3f813c32	1.0096495

arch.net.inception_block_1.branches.0.1.bias f4 [8]
0	0x3bf003fb	0.0073246933
1	0xbb53cd36	-0.003231836
2	0xba98696e	-0.00116281
3	0x3c36f4d6	0.011166772
4	0xbbc63349	-0.006048594
5	0x3bb69cb6	0.0055728806
6	0xbbb16ee6	-0.0054148315
7	0x3aaed274	0.0013337866

arch.net.inception_block_1.branches.0.1.running_mean f4 [8]
0	0x39d19bc5	0.00039979644
1	0x3a89b5de	0.0010506471
2	0xb984212c	-0.00025201717
3	0xba82430a	-0.0009938192
4	0x3975010c	0.00023365411
5	0x3a9b6d74	0.0011858181
6	0x3abbd3e1	0.0014330113
7	0x3a3ee82b	0.00072825205

arch.net.inception_block_1.branches.0.1.running_var f4 [8]
0	0x3f4328e7	0.7623429
1	0x3f4328e7	0.7623429
2	0x3f4328e7	0.7623429
3	0x3f4328e7	0.7623429
4	0x3f4328e7	0.7623429
5	0x3f4328e7	0.7623429
6	0x3f4328e7	0.7623429
7	0x3f4328e7	0.7623429

arch.net.inception_block_1.branches.0.4.weight f4 [16, 1, 16, 1]
0	0x3d16deb5	0.036833484
1	0xbd98c641	-0.07459689
2	0xbd88356f	-0.06650817
3	0xbdc8da58	-0.09807271
4	0xbe1c5ff1	-0.15270974
5	0x3df397c2	0.1189418
6	0x3e0dc550	0.138448
7	0xbdf52162	-0.11969258
8	0x3d2a1b57	0.04152998
9	0x3db7aed8	0.08968896
10	0xbdda8f65	-0.106718816
11	0x3cd44ead	0.025916422
12	0x3de96fa3	0.11398246
13	0xbe0aeb5a	-0.13566342
14	0xbc597b76	-0.013274064
15	0x3da4f26a	0.08054049
16	0x3e06cc73	0.13163929
17	0xbdb46a36	-0.08809321
18	0x3dfcfeda	0.123532966
19	0x3d61d958	0.055138916
20	0x3def81df	0.11694693
21	0xbdc4adfb	-0.09603497
22	0xbdec766c	-0.11546025
23	0xbe124b97	-0.14286648
24	0x3ce92222	0.028458659
25	0xbc9b57db	-0.018962791
26	0x3de94310	0.11389744
27	0x3d241c7c	0.040066227
28	0x3d75d25b	0.060015064
29	0x3ce0ea9f	0.027455626
30	0x3d9a8676	0.07545178
31	0xbda4715b	-0.08029433
32	0xbcc284f6	-0.023745041
33	0xbdcdfdc5	-0.10058168
34	0x3d075495	0.033039648
35	0xbe15d20c	-0.14630908
36	0xbdec1b86	-0.11528687
37	0x3dd7d4ed	0.10538659
38	0xbdbb64f6	-0.09150116
39	0x3d0d33af	0.034473117
40	0x3dc49013	0.095977925
41	0x3dc93124	0.09823826
42	0x3d9aa1d9	0.07550401
43	0xbd52aebf	-0.051436182
44	0xbe09b110	-0.1344645
45	0x3e01aa1b	0.12662546
46	0x3c707801	0.014677049
47	0x3c83c1ae	0.016083565
48	0x3dd86155	0.105654396
49	0xbdec5fbf	-0.115416996
50	0x3de797c9	0.113082476
51	0xbd051b24	-0.032496586
52	0x3c0f567c	0.008748647
53	0xbd583093	-0.0527807
54	0xbe0dd7c4	-0.1385184
55	0x3cf3ce51	0.029761465
56	0x3d0f9dd7	0.035062637
57	0x3dd2d045	0.102936305
58	0x3d69cff2	0.057083078
59	0x3d49e5b4	0.049291328
60	0xbe17d10d	-0.1482584
61	0xbda14419	-0.07874317
62	0xbe1438e2	-0.14474824
63	0xbd59acb0	-0.053143203
64	0xbda2eb93	-0.079550885
65	0xbd900f23	-0.07034137
66	0x3dd6797b	0.10472389
67	0x3ca66ec6	0.020316493
68	0xbdcf37f4	-0.10118094
69	0xbd8142c0	-0.0631156
70	0x3d184c3a	0.03718207
71	0xbe0e10f0	-0.13873649
72	0x3d48b694	0.049002245
73	0xbd703961	-0.05864847
74	0xbd7f18fc	-0.062279686
75	0x3cf27c80	0.029600382
76	0xbd94fdc6	-0.07274966
77	0xbd8486dc	-0.06471035
78	0x3d58602f	0.052826103
79	0xbd1cd741	-0.03829122
80	0x3e0c5ba0	0.13706827
81	0xbdc71f3a	-0.09722753
82	0xbde60679	-0.11231703
83	0xbd921229	-0.0713237
84	0xbd6b54a6	-0.057453774
85	0xbd46af17	-0.048506822
86	0xbd1e66e9	-0.03867236
87	0x3d754baf	0.05988663
88	0x3c343235	0.010998298
89	0x3d4d53cc	0.050128743
90	0x3de5655d	0.11200974
91	0xbdd1a4ce	-0.10236512
92	0x3e06d70d	0.13167973
93	0x3d18c083	0.03729297
94	0x3dca5bc9	0.09880788
95	0x3d45561e	0.04817783
96	0xbd211275	-0.039324243
97	0x3d12195a	0.03566871
98	0x3d2ed752	0.042685814
99	0xbcdc43e3	-0.02688784
100	0x3da8b4bc	0.08237597
101	0x3da4c77d	0.08045862
102	0xbdb1f26b	-0.08688816
103	0xbdf92a0a	-0.121662214
104	0xbcc8f02f	-0.024528591
105	0x3d0990f4	0.033585504
106	0xbd4644f5	-0.048405606
107	0x3c878704	0.016543873
108	0x3906039e	0.00012780583
109	0x3d24b154	0.040208176
110	0xbdbb209d	-0.0913708
111	0xbdbf36f3	-0.093366526
112	0x3d2add06	0.04171469
113	0xbdd340a7	-0.10315066
114	0x3d5af291	0.053453986
115	0xbe0d6c41	-0.13810827
116	0xb9686a56	-0.00022164857
117	0x3d82325c	0.063572615
118	0x3d878bf7	0.06618493
119	0xbd1c4dc1	-0.03816009
120	0x3dc11849	0.0942846
121	0xbcbf63af	-0.023362963
122	0xbde5a84d	-0.112137415
123	0xbd2b3c35	-0.041805465
124	0xbdc1dc68	-0.09465867
125	0x3d46adea	0.0485057
126	0xbd840e8b	-0.06448086
127	0xbc059291	-0.00815262
128	0xbd21ef48	-0.039534837
129	0x3d803024	0.06259182
130	0x3cd30d7b	0.025763264
131	0x3c97cc2f	0.01852998
132	0x3c06cbfc	0.008227345
133	0x3c24090a	0.010011921
134	0xbdd51059	-0.10403509
135	0xbcb5ea3d	-0.02220642
136	0x3da0a82c	0.07844576
137	0xbde94d7a	-0.113917306
138	0x3dce0f15	0.100614704
139	0xbd2c9f8f	-0.042144354
140	0xbd962590	-0.07331383
141	0xbd806b16	-0.06270425
142	0x3d667749	0.056266103
143	0xbcc52739	-0.024066554
144	0x3e02b953	0.12766008
145	0xbe01e4f8	-0.12685001
146	0xbb85d893	-0.0040846555
147	0x3c3122cf	0.010811522
148	0xbe0884a7	-0.13331853
149	0xbe03f252	-0.12885407
150	0xbdf57897	-0.11985891
151	0xbdc137a1	-0.094344385
152	0x3dca4c33	0.09877815
153	0x3e090a69	0.13382877
154	0xbe05348a	-0.13008323
155	0xbe0939f9	-0.13401021
156	0xbca11bb2	-0.019666526
157	0x3b517d63	0.0031965605
158	0xbcad6a9a	-0.021168996
159	0xbda7e918	-0.08198756
160	0x3d3d6d36	0.04624673
161	0x3d5655d6	0.052327953
162	0x3d874c6c	0.06606373
163	0x3ba91974	0.005160505
164	0xbd944518	-0.07239741
165	0x3d1b45f4	0.03790851
166	0x3ccd9779	0.025096642
167	0x3d49e49d	0.04929029
168	0xbd9dc198	-0.07702941
169	0xbd8bdb50	-0.0682894
170	0xbd95ee8a	-0.07320888
171	0xbe01095d	-0.12601228
172	0xbdca4d01	-0.098779686
173	0xbe086007	-0.13317882
174	0x3de3c696	0.11121862
175	0xbd1280a7	-0.035767224
176	0xbdbc5923	-0.09196689
177	0xbdd180d6	-0.10229652
178	0x3d9c557c	0.07633492
179	0x3dbdecea	0.092737034
180	0x3d244a92	0.04011018
181	0x3d2c8d6c	0.042127058
182	0x3dee971b	0.11649915
183	0x3d44488c	0.04792075
184	0x3dea3c0e	0.11437236
185	0x3d1fc1ed	0.0390033
186	0xbde5e7de	-0.11225866
187	0xbda41109	-0.08011062
188	0x3d687697	0.05675372
189	0x3c84e5e7	0.016222907
190	0x3d9b80d9	0.07592935
191	0x3da67044	0.08126882
192	0xbb8cd8e7	-0.0042983177
193	0xbd250b10	-0.040293753
194	0x3de5206e	0.11187826
195	0xbd5d6f88	-0.054061443
196	0xbcff5546	-0.031168591
197	0x3dea7f8d	0.1145011
198	0x3da0a489	0.078438826
199	0x3d11afb6	0.03556796
200	0x3dc0d1f8	0.09415048
201	0xbdcc0478	-0.0996179
202	0xbdb48c37	-0.08815806
203	0x3e157d44	0.14598566
204	0xbdba468e	-0.090954885
205	0xbda6eb6a	-0.081503704
206	0xbdce7f1f	-0.1008284
207	0x3d1b24e4	0.03787698
208	0x3dd39b46	0.103323504
209	0x3db102c7	0.08643108
210	0x3e100abd	0.14066596
211	0xbdb9c5e0	-0.09070945
212	0x3e06d853	0.13168459
213	0xbdae90f0	-0.085237384
214	0x3dd677fa	0.104721025
215	0xbd8da45f	-0.06916117
216	0x3deb18e9	0.114793606
217	0x3df931f3	0.1216773
218	0xbc9b87be	-0.018985625
219	0xbe014f26	-0.12627849
220	0xbd4f533a	-0.05061648
221	0xbe0291e1	-0.12750961
222	0x3d939fa6	0.07208185
223	0xbda8c688	-0.08240992
224	0xbdc37f13	-0.09545722
225	0x3e0cef98	0.13763273
226	0xbd5201d1	-0.051271264
227	0x3d3aa2e7	0.045565512
228	0xbc1c7e74	-0.009551633
229	0x3d24a01b	0.04019175
230	0x3dda113c	0.106478184
231	0xbcc3523b	-0.023842921
232	0xbdf44562	-0.11927296
233	0xbc3e12fa	-0.011601204
234	0xbcc77a47	-0.024350299
235	0xbc5acf2f	-0.0133550605
236	0xbdf66fcb	-0.120330416
237	0xbd8adeda	-0.06780787
238	0x3d33f14f	0.0439313
239	0x3d0e2246	0.034700654
240	0xbe16676a	-0.14687887
241	0xbd340e67	-0.043959048
242	0x3c403cce	0.011733247
243	0xbd0fb701	-0.035086636
244	0x3db6c48c	0.08924207
245	0x3a1dbb44	0.00060169795
246	0x3da2175b	0.07914611
247	0xbc00870e	-0.0078447
248	0x3d871c75	0.065972246
249	0x3dcbe2b6	0.09955351
250	0xbe09047f	-0.13380621
251	0xbd3cc0df	-0.046082374
252	0x3d49dfdc	0.049285755
253	0xbc771f53	-0.015083152
254	0xbe1ad9b3	-0.15122108
255	0x3e0df35f	0.1386237

arch.net.inception_block_1.branches.0.5.weight f4 [16]
0	0x3f7efb3d	0.9960211
1	0x3f800263	1.0000728
2	0x3f7dac41	0.99090964
3	0x3f80b182	1.0054171
4	0x3f80f986	1.0076149
5	0x3f808cc9	1.0042964
6	0x3f7f9751	0.99840266
7	0x3f7d2517	0.9888472
8	0x3f81457b	1.0099329
9	0x3f812952	1.0090735
10	0x3f7fd997	0.9994139
11	0x3f7c8e4d	0.98654634
12	0x3f7f845d	0.99811345
13	0x3f7f7dc0	0.99801254
14	0x3f80604c	1.0029387
15	0x3f8182dc	1.011806

arch.net.inception_block_1.branches.0.5.bias f4 [16]
0	0x3c2a5321	0.010395796
1	0x3c0fbcfa	0.008773083
2	0xbc2001e2	-0.009766074
3	0x371f9498	9.511736e-06
4	0x3b013401	0.0019714835
5	0xbb277f93	-0.0025558218
6	0x3baf8cd6	0.005357365
7	0xbbfcfd97	-0.00772066
8	0x3b65acb4	0.0035045566
9	0x3ba0dd7e	0.0049092164
10	0x3aa962e4	0.0012923148
11	0xbc1c8c72	-0.009554969
12	0x3b8e491b	0.004342211
13	0x3c3121fb	0.010811324
14	0x3c0ea90a	0.008707294
15	0xbad33696	-0.001611429

arch.net.inception_block_1.branches.0.5.running_mean f4 [16]
0	0xb92a2241	-0.00016225224
1	0x39a7f92a	0.00032038364
2	0x380abebd	3.3079403e-05
3	0x395c9330	0.00021035667
4	0x399c850b	0.00029853763
5	0xb8f137ba	-0.000115021554
6	0xb9c4502c	-0.00037443766
7	0xb9f07023	-0.00045859916
8	0x3893e8bc	7.0528564e-05
9	0x39be8dad	0.0003634518
10	0xb9c64a19	-0.0003782071
11	0x3a10a2a1	0.00055173977
12	0xb6a1a6da	-4.817598e-06
13	0xb998e6b2	-0.0002916358
14	0xb83fd74c	-4.573846e-05
15	0xb739c7a3	-1.1073341e-05

arch.net.inception_block_1.branches.0.5.running_var f4 [16]
0	0x3f432900	0.76234436
1	0x3f432900	0.76234436
2	0x3f432905	0.76234466
3	0x3f43290c	0.7623451
4	0x3f432900	0.76234436
5	0x3f432900	0.76234436
6	0x3f432900	0.76234436
7	0x3f432900	0.76234436
8	0x3f432900	0.76234436
9	0x3f432916	0.7623457
10	0x3f432900	0.76234436
11	0x3f432900	0.76234436
12	0x3f432900	0.76234436
13	0x3f432917	0.76234573
14	0x3f432900	0.76234436
15	0x3f432900	0.76234436

arch.net.inception_block_1.branches.1.0.weight f4 [8, 1, 1, 31]
0	0x3daa698a	0.08320911
1	0xbd86d5b5	-0.0658373
2	0xbdb234d2	-0.08701481
3	0x3d287968	0.041131407
4	0xbbc02193	-0.0058633774
5	0x3d55b15d	0.0521711
6	0x3d66e131	0.056367103
7	0x3d4ace8e	0.049513392
8	0xbd32cfa3	-0.04365505
9	0xbd3f3786	-0.04668381
10	0xbd774c64	-0.060375586
11	0xbd6bd0f7	-0.05757233
12	0xbd2cc24d	-0.042177487
13	0xbda71fb9	-0.081603475
14	0xbdbbfb3b	-0.09178778
15	0xba1557ab	-0.00056969625
16	0xbe0d4936	-0.13797459
17	0x3d7355d6	0.05940803
18	0xbdece031	-0.115661986
19	0xbde19f83	-0.110167526
20	0xbca4c55e	-0.020113643
21	0x3d3a6eaf	0.045515712
22	0x3dde9bb1	0.108695395
23	0x3da5a8b3	0.080888174
24	0xbcb201cc	-0.021729372
25	0x3e141e20	0.14464617
26	0xbda5b363	-0.08090856
27	0xbd34d254	-0.044145897
28	0xbd16aada	-0.03678403
29	0xb8cc1d37	-9.73292e-05
30	0x3dcfb5b1	0.10142077
31	0x3d28910c	0.041153952
32	0x3e094e0f	0.13408683
33	0xbd966488	-0.073433936
34	0xbdaf460a	-0.08558281
35	0xbcfe7afb	-0.031064501
36	0xbb85daa6	-0.004084903
37	0xbd69861e	-0.05701267
38	0xbd4449b5	-0.047921855
39	0xbdab5139	-0.08365101
40	0x3e05d43c	0.13069242
41	0x3e079b23	0.13242774
42	0x3d04293d	0.03226589
43	0x3d043e8f	0.032286223
44	0x3e02738a	0.12739387
45	0x3d17fab4	0.037104324
46	0xbd4020e6	-0.046906374
47	0x3d9bd41f	0.07608818
48	0x3df8ec10	0.121544
49	0xbc9a8f9a	-0.018867303
50	0x3d8ef955	0.0698115
51	0xbc17e28b	-0.009270321
52	0x3e09deb0	0.13463855
53	0xbdcc2b54	-0.09969202
54	0x3dba1fad	0.09088073
55	0xbddba17d	-0.10724161
56	0x3d8a36cc	0.06748733
57	0x3dac79fc	0.08421704
58	0x3dbfe4d7	0.093698196
59	0xbdc5504e	-0.096344575
60	0xbdce4ad8	-0.10072869
61	0x3da5d381	0.08096982
62	0x3dd34311	0.10315526
63	0xbc80028a	-0.01562621
64	0x3d484056	0.04888948
65	0xbceffb33	-0.029294586
66	0xbdb037d9	-0.08604402
67	0xbc57ce9f	-0.013171821
68	0xbc4b1472	-0.012395011
69	0xbddc5fc4	-0.10760453
70	0xbd7b30c7	-0.061325815
71	0xbe0532f8	-0.13007724
72	0xbd7f7072	-0.062363096
73	0xbdda65d3	-0.10663953
74	0x3cc047d5	0.023471752
75	0xbdd3286f	-0.103104465
76	0xbd97a44f	-0.07404386
77	0xbd93e10b	-0.07220658
78	0xbe126532	-0.14296415
79	0x3cb1fd17	0.021727128
80	0x3da544c0	0.08069754
81	0xbd9cc1cd	-0.07654152
82	0x3e13220b	0.14368455
83	0x3d4b5750	0.049643815
84	0xbe0e7815	-0.13912995
85	0xbdf84ff1	-0.121246226
86	0xbdfead90	-0.12435448
87	0xbd8ad474	-0.067788035
88	0xbd487697	-0.04894122
89	0xbd381c3d	-0.044948805
90	0x3d9c822a	0.07642014
91	0x3dc8adfc	0.0979881
92	0x3d05000c	0.032470748
93	0x3d9d28c8	0.07673794
94	0x3dbff1b0	0.0937227
95	0xbd9e45c3	-0.0772815
96	0xbe12a691	-0.14321353
97	0xbd392989	-0.045205627
98	0x3d5cd108	0.053910285
99	0xbca47e38	-0.020079717
100	0x3dcbf477	0.09958737
101	0x3d813d17	0.0631048
102	0x3d8c5241	0.06851626
103	0xbd1032cc	-0.035204694
104	0xbcfe44cd	-0.031038666
105	0x3d0f2a2d	0.03495233
106	0xbdec5f66	-0.11541633
107	0xbd9d095d	-0.076678015
108	0xbdcb59a3	-0.09929206
109	0xbbee238b	-0.0072674206
110	0x3c4d480b	0.012529383
111	0xbde19ef4	-0.11016646
112	0x3e0bce26	0.13652858
113	0xbb479d52	-0.003045876
114	0xbd609096	-0.054825388
115	0x3d65fdb8	0.05615017
116	0x3d1d116f	0.038346704
117	0x3dd915f9	0.10599894
118	0xbd1b6fff	-0.037948605
119	0xbda3f6a8	-0.0800603
120	0x3d132149	0.035920415
121	0xbd2a25c7	-0.041539934
122	0x3d9cd317	0.0765745
123	0xbd92517a	-0.07144447
124	0xbbf598cc	-0.0074950214
125	0xbd3d23c6	-0.046176694
126	0x3dc5ad35	0.09652177
127	0xbd5fe0e8	-0.054657847
128	0xbc376e07	-0.011195666
129	0x3c8d20f4	0.017227627
130	0xbc928fbc	-0.017890804
131	0xbe00970b	-0.12557618
132	0xba75cbb8	-0.0009376365
133	0x3e0b9151	0.13629653
134	0x3dc967d7	0.09834259
135	0xbd953570	-0.07285583
136	0x3d8638e0	0.06553817
137	0x3e09a61a	0.13442269
138	0x3d91a56f	0.07111632
139	0xbd8314bc	-0.06400439
140	0xbdded714	-0.10880867
141	0xbdc6d7b5	-0.097091116
142	0x3dea0be9	0.11428053
143	0xbe01aefa	-0.12664405
144	0xbd94ae3e	-0.072597966
145	0x3cc58773	0.024112439
146	0x3dd5e200	0.10443497
147	0x3b109752	0.002206285
148	0xbdd8885b	-0.10572883
149	0x3d5be1bb	0.05368207
150	0xbde1ead8	-0.11031121
151	0xbe0a5f33	-0.13512878
152	0xbcaefa29	-0.02135952
153	0x3d38cedd	0.045119155
154	0xbd07aa73	-0.033121537
155	0x3d8e7685	0.069561996
156	0xbc8a4add	-0.0168814
157	0xbcf24c32	-0.029577348
158	0x3ddcd066	0.10781936
159	0x3dc5fa2d	0.09666858
160	0x3caf26ed	0.021380866
161	0x3dc034f8	0.09385103
162	0xbde46cf1	-0.111535914
163	0xbd1bbfd2	-0.03802473
164	0xbdcfa549	-0.101389475
165	0x3cf3771b	0.02971988
166	0xbd002622	-0.031286366
167	0xbe0a39a3	-0.13498549
168	0x3d93f1c5	0.07223848
169	0xbd9a32eb	-0.07529243
170	0x3e095863	0.13412623
171	0x3e19737c	0.1498546
172	0xbdc04974	-0.0938901
173	0xbdaf04dd	-0.085458495
174	0x3d1c8f17	0.0382224
175	0x3d385f20	0.045012593
176	0x3df2f35b	0.118628226
177	0x3e179caa	0.14805856
178	0xbbf7c965	-0.00756185
179	0xbdbddda5	-0.09270791
180	0xbd8d4248	-0.06897408
181	0xbdec8117	-0.115480594
182	0xbde8c1e6	-0.11365108
183	0xbca1a521	-0.01973206
184	0xbd0a585b	-0.03377567
185	0x3db7f066	0.08981399
186	0xbe06df9a	-0.13171235
187	0xbddcdb15	-0.10783974
188	0x3d942141	0.07232905
189	0x3e03b4d3	0.12861948
190	0xbdde338c	-0.108496755
191	0x3e177a50	0.14792752
192	0xbdb476d0	-0.08811724
193	0x3cf2bc08	0.029630676
194	0x3d279d13	0.040921282
195	0x3d838180	0.064211845
196	0x3da362ec	0.07977852
197	0x3d130b42	0.03589941
198	0x3b9bc4cf	0.004753686
199	0xbdd8b1ee	-0.105808124
200	0xbdd39325	-0.103308
201	0xbde00c26	-0.10939817
202	0xbc81ca91	-0.015843662
203	0x3dc15e88	0.094418585
204	0x3dfaa674	0.1223878
205	0xbdf530c6	-0.119721934
206	0x3dffc70d	0.12489138
207	0x3e13ea2c	0.14444798
208	0xbcaedcc1	-0.021345498
209	0x3e225b5b	0.15855162
210	0xbde518b5	-0.11186353
211	0x3e068768	0.13137591
212	0x3e07b09a	0.13250962
213	0x3d07c585	0.033147354
214	0xbbb5f607	-0.0055530104
215	0x3da96d79	0.082728334
216	0xbd3d2997	-0.04618224
217	0xbd937fe4	-0.072021276
218	0xbd3be857	-0.045875873
219	0x3c981be4	0.018567987
220	0x3d744c5a	0.059643127
221	0xbcc7fd5b	-0.024412801
222	0xbde27ace	-0.110585794
223	0xbd294f60	-0.041335464
224	0x3d8118a6	0.063035294
225	0xbe040244	-0.1289149
226	0x3da8f196	0.08249204
227	0x3c1bb0b3	0.009502578
228	0xbdc85e45	-0.097836055
229	0x3d8d45f5	0.06898109
230	0xbccd31ec	-0.025048219
231	0x3dbb11eb	0.09134277
232	0x3c2dfef5	0.0106198685
233	0x3db24813	0.08705153
234	0xbd4f6fa1	-0.050643567
235	0xbdbf2397	-0.0933296
236	0xbd718f61	-0.058974627
237	0x3e16a50b	0.14711396
238	0x3da96a8b	0.082722746
239	0x3de83bb2	0.11339511
240	0xbda8505a	-0.08218451
241	0xbd9c8728	-0.076429665
242	0xbc458311	-0.012055174
243	0x3da4de0f	0.08050167
244	0x3cc7a08f	0.024368552
245	0x3d476dbd	0.04868864
246	0x3e05efd0	0.13079762
247	0xbcf2db72	-0.029645655

arch.net.inception_block_1.branches.1.0.bias f4 [8]
0	0x3bd8efec	0.006620398
1	0x3a98d339	0.0011659629
2	0xbb9803c5	-0.0046391212
3	0x3c80e5c0	0.015734553
4	0xbacf4324	-0.0015812856
5	0x3b2b945e	0.0026180963
6	0x3b787f4e	0.0037917676
7	0x3c305527	0.010762489

arch.net.inception_block_1.branches.1.1.weight f4 [8]
0	0x3f7fb4e9	0.9988542
1	0x3f7f43ca	0.9971281
2	0x3f7d4c7a	0.9894482
3	0x3f7dbaf9	0.9911342
4	0x3f808121	1.0039407
5	0x3f803bc1	1.0018235
6	0x3f81998f	1.0124987
7	0x3f7ecea9	0.9953409

arch.net.inception_block_1.branches.1.1.bias f4 [8]
0	0x3bed8e08	0.0072495975
1	0x3ad44f18	0.0016197888
2	0x3af8179c	0.0018927935
3	0x3b4a273c	0.003084614
4	0xbbfd7ef9	-0.0077360836
5	0x3b42a023	0.00296975
6	0x3ad1586c	0.0015971786
7	0xbbeced90	-0.007230468

arch.net.inception_block_1.branches.1.1.running_mean f4 [8]
0	0x39d5aa9d	0.00040753643
1	0xb86fc7fa	-5.7168283e-05
2	0xba4fafe3	-0.00079226325
3	0x3b128585	0.0022357416
4	0xb9146c77	-0.00014154786
5	0x39e361ed	0.00043369774
6	0x397e1ef8	0.00024234864
7	0x3afab366	0.0019126951

arch.net.inception_block_1.branches.1.1.running_var f4 [8]
0	0x3f4328e7	0.7623429
1	0x3f4328e7	0.7623429
2	0x3f4328e7	0.7623429
3	0x3f4328e7	0.7623429
4	0x3f4328e7	0.7623429
5	0x3f4328e7	0.7623429
6	0x3f4328e7	0.7623429
7	0x3f4328e7	0.7623429

arch.net.inception_block_1.branches.1.4.weight f4 [16, 1, 16, 1]
0	0xbd1a8d2b	-0.037732285
1	0x3d50894c	0.050912187
2	0xbdb59322	-0.08865954
3	0xbd2d2c79	-0.04227874
4	0x3c91b060	0.017784297
5	0xbdfeef57	-0.12447994
6	0xbdf400c9	-0.11914212
7	0x3d970b1d	0.073751666
8	0x3d66146b	0.056171816
9	0x3d3fade7	0.046796706
10	0x3d930932	0.07179488
11	0x3be7888b	0.0070658377
12	0x3d73f7b9	0.05956242
13	0xbe071386	-0.13191041
14	0xbe082615	-0.13295777
15	0xbdc6af20	-0.09701371
16	0x3df8a202	0.121402755
17	0x3d7890ce	0.06068497
18	0x3d876e10	0.0661279
19	0x3d939d87	0.0720778
20	0xbb1dbfb9	-0.0024070574
21	0x3d24b774	0.040214017
22	0xbc44b52d	-0.012006086
23	0x3beda0df	0.0072518433
24	0xbc1df6cd	-0.009641361
25	0x3e0b6139	0.13611306
26	0xbe16edb3	-0.14739113
27	0x3d51eba5	0.05125012
28	0x3d8f25b0	0.0698961
29	0xbda774a6	-0.08176546
30	0x3e0c47bd	0.13699241
31	0x3d9df4c7	0.07712703
32	0xbe06f82a	-0.13180605
33	0x3e1460ef	0.14490102
34	0xbd87eca9	-0.06636936
35	0x3de251c0	0.11050749
36	0xbd9db5c2	-0.07700683
37	0xbdcb49c6	-0.099261805
38	0x3d113489	0.035450492
39	0x3ca5d72a	0.0202442
40	0xbdbd2255	-0.09235064
41	0x3e23ea51	0.16007353
42	0xbdd7ae5d	-0.10531304
43	0xbdf94154	-0.121706635
44	0x3e0e7cb1	0.13914753
45	0x3d78d228	0.060747296
46	0xbe08ca2a	-0.1335837
47	0x3d98da15	0.07463471
48	0x3e10d8c9	0.14145197
49	0x3d85d7a0	0.06535268
50	0xbd9c5db4	-0.0763506
51	0xbd7c5109	-0.06160072
52	0x3de9bea8	0.11413318
53	0x3e0e2c67	0.13884126
54	0x3e03716a	0.12836233
55	0x3de798fe	0.11308478
56	0xbd75a264	-0.05996932
57	0x3d64d4cd	0.055867005
58	0x3e161f10	0.14660287
59	0xbe0ad88b	-0.13559167
60	0xbdce8797	-0.100844555
61	0xbd751df5	-0.059843022
62	0xbd806b78	-0.06270498
63	0xbd93224d	-0.07184277
64	0x3d902774	0.07038775
65	0xbdbe1c82	-0.09282781
66	0xbe09b306	-0.13447198
67	0xbcb51c12	-0.022108112
68	0xbda291fd	-0.07938001
69	0x3e0faca5	0.14030702
70	0xbdc924be	-0.09821461
71	0x3e0ecaef	0.139446
72	0x3e08a297	0.13343273
73	0xbe087559	-0.13326015
74	0x3ded17c6	0.115768
75	0xbe09af96	-0.13445887
76	0xbda6d465	-0.0814598
77	0xbd80f1d5	-0.06296126
78	0x3d8812bd	0.06644199
79	0xbd5a810b	-0.05334572
80	0xbdb47643	-0.08811619
81	0xbdbe755f	-0.092997305
82	0xbdfd2a14	-0.123615414
83	0x3d1bd1bb	0.03804181
84	0x3c5ac42b	0.013352434
85	0x3cbb904b	0.022895953
86	0x3d750e70	0.05982822
87	0x3dbd173e	0.09232949
88	0x3e1cb78e	0.15304396
89	0xbd7e9053	-0.062149357
90	0x3deed82f	0.116623275
91	0xbddda9c6	-0.10823397
92	0xbda6154c	-0.08109531
93	0x3ca8da39	0.02061187
94	0x3dfbbfda	0.12292452
95	0xbe05cb91	-0.13065936
96	0x3e0ae5e3	0.13564257
97	0x3e0bb61c	0.13643688
98	0x3e246e0a	0.16057602
99	0x3d877a03	0.06615069
100	0x3e05fe2e	0.13085243
101	0x3dcea1ea	0.100894764
102	0xbdb1fb08	-0.086904585
103	0x3e100ae0	0.14066648
104	0x3de28ea4	0.11062363
105	0xbe081a19	-0.13291205
106	0x3dbfb9c5	0.093616046
107	0xbce55554	-0.02799479
108	0x3d6bca62	0.057566054
109	0xbd6de67a	-0.058081128
110	0xbdf0cb08	-0.11757475
111	0x3d1d1c12	0.038356848
112	0x3bde8085	0.006790223
113	0xbdb1a952	-0.086748734
114	0x3d753a73	0.059870195
115	0xbd9608d2	-0.07325901
116	0xbda147f5	-0.07875053
117	0x3cb16359	0.021653818
118	0x3d2dee93	0.04246385
119	0xbcc792e7	-0.02436204
120	0x3cac5955	0.02103869
121	0x3e0f93d8	0.14021242
122	0x3dedfcf7	0.11620515
123	0x3dbcfb34	0.09227601
124	0xbd6b57e7	-0.057456877
125	0x3cb49e82	0.022048239
126	0x3e0875ce	0.13326189
127	0x3dee2909	0.116289206
128	0x3dccadb8	0.09994072
129	0xbdfcfc7a	-0.123528436
130	0xb9f8349a	-0.00047341437
131	0x3d96e9a0	0.07368779
132	0xbcc3f7e6	-0.023921918
133	0x3d9bda23	0.07609966
134	0x3e154422	0.14576772
135	0x3df738c4	0.12071374
136	0x3cbd8e93	0.023139274
137	0xbd44ce75	-0.048048455
138	0xbe074323	-0.13209204
139	0xbdff25d8	-0.1245839
140	0xbdba46f3	-0.09095564
141	0xbc4b0fa2	-0.012393864
142	0xbc64b91e	-0.013960151
143	0x3e155acd	0.14585419
144	0x3d93a916	0.07209985
145	0xbe11784a	-0.14206043
146	0xbdd30ddf	-0.1030538
147	0xbd1f9219	-0.03895769
148	0xbccc198e	-0.02491453
149	0xbd7f8f46	-0.062392496
150	0x3df7ff94	0.121092945
151	0x3e0755b5	0.13216288
152	0xbb37b158	-0.002802929
153	0xbd21ef16	-0.03953465
154	0xbd84d328	-0.06485587
155	0xbdfaa51f	-0.122385256
156	0x3d11c840	0.035591364
157	0x3d2a446c	0.04156916
158	0x3d1f71a4	0.038926736
159	0xbdde411c	-0.108522624
160	0x3df8bc3d	0.121452786
161	0x3d64ddf6	0.05587574
162	0x3ce80fbf	0.02832782
163	0x3c6b6ff0	0.01436995
164	0x3ba17be2	0.004928098
165	0x3d2de9af	0.042459186
166	0x3de441ad	0.11145339
167	0xbd31f7c2	-0.04344917
168	0x3d6fb5aa	0.058522858
169	0xbdfefe6c	-0.12450871
170	0x3dee1e23	0.11626842
171	0xbe016544	-0.12636286
172	0x3e1e552e	0.15462181
173	0xbcf5db35	-0.030011753
174	0xbd88ac5e	-0.066735014
175	0x3d94e607	0.07270437
176	0xbdc4575d	-0.09586976
177	0xbe080756	-0.13284048
178	0xbcd9190b	-0.0265012
179	0x3dea605a	0.11444159
180	0xbd0b4003	-0.033996593
181	0xbcf150bf	-0.029457448
182	0x3ddf2663	0.108959936
183	0xba5253cc	-0.0008023351
184	0x3d1a3ad0	0.037653744
185	0x3de01ea2	0.10943343
186	0x3ce0baf9	0.027432906
187	0xbc8b2b02	-0.016988281
188	0x3ce1f7af	0.027583925
189	0xbd886a16	-0.06660859
190	0xbb823d1e	-0.003974571
191	0xbd522689	-0.05130628
192	0x3ce40248	0.027833119
193	0x3d337030	0.043808162
194	0xbd1d7e5f	-0.038450595
195	0x3e133fb4	0.1437977
196	0xbd124065	-0.035705943
197	0x3dc3528f	0.09537231
198	0x3e1c2008	0.15246594
199	0xbe0e7de3	-0.1391521
200	0xbde66f0e	-0.11251651
201	0xbde52fdc	-0.11190769
202	0xbda2a4b5	-0.079415716
203	0x3de9ff0c	0.114255995
204	0x3e02a79d	0.12759252
205	0x3d914633	0.070934676
206	0x3c13228f	0.008980407
207	0x3e0910a8	0.1338526
208	0xbe03e54c	-0.12880439
209	0xbe0667c9	-0.13125528
210	0x3d60e6c8	0.05490759
211	0xbd8f2de1	-0.069911726
212	0x3d41f764	0.04735507
213	0x3cfcea8e	0.030873563
214	0x3e030611	0.12795283
215	0x3df02976	0.11726658
216	0x3df98fc3	0.121856235
217	0xbd2973b4	-0.04137011
218	0xbe0f9bcd	-0.14024277
219	0xbd47b096	-0.04875239
220	0x3e06c001	0.13159181
221	0x3df1eaad	0.11812339
222	0xbb5e497a	-0.0033918307
223	0x3dc6d191	0.0970794
224	0xbc9347b6	-0.01797853
225	0xbadeb46a	-0.0016991023
226	0x3ddf90a1	0.10916258
227	0x3d94a326	0.072576806
228	0x3bde8b64	0.006791519
229	0x3d0e83e0	0.034793735
230	0xbd938d98	-0.07204741
231	0x3e05dbe2	0.1307216
232	0xbc6388c0	-0.013887584
233	0x3dd55aec	0.104177326
234	0x3b1cd354	0.0023929672
235	0xbbb3364e	-0.00546912
236	0xbcb6580d	-0.022258783
237	0xbd97e29e	-0.07416271
238	0xbd58ee64	-0.052961722
239	0x3e1ba981	0.1520138
240	0xbe0e4dc0	-0.13896847
241	0xbde71368	-0.11282998
242	0xbd4e970b	-0.050437015
243	0x3d01c1af	0.03167885
244	0x3d507fa2	0.05090297
245	0x3e09d110	0.13458657
246	0xbd640ef1	-0.05567831
247	0x3e084504	0.13307577
248	0x3df47110	0.119356275
249	0x3e0e07cd	0.13870163
250	0xbdd7584f	-0.105148904
251	0x3b815d31	0.003947877
252	0x3d52edf7	0.051496472
253	0x3d9cec53	0.07662263
254	0xbd60db08	-0.054896384
255	0x3d2962fc	0.041354164

arch.net.inception_block_1.branches.1.5.weight f4 [16]
0	0x3f80147a	1.0006249
1	0x3f7f245f	0.9966487
2	0x3f8150da	1.0102799
3	0x3f7d97d4	0.99059796
4	0x3f7f6bb4	0.99773717
5	0x3f7bc0d6	0.9834112
6	0x3f7e1cef	0.992629
7	0x3f7e77e6	0.994017
8	0x3f815161	1.010296
9	0x3f7f27e4	0.99670243
10	0x3f7f41b3	0.99709624
11	0x3f8057e3	1.0026821
12	0x3f81a390	1.012804
13	0x3f8045e0	1.0021324
14	0x3f8055e8	1.0026217
15	0x3f7e68e6	0.9937881

arch.net.inception_block_1.branches.1.5.bias f4 [16]
0	0x3baf067d	0.0053413496
1	0x3b916e3d	0.0044381903
2	0xbab7c6f7	-0.0014021088
3	0xba0b3dab	-0.00053116184
4	0xbb87476a	-0.0041283863
5	0xbc0b6e9e	-0.00851026
6	0xbbcb627b	-0.006206808
7	0xbb2c6b39	-0.0026309027
8	0x3bad2385	0.0052837753
9	0xbc3e9fb1	-0.011634753
10	0xbbee5441	-0.0072732274
11	0xb958d951	-0.00020680322
12	0x3badf44d	0.005308664
13	0x3be2592c	0.006907603
14	0x3a615ccb	0.0008596896
15	0xbbf86f90	-0.0075816587

arch.net.inception_block_1.branches.1.5.running_mean f4 [16]
0	0xba148e56	-0.00056669617
1	0x3a5c5a48	0.0008405787
2	0xb81860e4	-3.632986e-05
3	0x38ca4646	9.6452e-05
4	0xb8c72608	-9.496143e-05
5	0xb72aec0e	-1.018775e-05
6	0x3a2a1fcb	0.0006489723
7	0x39c44668	0.0003743649
8	0xb9451ed3	-0.00018798867
9	0x39c14c2a	0.00036868575
10	0x396e96ea	0.00022753669
11	0xb794a93c	-1.772178e-05
12	0xb918b30a	-0.00014562547
13	0xb8b4a152	-8.613117e-05
14	0xb9b0116b	-0.00033582313
15	0xb984ba00	-0.00025315583

arch.net.inception_block_1.branches.1.5.running_var f4 [16]
0	0x3f432900	0.76234436
1	0x3f432900	0.76234436
2	0x3f432917	0.76234573
3	0x3f432917	0.76234573
4	0x3f432917	0.76234573
5	0x3f432900	0.76234436
6	0x3f432906	0.7623447
7	0x3f432900	0.76234436
8	0x3f432902	0.7623445
9	0x3f432900	0.76234436
10	0x3f432900	0.76234436
11	0x3f432900	0.76234436
12	0x3f432917	0.76234573
13	0x3f432917	0.76234573
14	0x3f432900	0.76234436
15	0x3f432900	0.76234436

arch.net.inception_block_1.branches.2.0.weight f4 [8, 1, 1, 15]
0	0xbcef7e0e	-0.029234912
1	0x3e006cdc	0.12541527
2	0xbb947cf9	-0.0045314995
3	0x3e1b2525	0.15150888
4	0xbe1b8037	-0.15185629
5	0xbe30bd31	-0.17259671
6	0xbd8bc345	-0.06824354
7	0x3dc2ed1f	0.095178835
8	0xbd482c5a	-0.048870422
9	0xbd49829f	-0.049196836
10	0x3e18eea4	0.14934784
11	0x3d8c6f01	0.0685711
12	0x3de5bdf6	0.11217873
13	0xbde3f45a	-0.11130591
14	0x3d70f4c0	0.05882716
15	0xbd37261f	-0.04471409
16	0x3d94be47	0.07262855
17	0x3e31a487	0.17347918
18	0x3d4c3526	0.049855374
19	0xbe4678d1	-0.19382025
20	0x3db9ed3d	0.09078453
21	0x3e38edd0	0.18059468
22	0x3bdbd255	0.006708423
23	0x3cfe7cbf	0.031065343
24	0x3e0c02ad	0.13672896
25	0x3e52cf7d	0.20586963
26	0xbc1a2159	-0.009407365
27	0xbdcb37df	-0.09922766
28	0xbca870c4	-0.020561583
29	0xbe2d6c26	-0.16935787
30	0x3e43165a	0.19051495
31	0xbddc6cee	-0.10762964
32	0x3dca24ac	0.09870276
33	0x3c1bb821	0.009504349
34	0xbc0b0bc9	-0.0084866965
35	0xbe518e80	-0.20464516
36	0xbdab16eb	-0.08353981
37	0xbd8c3a55	-0.068470635
38	0x3dca740d	0.09885416
39	0x3d8a534e	0.0675417
40	0x3dbb560d	0.09147272
41	0x3cd3c4c7	0.025850667
42	0x3db4145c	0.08792946
43	0xbe34ee74	-0.17669088
44	0x3ddf58bf	0.10905599
45	0xbd2cb213	-0.042162012
46	0xbdf80bb1	-0.12111605
47	0x3e0eebf6	0.139572
48	0x3e124f49	0.14288057
49	0x3d8c14bb	0.068398915
50	0xbe21d01c	-0.15802044
51	0x3d8ea05e	0.06964181
52	0x3c91d261	0.017800512
53	0xbe2473ec	-0.16059846
54	0xbe0f0976	-0.13968453
55	0xbbe7fadf	-0.0070794667
56	0xbe10d105	-0.14142235
57	0xbd4af983	-0.04955436
58	0x3d3e3cd3	0.046444725
59	0x3e16e2b1	0.14734913
60	0x3e19e1ff	0.15027617
61	0xbe5633ad	-0.2091815
62	0xbdd739ee	-0.10509096
63	0x3da4ed65	0.08053092
64	0x3e19ab39	0.15006723
65	0xbe63179e	-0.22176978
66	0xbe22acee	-0.1588628
67	0xbe0d6b43	-0.13810448
68	0xbe51007f	-0.20410345
69	0x3cf556f9	0.029948698
70	0x3dfc5052	0.123200074
71	0xbe4ddbec	-0.20103425
72	0x3e469df9	0.193962
73	0xbde45da6	-0.111506745
74	0xbdc4db88	-0.09612185
75	0xbd1b7896	-0.037956797
76	0x3ce4ee38	0.027945623
77	0xbc6171b6	-0.013760021
78	0xbe1664ce	-0.14686891
79	0x3d3945a5	0.045232434
80	0xbd9393e4	-0.07205942
81	0x3df5ea8d	0.12007628
82	0xbc6c95a1	-0.014439971
83	0x3e0aa1c1	0.13538267
84	0x3e433e7a	0.19066802
85	0x3e0bf2bd	0.13666816
86	0x3d8d255c	0.06891891
87	0xbe26c712	-0.16286877
88	0xbd22b38f	-0.03972202
89	0xbe681170	-0.22662902
90	0x3e5e2291	0.21692874
91	0xbd6a71f3	-0.057237577
92	0xbdca0232	-0.098637
93	0xbe4692ba	-0.19391909
94	0x3de98393	0.11402049
95	0x3e12972d	0.14315481
96	0x3d7b6e78	0.061384648
97	0xbe1bc596	-0.15212092
98	0xbda43947	-0.08018737
99	0x3d4825b9	0.0488641
100	0x3b293a2f	0.0025822034
101	0xbe0d5e36	-0.1380547
102	0x3e104d6e	0.14092037
103	0xbe313acf	-0.1730759
104	0xbe1e9f56	-0.1549047
105	0xbd8fc6f9	-0.07020373
106	0x3e36e222	0.178597
107	0xbdce984e	-0.100876436
108	0xba198434	-0.00058561866
109	0x3e13c473	0.14430408
110	0x3da0c2b6	0.07849638
111	0x3e13d1dc	0.14435524
112	0x3d9f78d4	0.07786718
113	0x3da30261	0.07959438
114	0xbe4a1e2b	-0.1973807
115	0x3e053693	0.130091
116	0x3d8b2031	0.067932494
117	0x3c90e163	0.017685598
118	0xbe29954c	-0.16560858
119	0x3d6253f9	0.055255864

arch.net.inception_block_1.branches.2.0.bias f4 [8]
0	0x3be71e5d	0.00705318
1	0xbc19399d	-0.009352115
2	0x3c087f92	0.008331196
3	0x3bf280df	0.0074006165
4	0x3b8ddba7	0.004329163
5	0x3805bb58	3.188415e-05
6	0x3ba40728	0.005005736
7	0xbb23b54f	-0.0024979895

arch.net.inception_block_1.branches.2.1.weight f4 [8]
0	0x3f802c84	1.0013585
1	0x3f8168cb	1.0110105
2	0x3f807809	1.0036632
3	0x3f7f3985	0.9969714
4	0x3f80794c	1.0037017
5	0x3f7daf2f	0.99095434
6	0x3f804835	1.0022036
7	0x3f7f67a1	0.997675

arch.net.inception_block_1.branches.2.1.bias f4 [8]
0	0x3c2057ac	0.009786528
1	0x3b81ea70	0.0039647147
2	0xbbb80f0d	-0.0056170286
3	0xbb3b2639	-0.0028556718
4	0xbb93ceef	-0.0045107524
5	0xbbae3ad0	-0.0053170696
6	0x3b643c07	0.0034825818
7	0xbc50f391	-0.012753383

arch.net.inception_block_1.branches.2.1.running_mean f4 [8]
0	0x3aa60ca2	0.001266856
1	0xbad5e333	-0.0016318321
2	0x3a84e602	0.0010139348
3	0x3a823a99	0.0009935676
4	0x3a6003bc	0.00085454783
5	0x39ae91c5	0.00033296473
6	0x3a848bf1	0.0010112507
7	0x3944858f	0.00018741771

arch.net.inception_block_1.branches.2.1.running_var f4 [8]
0	0x3f4328e7	0.7623429
1	0x3f4328e7	0.7623429
2	0x3f4328e7	0.7623429
3	0x3f4328e7	0.7623429
4	0x3f4328e7	0.7623429
5	0x3f4328e7	0.7623429
6	0x3f4328e7	0.7623429
7	0x3f4328e7	0.7623429

arch.net.inception_block_1.branches.2.4.weight f4 [16, 1, 16, 1]
0	0x3dfc1777	0.12309163
1	0xbb0960d9	-0.0020962267
2	0xbdc6f634	-0.09714928
3	0x3db6a08d	0.089173414
4	0x3d09a156	0.033601128
5	0xbe017d69	-0.12645496
6	0x3dac3bc1	0.08409835
7	0x3d9c1380	0.07620907
8	0xbd2299b5	-0.039697368
9	0xbce1dafd	-0.027570242
10	0xbc140c97	-0.009036205
11	0x3df75033	0.12075844
12	0xbc8b0cc9	-0.01697387
13	0x3dcff139	0.101534314
14	0x3de07e26	0.10961561
15	0x3bdf205d	0.006809278
16	0xbd35f11e	-0.0444194
17	0xbce90272	-0.028443549
18	0xbdb11a0e	-0.08647548
19	0x3cc38551	0.023867281
20	0xbe08eec9	-0.1337234
21	0xbd90eb9a	-0.070761874
22	0x3dbf0f76	0.09329121
23	0xbb5526f6	-0.0032524443
24	0x3dc8384c	0.09776363
25	0xbe06127a	-0.13092986
26	0xbd509e46	-0.05093219
27	0xbd7e3445	-0.062061567
28	0x3e0346dc	0.1282
29	0x3e092dfb	0.13396446
30	0x3b8ea788	0.0043534674
31	0xbdebe7b5	-0.11518804
32	0x3cd9bb4a	0.026578564
33	0x3dc22f5b	0.094816886
34	0xbdd4d27f	-0.103917114
35	0xbb8494cf	-0.0040460597
36	0x3d535d98	0.05160293
37	0xbdbc9a57	-0.092091255
38	0xbd870c2b	-0.06594118
39	0x3d81130e	0.063024625
40	0x3d8ef757	0.0698077
41	0xbe10eb9c	-0.14152378
42	0xbe09601a	-0.13415566
43	0x3df7ac31	0.1209339
44	0x3ac28311	0.0014840086
45	0xbd243367	-0.040088084
46	0x3d5fed4f	0.054669674
47	0x3d8a08d9	0.06739969
48	0xbdf90688	-0.12159449
49	0xbde70070	-0.1127938
50	0x3dce9e83	0.100888275
51	0xbc8acc93	-0.016943252
52	0xbd8ecb7e	-0.06972407
53	0xbd94ad0d	-0.07259569
54	0x3d6c6488	0.05771306
55	0xbdaa227b	-0.08307358
56	0x3c563670	0.013074502
57	0x3dbbba21	0.09166361
58	0xbcb1f4ed	-0.021723235
59	0x3db1d169	0.0868252
60	0x3d594296	0.053042017
61	0xbc3726e3	-0.011178705
62	0x3d5b25ae	0.05350273
63	0x3d081cec	0.033230707
64	0xbc03e912	-0.008051174
65	0xbd60e0c1	-0.054901842
66	0xbe1f7ad5	-0.155742
67	0xbab379b4	-0.0013692887
68	0xbe045319	-0.12922324
69	0x3c826b59	0.015920328
70	0xba1edaae	-0.00060598075
71	0xbdafb172	-0.08578767
72	0x3e11d984	0.14243132
73	0x3d9a7baf	0.07543122
74	0xbda785ad	-0.081797935
75	0x3ca34d82	0.01993442
76	0xbe07d2a0	-0.13263941
77	0xbc31cc23	-0.010851893
78	0xbc375d85	-0.01119173
79	0xbd841ae6	-0.06450443
80	0xbcfcdb28	-0.03086622
81	0xbdc4c94a	-0.09608705
82	0xbd7e4682	-0.06207896
83	0xbd79669b	-0.060888868
84	0xbd9a894c	-0.075457186
85	0x3df74732	0.12074126
86	0x3c1444e1	0.009049625
87	0x3e1506ea	0.14553419
88	0x3dfbd70a	0.12296875
89	0x3c402e20	0.011729747
90	0xbd45f813	-0.048332285
91	0xbdb4d9c7	-0.088306
92	0xbd76b234	-0.06022854
93	0x3daa8415	0.08325974
94	0xbe1c54bc	-0.15266699
95	0x3d8787df	0.06617712
96	0x3cba2370	0.022721976
97	0x3e02e9cb	0.12784497
98	0x3cb9f74e	0.022700932
99	0x3ceda79a	0.029010583
100	0x3df34ab3	0.11879482
101	0x3d5bd821	0.053672913
102	0xbde67e6d	-0.112545826
103	0xbce837fe	-0.028347012
104	0x3d884730	0.06654203
105	0x3dde17ce	0.10844384
106	0xba9d7887	-0.0012014069
107	0xbd981fd8	-0.07427949
108	0x3b919f3e	0.004444032
109	0x3df03584	0.11728957
110	0x3d0a9bab	0.033839863
111	0xbcf0e900	-0.029407978
112	0xbcb4130c	-0.021981739
113	0x3dbef02e	0.093231544
114	0xbd54e5c0	-0.05197692
115	0xbcc11ce8	-0.023573354
116	0xbd61038c	-0.054935023
117	0xbdf9e4bd	-0.122018315
118	0xbdcfe864	-0.10151747
119	0xbc903883	-0.017605072
120	0x3d0b7f5a	0.034057
121	0x3cc813a0	0.02442342
122	0x3e1696c2	0.14705947
123	0xbdf12ba0	-0.11775899
124	0xbd9437cf	-0.07237207
125	0x3dd3cd47	0.10341888
126	0xbd6a8937	-0.057259765
127	0xbddf5753	-0.10905328
128	0x3e195a40	0.14975834
129	0x3e01baa2	0.12668851
130	0x3d982619	0.074291416
131	0xbd297475	-0.041370828
132	0x3e00b7f7	0.12570177
133	0xbdf7cece	-0.12099992
134	0xbe02227b	-0.12708466
135	0xbcde2f00	-0.02712202
136	0x3ce90a69	0.028447347
137	0x3b55403a	0.0032539503
138	0xbdfb5a16	-0.12273042
139	0xbdb49839	-0.08818097
140	0x3e21c128	0.1579634
141	0x3d8e5517	0.06949823
142	0xbd143d1c	-0.03619109
143	0x3dca8f69	0.098906346
144	0x3dc04385	0.09387878
145	0x3e0812de	0.13288447
146	0x3dc4be5a	0.09606619
147	0xbdadb3e9	-0.08481581
148	0x3dee4dea	0.11635955
149	0xbd8f8eae	-0.07009636
150	0xbc517e41	-0.012786449
151	0x3ce35336	0.027749639
152	0xbdac569e	-0.084149584
153	0x3d4d9dcc	0.050199315
154	0xbdda2917	-0.106523685
155	0x3ce1483d	0.027500266
156	0x3dd24cfd	0.102685906
157	0x3d9a2c08	0.075279295
158	0xbd3d6839	-0.046241973
159	0x3c039ee1	0.008033485
160	0x3d34aeb7	0.044111934
161	0xbe009e0a	-0.12560287
162	0xbd0938b0	-0.033501327
163	0xbdef3dde	-0.11681722
164	0x3d5020e0	0.050812602
165	0x3c79dc38	0.015250258
166	0x3da9295a	0.0825984
167	0xbd8457ff	-0.064620964
168	0xbdf254e8	-0.11832601
169	0xbd90a783	-0.070632
170	0xbd533fa2	-0.051574357
171	0xbe009b0b	-0.12559144
172	0xbc9f7370	-0.019464225
173	0x3d8df877	0.069321565
174	0x3d7de4ac	0.061985657
175	0x3d961026	0.07327299
176	0x3d26a4b8	0.04068443
177	0x3c264c42	0.010150017
178	0x3d96f36c	0.07370648
179	0xbe07700b	-0.13226335
180	0xbddd10de	-0.10794233
181	0x3debb069	0.11508257
182	0x3e0824bd	0.13295265
183	0x3dee087f	0.11622714
184	0x3ce2e570	0.027697295
185	0xbda8d724	-0.0824416
186	0xbe0d713d	-0.13812728
187	0xbbd90118	-0.006622445
188	0x3cdb5611	0.026774438
189	0xbe0f8828	-0.14016783
190	0x3d354b68	0.044261366
191	0x3d35e4e1	0.04440773
192	0xbd3fb49b	-0.0468031
193	0x3dd406f4	0.10352889
194	0xbd76abeb	-0.060222548
195	0xbda47926	-0.0803092
196	0xbc8e4849	-0.017368453
197	0xbd10abd6	-0.035320126
198	0x3ccf8903	0.025333887
199	0x3cb861a4	0.022507496
200	0x3e2372a2	0.15961698
201	0x3d83c622	0.06434275
202	0x3db2e597	0.08735197
203	0xbda004c7	-0.07813411
204	0x3dbde844	0.09272817
205	0x3d539fb0	0.05166596
206	0x3df82148	0.12115723
207	0xbe0fba15	-0.14035828
208	0xbd881030	-0.066437125
209	0xbd84ddd6	-0.06487624
210	0xbd8fbc9f	-0.070183985
211	0x3df63d54	0.12023416
212	0x3d934fe3	0.071929716
213	0xbca1ea9f	-0.019765196
214	0xbde25c75	-0.11052791
215	0xbd356437	-0.044285025
216	0xbe12cf66	-0.14336929
217	0x3cf417fc	0.029796593
218	0x3d9ef6da	0.07761927
219	0xbddcd6a9	-0.10783131
220	0xbcad4254	-0.021149792
221	0xbca9b8ae	-0.020717945
222	0x3e12bb8d	0.14329357
223	0x3d2a23aa	0.04153792
224	0xbdb78dfd	-0.08962629
225	0xbda075f3	-0.07834997
226	0xbd966526	-0.07343511
227	0x3cfbeaf8	0.03075169
228	0x3d6f5580	0.05843115
229	0xbd8b3cb9	-0.06798691
230	0xbdcfc36c	-0.10144696
231	0xbd921431	-0.071327575
232	0x3d852d8e	0.065028295
233	0x3d3b783e	0.04576897
234	0xbd2f7fe9	-0.042846594
235	0x3da5971f	0.08085465
236	0xbd4f4775	-0.050605256
237	0xbe21a604	-0.15785986
238	0xbe172c44	-0.1476298
239	0xbd8f90b3	-0.07010021
240	0xbde321f9	-0.11090464
241	0x3dc5dbf8	0.09661096
242	0xbdf62a16	-0.12019746
243	0x3ddd7713	0.10813727
244	0xbd8a714d	-0.06759892
245	0x3de4b424	0.111671716
246	0xbdeba5eb	-0.11506256
247	0xbdb0b769	-0.08628733
248	0xbdb5704b	-0.08859309
249	0x3dba4e79	0.09096999
250	0x3ddd1bea	0.1079634
251	0x3c28edd8	0.010310613
252	0xbd88ce6d	-0.066799976
253	0xbdc9a01d	-0.09844992
254	0xbc17d181	-0.009266258
255	0xbdbf123f	-0.09329652

arch.net.inception_block_1.branches.2.5.weight f4 [16]
0	0x3f7eff29	0.99608094
1	0x3f80c368	1.0059633
2	0x3f81df58	1.0146284
3	0x3f7e11f8	0.9924617
4	0x3f802d59	1.0013839
5	0x3f802493	1.0011162
6	0x3f7e4789	0.99327904
7	0x3f804e0d	1.0023819
8	0x3f80eaf1	1.0071698
9	0x3f7fe63f	0.999607
10	0x3f7cae08	0.9870305
11	0x3f7f2334	0.9966309
12	0x3f808f1a	1.0043671
13	0x3f7f6880	0.9976883
14	0x3f81085c	1.0080676
15	0x3f7e4c42	0.9933511

arch.net.inception_block_1.branches.2.5.bias f4 [16]
0	0xbb2191fc	-0.0024653664
1	0xbb7269b4	-0.0036989274
2	0x3b016d86	0.001974912
3	0xbb9617ad	-0.004580459
4	0x3bf2e92f	0.0074130516
5	0x3bcdcbd3	0.0062804013
6	0xbba9a491	-0.0051770885
7	0xba66f9f0	-0.00088110473
8	0x3bb83453	0.005621472
9	0xbb26634f	-0.0025388782
10	0xbc596fa7	-0.013271249
11	0xbba4fc2f	-0.0050349454
12	0x3bac9f68	0.005268026
13	0xb947f360	-0.00019068783
14	0x3b461a1b	0.0030227962
15	0x3a78abcb	0.00094860484

arch.net.inception_block_1.branches.2.5.running_mean f4 [16]
0	0x3a25a4cb	0.00063188066
1	0xb9bf1ebc	-0.00036453258
2	0xb7bbe64b	-2.2399376e-05
3	0xb792d0a4	-1.7501712e-05
4	0x39972fbf	0.00028836538
5	0x3898c314	7.284261e-05
6	0xb9989386	-0.00029101613
7	0x395ffe20	0.00021361606
8	0xb91cc5eb	-0.0001495105
9	0xb947b8ae	-0.00019046917
10	0x396cd5d3	0.0002258637
11	0xb7b6dfa1	-2.1800226e-05
12	0x37ea7595	2.7949727e-05
13	0xb779a211	-1.4879291e-05
14	0x3a9d64f3	0.0012008235
15	0x3a192a1f	0.00058427633

arch.net.inception_block_1.branches.2.5.running_var f4 [16]
0	0x3f432900	0.76234436
1	0x3f432900	0.76234436
2	0x3f432900	0.76234436
3	0x3f432900	0.76234436
4	0x3f432900	0.76234436
5	0x3f432900	0.76234436
6	0x3f432900	0.76234436
7	0x3f432900	0.76234436
8	0x3f43292c	0.762347
9	0x3f432917	0.76234573
10	0x3f432900	0.76234436
11	0x3f432900	0.76234436
12	0x3f432900	0.76234436
13	0x3f432900	0.76234436
14	0x3f432900	0.76234436
15	0x3f432907	0.7623448
