checkpoints/epoch=99-step=400-v2.ckpt (torch, 259103 bytes, 103 tensors)

arch.conv.0.weight f4 [16, 16, 11]
0	0x3d4a9c21	0.049465302
1	0x3d4e4a4f	0.050363835
2	0xbd0ac87c	-0.033882603
3	0x3d5c4bf5	0.053783376
4	0xbcf6f42b	-0.030145725
5	0x3afcb8d2	0.0019281155
6	0xbd4cd948	-0.050011903
7	0x3cfbaba1	0.030721487
8	0x3d5b4566	0.05353298
9	0xbd894ca0	-0.06704068
10	0x3d589418	0.05287561
11	0x3c381ece	0.011237813
12	0x3d4c566a	0.0498871
13	0x3b95f2ec	0.0045760777
14	0x3cf6f769	0.030147271
15	0xbca84bce	-0.020543959
16	0x3d374f45	0.04475333
17	0xbb7ed274	-0.0038882764
18	0xbd4e6b3f	-0.050395247
19	0x3bb2b070	0.005453162
20	0xbd416c33	-0.047222327
21	0xbcb20b6e	-0.021733966
22	0xbd04e15b	-0.03244148
23	0x3d3a354e	0.04546099
24	0xbd852b92	-0.06502451
25	0xbd271db4	-0.04079981
26	0xbceebda5	-0.029143164
27	0xbd62e0c1	-0.055390123
28	0xbb944a15	-0.004525433
29	0xbdb0d96b	-0.08635219
30	0x3d6b7ea9	0.05749384
31	0xbd975a8e	-0.07390319
32	0x3d45e629	0.0483152
33	0x3c6e00b5	0.014526536
34	0xbcbb4a3f	-0.022862552
35	0x3d3f0b7a	0.046641804
36	0x3c3a01f2	0.011353003
37	0x3d7c9248	0.061662942
38	0x3c194ee0	0.009357184
39	0xbcc27680	-0.023738146
40	0x3ca6ed86	0.020376932
41	0xbc9c0dcf	-0.019049553
42	0x3cff8d95	0.031195441
43	0x3d880aa6	0.06642656
44	0x3d567702	0.05235959
45	0xbcb1bde6	-0.021696996
46	0x3d5ef8e4	0.05443658
47	0x3cc1e123	0.023666924
48	0x3d4fd5de	0.05074107
49	0xbd004920	-0.031319737
50	0xbd763113	-0.060105395
51	0xbc64e35f	-0.013970225
52	0xbd29ba6f	-0.041437563
53	0x3d9d5ece	0.07684098
54	0x3d136d34	0.035992816
55	0x3d4704c3	0.048588526
56	0x3d3c09ca	0.045907773
57	0x3cb7fa31	0.022458168
58	0x3da59478	0.08084959
59	0xbd002401	-0.031284336
60	0x3cece910	0.028919727
61	0xbce19a0f	-0.027539281
62	0x3d43ac43	0.047771703
63	0x38f50ed1	0.0001168527
64	0x3d434a2f	0.04767817
65	0x3bea42de	0.0071490845
66	0x3d8c1d30	0.068415046
67	0xbd147ed3	-0.03625376
68	0xbd0aee56	-0.0339187
69	0xbd126323	-0.035739075
70	0x3d988a34	0.07448235
71	0x3cfc1fdf	0.030776916
72	0x3d9e3f0d	0.0772687
73	0xbd6b005f	-0.0573734
74	0xbd8c7cca	-0.06859739
75	0xbd53ad80	-0.051679134
76	0xbd3020e2	-0.04300011
77	0x3d046c6d	0.032329965
78	0x3ce7a340	0.028276086
79	0x3d85170b	0.06498536
80	0xbd17e019	-0.03707895
81	0xbd551ddf	-0.05203044
82	0x3d17c13d	0.03704952
83	0xbd085276	-0.033281766
84	0x3d3368d2	0.043801136
85	0xbc9d3660	-0.019190967
86	0x3d366cc0	0.044537306
87	0xbd5f426f	-0.054506715
88	0xbd1c33c2	-0.038135298
89	0x3ca24309	0.019807355
90	0x3c3ac815	0.011400242
91	0xbcb02a75	-0.02150462
92	0x3d2b1a96	0.0417734
93	0x3d3a0645	0.045416135
94	0xbd6a499b	-0.057199102
95	0xbd2279ed	-0.03966706
96	0x3d8cf378	0.068823755
97	0xbcb9065b	-0.022586038
98	0xbca193d7	-0.019723816
99	0xbdaf7ea1	-0.085690744
100	0xbd714c6d	-0.058910776
101	0x3aa50886	0.0012591041
102	0xbcba4c99	-0.022741603
103	0xbd86027b	-0.06543442
104	0xbc20ecea	-0.00982211
105	0xbd6648a2	-0.05622161
106	0xbd808f60	-0.062773466
107	0xbd39b2be	-0.045336477
108	0xbd909b67	-0.07060891
109	0xbd5011a9	-0.050798092
110	0x3d47755f	0.04869592
111	0xbc33856b	-0.010957102
112	0x3a03945b	0.000501936
113	0xbdb18fcc	-0.08670005
114	0xbd8042d2	-0.06262745
115	0xbd1bc046	-0.038025163
116	0x3a9d1627	0.0011984751
117	0xbd9f45e7	-0.07777005
118	0xbd4f6931	-0.050637428
119	0xbd892f43	-0.066984676
120	0xbcb1a793	-0.02168635
121	0xbd20c7e9	-0.03925315
122	0xbc4d3027	-0.012523687
123	0xbd634621	-0.055486802
124	0xbd6428fc	-0.05570315
125	0xbd3fb479	-0.04680297
126	0xbce31c2b	-0.027723392
127	0xbd868a8e	-0.06569396
128	0x3d51ff91	0.051269118
129	0xbcf8c3c1	-0.03036678
130	0x3d3c70b1	0.04600591
131	0x3adcb959	0.0016839906
132	0xbd741a12	-0.059595175
133	0x3d69e124	0.057099476
134	0xbc87d88f	-0.016582755
135	0xbceec3d0	-0.029146105
136	0xbd819541	-0.06327296
137	0xbd959967	-0.0730465
138	0x3ca07121	0.019585194
139	0xbcc47fb3	-0.023986673
140	0x3cb8f395	0.022577086
141	0xbd8cbd88	-0.06872088
142	0x3d3a158a	0.045430698
143	0xbd43ea64	-0.047830954
144	0xbc0f3503	-0.008740666
145	0x3c7419c9	0.014898726
146	0x3d07c8c3	0.033150446
147	0x3d62801f	0.055297967
148	0x3d88117b	0.06643959
149	0xbd7df89c	-0.06200467
150	0x3c7ff8b4	0.01562326
151	0xbd05ee9a	-0.03269825
152	0xbbb4a2fd	-0.005512594
153	0xbd6687f0	-0.056281984
154	0x3d989613	0.074504994
155	0xbd5de99c	-0.054177865
156	0x3d0f6be1	0.03501499
157	0x3c8e572c	0.017375551
158	0x3c85d745	0.016338
159	0xbd3a0b39	-0.04542086
160	0x3d869c7e	0.06572817
161	0x3c72487c	0.014787789
162	0x3c45d4ce	0.012074662
163	0xbd7eed61	-0.0622381
164	0x3d092529	0.033482704
165	0xbbb134e5	-0.005407917
166	0xbce9922b	-0.028512081
167	0x3d8f0767	0.06983834
168	0x3caa3f3c	0.020782106
169	0xbd188881	-0.037239555
170	0xbd0a3ee7	-0.033751395
171	0xba4b9cd1	-0.0007767203
172	0x3d386533	0.045018386
173	0xbc6d5d14	-0.014487524
174	0xbd1fc57c	-0.039006695
175	0xbcb97b22	-0.022641722
176	0xbd48bc87	-0.04900792
177	0x3d06decf	0.03292733
178	0x3d801693	0.06254306
179	0xbd893577	-0.06699651
180	0x3cbf6384	0.023362882
181	0x3d4596e3	0.0482396
182	0x3ccbd5b2	0.024882171
183	0xbc8c984b	-0.017162463
184	0x3d3fa18a	0.046784915
185	0x3d3be1c0	0.04586959
186	0x3d083d61	0.03326166
187	0xbc8a484c	-0.016880177
188	0xbcba3b6e	-0.022733416
189	0x3bc55b84	0.0060228724
190	0xbc8cec3e	-0.017202493
191	0xbcf90a86	-0.030400526
192	0x3d19f01c	0.0375825
193	0x3d5c9c25	0.05385985
194	0xbc89b8d9	-0.016811775
195	0xbcc9e6a1	-0.024646105
196	0xbbd84833	-0.0066004037
197	0xbc4622f4	-0.012093294
198	0x3c5d687b	0.01351368
199	0x3c8ac321	0.016938748
200	0xbd932bb2	-0.071860686
201	0xbd03c171	-0.032166902
202	0x3d672f5d	0.056441654
203	0x3ca71e38	0.020400152
204	0xbc596289	-0.0132681215
205	0xbd5cb47e	-0.05388307
206	0xbd59c496	-0.053165995
207	0xbd987da5	-0.0744584
208	0xbd001240	-0.031267405
209	0x3cb3b238	0.021935567
210	0x3d360e67	0.04444733
211	0x3d032b3f	0.032023665
212	0xbd8d4ddb	-0.068996154
213	0xbd464ef6	-0.048415147
214	0xbc80de33	-0.015730953
215	0x3d8c8119	0.06860561
216	0x3bea1ada	0.0071443142
217	0xbcb58674	-0.022158839
218	0x3ced0ec6	0.028937709
219	0xbcfb495d	-0.03067463
220	0xbd4b49be	-0.049630873
221	0x3d5c819c	0.053834543
222	0xbd0c2309	-0.0342131
223	0xbc55174f	-0.0130060455
224	0xbd9392b8	-0.07205719
225	0x3d5a67f6	0.0533218
226	0x3d758ab0	0.059946716
227	0x3cfada20	0.030621588
228	0xbd46edee	-0.04856675
229	0xbd8ed27b	-0.0697374
230	0xbd68de9b	-0.056852918
231	0x3d78909b	0.06068478
232	0x3d2950f6	0.041336976
233	0x3d8f75b8	0.07004875
234	0x3d466b04	0.0484419
235	0x3ce7b6a5	0.028285334
236	0x3c01d6a4	0.0079247095
237	0xbd40ac90	-0.04703957
238	0xbd5730c7	-0.052536752
239	0xbd69c7e6	-0.057075404
240	0x3d3ac574	0.045598462
241	0xbcca052d	-0.024660671
242	0xbbe37e98	-0.0069425814
243	0xbd0ab1e0	-0.03386104
244	0xbb9e6be5	-0.0048346394
245	0xbd3d14f9	-0.04616258
246	0xbd37003d	-0.04467796
247	0x3ce1ff47	0.027587546
248	0xbca02dc7	-0.019553078
249	0x3d521521	0.05128968
250	0xbc93565b	-0.017985513
251	0xbd483864	-0.048881903
252	0xbc03b15a	-0.008037889
253	0xbcc55b3f	-0.024091361
254	0xbc2bbc04	-0.010481838
255	0xbd7ac5eb	-0.061223906

arch.conv.1.weight f4 [16]
0	0x3f839c9f	1.0282172
1	0x3f801b9e	1.0008428
2	0x3f7d8874	0.99036336
3	0x3f7f01d8	0.9961219
4	0x3f7db54b	0.99104756
5	0x3f7faaa6	0.99869764
6	0x3f7cf7a4	0.9881537
7	0x3f7f884b	0.9981734
8	0x3f7f7fc6	0.9980434
9	0x3f80475d	1.0021778
10	0x3f7d619f	0.9897708
11	0x3f7be6b8	0.98398924
12	0x3f7c33df	0.9851665
13	0x3f80374b	1.0016874
14	0x3f7c5b44	0.9857676
15	0x3f803e2c	1.0018973

arch.conv.1.bias f4 [16]
0	0x3bf71c28	0.0075411983
1	0xbbaab421	-0.0052094613
2	0xbbdd10de	-0.0067463955
3	0xbcb119a5	-0.021618674
4	0xbc6b0160	-0.01434359
5	0xba4b484d	-0.0007754609
6	0xbc475499	-0.012166166
7	0xbc0447ce	-0.00807376
8	0xbc2d516a	-0.010578493
9	0xbbe3f13c	-0.0069562476
10	0xbbcb575d	-0.006205483
11	0xbc849a42	-0.016186837
12	0xbc256c48	-0.010096617
13	0xbca1af7b	-0.019736996
14	0xbc7c565e	-0.015401451
15	0xbc8bc84f	-0.017063288

arch.conv.1.running_mean f4 [16]
0	0x3f2c9146	0.6740917
1	0x3ec34cfc	0.38144672
2	0xbd594290	-0.053041995
3	0x3e13fc54	0.14451724
4	0xbf05304c	-0.5202682
5	0x3f281096	0.6565031
6	0xbf287241	-0.6579934
7	0xbe43627e	-0.1908054
8	0xbf89e3e3	-1.077267
9	0xbf02da54	-0.5111439
10	0xbf3e5907	-0.74354595
11	0xbf60ffeb	-0.878905
12	0x3f0e80fd	0.5566557
13	0xbe2b07de	-0.1670222
14	0xbf3191d9	-0.6936317
15	0xbf2577c5	-0.6463588

arch.conv.1.running_var f4 [16]
0	0x42ca80f3	101.251854
1	0x429c4a0a	78.14461
2	0x42a39781	81.795906
3	0x42bc95b4	94.29239
4	0x43b61af5	364.2106
5	0x433861c3	184.38188
6	0x432bf0a7	171.94005
7	0x424992d9	50.393406
8	0x4381ee2e	259.86078
9	0x439add7b	309.73032
10	0x44020861	520.1309
11	0x42fce236	126.44182
12	0x43050fe1	133.06203
13	0x4302291c	130.16058
14	0x42e8c8d2	116.39223
15	0x4399735b	306.9012

arch.conv.4.weight f4 [32, 16, 11]
0	0x3d85c503	0.06531718
1	0xbcda089c	-0.026615433
2	0xbcb16871	-0.021656247
3	0x3d8c8005	0.06860355
4	0x3d25d632	0.040487476
5	0xbcfec90c	-0.031101726
6	0x3d0c37dd	0.034232963
7	0x3d4d1102	0.050065048
8	0xbd5c836a	-0.053836264
9	0x3cdca20c	0.026932739
10	0x3cf88e60	0.030341327
11	0x3b7b0bd3	0.0038306608
12	0x3da0f77b	0.07859703
13	0xbd23b065	-0.039963145
14	0x3d5a45a5	0.053289074
15	0xbce4d2be	-0.027932521
16	0xbd5f527d	-0.054522026
17	0x3d73a1db	0.05948053
18	0xbcea1489	-0.028574245
19	0x3c32ce30	0.010913417
20	0x3d46c038	0.048523158
21	0xbd522962	-0.051308997
22	0xbd81da19	-0.06340427
23	0x3caf3530	0.021387666
24	0x3d6e593f	0.05819058
25	0xbc7ba910	-0.015360132
26	0x3d452719	0.04813299
27	0x3cc031b2	0.023461197
28	0x3c9ecc96	0.019384664
29	0xbd4f648c	-0.050633
30	0x3d8a9f6c	0.067686886
31	0x3cef66d1	0.029223831
32	0x3babe0d0	0.0052453056
33	0x3d16e719	0.036841486
34	0xbda390ce	-0.07986604
35	0x3ae2098b	0.0017245276
36	0xbd4b1482	-0.049580105
37	0xbcb2941d	-0.021799142
38	0x3c2628dd	0.0101415785
39	0x3c9f5795	0.019450942
40	0x3ba3ed76	0.005002673
41	0xbd8f8e39	-0.07009549
42	0xbd776d15	-0.060406763
43	0xbc64070e	-0.013917698
44	0xba4cede6	-0.0007817432
45	0xbd544110	-0.05181986
46	0x3dab013d	0.083498456
47	0x3c8c8178	0.01715158
48	0xbd3eb6c3	-0.046561014
49	0x3d1f3558	0.038869232
50	0x3d1eba81	0.038752083
51	0xbcf4c80d	-0.029880548
52	0x3d361638	0.044454783
53	0xbd280713	-0.04102237
54	0x3d01bc2f	0.031673606
55	0x3d9a0aae	0.07521568
56	0x3d514671	0.05109257
57	0x3d200058	0.039062828
58	0xbc40ed1b	-0.01177528
59	0x3c927200	0.017876625
60	0x3cf5fa94	0.030026712
61	0x3cbdb0ed	0.023155654
62	0xbc203136	-0.009777358
63	0x3c765c09	0.015036591
64	0xbcddc187	-0.02706982
65	0xbd2176c7	-0.039419916
66	0xbd793bda	-0.060848095
67	0xbd5d68a5	-0.054054875
68	0xbd2b6062	-0.041839965
69	0x3d9989e7	0.07497006
70	0x3c8ba0e1	0.017044486
71	0xbd8513e6	-0.06497936
72	0xbd0be87e	-0.03415727
73	0x3cb6b7fd	0.02230453
74	0xbc8c26eb	-0.017108401
75	0xbc811797	-0.015758319
76	0xbcb944c2	-0.022615794
77	0xbbc9a224	-0.006153362
78	0x3c9a4c31	0.018835159
79	0x3c587c24	0.013213191
80	0x3d6c3147	0.057664182
81	0x3d6ea900	0.05826664
82	0x3d98cb0a	0.07460602
83	0x3c459d15	0.012061377
84	0xbc967d08	-0.018370166
85	0x3c85b7af	0.016322939
86	0xbd042b45	-0.032267828
87	0x3d477358	0.048693985
88	0xbbb9cbca	-0.0056700455
89	0xbcadbcd8	-0.021208212
90	0xbd794b9d	-0.060863126
91	0x3d2049c1	0.039132837
92	0x3d346092	0.04403741
93	0x3d8fbb95	0.070182
94	0xbcc837a0	-0.024440587
95	0x3cd920a8	0.02650483
96	0x3bf67bec	0.007522097
97	0xbd308e38	-0.04310438
98	0xbd2c3ec7	-0.042052057
99	0x3d53955a	0.051656105
100	0xbd09adfa	-0.033613183
101	0x3d813786	0.063094184
102	0x3d122d39	0.03568766
103	0x3d16ccb2	0.036816306
104	0x3d7dfa34	0.06200619
105	0x3d422f13	0.047408175
106	0x3d2af095	0.041733343
107	0x3d46ad8b	0.048505347
108	0xbcc1eef3	-0.02367351
109	0xbd018391	-0.031619612
110	0xbc9123dc	-0.017717294
111	0x3d173d48	0.036923677
112	0x3d42db3d	0.047572363
113	0x3d525b9b	0.051356893
114	0xbcdc7eb0	-0.026915878
115	0xbc49e44d	-0.012322498
116	0xbd5d23e5	-0.05398931
117	0x3d344a9e	0.044016473
118	0xbd59f486	-0.05321171
119	0xbd0ac684	-0.033880726
120	0x3d7a2b1d	0.061076272
121	0x3cb2235f	0.021745382
122	0xbce44619	-0.027865456
123	0xbd39c05d	-0.045349468
124	0xbd3c9ace	-0.04604607
125	0x3d86fd04	0.06591228
126	0xbd835103	-0.06411936
127	0x3d8e73b4	0.06955662
128	0x3d849e8f	0.06475555
129	0x3c2bc3b7	0.010483674
130	0x3a56d76f	0.0008195554
131	0x3d855fd2	0.06512417
132	0x3d1dc1a4	0.03851475
133	0x3d9e46bf	0.077283375
134	0x3d8ab2c3	0.06772377
135	0xbd32ab65	-0.043620486
136	0x3d514f04	0.051100746
137	0x3d2de5e7	0.04245558
138	0xbd476f40	-0.04869008
139	0x3d293c8a	0.0413175
140	0xbd0a2dd0	-0.033735096
141	0xbd230e35	-0.03980847
142	0x3bd324df	0.0064436044
143	0xbc257519	-0.010098719
144	0xbcb077ba	-0.021541465
145	0xbd4ef413	-0.050525736
146	0x3d20040c	0.03906636
147	0x3d96e927	0.07368689
148	0xbc758cbf	-0.01498717
149	0xbd3f2c69	-0.046673212
150	0x39b53836	0.0003456489
151	0xbd78ce29	-0.060743485
152	0xbd64f072	-0.05589337
153	0xbca82ba9	-0.020528631
154	0x3d3f496a	0.046700872
155	0xbd66d5b0	-0.056356132
156	0xbc26337b	-0.01014411
157	0xbd1a38df	-0.037651893
158	0xbd89def9	-0.06731982
159	0xbc4f262b	-0.012643377
160	0x3ac83555	0.0015274683
161	0xbbeb3428	-0.0071778484
162	0x3d72a35b	0.05923782
163	0x3d07e9ea	0.033182062
164	0x3d4c7741	0.049918417
165	0x3d079ddb	0.033109527
166	0x3c37cda9	0.011218467
167	0x3d33bfef	0.043884214
168	0xbd3b2680	-0.045691013
169	0x3d23dded	0.040006567
170	0x3d1675fa	0.036733605
171	0xbcfe4993	-0.031040942
172	0xbaee1c6b	-0.0018166428
173	0xbd66ecef	-0.0563783
174	0xbd843821	-0.06456018
175	0x3b2ccbf7	0.002636669
176	0x3d1f053b	0.038823348
177	0x3c09dff2	0.008415209
178	0x3d4348be	0.047676794
179	0xbd0cfa10	-0.034418166
180	0xbc95ace0	-0.01827091
181	0x3d9998bb	0.07499834
182	0xbd4d5507	-0.050129917
183	0x3d0faa57	0.035074558
184	0x3da9ea90	0.08296692
185	0x3daa0a17	0.08302706
186	0x3d59d6c5	0.053183336
187	0xbd8022d0	-0.0625664
188	0x3c614be6	0.013751006
189	0xbcba09d8	-0.022709772
190	0xbc81d7ef	-0.015850035
191	0x3d895fbd	0.06707714
192	0xbc714055	-0.014724811
193	0xbd33114d	-0.04371767
194	0xbd55e7cc	-0.05222301
195	0x3d5c3508	0.053761512
196	0x3c1660b9	0.009178334
197	0x3da8d951	0.08244575
198	0x3cd3464d	0.025790358
199	0xbd7f0cda	-0.062268116
200	0x3cd10f3c	0.02551996
201	0x3d9afa1e	0.07567237
202	0x3d5d0135	0.05395623
203	0x3cf05ad8	0.029340193
204	0xbd540b3d	-0.05176853
205	0xbd1dd97f	-0.0385375
206	0x3d750283	0.05981685
207	0xbd33e23b	-0.043916922
208	0x3c9a0ab7	0.018803937
209	0xbc0ae91d	-0.00847843
210	0x3cd5dda8	0.02610667
211	0x3c06b439	0.008221679
212	0xbd54d3eb	-0.051959913
213	0xbcdff861	-0.027340116
214	0x3d8451a6	0.06460886
215	0x3bae9783	0.00532812
216	0x3d04b504	0.032399192
217	0xbd33b9b0	-0.043878257
218	0x3d5d08dd	0.05396353
219	0xbcc42e6d	-0.023947919
220	0xbca76436	-0.020433526
221	0x3c961143	0.018318778
222	0xbcd2e2c7	-0.025742901
223	0xbced2279	-0.028947102
224	0xbc0b87a9	-0.008516231
225	0xbb91d4ca	-0.0044504153
226	0xbd3664d6	-0.04452976
227	0x3cd2f98c	0.025753759
228	0xbd9065a1	-0.07050634
229	0x3d471fe7	0.04861441
230	0x3d8faa7f	0.070149414
231	0x3c7993d6	0.015233001
232	0xbc8d5453	-0.017252123
233	0xbd8de169	-0.06927759
234	0x3d13b0fb	0.036057454
235	0x3d812c53	0.06307282
236	0x3d86857b	0.06568428
237	0x3c02e0c3	0.007988158
238	0x3cdb191d	0.026745373
239	0x3d963296	0.07333867
240	0x3c4162e4	0.0118033625
241	0xbd10dd7d	-0.035367478
242	0xbd9a8585	-0.07544998
243	0x3cffce85	0.031226406
244	0x3cd935b1	0.02651486
245	0x3d80906b	0.062775455
246	0xbd33877a	-0.043830372
247	0x3cca6d79	0.024710404
248	0xbcff88d7	-0.03119318
249	0xbcac39c3	-0.021023637
250	0x3d311a5d	0.043238033
251	0xbd907d32	-0.07055129
252	0x3d58121d	0.05275165
253	0x3d1e5186	0.038651966
254	0xbd2a3f3e	-0.04156422
255	0x3d243d02	0.040097244

arch.conv.5.weight f4 [32]
0	0x3f80615d	1.0029713
1	0x3f7ebf13	0.99510306
2	0x3f803ded	1.0018898
3	0x3f7fbaa6	0.9989418
4	0x3f7ee6c6	0.9957088
5	0x3f7f8178	0.9980693
6	0x3f7f207f	0.9965896
7	0x3f8057e8	1.0026827
8	0x3f80d9be	1.006645
9	0x3f81003c	1.0078197
10	0x3f80b236	1.0054386
11	0x3f7bd49c	0.9837129
12	0x3f811dfb	1.0087274
13	0x3f807934	1.0036988
14	0x3f7ee426	0.99566877
15	0x3f7cd9ff	0.98770136
16	0x3f7e0f01	0.99241644
17	0x3f7d96ca	0.9905821
18	0x3f818a48	1.0120325
19	0x3f7f4d56	0.9972738
20	0x3f7c8787	0.986443
21	0x3f8141f6	1.0098255
22	0x3f817368	1.0113344
23	0x3f815af5	1.0105883
24	0x3f81065c	1.0080066
25	0x3f81265d	1.0089833
26	0x3f80f8f7	1.0075978
27	0x3f7e3d9f	0.99312776
28	0x3f8243b2	1.0176909
29	0x3f7bee0d	0.9841011
30	0x3f7fb600	0.99887085
31	0x3f820d20	1.0160255

arch.conv.5.bias f4 [32]
0	0x3a72b5d6	0.0009258663
1	0xbc14c951	-0.009081201
2	0x3c8d8c89	0.017278926
3	0xbb956185	-0.0045587444
4	0xbba91138	-0.0051595233
5	0xbc451b31	-0.012030409
6	0xbb92850b	-0.0044714264
7	0x3b37adb9	0.002802713
8	0x38fafee1	0.00011968404
9	0x3b8c8eb5	0.004289473
10	0x3cd01d8e	0.025404718
11	0xbc14b34a	-0.009075949
12	0xbc10cc93	-0.008837837
13	0xbbc2317b	-0.0059263087
14	0x3abbcce4	0.001432803
15	0xb89cc3fa	-7.475163e-05
16	0xbc228e4c	-0.0099216215
17	0xbb81d963	-0.003962682
18	0x3b03ffe2	0.0020141532
19	0x3c088921	0.008333475
20	0x3c98b45e	0.018640693
21	0xbbdf4458	-0.006813567
22	0xba749b79	-0.00093310286
23	0x3c197315	0.009365817
24	0x3d1463a4	0.036227837
25	0x3c0002ba	0.00781315
26	0xbb86d4b3	-0.004114711
27	0x3c07102a	0.0082436
28	0x3c0a4557	0.0084393835
29	0x3bcefb5a	0.0063165845
30	0x3c0cede4	0.008601639
31	0x3cb6abbc	0.022298686

arch.conv.5.running_mean f4 [32]
0	0x3ea42b2c	0.32064188
1	0x3e852f23	0.26012525
2	0xbe94270f	-0.2893605
3	0xbec459ff	-0.38349912
4	0xbefbcd09	-0.49179867
5	0xbe3a0885	-0.18167312
6	0x3eeaab60	0.45833874
7	0xbe43e2d0	-0.19129491
8	0x3eda8783	0.42681512
9	0xbf087ee0	-0.53318596
10	0xbe3d8322	-0.18507054
11	0xbe3b9ae6	-0.18320808
12	0x3ed7bc58	0.42135882
13	0x3f1ae154	0.60500073
14	0x3e27fe5c	0.16405624
15	0x3eda7391	0.42666295
16	0x3d51a67f	0.051184174
17	0x3eb24c77	0.34823963
18	0xbf39f780	-0.7264328
19	0xbe86f166	-0.26356047
20	0x3d8b89e2	0.068134084
21	0x3efb21d5	0.4904925
22	0x3edd3df0	0.43211317
23	0xbe82d9a3	-0.2555667
24	0xbe96616f	-0.2937121
25	0xbdd05f16	-0.10174386
26	0x3e98f8f7	0.29877445
27	0x3d9c74b7	0.07639449
28	0xbef6e3fa	-0.48220807
29	0xbed40fa6	-0.4141819
30	0xbe16bd9a	-0.14720765
31	0xbe1c2c78	-0.15251338

arch.conv.5.running_var f4 [32]
0	0x3e1acf25	0.15118082
1	0x3e51ea10	0.20499444
2	0x3e63ef01	0.22259142
3	0x3e1b3162	0.15155557
4	0x3e269cf8	0.16270816
5	0x3de441dd	0.11145375
6	0x3e76351e	0.240437
7	0x3e0be9c2	0.1366339
8	0x3e4fecce	0.20305178
9	0x3e8a349b	0.2699326
10	0x3e6468e3	0.22305636
11	0x3df077a0	0.11741567
12	0x3e6db85d	0.2321486
13	0x3ea421bb	0.32056984
14	0x3e398f9a	0.18121186
15	0x3e91fffc	0.28515613
16	0x3dbccc98	0.09218711
17	0x3e32eb7d	0.17472644
18	0x3eeb3070	0.45935392
19	0x3e705164	0.23468548
20	0x3e8c9e92	0.2746473
21	0x3e86d332	0.26333004
22	0x3e46483d	0.19363494
23	0x3e7ce56b	0.24696891
24	0x3e24cc70	0.16093612
25	0x3e64d444	0.22346598
26	0x3e33735d	0.17524476
27	0x3e3be1eb	0.183479
28	0x3ea212e9	0.31655052
29	0x3e59ae33	0.21257858
30	0x3e5116c9	0.20418848
31	0x3e90fed6	0.28319424

arch.transformer.1.attention.in_proj_weight f4 [96, 32]
0	0x3e4e1456	0.20124945
1	0x3dae5cb2	0.08513774
2	0xbdda8a44	-0.10670903
3	0x3d0f1219	0.03492937
4	0xbb11a452	-0.0022223187
5	0x3e2d3669	0.16915287
6	0x3ddf594b	0.10905703
7	0x3e504483	0.20338635
8	0x3d0e0061	0.03466833
9	0xbe347eeb	-0.1762654
10	0xbe19fda2	-0.1503816
11	0x3e3c38dc	0.18381065
12	0x3e524697	0.2053474
13	0x3db1d768	0.086836636
14	0xbe0637b8	-0.13107193
15	0x3e255d89	0.16148962
16	0x3db7c7b8	0.0897364
17	0xbe15b199	-0.1461853
18	0x3d5b0319	0.05346975
19	0x3e5a3887	0.21310626
20	0xbe1a5d6e	-0.15074703
21	0x3c92079f	0.0178259
22	0x3d8a8494	0.067635685
23	0xbdb0f5a9	-0.08640606
24	0x3dfba787	0.12287813
25	0x3e3929a1	0.18082286
26	0x3e6d8511	0.23195292
27	0xbe48f013	-0.19622831
28	0xbc126382	-0.008934857
29	0x3e2ab869	0.1667191
30	0x3e3696f1	0.17831017
31	0xbd85d63c	-0.065350026
32	0x3e13579d	0.1438889
33	0x3e1bdc78	0.15220821
34	0xbc3eea55	-0.011652549
35	0x3e1f4508	0.15553677
36	0x3e0b7180	0.13617516
37	0xbcaf606d	-0.021408284
38	0xbdc635d5	-0.096782364
39	0xbe075de9	-0.13219418
40	0xbe3cefcc	-0.1845085
41	0xbde5a581	-0.11213208
42	0x3d73fe02	0.059568413
43	0x3d9d3984	0.07676986
44	0xbd9631e0	-0.07333732
45	0xbd13b246	-0.036058687
46	0x3e060f60	0.13091803
47	0x3cdb3337	0.02675782
48	0xbe1ac9b4	-0.15116006
49	0x3e2e1076	0.16998467
50	0x3e0b8da0	0.13628244
51	0x3c9106ba	0.017703403
52	0x3de3ac97	0.11116903
53	0xbe3ad866	-0.18246612
54	0x3dfd8999	0.1237976
55	0x3d65bf9c	0.056090936
56	0xbc9d9273	-0.019234871
57	0xbd822c07	-0.06356054
58	0x3e242561	0.16029884
59	0x3d3b717b	0.04576252
60	0xbde409e1	-0.11134697
61	0x3dd451a7	0.103671364
62	0x3d464798	0.04840812
63	0xbd927052	-0.0715033
64	0x3e164474	0.1467455
65	0x3e4fc1fe	0.20288846
66	0xbb1e8b3e	-0.0024191882
67	0xbda09163	-0.0784023
68	0xbde4a82f	-0.11164891
69	0xbdd1eb3b	-0.10249945
70	0x3de1079b	0.10987779
71	0x3df631ce	0.12021218
72	0xbe1366cf	-0.14394687
73	0x3dee9a4b	0.11650523
74	0x3cbd5609	0.023112314
75	0x3af962de	0.0019026657
76	0xbd9d630b	-0.076849066
77	0xbe4e3662	-0.20137933
78	0xbe513f62	-0.20434335
79	0x3e251751	0.16122176
80	0xbd3af5d0	-0.04564458
81	0xbc8823b6	-0.01661859
82	0xbe083ec2	-0.1330519
83	0xbd63ce23	-0.05561651
84	0xbdb67776	-0.08909504
85	0x3bb8368b	0.0056217364
86	0xbe5edfe2	-0.21765092
87	0x3c800713	0.015628373
88	0xbe3b16d7	-0.18270431
89	0xbe21f15e	-0.1581473
90	0xbc86bbd4	-0.016446985
91	0xbcfab279	-0.03060268
92	0xbd6c5f72	-0.05770821
93	0x3df60c38	0.12014049
94	0x3c060597	0.008180044
95	0x3d29868b	0.041388076
96	0x3dd0ff85	0.102049865
97	0x3c543a1b	0.012953307
98	0xbe44addc	-0.19206947
99	0xbda59c18	-0.08086413
100	0x3e0e5c9c	0.13902515
101	0x3dfedfc6	0.12445025
102	0x3d99e4ec	0.075143665
103	0x3e3663fe	0.17811581
104	0xbdf21e75	-0.118222155
105	0xbd378e68	-0.044813544
106	0xbd1bcf9f	-0.0380398
107	0xbd64fd20	-0.05590546
108	0x3e38752c	0.18013448
109	0xbe6396e0	-0.22225523
110	0x3d159bee	0.03652566
111	0x3e55abe1	0.20866348
112	0xbe0714f6	-0.1319159
113	0x3e2dd6a6	0.16976413
114	0xbe41d580	-0.189291
115	0x3cc6c751	0.024264963
116	0xbdfbd29c	-0.1229603
117	0x3d720b48	0.05909279
118	0x3d20ea59	0.03928599
119	0x3d3284de	0.043583743
120	0xbd81392c	-0.06309733
121	0xbd8fc889	-0.07020671
122	0xbe5d5007	-0.2161256
123	0x3cd9ae84	0.026572473
124	0x3e5790d1	0.21051337
125	0xbe28d690	-0.16488099
126	0xbda41577	-0.080119066
127	0x3d5564f0	0.052098215
128	0x3deb8422	0.11499812
129	0x3d736b2b	0.059428375
130	0x3e19b59d	0.15010686
131	0x3d2e46f4	0.042548135
132	0xbd242e15	-0.04008301
133	0xbe2b41cd	-0.1672432
134	0xbe6bec6b	-0.23039405
135	0xbe48867f	-0.19582556
136	0x3db4d0a8	0.088288605
137	0x3e642e60	0.22283316
138	0x3e59afda	0.21258488
139	0x3e35aa31	0.17740704
140	0xbc10a4c8	-0.008828349
141	0x3e038a6d	0.12845774
142	0x3d7d12a2	0.061785348
143	0xbe1f630c	-0.15565127
144	0xbd20a2a1	-0.039217595
145	0xbe5f13b8	-0.21784866
146	0x3e4a2531	0.1974075
147	0x3d3e5296	0.04646548
148	0x3e5736fc	0.21017069
149	0xbcac7b7e	-0.02105498
150	0x3e296480	0.16542244
151	0x3de9f158	0.11422986
152	0xbcccef3e	-0.025016423
153	0x3bdab468	0.006674338
154	0x3e12bec4	0.14330584
155	0xbcd27ed6	-0.025695246
156	0x3e3cfd90	0.18456101
157	0x3d7afcb0	0.061276138
158	0xbda1dbe4	-0.07903269
159	0xbdb3258c	-0.08747396
160	0xbddb495b	-0.10707351
161	0x3e00d0a2	0.12579587
162	0x3e382203	0.17981724
163	0xbda7bad1	-0.08189929
164	0xbe358fde	-0.17730662
165	0x3e120d3e	0.14262864
166	0xbd93fb42	-0.07225658
167	0xbe611008	-0.21978772
168	0x3cde113d	0.02710783
169	0x3b82fcb8	0.0039974116
170	0x3e290723	0.16506629
171	0x3d6e0eec	0.0581197
172	0xbe16a98e	-0.14713117
173	0xbd6ac5c7	-0.05731752
174	0xbe33014e	-0.17480966
175	0x3dcd6efd	0.10030935
176	0x3d91387d	0.070908524
177	0x3dd12a55	0.10213152
178	0xbe102b62	-0.14079049
179	0xbdee4fad	-0.11636291
180	0xbde8895d	-0.11354325
181	0xbe2f1fa7	-0.17101918
182	0xbe49a400	-0.19691467
183	0xbe2241da	-0.15845433
184	0x3e2afcea	0.16698042
185	0xbd35ab13	-0.044352602
186	0xbd6573c1	-0.056018595
187	0x3d95c2fe	0.073125824
188	0x3da7fefe	0.08202933
189	0x3defc653	0.11707749
190	0xbe0dd806	-0.13851938
191	0x3e5613a9	0.20905937
192	0xbc51cfe1	-0.01280591
193	0xbdc06031	-0.09393347
194	0x3e0e3fae	0.1389148
195	0xbe480517	-0.19533192
196	0xbe1aecc1	-0.15129377
197	0x3de6a4e3	0.112619184
198	0x3ddaee60	0.10689998
199	0xbdb389f4	-0.08766547
200	0xbc302e7f	-0.010753273
201	0xbd592d93	-0.05302198
202	0x3da7ccb8	0.08193344
203	0x3d13383f	0.035942312
204	0x3db11aeb	0.08647712
205	0x3e477dbe	0.1948156
206	0xbe0849e5	-0.13309439
207	0xbe285f8f	-0.16442703
208	0xbd580919	-0.05274305
209	0xbda313b0	-0.079627395
210	0xbe26c579	-0.16286267
211	0x3e3f2230	0.18665385
212	0x3e343164	0.17596966
213	0x3e2e6141	0.17029287
214	0xbe05466e	-0.13015148
215	0xbd0b3fae	-0.033996277
216	0xbe40e94b	-0.18838994
217	0xbdb13a7d	-0.08653734
218	0x3e448596	0.19191584
219	0x3cbc6dae	0.023001518
220	0x3d4f0001	0.050537113
221	0xbe65c68e	-0.22439024
222	0x3d86b1e1	0.065768965
223	0x3e0e43e6	0.13893089
224	0xbdb0698c	-0.086138815
225	0x3e38a6d2	0.18032387
226	0x3da47465	0.08030013
227	0xbe35ec5f	-0.1776595
228	0xbe3ba086	-0.18322954
229	0xbbe2c99e	-0.0069210073
230	0xbe428c5e	-0.18998858
231	0xbe072f44	-0.13201624
232	0x3dd99bd4	0.10625425
233	0xbdd02961	-0.101641424
234	0xbc1fb874	-0.009748567
235	0xbddcdec3	-0.10784676
236	0x3e25995c	0.16171783
237	0x3e49bf39	0.19701852
238	0x3e2b961a	0.16756478
239	0xbe3b7c0d	-0.1830904
240	0xbd84a3fa	-0.064765885
241	0x3e02978e	0.12753126
242	0x3deba7ea	0.115066364
243	0xbd61a691	-0.05509049
244	0x3dda867a	0.106701806
245	0xbb9a6116	-0.0047112806
246	0x3d15c3d0	0.036563694
247	0x3e06f6ee	0.13180134
248	0x3e0e2f71	0.13885285
249	0xbe2a82f2	-0.16651514
250	0xbde56709	-0.11201293
251	0x3d98c3f4	0.0745925
252	0x3dd0ed11	0.10201467
253	0xbd825a18	-0.0636484
254	0x3e4067ca	0.18789592
255	0xbd17c8a3	-0.037056576

arch.transformer.1.attention.in_proj_bias f4 [96]
0	0xbbbf0d3f	-0.0058304365
1	0x3b7d5232	0.0038653729
2	0xbc051cc1	-0.008124531
3	0xbb9d8e4b	-0.0048082224
4	0x3c2ae3f1	0.010430322
5	0x3c8df70d	0.017329717
6	0xbbc2219a	-0.005924416
7	0xbc1c9f09	-0.009559401
8	0x3bd27d70	0.0064236447
9	0x3c0f749c	0.008755829
10	0x3bc5fd6f	0.0060421745
11	0x3bc815af	0.0061061005
12	0xbcd30b1e	-0.025762137
13	0x3c225d68	0.009909965
14	0xba63371f	-0.00086675765
15	0x3c469b5d	0.012122002
16	0xbc87a40a	-0.016557712
17	0xbbd42d56	-0.006475131
18	0x3c788750	0.01516898
19	0x3c780da0	0.015139967
20	0x3c9a690f	0.018848924
21	0x3c1c591b	0.009542729
22	0xbc6ffd92	-0.014647858
23	0xbc9bf0b6	-0.019035678
24	0xbc6dc8af	-0.014513179
25	0x3c9ce891	0.019153865
26	0xbb9b0490	-0.0047307685
27	0xbc5b5069	-0.0133858705
28	0x3c8b8714	0.017032184
29	0x3ca8b2a6	0.020592999
30	0xbca533f3	-0.020166373
31	0x3c712101	0.014717341
32	0x378f3ed1	1.707618e-05
33	0x36a35271	4.867376e-06
34	0xb546744e	-7.3929994e-07
35	0xb80e47f8	-3.3922464e-05
36	0xb5346bdd	-6.7212187e-07
37	0x37f25301	2.88873e-05
38	0xb78a7696	-1.6506103e-05
39	0x38171725	3.602276e-05
40	0x373c7a84	1.1234199e-05
41	0x373f1d65	1.1391331e-05
42	0xb826db42	-3.9781684e-05
43	0x384773d1	4.755316e-05
44	0x37463db6	1.1816088e-05
45	0x37436f41	1.1648809e-05
46	0xb5c58e38	-1.4719035e-06
47	0xb6286e9a	-2.509833e-06
48	0xb5b20ef7	-1.3266389e-06
49	0x388b318f	6.6372675e-05
50	0x36a46d0f	4.900277e-06
51	0xb877c2b4	-5.907072e-05
52	0xb7bdfc18	-2.2647946e-05
53	0xb8419789	-4.6155914e-05
54	0x38a18f1c	7.7037344e-05
55	0x369c0bfd	4.650558e-06
56	0xb7d8e580	-2.5856076e-05
57	0x3929b75d	0.00016185404
58	0xb7a4a240	-1.9625877e-05
59	0x38a7476a	7.9764824e-05
60	0xb88b5351	-6.6435554e-05
61	0x37ba1f4a	2.2187498e-05
62	0x3866ca3c	5.502462e-05
63	0xb7b7dee9	-2.19191e-05
64	0x3c053d08	0.008132227
65	0xbc0cbd93	-0.00859012
66	0x3c29f551	0.010373429
67	0x3b853e30	0.004066251
68	0x3b3a9083	0.0028467483
69	0xbbadd582	-0.005304993
70	0xbb17f6e1	-0.0023187923
71	0xbc622a5b	-0.013804044
72	0xbc300466	-0.010743236
73	0xbc0f43ff	-0.008744239
74	0x3c6374a0	0.013882786
75	0x3c3741a8	0.011185087
76	0x3c84b916	0.016201537
77	0x3c43eea9	0.0119587565
78	0xbc4a46de	-0.012345998
79	0xbc0309ad	-0.007997912
80	0xbceead93	-0.029135501
81	0x3b732191	0.0037098865
82	0x3afc41bb	0.0019245663
83	0xba814e4b	-0.0009865252
84	0xbc6112ef	-0.013737424
85	0xbc71522a	-0.014729062
86	0x3b980a5c	0.004639907
87	0xbc07a84c	-0.008279871
88	0xbbba854a	-0.005692159
89	0x3bdb3a26	0.0066902814
90	0x3ca973aa	0.020685036
91	0xbbca6740	-0.006176859
92	0x3bd32bdb	0.006444437
93	0x3c953c8e	0.018217351
94	0x3d07244f	0.03299361
95	0xbb1a413d	-0.002353742

arch.transformer.1.attention.out_proj.weight f4 [32, 32]
0	0xbde8633c	-0.113470525
1	0x3e004a6b	0.12528388
2	0x3df3663b	0.11884733
3	0x3de9755c	0.11399338
4	0xbd5e29a0	-0.054238915
5	0xbdc94db5	-0.098292746
6	0xbe041bb1	-0.12901188
7	0xbced027e	-0.028931852
8	0xbd080fdd	-0.033218253
9	0xbdee0c8b	-0.11623486
10	0x3ceb1c06	0.028699886
11	0xbda5e59b	-0.081004344
12	0x3d44ff06	0.04809477
13	0xbdbc8f43	-0.092070125
14	0x3a81540a	0.0009866965
15	0xbc6d77aa	-0.014493862
16	0x3e132c09	0.14372267
17	0xbe4a480e	-0.19754049
18	0xbddcc35c	-0.10779449
19	0x3d61c47f	0.055119034
20	0xbc7f6177	-0.015587202
21	0x3cb87262	0.02251548
22	0x3dbc6581	0.09199048
23	0x3cd6dfaf	0.026229708
24	0xbbadadd5	-0.0053002634
25	0x3c25e199	0.010124587
26	0xbdc7df7a	-0.09759422
27	0xbd46168d	-0.04836135
28	0x3d3d87c7	0.046272065
29	0x3d033b30	0.032038867
30	0x3e0df30b	0.13862245
31	0x3c7c483a	0.0153980795
32	0x3e297310	0.16547799
33	0x3da32577	0.0796613
34	0xbd009ad9	-0.031397674
35	0xbdae9477	-0.08524411
36	0x3cf1d40e	0.02952006
37	0xbe2043c5	-0.15650852
38	0xbdca0c09	-0.09865577
39	0x3d888057	0.06665104
40	0xbb00ff48	-0.001968341
41	0x3d8edf94	0.06976238
42	0xbdaab41e	-0.08335136
43	0x3e3083a2	0.17237714
44	0xbda1db4f	-0.07903158
45	0xbde35b03	-0.111013435
46	0x3dcbe840	0.099564075
47	0xbd8903a7	-0.0669015
48	0x3ceeab04	0.029134281
49	0xbb27f929	-0.0025630689
50	0xbdb9dcda	-0.09075327
51	0xbca7ff19	-0.020507382
52	0x3d429910	0.047509253
53	0x3de10aa8	0.10988361
54	0x3e2dbe44	0.16967112
55	0xbbfdfceb	-0.0077510974
56	0x3e19835a	0.14991513
57	0x3da8bb3d	0.08238838
58	0x3ca8c410	0.020601302
59	0xbccd4d22	-0.025061194
60	0x3c9db824	0.019252844
61	0x3cffb2f2	0.031213257
62	0xbcf2997d	-0.029614205
63	0x3d9e002f	0.07714879
64	0xbd208e97	-0.039198484
65	0xbdd9d23e	-0.10635804
66	0x3d58d694	0.052939013
67	0xbdb68848	-0.08912712
68	0x3dc82c15	0.09774033
69	0x3e1caaff	0.15299605
70	0x3cc6d0a1	0.024269404
71	0xbc56bb6b	-0.013106207
72	0xbb1a510f	-0.002354685
73	0x3dbca7f3	0.09211721
74	0xbe177b4e	-0.14793131
75	0xbd2db33c	-0.04240726
76	0xbdbe3df9	-0.09289164
77	0xbe2ffc26	-0.17186031
78	0xbde0f582	-0.10984327
79	0xbdba124b	-0.0908552
80	0x3e0c6ff0	0.13714576
81	0x3de66a55	0.1125075
82	0xbddae1e6	-0.10687618
83	0xbe0246ca	-0.12722316
84	0x3e0faa94	0.14029914
85	0x3d3d9805	0.046287555
86	0x3dc1ea60	0.094685316
87	0x3d1adc77	0.037807908
88	0xbd8d3c1e	-0.06896232
89	0xbdbd9a25	-0.09257916
90	0x3dd16837	0.102249555
91	0xbe3f2ee0	-0.18670225
92	0xbe0b7349	-0.13618197
93	0x3ce16997	0.02751617
94	0xbd58e7cc	-0.052955434
95	0x3ccc98d9	0.024975227
96	0x3df1154c	0.1177164
97	0xbe02e673	-0.12783222
98	0xbd9dca06	-0.077045485
99	0xbe0041d5	-0.12525113
100	0xbe16fbcc	-0.1474449
101	0xbd260937	-0.04053613
102	0x3e102d19	0.14079703
103	0xbce856ed	-0.028361762
104	0x3da17623	0.07883861
105	0xbdcfe050	-0.10150206
106	0x3cd5b965	0.02608938
107	0xbe01af41	-0.1266451
108	0xbc403779	-0.011731976
109	0x3d26092c	0.04053609
110	0xbdafb178	-0.08578771
111	0x3e091a9e	0.1338906
112	0x3cbea4a9	0.023271875
113	0x3de04506	0.10950665
114	0x3e46645c	0.19374222
115	0x3d7359db	0.059411865
116	0xbd17f7e6	-0.03710165
117	0x3d92204e	0.07135068
118	0x3e413ebb	0.18871586
119	0xbe2a32c3	-0.16620927
120	0xbc97a76d	-0.018512452
121	0x3de17de5	0.110103406
122	0xbd3275f3	-0.043569516
123	0xbe23c862	-0.15994409
124	0xbd96816e	-0.073489055
125	0xbdb69934	-0.0891594
126	0x3d8018bb	0.06254717
127	0x3dabfbb1	0.08397616
128	0x3ba6b21b	0.00508715
129	0xbe38f7b1	-0.18063237
130	0x3d51ad23	0.051190507
131	0x3d13ec5d	0.036114085
132	0xbd6b8d73	-0.057507943
133	0x3cf21e4b	0.02955546
134	0xbdaf603d	-0.08563278
135	0x3d419025	0.047256608
136	0x3ddb67ca	0.107131556
137	0x3d903a29	0.07042343
138	0xbbd08625	-0.0063636475
139	0x3e3a690e	0.18204138
140	0xbc224cf6	-0.009906044
141	0xbe247bf9	-0.16062917
142	0x3de2e100	0.110780716
143	0x3e064d8e	0.13115522
144	0x3d4c440b	0.04986958
145	0x3e3f5644	0.18685251
146	0x3e00e6ef	0.12588094
147	0x3d524831	0.05133838
148	0x3d87ffed	0.06640611
149	0xbe1dee00	-0.15422821
150	0x3cc1f0b2	0.023674343
151	0xbd8fd854	-0.07023683
152	0x3d9345fb	0.07191082
153	0xbdfb173b	-0.1226029
154	0x3c6d311d	0.014477042
155	0x3d315037	0.04328939
156	0xbcf36bb5	-0.029714445
157	0xbda180eb	-0.07885917
158	0xbe08e962	-0.13370278
159	0x3c55cf8c	0.013049971
160	0xbe1d0ec2	-0.15337661
161	0xbd2fd2d1	-0.04292566
162	0x3c069940	0.008215249
163	0x3d6e8a2f	0.05823725
164	0xbe20ba3c	-0.15696043
165	0x3d3315c2	0.04372192
166	0xbd9ff586	-0.07810502
167	0xbc482b0a	-0.012217293
168	0xbe08ac64	-0.13347012
169	0xbe0c6c29	-0.13713135
170	0x3c87b23e	0.016564485
171	0x3d370230	0.04467982
172	0x3e2b8a8f	0.16752075
173	0x3e1c1f62	0.15246347
174	0x3df4049a	0.1191494
175	0x3d7dc4ab	0.061955135
176	0x3df54cbd	0.11977527
177	0x3d99eb6e	0.07515608
178	0xbe1ec79c	-0.15505832
179	0x3e0f9fdd	0.14025827
180	0x3c36dc27	0.011160887
181	0xbd2416d0	-0.04006082
182	0xbd151ddb	-0.036405426
183	0x3e0c2e1e	0.13689467
184	0x3e01895c	0.12650055
185	0xbcd3c99d	-0.025852973
186	0xbd8ff640	-0.0702939
187	0xbdd11a68	-0.10210115
188	0x3dc3cd6e	0.09560667
189	0xbdee6539	-0.116404004
190	0xbde159ea	-0.11003478
191	0xbdd061ae	-0.10174881
192	0x3cb57d1a	0.02215438
193	0x3e2fccce	0.1716797
194	0x3b9498fc	0.0045348387
195	0x3da93f5e	0.082640395
196	0xbe1e8f43	-0.15484338
197	0xbdbcc485	-0.092171706
198	0xbdb13f69	-0.08654673
199	0xbdc82deb	-0.09774383
200	0xbd6c8160	-0.05774057
201	0xbdb98a78	-0.09059614
202	0xbd870865	-0.06593398
203	0xbdfc788a	-0.123276785
204	0x3d46e872	0.04856152
205	0x3c0ba6bc	0.008523639
206	0x3cdf6e91	0.027274402
207	0x3ddd9e4d	0.10821209
208	0xbdffbd83	-0.12487318
209	0xbdd06f42	-0.10177471
210	0xbd18e1f7	-0.037324872
211	0xbe13ce49	-0.1443416
212	0x3e02629b	0.12732928
213	0xbde3472f	-0.110975616
214	0x3dc14b51	0.094381936
215	0x3e2e34bc	0.17012304
216	0x3c4fc199	0.012680435
217	0xbdfc66e6	-0.12324314
218	0x3df6aaf6	0.12044327
219	0xbdc11974	-0.09428683
220	0xbcd6f1fb	-0.026238432
221	0x3dec4f94	0.11538616
222	0x3e3b0920	0.182652
223	0x3d43bf8d	0.0477901
224	0x3c596cbc	0.013270553
225	0xbd4b222b	-0.049593132
226	0xbe132581	-0.14369775
227	0x3c80be05	0.015715608
228	0xbe03b71e	-0.12862822
229	0xbc9dd360	-0.01926583
230	0xbd5d49d0	-0.05402547
231	0x3dc662cb	0.09686812
232	0xbdba5b00	-0.09099388
233	0x3dd68503	0.10474589
234	0xbcf6d1bf	-0.030129312
235	0xbcb6c153	-0.022308981
236	0xbe23350c	-0.15938205
237	0x3e1cdd30	0.15318751
238	0xb9efed3d	-0.0004576239
239	0xbe48d0a4	-0.1961084
240	0xbccb8cdf	-0.024847446
241	0x3dda26c4	0.10651925
242	0xbbc63c19	-0.0060496447
243	0x3dfa2f20	0.1221602
244	0x3d4c69d4	0.049905613
245	0xbd335afc	-0.04378794
246	0x3e4d9b7a	0.20078841
247	0x3e046db8	0.1293248
248	0x3aaae042	0.0013036805
249	0x3cab2469	0.020891385
250	0x3d69d083	0.057083618
251	0xbdaad01c	-0.08340475
252	0x3e136eac	0.14397687
253	0xbe2ecd1d	-0.17070432
254	0xbde582b1	-0.11206568
255	0x3d3be81c	0.045875654

arch.transformer.1.attention.out_proj.bias f4 [32]
0	0xba321d8c	-0.0006794564
1	0xbc9466af	-0.01811537
2	0xbc597fb5	-0.013275077
3	0x3b6495cc	0.0034879325
4	0xba36b40d	-0.00069695787
5	0xbc734349	-0.014847585
6	0x3aa53878	0.001260533
7	0x3b3e1079	0.0029001518
8	0xbbf9b908	-0.0076209344
9	0x3b8421e1	0.004032359
10	0x3c8ee932	0.01744518
11	0xbbd62241	-0.006534845
12	0xbb5f2750	-0.0034050532
13	0xbc2b7a57	-0.01046618
14	0xbba7c884	-0.005120339
15	0xbb9a8757	-0.004715841
16	0xbba70103	-0.005096556
17	0x3b611751	0.0034346173
18	0x3c10280a	0.008798609
19	0xbb08289c	-0.0020776158
20	0x3c0610bd	0.008182702
21	0xbc9c9097	-0.019111915
22	0xb9d7eba2	-0.00041183556
23	0x389ccdf5	7.477022e-05
24	0x3ce7f0f8	0.028313145
25	0x3bf2f478	0.007414397
26	0xbba68887	-0.0050821933
27	0xbbc3b17b	-0.005972085
28	0x3c10f28c	0.00884689
29	0xbb8bdbbd	-0.004268138
30	0x3ac1adc1	0.0014776514
31	0x3ca6e305	0.020371923

arch.transformer.1.mlp.0.weight f4 [2, 32]
0	0xbc0499b5	-0.008093287
1	0x3ddeb2df	0.10873961
2	0x3d99d494	0.07511249
3	0x3d0ef364	0.034900084
4	0x3cf4f9d1	0.029904278
5	0x3d84deb7	0.06487792
6	0x3d4fd7a9	0.05074278
7	0x3e1cc0cd	0.15307923
8	0x3d35bfdd	0.04437243
9	0x3dec7bbc	0.11547038
10	0x3dfa4c45	0.122215785
11	0xbe2dbe32	-0.16967085
12	0xbde08872	-0.10963525
13	0x3d81ce8e	0.06338225
14	0x3cfa8f7f	0.030586002
15	0xbdb15ffd	-0.086608864
16	0x3d20f2fd	0.03929423
17	0xbe2769dc	-0.16348976
18	0xbd3427f9	-0.043983433
19	0x3dd776a3	0.10520675
20	0x3ce40b1b	0.027837327
21	0xbdbb5bb3	-0.091483496
22	0x3d61d90e	0.05513864
23	0x3bc3725a	0.0059645595
24	0xbc8826ff	-0.016620157
25	0xbe0be4e6	-0.13661537
26	0xbd83affd	-0.064300515
27	0x3cc2adc8	0.023764506
28	0xbd8b3538	-0.0679726
29	0x3c6a8a07	0.014315135
30	0xbdd9e45a	-0.10639258
31	0x3dddb898	0.10826224
32	0x3e1a8d82	0.15093043
33	0x3de1dd2b	0.110285126
34	0xbc68a219	-0.014198803
35	0xbe29f171	-0.16596009
36	0xbd5e0046	-0.05419948
37	0xbc165bfd	-0.009177205
38	0xbe1d4103	-0.15356831
39	0x3dffe16c	0.12494168
40	0x3d819436	0.06327097
41	0x3df0bcd7	0.11754768
42	0xbe1b8b9b	-0.15189974
43	0xbd97c84a	-0.07411249
44	0x3d515cb3	0.051113795
45	0x3c88d2fd	0.01670217
46	0xbdbccb04	-0.0921841
47	0x3df4c6df	0.11951994
48	0x3da3ece4	0.08004168
49	0xba1f781a	-0.0006083265
50	0x3e22610b	0.15857331
51	0xbe426e0b	-0.1898729
52	0xbe322336	-0.17396244
53	0x3cf65458	0.030069515
54	0x3e33eb9d	0.17570348
55	0x3dc0df9f	0.09417652
56	0xbdf19606	-0.11796193
57	0x3de36fb6	0.111052915
58	0x3dd843e9	0.10559828
59	0x3b1521f6	0.0022755838
60	0x3dbb75c9	0.09153325
61	0x3cdcd06c	0.026954852
62	0x3a6a6f46	0.00089429726
63	0xbd5fe1e9	-0.054658804

arch.transformer.1.mlp.0.bias f4 [2]
0	0xbdf59728	-0.119917214
1	0xbdf76208	-0.12079245

arch.transformer.1.mlp.3.weight f4 [32, 2]
0	0xbd9eee84	-0.07760337
1	0xbef9725d	-0.48720065
2	0x3e8de4c9	0.27713612
3	0x3e418930	0.18899989
4	0xbf327ac3	-0.6971857
5	0xbf059278	-0.5217662
6	0x3efee1a2	0.4978152
7	0xbebbe00a	-0.36694366
8	0xbcccdd54	-0.025007881
9	0xbee734c6	-0.4515745
10	0xbe33f0a8	-0.17572272
11	0x3eabc226	0.3354656
12	0x3e433e9f	0.19066857
13	0x3eb09e2b	0.34495673
14	0xbd517b27	-0.051142838
15	0xbf0fe2c1	-0.56205374
16	0x3a0cc397	0.00053697213
17	0x3ed0df51	0.40795377
18	0x3e2a3221	0.16620685
19	0x3e1b76e0	0.15182066
20	0x3e16440d	0.14674397
21	0x3f16ffe8	0.5898423
22	0x3eb82cfe	0.35971826
23	0xbdf49bd8	-0.11943787
24	0xbebf3274	-0.3734318
25	0x3f1266aa	0.571879
26	0xbebb3baa	-0.36568958
27	0xbef5bb45	-0.47994438
28	0x3e5235cf	0.20528339
29	0xbeeb3278	-0.45936942
30	0xbf1acaba	-0.60465586
31	0xbf13cec2	-0.5773736
32	0x3e340302	0.17579272
33	0xbee5b632	-0.44865566
34	0x3f21032d	0.6289547
35	0xbcd83736	-0.026393514
36	0xbe9c0115	-0.30469576
37	0xbedaf225	-0.42762867
38	0xbe66fc2f	-0.22557138
39	0x3f1c38a5	0.6102393
40	0xbee13c0a	-0.4399112
41	0xbf2633c6	-0.6492275
42	0x3e4c6b17	0.19962727
43	0x3e5e8a3a	0.21732417
44	0xbf15f097	-0.58570236
45	0xbea248dc	-0.31696212
46	0x3f1a5488	0.60285234
47	0xbea89aeb	-0.32930693
48	0x3ea4bfcf	0.32177588
49	0xbea231a4	-0.31678498
50	0xbf1ea24f	-0.61966413
51	0xbf2cd474	-0.6751168
52	0x3f067e3b	0.5253636
53	0x3e54cc76	0.2078112
54	0x3e3ed848	0.18637192
55	0x3e6e5544	0.23274714
56	0x3e8c2858	0.2737453
57	0x3ef1ef7f	0.47253034
58	0x3f0ae306	0.5425266
59	0x3f0a5d6c	0.540488
60	0x3e61aa31	0.22037579
61	0x3e0120a9	0.12610115
62	0x3e23d4a6	0.15999088
63	0xbf0d09e5	-0.5509322

arch.transformer.1.mlp.3.bias f4 [32]
0	0x3ea56be2	0.3230887
1	0x3e2032bf	0.15644358
2	0x3e968ba4	0.29403412
3	0xbe31f1b8	-0.17377365
4	0x3f148a62	0.58023655
5	0x3d8823bb	0.0664744
6	0xbe2a3090	-0.16620088
7	0xbc971ff5	-0.018447855
8	0xbe93b2a6	-0.28847235
9	0xbdc2f482	-0.095192924
10	0x3f1b5790	0.60680485
11	0x3e696873	0.2279375
12	0xbda2ebbb	-0.07955118
13	0x3c93930d	0.018014455
14	0x3e16f8cc	0.14743346
15	0xbed0da48	-0.40791535
16	0xbec7a97b	-0.3899649
17	0x3f200f94	0.6252377
18	0x3c1f4e79	0.009723299
19	0x3e4de1e9	0.20105709
20	0xbea2f9b2	-0.31831127
21	0xbf0a2ba0	-0.53972816
22	0x3e13eedf	0.14446591
23	0x3ec40e17	0.38292
24	0xbf22c34a	-0.6357924
25	0xbf311660	-0.69174767
26	0xbe775cca	-0.2415649
27	0x3ee4f005	0.4471437
28	0xbf1fa1a6	-0.6235603
29	0x3f0f90eb	0.560805
30	0x3f22c621	0.6358357
31	0xbe0893cd	-0.13337632

arch.transformer.1.layernorm0.weight f4 [32]
0	0x3f7d785d	0.99011785
1	0x3f7e21fa	0.99270594
2	0x3f76d86e	0.96423995
3	0x3f7a3102	0.9773103
4	0x3f7a6e6f	0.9782476
5	0x3f79d6e0	0.975935
6	0x3f7ed9ea	0.9955126
7	0x3f80521e	1.002506
8	0x3f80ef05	1.0072943
9	0x3f771abc	0.9652517
10	0x3f776a7c	0.9664686
11	0x3f83753b	1.0270151
12	0x3f832e6a	1.024854
13	0x3f858731	1.0431882
14	0x3f780cac	0.96894336
15	0x3f782911	0.9693766
16	0x3f7d964f	0.9905748
17	0x3f7b6ce3	0.9821302
18	0x3f831e07	1.0243539
19	0x3f7c1786	0.98473394
20	0x3f8034df	1.0016135
21	0x3f75c35a	0.9600121
22	0x3f83d355	1.0298868
23	0x3f7eab4e	0.9948014
24	0x3f8033b2	1.0015776
25	0x3f81e5fc	1.0148311
26	0x3f7b3362	0.9812528
27	0x3f783961	0.96962553
28	0x3f83dc48	1.03016
29	0x3f7d338e	0.9890679
30	0x3f7ab038	0.9792514
31	0x3f80fa74	1.0076432

arch.transformer.1.layernorm0.bias f4 [32]
0	0x3ab4ee55	0.0013803939
1	0xbccfe98d	-0.02537992
2	0xbc715fb8	-0.014732294
3	0x3b38a0c4	0.0028171996
4	0xbb9b8c73	-0.0047469675
5	0xbc9991b3	-0.018746233
6	0x3b7adbed	0.0038278059
7	0xb9bffeb5	-0.0003662013
8	0xbc16e1a7	-0.009209073
9	0x3b9482a5	0.0045321756
10	0x3c963003	0.01833344
11	0xbb982528	-0.0046431012
12	0xba136c01	-0.0005623699
13	0xbc127c8a	-0.008940825
14	0xbc0d7d41	-0.00863582
15	0xbbd9acf6	-0.006642933
16	0xbba900ab	-0.0051575503
17	0x3b813d54	0.0039440785
18	0x3b96a7b9	0.004597631
19	0xbb566eb3	-0.003271979
20	0x3c0babba	0.0085248295
21	0xbca0d1aa	-0.019631226
22	0x3af51666	0.0018698692
23	0xbadff085	-0.001708523
24	0x3d058d9d	0.032605756
25	0x3be7057a	0.0070502134
26	0xbc003ba2	-0.007826718
27	0xbc0f01cd	-0.008728457
28	0x3c035afe	0.0080173
29	0xbb81666a	-0.0039489763
30	0xba0964b3	-0.00052411406
31	0x3cb95f13	0.022628343

arch.transformer.1.layernorm1.weight f4 [32]
0	0x3f7c2fc0	0.9851036
1	0x3f788c34	0.97088933
2	0x3f75ff72	0.96092904
3	0x3f7b0a50	0.9806261
4	0x3f79f528	0.97639704
5	0x3f77b16f	0.9675512
6	0x3f803f66	1.0019348
7	0x3f803d56	1.0018718
8	0x3f80f96a	1.0076115
9	0x3f77c996	0.9679197
10	0x3f7d24c4	0.98884225
11	0x3f831316	1.02402
12	0x3f82eb9e	1.0228155
13	0x3f855003	1.0415043
14	0x3f76b30a	0.9636694
15	0x3f7beffb	0.98413056
16	0x3f7fef59	0.9997459
17	0x3f7bdcf3	0.98384017
18	0x3f83532d	1.0259758
19	0x3f7c70a2	0.98609364
20	0x3f7b31e9	0.9812303
21	0x3f7b7494	0.9822476
22	0x3f84080f	1.0314959
23	0x3f7f53c9	0.9973722
24	0x3f78dcc0	0.9721184
25	0x3f832cd8	1.024806
26	0x3f7bb94b	0.9832961
27	0x3f79d966	0.9759735
28	0x3f814a8a	1.0100873
29	0x3f7de5db	0.99178857
30	0x3f7d4838	0.9893832
31	0x3f7e6176	0.99367464

arch.transformer.1.layernorm1.bias f4 [32]
0	0x3bf5b1db	0.0074980087
1	0xbca038f1	-0.019558402
2	0xbc681ccf	-0.014167025
3	0xb9f6e4e8	-0.00047091325
4	0xbbf3b51a	-0.0074373605
5	0xbca5b118	-0.020226046
6	0x3ac01384	0.0014654254
7	0x3a01f0bf	0.00049568334
8	0xbbcf145f	-0.006319567
9	0x3be25d56	0.006908099
10	0x3c00df84	0.00786579
11	0xbbbc71e5	-0.005750882
12	0x39436d77	0.00018637428
13	0xbbfb7c9d	-0.007674767
14	0xbc817eb3	-0.015807485
15	0xbaec4e61	-0.001802873
16	0xbb4b0a7f	-0.0030981598
17	0x3b0dcca2	0.0021636863
18	0x3b8877f7	0.0041646915
19	0xbc203ece	-0.009780599
20	0x3baac88c	0.0052118953
21	0xbcc57471	-0.024103375
22	0x3b971d05	0.0046116137
23	0xb924489c	-0.00015667308
24	0x3cf1df26	0.02952535
25	0x3bb99211	0.0056631644
26	0xbbe7cf48	-0.0070742704
27	0xbc220ab2	-0.009890245
28	0x3bcc22b9	0.006229725
29	0xbb82c548	-0.003990803
30	0xbb71c197	-0.003688907
31	0x3cbf90e3	0.023384517

arch.transformer.2.attention.in_proj_weight f4 [96, 32]
0	0x3e5104cb	0.20411985
1	0xbde198dd	-0.110154845
2	0x3e331de2	0.17491868
3	0x3b705212	0.0036670011
4	0x3e514d4a	0.2043964
5	0xbdd92815	-0.10603348
6	0x3e1cb941	0.15305044
7	0xbded1a57	-0.115772896
8	0xbe24adbc	-0.160819
9	0x3e0a1f3f	0.13488482
10	0x3d85dc7c	0.06536195
11	0x3e70ab98	0.23502958
12	0x3deb40f9	0.11487002
13	0xbd78e627	-0.060766365
14	0xbde1b4a8	-0.110207856
15	0x3e36d8d0	0.17856145
16	0xbd083686	-0.033255123
17	0xbdfb1636	-0.12260096
18	0xbe3e0411	-0.18556239
19	0xbe1aa765	-0.15102918
20	0xbdddbba2	-0.10826804
21	0xbe2dc6d0	-0.16970372
22	0x3e7029e9	0.23453487
23	0x3c942cec	0.018087827
24	0x3d81967d	0.063275315
25	0xbe09e27f	-0.13465308
26	0x3cc5c16e	0.024140086
27	0x3e15a91a	0.14615288
28	0xbdb8d873	-0.090256594
29	0x3e2dcf36	0.16973576
30	0xbd939c78	-0.072075784
31	0xbdbc3afe	-0.09190939
32	0xbe3bee4e	-0.18352625
33	0xbe7541c3	-0.23950867
34	0x3dd6ff77	0.10497945
35	0xbe0f5f6a	-0.14001241
36	0xbddfaae8	-0.1092127
37	0xbda186d3	-0.07887044
38	0xbe3f11c4	-0.18659121
39	0xbe33be8a	-0.17553154
40	0xbe29218e	-0.16516706
41	0x3e6de6ea	0.23232618
42	0x3cf03fe7	0.029327346
43	0xbdcdf55b	-0.100565635
44	0xbd293646	-0.041311525
45	0x3e179b62	0.14805368
46	0xbe14dc78	-0.14537227
47	0x3d986782	0.074416175
48	0xbd6b2eae	-0.057417564
49	0xbe3b35a5	-0.18282183
50	0x3e2c7702	0.16842273
51	0x3de493db	0.11161014
52	0x3e29c155	0.16577657
53	0x3db717af	0.08940064
54	0x3c351d5f	0.011054366
55	0x3da63da0	0.08117223
56	0xbe243a34	-0.16037828
57	0x3e72b61f	0.23702286
58	0xbe261968	-0.16220629
59	0x3e261994	0.16220695
60	0xbe005ed5	-0.12536176
61	0xbe118452	-0.14210632
62	0x3dcc67a6	0.09980707
63	0x3e28b7eb	0.16476409
64	0xbd912ad9	-0.07088251
65	0x3d4fd4f3	0.050740194
66	0xbe3c6da9	-0.18401207
67	0xbcf5b557	-0.029993696
68	0x3e457f94	0.19286948
69	0x3e4c0c28	0.19926512
70	0xbd9dc76e	-0.07704054
71	0x3d98aac9	0.0745445
72	0x3e3f5a6e	0.1868684
73	0x3db77f8e	0.08959876
74	0x3d468e76	0.048475705
75	0xbe3e2d8f	-0.18572067
76	0x3d49107e	0.049087994
77	0x3d127032	0.03575153
78	0xbe07d36e	-0.13264248
79	0x3dd2f38c	0.10300359
80	0xbe1bfa99	-0.15232314
81	0x3e5c273d	0.21499343
82	0x3b5a8100	0.003334105
83	0x3e20e0f0	0.15710807
84	0xbd5406c6	-0.051764272
85	0xbdec2756	-0.1153094
86	0x3e1309c5	0.14359196
87	0x3e0e96e5	0.13924749
88	0x3e583548	0.21114075
89	0x3daca53b	0.08429953
90	0xbddee506	-0.108835265
91	0xbdf7ed97	-0.121058635
92	0xbe4f526f	-0.2024629
93	0x3cb415ef	0.021983115
94	0x3e5c443e	0.21510407
95	0xbd76206e	-0.06008952
96	0xbd34b6d5	-0.044119675
97	0x3e15fd02	0.14647296
98	0x3e57a09b	0.2105736
99	0x3d90d29a	0.07071419
100	0x3b8b86bf	0.0042580063
101	0x3e64d795	0.22347863
102	0x3e3c4df0	0.18389106
103	0xbdfb1887	-0.122605376
104	0xbe1458a2	-0.14486936
105	0xbd11871d	-0.035529245
106	0x3d98e225	0.07465009
107	0xbe1cd176	-0.15314278
108	0xbdcfeea2	-0.101529375
109	0x3b0e4516	0.002170866
110	0xbd5efe7a	-0.054441907
111	0x3e29b163	0.16571574
112	0x3e19a4de	0.15004298
113	0x3e0a05bb	0.13478749
114	0x3e0236ce	0.12716219
115	0xbe0be4be	-0.13661477
116	0xbe122249	-0.14270891
117	0xbe088024	-0.13330132
118	0xbd4674b8	-0.048451155
119	0x3e1ed452	0.15510681
120	0xbce000be	-0.027344104
121	0x3e60bbc2	0.21946624
122	0x3e1eb99a	0.15500489
123	0xbe5fc153	-0.21851091
124	0x3df89047	0.12136894
125	0xbdde8df0	-0.10866916
126	0xbe5f3f7a	-0.21801558
127	0x3d950eed	0.072782375
128	0xbdd07f61	-0.101805456
129	0xbe60a5c7	-0.21938239
130	0xbe12b659	-0.14327373
131	0x3e20ecfb	0.15715401
132	0xbd395e77	-0.045256104
133	0x3e346160	0.1761527
134	0xbdc6d9ad	-0.09709487
135	0x3e4a9094	0.19781715
136	0xbda0ac3e	-0.078453526
137	0x3e6aac6d	0.22917338
138	0x3dd498b1	0.10380686
139	0xbe3fca6e	-0.18729565
140	0x3d7b6da1	0.061383847
141	0x3d629d18	0.055325598
142	0xbe55629f	-0.20838402
143	0xbe49413d	-0.19653793
144	0xbbb72fab	-0.0055903993
145	0x3dfe6c67	0.1242302
146	0x3e6149c6	0.22000799
147	0xbd3a1600	-0.045431137
148	0xbe4344f2	-0.1906927
149	0x3db02cf1	0.08602322
150	0xbc574f93	-0.013141531
151	0x3cb3f092	0.021965299
152	0x3e0e3ec9	0.13891138
153	0x3d77f2a0	0.06053412
154	0x3e265f13	0.16247205
155	0x3e32fd34	0.17479402
156	0x3d880249	0.06641061
157	0x3e330356	0.17481741
158	0x3dac32ea	0.084081486
159	0xbe3cd50d	-0.18440647
160	0x3e2ee093	0.17077856
161	0xbcacabc5	-0.021078
162	0xbc9c1529	-0.019053059
163	0x3e39e067	0.18152009
164	0x3e424d6f	0.18974851
165	0xbe23a6c6	-0.15981588
166	0x3d845641	0.06461764
167	0xbdfe1bdb	-0.12407657
168	0xbd9dc7c2	-0.077041164
169	0x3d9787d8	0.07398957
170	0xbd865388	-0.06558901
171	0xbdf7a27e	-0.1209154
172	0x3d98825a	0.074467376
173	0xbdb0fb3f	-0.086416714
174	0x3d81bfd2	0.06335415
175	0x3e50d22e	0.20392677
176	0x3d146bf0	0.03623575
177	0x3d4c3bc3	0.04986168
178	0x3e613659	0.21993388
179	0xbd952a9b	-0.07283517
180	0x3ca95905	0.02067233
181	0xbe555d77	-0.20836435
182	0xbdfac287	-0.122441344
183	0xbbbcabe2	-0.0057577947
184	0x3e4ff260	0.20307302
185	0x3e20c46c	0.15699929
186	0xbd852299	-0.065007396
187	0xbd5d5b0a	-0.0540419
188	0x3d8f88df	0.07008528
189	0xbdb15073	-0.086579226
190	0xbcc78dfc	-0.024359696
191	0x3d92643b	0.07148024
192	0xbdb24474	-0.08704463
193	0x3e0b71ff	0.13617705
194	0x3db95b2c	0.09050593
195	0xbcb8d25c	-0.022561245
196	0xbd03517c	-0.03206013
197	0x3c8427e5	0.016132304
198	0x3dbf7063	0.09347608
199	0x3d480835	0.04883595
200	0xbdb1e2ae	-0.08685814
201	0x3dc5dc61	0.096611746
202	0x3be68c47	0.0070357653
203	0xbe33f20c	-0.17572802
204	0xbe56045f	-0.20900105
205	0xbd243116	-0.040085874
206	0x3e2d5890	0.16928315
207	0xbdb21fa1	-0.08697439
208	0x3df6ef6e	0.12057386
209	0xbd7347b6	-0.05939456
210	0x3e21a71d	0.15786405
211	0xbd0b447c	-0.03400086
212	0xbd986745	-0.07441572
213	0x3d6a6e3f	0.057234045
214	0x3dc2246e	0.09479605
215	0xbe1bb9c0	-0.15207577
216	0xbc3c8bbd	-0.011507926
217	0x3d9b12dc	0.075719565
218	0x3c54b3a4	0.012982283
219	0x3e5f8993	0.21829824
220	0xbe37907f	-0.17926215
221	0x3e48980f	0.19589256
222	0x3df10f46	0.11770491
223	0xbe358320	-0.17725801
224	0xbdccafd9	-0.09994478
225	0x3d3cf6e0	0.046133876
226	0xbe16b420	-0.1471715
227	0x3e5e0b8d	0.21684094
228	0xbd9b6ecf	-0.075894944
229	0x3de1b09f	0.11020016
230	0x3cae9440	0.021310925
231	0xbd9cec40	-0.076622486
232	0xbe5b76c3	-0.21432023
233	0x3d18ce75	0.037306268
234	0xbe35a38b	-0.17738168
235	0xbd84b510	-0.064798474
236	0x3cf7be17	0.03024201
237	0xbdccf6e7	-0.100080304
238	0x3dc9c0e2	0.098512426
239	0xbe3f7981	-0.18698694
240	0xbe32aa9b	-0.17447893
241	0x3dc31e3c	0.09527251
242	0xbdbbe8cc	-0.09175262
243	0x3e36e83f	0.17862032
244	0xbcba649e	-0.022753056
245	0xbd0826d3	-0.03324015
246	0x3e331e39	0.17491998
247	0xbcc4c517	-0.024019761
248	0xbe266ddd	-0.16252847
249	0xbd731167	-0.059342768
250	0x3d68b9cf	0.056817826
251	0x3e137d8c	0.14403361
252	0x3e538e99	0.20659865
253	0xbdaa75fe	-0.083232865
254	0x3ceb6414	0.028734244
255	0x3e1e0b23	0.15433936
