checkpoints/epoch=99-step=400-v1.ckpt (torch, 230283 bytes, 133 tensors)

arch.arch.net.inception_block_1.branches.0.0.weight f4 [8, 1, 1, 62]
00000000: d6a0 593d e8c2 0a3d fdfe e9bc ed25 98bd
00000010: 1600 953d 4fa5 aa3d 7bc0 a13d d02d 9fbd
00000020: f01f b3bd ede0 1dbd 0ca4 203b 58bf cdbd
00000030: a93e 913d d134 b53d a0fd c8bd 1a24 72bd
00000040: 4674 94bd f6ca 86bd 9eb4 a2bd ff35 b13d
00000050: 1f53 cb3d 6e7c 35bd ea33 5b3c 3003 90bd
00000060: 07e8 0fbd b0fe 9f3d 8f11 a8bd 5f93 623d
00000070: 4ae5 92bd bd15 a4bd aadb 3ebc 3c4b 923d
00000080: 281f adba a668 91bd 7f42 453d c249 9abd
00000090: a114 d3bc 3750 babd 05a6 c73d d685 f2bc
000000a0: 63b4 47bd e897 533d c4f2 9cbd c17b 0e3d
000000b0: efcd d93c 996c d7bc d22c a4bd 1d1f d03d
000000c0: c539 98bd 66c4 2ebd 30ca 6e3d fc45 0e3c
000000d0: 4ec6 d73c b3c1 6cbd d318 a2bd 8dbd 8fbc
000000e0: c2b4 efbb c3da 6fbd 949d 4dbd 7c58 1ebd
000000f0: 65df 553d 2d2c d3bc c2eb 4cbd bfc7 59bd
00000100: 20e8 cf3c 7adf 0dbd b763 d03c 53c5 c73d
00000110: 2e92 3dbc dd6a 18bd b157 88bc 1ada ab39
00000120: 7956 b0bc a576 d0bd 2421 9b3d 6f89 99bc
00000130: 2fb8 433d 829f 683d b37e 41bd 4a24 973d
00000140: bb02 933d 7a8a 04bd e564 b0bd 1ba3 a6bd
00000150: c71d 723c e540 e2bb d5c9 c2bd ac54 a6bd
00000160: 458c 9cbc b332 0c3c d9a3 b9bd c023 1cbd
00000170: ad56 793b b8ec 38bd f710 8fbd 8f69 6a3d
00000180: 05dd 8b3d 4b70 05bd 0dbc fa3c 04aa 8ebc
00000190: 31bb bdbd be2c ee3b 9d0b 8bbd d684 f93a
000001a0: ad91 ed3c 55a9 b33d 8bdd 8b3d 829b 77bd
000001b0: 803c 2c3d b767 cebc 0fbf acbd bbd5 073d
000001c0: 2d72 ab3a 68e1 adbd 4afc 82bd 479d 80bd
000001d0: e5ef 933d 74e7 413d b0a8 d3bc 59ca a5bd
000001e0: 34fc c8bd 1e55 b73d 2cf7 1dbd fc7b 893d
000001f0: 3326 65bd 16b9 7d3d 3613 a1bd 1c92 4b3d
00000200: a0a0 ce3d 0cc8 a9bd 7263 c0bc bd7a 4fbd
00000210: 5331 7cbd c2d9 d3bd 0cfb 95bd 2231 90bd
00000220: e742 99bc 29f8 a9bc eee8 ccbd 92ea 13bd
00000230: cdde c3bb af62 1fbd 6797 fc3c 5a08 843d
00000240: 53cf 663d 6fe9 ad3d f3e3 3e3d af46 5abd
00000250: 1d65 4b3c bfdd 683d 20c4 b13c 7b7e b43c
00000260: a0fc dd3b 7a56 9f3a 5043 183c b4e7 0ebd
00000270: a0c9 203d 6ed4 a3bc 986c 653d 4f1b 743d
00000280: b220 76bc e313 aa3a ddc7 33bc 30c4 233c
00000290: 8d61 2e3d c46f 833d 9e84 86bd 8867 1b3d
000002a0: f375 4bbd 7d27 873c 3e4e 9f3d 9ff3 98bd
000002b0: 6da8 ce3c 9b27 8dbd 5814 a13d 6df1 aabd
000002c0: 0a73 2e3c f387 d03d d263 4dbc d6e6 453d
000002d0: 56e6 f73c 9610 8fbd 83ff 113b fab1 92bd
000002e0: c85d c73d d32c acbc dc3d a03d dd2c c6bd
000002f0: c566 ce3d fe47 953b 28aa 86bc bcbe 15bc
00000300: 1db3 8d3d 66a6 2abc 551e 4b3d 869b 6ebd
00000310: 174f 08bd 199b 843d f376 acbd a830 c6bb
00000320: 693c 903d 7184 403c 8a27 97bd b1cb 713d
00000330: be42 bebd 97dc 63bc f92b b13d 1405 d1bd
00000340: c430 32bd 0fe2 a33d 3589 853d d403 c63d
00000350: 47b3 d63c 2446 9b3d 9b99 b23d b38d d1bb
00000360: a068 a7bd 02c6 09bd ab8e 873d 0d24 373d
00000370: e64b 493c fe88 533c ec9c 8a3d e7a7 f0bc
00000380: 14ed 10bd 334b aabd 5925 aa3d 739a 5abd
00000390: baba 85bd 0cbb 983d c6ae 94bc b609 983d
000003a0: b1d5 2dbd a93f 0f3d 51fb 7fbd 1f0a 9dbd
000003b0: dc7d c53d 3ab2 7fbd 8fee 2b39 ff76 d8bc
000003c0: 11fa 423d 61a2 0dbd 8188 7b3d 1c07 7aba
000003d0: 1adc 563d ada0 1a3d 906d a1bc 98c1 b9bd
000003e0: 4dfd 74bd eaab bbbd 463d 4e3d c312 4abd
000003f0: 05ae 473d 9d3b f63c 42cf b8bd 52dc d3bd
0.0531319 0.033877283 -0.02856397 -0.07429109 0.07275407 0.08332311 0.07898041 -0.0777241
-0.08746326 -0.038544584 0.0024511842 -0.100462615 0.070920296 0.088479646 -0.09814 -0.05911646
-0.0724874 -0.065816805 -0.07944606 0.08652877 0.099279635 -0.04430812 0.0133790765 -0.07031858
-0.035133388 0.0781225 -0.08206474 0.055316325 -0.0717264 -0.08011959 -0.011649052 0.07143256
-0.0013208138 -0.07100038 0.04815912 -0.075335994 -0.025766673 -0.09097331 0.097484626 -0.029604834
-0.048756015 0.05165854 -0.07663491 0.03478599 0.026587455 -0.0262969 -0.08016361 0.101621844
-0.07432894 -0.04266777 0.05829829 0.008683678 0.026339676 -0.057801913 -0.07914891 -0.01754644
-0.007315249 -0.058558237 -0.050199106 -0.038658604 0.052215 -0.0257779 -0.050029524 -0.05316901
0.02537924 -0.034636952 0.025438173 0.097544335 -0.0115704965 -0.037211288 -0.016643377 0.0003277816
-0.021525608 -0.1017888 0.075746804 -0.018742291 0.047783073 0.056792744 -0.04723997 0.073799685
0.07178255 -0.032358624 -0.08612994 -0.08136579 0.014777607 -0.0069047087 -0.09511153 -0.08121619
-0.019109854 0.0085570095 -0.090644546 -0.03812003 0.0038046048 -0.045147628 -0.06985658 0.057229575
0.068292655 -0.032577794 0.030607248 -0.017415054 -0.092642196 0.0072685173 -0.067893244 0.001903678
0.029000128 0.08772532 0.06829365 -0.06045104 0.042049885 -0.02519594 -0.08434879 0.033162814
0.0013080292 -0.084902585 -0.063957766 -0.06279998 0.072234906 0.04733987 -0.025837272 -0.080952354
-0.09813729 0.08951782 -0.0385658 0.06713101 -0.055944633 0.06194409 -0.07864992 0.049699888
0.100892305 -0.08290109 -0.02348492 -0.05065416 -0.061570477 -0.103442684 -0.07323274 -0.07040621
-0.01870866 -0.020748215 -0.10005365 -0.036112376 -0.0059774877 -0.03891247 0.030833913 0.064469054
0.056350064 0.084917895 0.046604108 -0.053290065 0.012414244 0.0568521 0.021699965 0.022032967
0.0067745 0.0012156509 0.009293392 -0.034888938 0.039254785 -0.019998755 0.056011766 0.059596356
-0.015022444 0.0012975897 -0.010972944 0.009995505 0.0425735 0.06417802 -0.065682635 0.037940532
-0.049673032 0.016498322 0.077785954 -0.07468342 0.025226796 -0.0689232 0.078652084 -0.083468296
0.010647545 0.1018218 -0.012536006 0.048315845 0.0302612 -0.069855854 0.002227754 -0.071628526
0.09734684 -0.021017468 0.07824299 -0.09676526 0.100781955 0.0045557013 -0.016438559 -0.009139713
0.06918929 -0.010415649 0.049589474 -0.058253787 -0.03327855 0.06474895 -0.08421125 -0.0060482807
0.07042772 0.0117503265 -0.07380588 0.059032146 -0.09290074 -0.013907573 0.08650965 -0.10206047
-0.043503538 0.08002102 0.06520311 0.09668699 0.026208533 0.07581738 0.08720704 -0.0063950657
-0.081742525 -0.0336361 0.06619009 0.044712115 0.012286162 0.012911079 0.06768212 -0.029376937
-0.035382345 -0.08315124 0.08307905 -0.05336995 -0.06529756 0.07457551 -0.018149745 0.07423727
-0.04244012 0.03497282 -0.062495533 -0.07667946 0.096431464 -0.06242583 0.00016396701 -0.02642393
0.047601763 -0.034578685 0.061409477 -0.00095378025 0.052456 0.03775089 -0.019705564 -0.09070128
-0.05981188 -0.091636494 0.050351404 -0.0493343 0.048749942 0.030057723 -0.09023906 -0.10344757

arch.arch.net.inception_block_1.branches.0.0.bias f4 [8]
00000000: f801 25ba 1a76 2a3a bc8e 23b9 5c05 9438
00000010: a4fa 9338 9c3d b7b9 6856 afb9 1102 1e39
-0.0006294544 0.0006502584 -0.00015598064 7.058188e-05 7.056192e-05 -0.00034950383 -0.0003344298 0.00015068824

arch.arch.net.inception_block_1.branches.0.1.weight f4 [8]
00000000: 07f7 7f3f dd0c 803f 4e04 803f 2fc3 7e3f
00000010: 747d 803f 9dcf 7f3f 8bad 7f3f a22f 7f3f
0.9998631 1.0003926 1.0001314 0.99516577 1.0038285 0.9992617 0.9987418 0.99682057

arch.arch.net.inception_block_1.branches.0.1.bias f4 [8]
00000000: ea0d 0bba 1ee9 53b9 5632 1336 b171 043b
00000010: a254 5aba b5b3 3e3a 5ca8 c139 4083 593b
-0.00053045026 -0.00020209371 2.1934006e-06 0.0020209367 -0.00083286513 0.0007274703 0.00036937266 0.0033189803

arch.arch.net.inception_block_1.branches.0.1.running_mean f4 [8]
00000000: 60a6 40c1 2245 2ac1 3925 03bf 8f24 a940
00000010: d74f 17c1 3c20 ca40 4f4e 1cc1 10fc a141
-12.040619 -10.641878 -0.5122867 5.2857127 -9.456992 6.316435 -9.769118 20.248077

arch.arch.net.inception_block_1.branches.0.1.running_var f4 [8]
00000000: c32f 6943 cf30 5043 a3bb 2643 25d6 bc42
00000010: 6534 1a43 ad20 9c43 9e33 6e43 a7b3 3344
233.18657 208.19066 166.73296 94.41825 154.20467 312.25528 238.20163 718.80707

arch.arch.net.inception_block_1.branches.0.4.weight f4 [16, 1, 16, 1]
00000000: d262 083e 8085 52bd e4f4 16bd 4779 9ebc
00000010: 7ab2 683d 45f0 133d fe31 f9bd 8fe3 cabd
00000020: 477a fabd c574 243c dcbb 5ebd 119e c13c
00000030: 460a fabd 1ed4 7a3d be12 b9bd c457 12be
00000040: fc0b 8bbc 93be 4e3d ac94 693c 8d85 833d
00000050: 40a2 d9bd 9449 c23d f8ea 36bc 7681 b6bd
00000060: d096 d1bd a01b 0c3e 5042 aabd f247 753c
00000070: b557 f33d 6b60 873d 50e5 313d 5152 743c
00000080: 2a53 8c3d 1298 f73d d228 95bb 8085 393d
00000090: 358f 90b9 cd46 4a3c ca9e 023e 4aa8 eb3c
000000a0: 71db 86bd 94b3 64bd ad22 893d d1f8 123e
000000b0: 12ce 08bd e3de fdbd 6949 e9bd 2d29 e6bc
000000c0: 883d 93bd ce9f 13bd 46ae 823d b568 13be
000000d0: 3cd3 00be 3a09 aa3a 608d 09bc 888c 003d
000000e0: 7446 d1bc 5b0e eebd 497e df3d 881b ad3d
000000f0: a4bd 28bd cfc8 0bbd b71a 0a3e f25a 923d
00000100: acd2 b6bd 1a2f 0cbd 3d57 c23a 3f95 9b3c
00000110: c1a7 babd 5e9e d9bd 164c 1dbd 28b8 a73d
00000120: a4c0 873c 0d3f 85bc c27a d2bb 35be 1d3d
00000130: 5957 a8bd adf7 cbbd 2bc8 913d 19d7 ff3d
00000140: a638 673c b4fd 7cbd 2696 2a3d 95a6 c7bc
00000150: 6786 443d 8e01 a9bd 86d6 2c3d eaf9 0cbe
00000160: 06eb f73d a5b2 ed3d 825d 073e ac67 33bc
00000170: f3e1 e73d 96c1 17bd e4ba f0bd 98fb 52bd
00000180: a805 b93d 28e7 eabd 9242 f6bd 6a71 5abc
00000190: 1a6f aebc 41a5 013d ad9a 613d 3991 303d
000001a0: febb e5bc c6ee 47bd 4167 07be c4b6 14bc
000001b0: 7a4e a5bd 1a73 02be 4352 59bd 3080 02be
000001c0: 5667 86bc 5994 1cbd 53de a03d a61c b43d
000001d0: f095 1dbd 346e b23d 6f1a 4c3d 5fb6 18be
000001e0: 0817 cdbd b30f 8d3d 81f8 0cbe 9472 fc3d
000001f0: d483 023e 025f 153c 86ac f73d 4ad5 04be
00000200: 1350 9abd 7878 fdbc b313 053e 4824 ed3d
00000210: 0e65 093e 714f 9fbd edb8 12be abb3 11be
00000220: 0160 b1bc 9589 18be 0fe0 903d fb10 13be
00000230: f40c ed3d 1405 02bd 4438 683c 49af 383c
00000240: b1d6 403b 8b0b 9bbd dfc8 553c 730e e9bd
00000250: fa61 033e 443f 1bbd 1f94 a73d 9da5 b8bd
00000260: 7d12 07be ba71 19bd 8ac8 a1bd 348a c53d
00000270: 0195 e2bc d015 603c a624 ca3d 4e41 8dbc
00000280: f338 babd 84e0 ccbc b4e2 763c fa65 0c3e
00000290: ee5f 103c 2f5d c0bd c82a 04bd 7cc1 073e
000002a0: 9894 0e3e e697 d23c 6012 113e 6b80 abbb
000002b0: 0d11 03be 4217 e23d c903 a2bd c9ab 933d
000002c0: 9af5 14be 36cd b93c 3f4c 363d 5f8c 973a
000002d0: 415c 5ebd 73e7 f5bd f55f 933d 4c95 2dbd
000002e0: e86d afbd 86d3 c4bd 8a2a 85bc 75dd e3bd
000002f0: 2e1b 47bd 299e ef3d ec8d b6bc 0160 e6bd
00000300: afb0 7cbd f926 4c3d d566 863c bc85 483d
00000310: 21c4 78bd ed75 0bbe 1095 dc3d dd06 f6bd
00000320: a39b 003e e23f 103e 1ed6 d0bd 5203 803d
00000330: bd88 c0bd 38d1 08be ddf8 fc3c 947a 633d
00000340: 194b 9c3d c00a 96bd 9637 9cbc c34a 723d
00000350: d832 58bd e8b6 a03d 9ea8 a7bd 42a5 693c
00000360: 5c34 93bd d781 83bb 801a 073d cd26 46bc
00000370: 5bb8 04bd 5504 e53d 767b b1bd 4bde 7f3b
00000380: 6e5b b83c 1a4a 0cbc 78a0 9e3d b304 bebd
00000390: b250 1bbe 4bd3 e7bc aa29 1b3d 9889 0a3c
000003a0: 6a48 9a3d a634 da3d d076 d33d 91d4 2c3c
000003b0: 01a2 ed3c 7b72 3fbd 1874 563d 2c02 9c3d
000003c0: 7023 d6bd fdc6 c0bd b0d3 733d 326e c53d
000003d0: b320 cfbd 6175 8d3d f2c6 19be 2ca6 f3bb
000003e0: a1be f43d 816c cdbc 6ef4 9ebd 89a9 a73d
000003f0: 7904 9d3d 5da9 66bc 6600 51bc 2fc1 7cbd
0.13318947 -0.051396847 -0.03685464 -0.019344939 0.056810834 0.03611781 -0.121677384 -0.099066846
-0.12230354 0.010037606 -0.054378375 0.023634942 -0.12208991 0.061237447 -0.09036778 -0.14291292
-0.016973488 0.050474714 0.014256638 0.06421957 -0.1062665 0.0948669 -0.011164419 -0.089114115
-0.10233843 0.13682413 -0.08313429 0.014970766 0.11881963 0.06610187 0.04343158 0.014912204
0.068518 0.12089552 -0.0045519853 0.04529333 -0.00027572518 0.012345982 0.12755886 0.02876677
-0.06584824 -0.05583532 0.06696067 0.14352728 -0.03339965 -0.12396028 -0.11390955 -0.028095806
-0.071894705 -0.036041074 0.06380896 -0.14395411 -0.1258058 0.001297272 -0.008395523 0.03138402
-0.02554629 -0.11623832 0.10912759 0.08452517 -0.04119648 -0.034127053 0.13486753 0.07146253
-0.08926901 -0.034224607 0.0014827024 0.018992065 -0.09114028 -0.10625909 -0.03840264 0.08189422
0.01657135 -0.016265417 -0.0064233253 0.038511474 -0.08219785 -0.0995935 0.07118257 0.124921985
0.014112627 -0.061765388 0.0416471 -0.024371425 0.04797974 -0.0825225 0.042196773 -0.1376721
0.12105374 0.11606339 0.13219264 -0.01095001 0.11322393 -0.037049852 -0.117543966 -0.05150947
0.09034282 -0.11469871 -0.12024416 -0.013332704 -0.021293212 0.03165174 0.05507915 0.043107245
-0.028043743 -0.048811696 -0.13222982 -0.009076778 -0.08071609 -0.1273922 -0.053056967 -0.12744212
-0.016406696 -0.038227413 0.07854905 0.08794527 -0.03847307 0.08712426 0.049829897 -0.14913319
-0.100141585 0.0688776 -0.13766672 0.123265415 0.12745601 0.00911689 0.12093453 -0.12971988
-0.07534804 -0.030941233 0.12995796 0.11579186 0.13417456 -0.07778824 -0.14328356 -0.14228694
-0.021652224 -0.14896233 0.07073986 -0.14361946 0.11574736 -0.031743124 0.014173571 0.01127226
0.002942484 -0.07570561 0.01304838 -0.11379709 0.12830344 -0.03790213 0.08182549 -0.09015963
-0.13190646 -0.037461974 -0.07899578 0.09645501 -0.027658941 0.0136770755 0.098702714 -0.017243054
-0.090928935 -0.025009401 0.015068699 0.13710776 0.008811934 -0.09392773 -0.032267362 0.13257402
0.13923872 0.025707196 0.14167166 -0.0052338145 -0.12799473 0.11039592 -0.07910878 0.072105
-0.14546815 0.02268086 0.044506308 0.001156222 -0.0542872 -0.12007036 0.07196037 -0.04237871
-0.08565885 -0.096106574 -0.016255636 -0.11126224 -0.048609905 0.117000885 -0.02228447 -0.1124878
-0.061691936 0.049841855 0.016406456 0.048955664 -0.060733918 -0.13619204 0.10770619 -0.12013028
0.1255937 0.1408687 -0.101970896 0.06250633 -0.09401081 -0.1336106 0.030880386 0.05553682
0.07631511 -0.07326269 -0.019069474 0.05915333 -0.052782863 0.078473866 -0.08186458 0.014260592
-0.07187721 -0.004013281 0.032984257 -0.012094212 -0.032402378 0.11182467 -0.086661264 0.003904241
0.022504535 -0.008562589 0.07745451 -0.0927824 -0.15167502 -0.028298995 0.03788153 0.0084556565
0.07533343 0.10654573 0.10325396 0.010548727 0.029007914 -0.046740036 0.05235681 0.07617602
-0.10455978 -0.09412954 0.059528053 0.09640159 -0.10113659 0.06907154 -0.15017298 -0.0074355807
0.11950422 -0.025076153 -0.07761465 0.08186633 0.07666869 -0.014078465 -0.012756443 -0.06170767

arch.arch.net.inception_block_1.branches.0.5.weight f4 [16]
00000000: 4639 803f 8349 803f fd25 803f d2f5 7f3f
00000010: a097 7f3f 6aca 7e3f fa34 803f 4bc3 7f3f
00000020: 270f 803f 1d7e 7f3f 1e70 7f3f 7732 7f3f
00000030: a657 803f b659 7f3f bfcb 7f3f bb79 7f3f
1.0017478 1.0022434 1.0011593 0.9998447 0.99840736 0.9952761 1.0016167 0.9990737
1.0004624 0.9980181 0.9978045 0.9968638 1.0026748 0.99746263 0.99920267 0.9979512

arch.arch.net.inception_block_1.branches.0.5.bias f4 [16]
00000000: 2246 ee3a 3694 f93a a1eb 1e3a 6735 6b3a
00000010: 9981 efba 32e9 73ba e75e e6b7 2704 e13a
00000020: 410d d63a 969f 12ba b725 13bb 9697 37bb
00000030: f53b cc3a 5135 11bb 6f69 0bbb 2101 f5ba
0.001817886 0.0019041363 0.0006062333 0.0008972496 -0.0018272876 -0.0009304463 -2.7462329e-05 0.0017167375
0.0016330854 -0.0005593238 -0.00224529 -0.0028013936 0.0015581833 -0.0022157023 -0.002127256 -0.0018692353

arch.arch.net.inception_block_1.branches.0.5.running_mean f4 [16]
00000000: 81d2 a3bd f90f 3f3d 9f10 953c 462f 2bbd
00000010: da7a b8bc 27ed 173c 92d6 90bd 5db5 253d
00000020: 52ea 83bd 715b 5fbd f397 b33c 3f05 8dbd
00000030: 68dc 70bc ae0d e7ba 1ff7 833b 3c39 673c
-0.07999135 0.046646092 0.018196402 -0.04179313 -0.022519518 0.00927285 -0.07072176 0.040456165
-0.064411774 -0.054530565 0.021923041 -0.06885766 -0.014700986 -0.0017627978 0.004027262 0.014112767

arch.arch.net.inception_block_1.branches.0.5.running_var f4 [16]
00000000: 5528 ad3d a814 683d d7af 5c3d 91b1 543d
00000010: d558 6f3d 56ba 4e3d cbeb 6c3e 1302 e13d
00000020: 36a2 8e3d f145 163d 8611 d43d 1ff6 313e
00000030: 7e65 113d 9a75 d53c 7008 883d 069e 733d
0.08454958 0.056660324 0.05387863 0.051927153 0.058434326 0.050470673 0.23136823 0.10986724
0.06964533 0.036687795 0.10354905 0.17379044 0.03549718 0.026057053 0.06642234 0.059476875

arch.arch.net.inception_block_1.branches.1.0.weight f4 [8, 1, 1, 31]
00000000: 0554 943b d70f df3d 6e94 973d fc8a 213c
00000010: 8df3 47bb aa2e 13be 0911 8ebc 4af1 b6bd
00000020: 848d b5bd 9f5e 05be be00 b63c d514 0a3e
00000030: 1e84 dfbd d1c8 cb3c 0630 103e aca5 393c
00000040: 89e7 0ebe e338 ea3d 1266 f63d d9f9 703d
00000050: 1c57 a03d df17 3c3d e898 f2bd ebce 64bd
00000060: 9a34 92bc d2e8 13be 4e52 22bd 301e aebd
00000070: 0504 183c 6e00 c2bd 78a3 743d 29a0 de3d
00000080: bf70 c4bd 80ec b6bc 2536 093e 5e07 babc
00000090: 4eeb 76bd 92dc 103e 8fdc ee3d 3737 9bbd
000000a0: 8852 093e 8c02 bfbd 7eeb 843d ca17 913d
000000b0: 2e56 e43d 1f9f 093e 1855 0abe 689a 5c3d
000000c0: 3693 d5bc 8d23 153d 4436 8abc 8965 03bd
000000d0: f2cc dfbd 06a8 de3d fd72 cf3d 3417 64bd
000000e0: 6746 00bd 5b44 c83c 1f19 a8bd b33f c03d
000000f0: a620 c53d 73c6 a1bd 160d 063e 7900 a3bd
00000100: f7eb f6bd 1b2b b53d a65e 013e 5855 793d
00000110: 30cd f6bd 3a68 913d 0e27 f1bd 21e8 f23d
00000120: 526a 93bc 6600 02bd b693 903c 953e 9ebd
00000130: a7ec a1bd e288 cc3c 6524 aabd d12c 833b
00000140: 4b63 bd3d f556 8fbc 50fa a03c 1585 b03d
00000150: 4fa5 f73d f987 3abc 191b a3bd 1c35 f0bb
00000160: c65d f0bb 5d27 78bd 0be7 07be c102 74bc
00000170: a4a5 113e 8c3f 5b3d ef5e 50bc 1e54 583a
00000180: f567 53bd 961d 5bbc 1d51 3f3c 3a9b 29bd
00000190: 4977 aa3d 624b 043c 3422 ccbd 1832 acbc
000001a0: a812 8bbc 84d1 71bb 5340 c03d 77e9 b93d
000001b0: 840e 423d b88f a03c 3450 06be 4e82 e73d
000001c0: a5d9 473d 05b7 03be b584 9b3d 369d f73a
000001d0: fb77 003d 2322 613d 87d3 07be f53c 79bd
000001e0: 09f1 56bd f10c 9fbd 2cbb d7bd e6f1 483d
000001f0: ef26 f63d acf7 1dbd da37 0d3e 6e1c 563d
00000200: e82d 083e 96f4 43bd 8fd3 963d 0598 d63c
00000210: 72ae a6bd e524 61bd 39d5 16be 032a 32bd
00000220: b03b e3bd 6acd cdbc a64d 05be 53ca bbbd
00000230: af8b cd3c f5c5 64bd e72a 873c 9dc4 d2bd
00000240: 5cd8 d8bd 5340 09be edcc 76bd a63a 5e3d
00000250: a70d 0bbe b1b8 3e3d a05b f73c 6acb 5a3d
00000260: 5ef3 f93c eb31 0c3e b0c9 403c f668 443c
00000270: 6950 c53d e620 cfbd 898e 36bc c7b4 a13d
00000280: cbe8 973d 5b8f 2dbd b59c d9bd 41f2 6d3d
00000290: abd5 9f3d 6b57 7bbc e893 f8bd c370 6e3c
000002a0: b216 abbd c385 1f3d 48af fdbd 8325 f4bd
000002b0: d89f 34bd c14c e83d 0e4e 8a3d e823 cf3d
000002c0: 11d5 f73d 4e4a f73d 20b0 90bc e9ab 513c
000002d0: 741c 38bd b4c0 cb3c 75fb ddbd 2140 ffbd
000002e0: dfbf b6bd 659b 9b3d c941 dfbc ed9b 94bd
000002f0: ed71 503d 52c3 c03d 73fb ac3d fe18 d9bc
00000300: 4c09 e1bd 97a8 013e 7f7f 623d d141 adbd
00000310: 5dd6 293d e7e9 50bd 1d09 b73d 679f d23d
00000320: 59ee 0a3e 802f 39bd ecc7 afbd 4eaf e13d
00000330: aee2 d8bd 8e60 1a3e 4f4c aebc f196 d2bd
00000340: 6531 b03d 3c21 073e b551 cabd 6bc2 05bd
00000350: b8f5 93bd 2f20 0e3d cf6c 043e d991 1a3d
00000360: 6f8e d43d fd32 0dbe f854 353d fe9e 82bd
00000370: 928b 0a3e a592 34bd f3ce 193c 6471 373d
00000380: 2c6c 81ba 03e3 f0bb 8c5a 1d3d 8b7c 90bb
00000390: bb68 0ebe 0ae5 b5bc 61e4 153e 7e9a 35bd
000003a0: 4ead 5f3a a277 7fbd 325a b83d 729f debd
000003b0: f6e9 0abe c608 1cbd f8ea a3bb 89a9 5cbd
000003c0: c842 153e f486 74bd 8597 34bd edeb 42bd
000003d0: 186d 823d 8717 ba3d 0529 2a3d 03da 673d
0.0045266175 0.10891693 0.074013576 0.009859797 -0.0030510158 -0.1437327 -0.017342107 -0.08932741
-0.088648826 -0.13024376 0.02221715 0.1348451 -0.10913871 0.02487603 0.1408082 0.011331003
-0.13955511 0.114366315 0.12031187 0.058832023 0.07829115 0.045921203 -0.11845571 -0.055861395
-0.017847348 -0.14444283 -0.039629273 -0.085018516 0.009278302 -0.09472738 0.05972621 0.10870392
-0.09591817 -0.022329569 0.13399561 -0.022708591 -0.060282998 0.14146641 0.11663162 -0.07578891
0.1341039 -0.09326658 0.06490229 0.070846155 0.1114925 0.13439606 -0.13509023 0.05385819
-0.026071172 0.036410857 -0.016871579 -0.032079253 -0.10927762 0.10871892 0.10129354 -0.05568619
-0.03131714 0.024446657 -0.082079165 0.0938715 0.09625368 -0.07899179 0.1309093 -0.079590745
-0.120567255 0.08846112 0.12633762 0.060872406 -0.12050855 0.07099958 -0.11775027 0.11860681
-0.017995033 -0.03173866 0.017648559 -0.0772678 -0.07906466 0.024967615 -0.08307723 0.0040031453
0.09247454 -0.017497519 0.019650608 0.086191334 0.12092077 -0.0113849575 -0.07964153 -0.00733055
-0.0073353974 -0.060584415 -0.1327173 -0.014893235 0.14223343 0.0535274 -0.012717946 0.00082522805
-0.051612813 -0.013373753 0.011677054 -0.0414078 0.08323533 0.008074613 -0.09967461 -0.02101998
-0.01697667 -0.0036898563 0.09387269 0.09077733 0.047377124 0.01959978 -0.13116533 0.113041505
0.048791546 -0.12862785 0.07593671 0.0018891457 0.031364422 0.054964196 -0.13264285 -0.06084915
-0.052475963 -0.0776614 -0.10533747 0.049058817 0.12019145 -0.038566276 0.13790837 0.052273206
0.13298762 -0.047840677 0.0736457 0.026195535 -0.081387416 -0.054966826 -0.14729775 -0.043497097
-0.11095369 -0.025122363 -0.13017902 -0.0916945 0.02509102 -0.05585285 0.01649995 -0.10291407
-0.10588142 -0.13403444 -0.060254026 0.05425515 -0.13579427 0.046562854 0.030195057 0.053416647
0.030511554 0.13690917 0.011766836 0.011987915 0.09634478 -0.10113697 -0.0111423815 0.07895809
0.074174486 -0.042373043 -0.106255926 0.05809236 0.07804426 -0.015340666 -0.12137586 0.014553252
-0.08353938 0.038945924 -0.12386948 -0.11921217 -0.04409775 0.11342765 0.06753169 0.101142704
0.12101186 0.12074719 -0.017662108 0.012797334 -0.04494901 0.024872161 -0.10838977 -0.124634035
-0.08923315 0.075979985 -0.027253048 -0.07256303 0.050889898 0.094122544 0.08446398 -0.026501175
-0.10988101 0.12661968 0.05529737 -0.08459819 0.0414642 -0.051004317 0.08937285 0.1028431
0.13567485 -0.045211315 -0.08583054 0.11019765 -0.10590111 0.15075895 -0.021276621 -0.10282696
0.08603171 0.13196272 -0.09878866 -0.032656115 -0.072246015 0.03469866 0.12932132 0.037736747
0.103787296 -0.13788982 0.044270486 -0.063779816 0.13529804 -0.044085164 0.009387719 0.044785872
-0.0009874157 -0.0073512807 0.03841643 -0.004409378 -0.13907139 -0.02220394 0.14637901 -0.04433679
0.00085325993 -0.06236995 0.090015784 -0.108702555 -0.13565812 -0.038094305 -0.0050023757 -0.05387262
0.14576256 -0.059699014 -0.044089813 -0.047588278 0.06368464 0.09086519 0.041543026 0.056604397

arch.arch.net.inception_block_1.branches.1.0.bias f4 [8]
00000000: 841b 23ba c0ef 9c37 91e4 38ba 7a60 08ba
00000010: 200f ff39 1525 6039 48e7 99b9 fdb8 e739
-0.00062220567 1.8708291e-05 -0.0007053102 -0.00052023644 0.0004864866 0.00021376119 -0.00029354752 0.0004419758

arch.arch.net.inception_block_1.branches.1.1.weight f4 [8]
00000000: a2fd 7f3f ed6a 803f fe75 803f 1e67 803f
00000010: 4647 7f3f 299a 7f3f ec27 803f 1b6a 803f
0.9999639 1.0032631 1.0036008 1.0031469 0.9971813 0.99844605 1.0012183 1.0032381

arch.arch.net.inception_block_1.branches.1.1.bias f4 [8]
00000000: 862d 3dba 0c45 17bb 0fb3 0cbb ffee 02bb
00000010: 4abe 083b d9bc c139 6083 47ba 90ed d8ba
-0.00072165614 -0.0023081927 -0.0021469032 -0.0019978879 0.0020865374 0.0003695253 -0.0007610824 -0.0016550291

arch.arch.net.inception_block_1.branches.1.1.running_mean f4 [8]
00000000: 91a8 83c0 c5eb 1741 3eba 2d3f f988 27c0
00000010: 1ae2 dbc0 833e 89bf c6a2 2041 9f5f ebbf
-4.114327 9.495061 0.6786231 -2.6177351 -6.8713503 -1.0722202 10.03974 -1.8388556

arch.arch.net.inception_block_1.branches.1.1.running_var f4 [8]
00000000: f9a1 ff42 20fe 4743 1f56 3442 cd9a 7e42
00000010: 8e35 b143 4a65 af42 4821 4543 c9fb 6242
127.81635 199.99268 45.084103 63.651173 354.4184 87.69783 197.13 56.745884

arch.arch.net.inception_block_1.branches.1.4.weight f4 [16, 1, 16, 1]
00000000: a7b3 3fbb cb03 a63b 02be 02be bb30 15be
00000010: cb50 803a 4e4e 9a3d d407 143e 436b 17be
00000020: df2b d03d d6ca 7ebd 7d4f 67bd 2ac6 953d
00000030: 9ff1 cfbd 805b f3bd 1ae9 40bb 15b9 99bc
00000040: ee8c 0d3e 636d abbd f95b ffbd d298 c23d
00000050: 4c39 f8bd 53c0 53bd c880 a33d 00a4 133e
00000060: 8e1b d53c 9033 0ebe 5e49 ba3d 07af 183e
00000070: 30aa bcbd 20e9 f8bc 8da8 da3d e9d6 003e
00000080: dc02 0dbe ee17 5ebc bd3b e3bc 1528 42bd
00000090: f80a 593c adff d7bd fd75 00bd 9d00 c4bd
000000a0: 194f bdbd 6a5a f1bd 3a4f 14be f97d aabd
000000b0: cb45 04bc 567b 4ebc 30ec 953d 6d6d acbd
000000c0: fa48 1b3e 5da1 d93d bda1 a1bc 84a6 aebb
000000d0: c3dc b2bc bf06 0cbe ded2 9b3c 5214 a73d
000000e0: aee6 bd3d 2c94 d03d 414e 753d 523e 09be
000000f0: 6b95 683d 3211 d13d f82c d33d 686c c3bc
00000100: d0c6 c3bd 114b 0dbe 39cb 0abe 35b3 9f3d
00000110: 4cee f2bd 8f97 19bc 4444 8fbd 3da0 01be
00000120: 00f5 563d 5bef 11be 4da6 03be 6787 d73d
00000130: b5d4 12be 4117 b2bd 21ea 063e ec50 7f3d
00000140: fe4d be3d 9a8e a43d 66de 9e3d 4fba cb3d
00000150: 3856 51bd f1d3 2b3c 1618 1d3d 250b 7f3d
00000160: 6088 e0bd 80f6 aa3c 6265 25bd 1c2f 8abd
00000170: 48a8 fa3d fcc1 6d3d e0b3 0cbe 48cb 8c3d
00000180: 38b5 ed3d 55cf d7bd 54ca 3ebd d8af 60bd
00000190: 4037 543d fac9 5d3c e302 c6bd 3cfb 7e3d
000001a0: a3d7 7fbd 3570 913d 537d 7d3d 72d2 74bd
000001b0: 8aaa 00be 82b6 e8bd 3a44 c33d 81ba 7abd
000001c0: fae3 143d f5e7 10be 1aa8 303d 9155 123e
000001d0: 3978 a23c 6fa3 70ba 46a9 d93d c4ff 94bd
000001e0: 32c8 02be cb95 4b3d 3af4 8e3d da93 bebd
000001f0: 6f20 04be 2f9d 06be c35e 46bd fef4 0dbe
00000200: 75f0 93bc e2a7 bcbc 0642 a6bd 11ca 69bd
00000210: a379 143e 5703 87bd 5ea0 09bd 5126 fc3d
00000220: ed56 01be aca0 02be f820 063e a1ab 2f3c
00000230: c8c2 b33d aa9d bbbd 3e70 10bd 1039 38bd
00000240: 78c0 b7bd d3a3 133e 8639 c8bd 9711 d0bd
00000250: b327 ed3d 212e 593c 461b bd3c bc0c abbd
00000260: 4b73 0cbe 6404 943d 3b3c afbd d3cf 2d3d
00000270: 7986 433d 7884 183e aca1 ff3d 204f 103e
00000280: ed3d 0c3e c84b 933d 1961 bf3c 85a3 363c
00000290: d1e4 c23d c998 74bc 80f1 853d 09d2 7fbd
000002a0: ad39 0cbe 37de e2bc 4720 453d 8352 97bd
000002b0: 671d 0b3e 8ac7 52bc a72e 11be f2bb e73d
000002c0: 879c c2ba dc89 a13c ce7f 8a3c f264 053e
000002d0: 6310 e6bd 968d b83c 8dae 533c 4320 7cbc
000002e0: 4296 e63d 6c49 43bc 1d4b 82bd 6321 ab3d
000002f0: ae9c da3c e294 813d f869 57bd 45bc c4bd
00000300: 4f0c d6bd ad29 f6bd aaad 15be d18d 0e3e
00000310: 96e1 053e 7564 acbd 4a65 373d 82be 09be
00000320: d6ec 9c3d 2aee 10be aef1 ba3d f538 d0bd
00000330: d85f f9bd d24a 063e 2c23 47bc 3d2d b2bd
00000340: ec1d e53b 2e6d d63a 8bee d33d d58d c4bd
00000350: 904a 92bd 3a68 683d ce56 01be 737c abbd
00000360: c9ce 863b 60c8 6b3d f559 87bd 5c02 53bd
00000370: a94c 41bd c648 a7bd e2f5 ffbc 937c d1bb
00000380: 0e4c 123d 1e73 4b3c a2e1 db3d 35e6 5fbd
00000390: da67 06be 0525 c0bd 9faa 253d 81da f33c
000003a0: 0410 56bd 172c 483d 6c3c 5a39 745e 6c3d
000003b0: 77b2 f4bd dc91 00be dfe8 9e3d 4cb3 e7bc
000003c0: ad16 953b ebc0 0bbe 7cc9 ccbd b2cc 0fbe
000003d0: 0409 38bc 14fc c73d 9c87 7b3d 0c67 92bc
000003e0: a915 aebd 144e 563c bdaf c53d 5d22 28bd
000003f0: cb67 6c3c 5a20 773d 2588 ebbd 7768 fdbd
-0.0029251368 0.00506637 -0.12767795 -0.1456937 0.0009789703 0.07534467 0.14456111 -0.14787011
0.10164618 -0.06220516 -0.05647229 0.073131874 -0.101535074 -0.118826866 -0.0029435814 -0.018765012
0.13823292 -0.08370473 -0.12468714 0.095018044 -0.121203035 -0.051697087 0.079835474 0.1441803
0.026014116 -0.13886857 0.09096025 0.14910518 -0.09212148 -0.0303846 0.1067668 0.12581982
-0.13770622 -0.01355551 -0.027738446 -0.047401506 0.013247244 -0.10546813 -0.031362522 -0.095704295
-0.09243602 -0.11784823 -0.14483348 -0.083248086 -0.008073281 -0.012602648 0.0732044 -0.08419309
0.15164557 0.10626481 -0.019730443 -0.005329909 -0.021833783 -0.13674448 0.019021448 0.08158173
0.09272514 0.101845115 0.059889082 -0.1340268 0.05678312 0.10208358 0.103113115 -0.023855403
-0.09559405 -0.13798167 -0.13554086 0.07797853 -0.11861858 -0.009374513 -0.069954425 -0.12658782
0.052479744 -0.14251463 -0.12856407 0.10523873 -0.14338954 -0.086958416 0.1317525 0.062333032
0.092922196 0.080350116 0.07757263 0.09947645 -0.051107615 0.0104875425 0.03835305 0.062266488
-0.109635115 0.020869493 -0.04037989 -0.06747267 0.12239128 0.058046326 -0.13740492 0.0687471
0.1160683 -0.10537592 -0.046579674 -0.054855198 0.051810503 0.0135369245 -0.09668519 0.062251315
-0.062461507 0.0710148 0.061887097 -0.05977101 -0.12565055 -0.113629356 0.095344976 -0.06121302
0.036350228 -0.14150985 0.043129064 0.14290453 0.019832717 -0.0009179627 0.106279895 -0.07275346
-0.12771681 0.0497034 0.06980176 -0.09305544 -0.12902997 -0.13145898 -0.048430216 -0.13862988
-0.018058995 -0.023029272 -0.08118062 -0.05707747 0.14499526 -0.06592434 -0.033600204 0.12311996
-0.12630816 -0.12756604 0.13098514 0.010722072 0.08777386 -0.091609314 -0.035263292 -0.044976294
-0.089722574 0.14417963 -0.09776597 -0.10159605 0.11579838 0.013255627 0.023084294 -0.08352038
-0.13715856 0.072274 -0.0855641 0.042434525 0.047735665 0.14894283 0.12482008 0.14092684
0.13695498 0.071921885 0.02336173 0.0111473845 0.095162995 -0.014929005 0.06540203 -0.062456165
-0.13693877 -0.02769385 0.048126485 -0.07388785 0.13585435 -0.012864957 -0.14177953 0.113151446
-0.0014847674 0.019719057 0.016906645 0.13026789 -0.11233594 0.022528451 0.012920034 -0.015388551
0.11259128 -0.011919361 -0.06361983 0.083559774 0.026686039 0.06327225 -0.052591294 -0.09606222
-0.104515664 -0.12019668 -0.14617029 0.13921286 0.13074335 -0.08417598 0.04477433 -0.13451579
0.0766236 -0.14153352 0.09128128 -0.10167114 -0.12176484 0.13114479 -0.012154382 -0.08700035
0.0069920924 0.0016359442 0.10348233 -0.09597365 -0.07143128 0.056740023 -0.1263077 -0.08373346
0.004114006 0.05756414 -0.06608955 -0.051515922 -0.04719225 -0.08168177 -0.031245176 -0.006393024
0.035717063 0.012417583 0.107363954 -0.054662902 -0.13125554 -0.09382061 0.04044592 0.029767277
-0.052261367 0.048870172 0.00020812609 0.057707265 -0.11948102 -0.12555641 0.077592604 -0.028283738
0.0045498223 -0.13647811 -0.099993676 -0.14042929 -0.011232618 0.09764877 0.061408624 -0.017871402
-0.08500225 0.013080139 0.0965266 -0.041048396 0.014429043 0.060333587 -0.11500577 -0.12373441

arch.arch.net.inception_block_1.branches.1.5.weight f4 [16]
00000000: f3f4 7f3f 65d8 7f3f 615e 7f3f 37ff 7f3f
00000010: 84ef 7f3f c8e5 7f3f 540f 803f 68b8 7f3f
00000020: 051d 803f aada 7f3f affb 7f3f 1a41 803f
00000030: a5ef 7f3f 7969 803f 1ace 7f3f 886f 7f3f
0.9998314 0.99939567 0.99753386 0.999988 0.99974847 0.99959993 1.0004678 0.99890757
1.0008856 0.9994303 0.99993414 1.0019867 0.99975044 1.0032188 0.9992386 0.9977956

arch.arch.net.inception_block_1.branches.1.5.bias f4 [16]
00000000: 94c7 25bb a7c3 71ba 01d4 edb9 db35 f8ba
00000010: cb2d 133b 7b52 de3a f749 c739 731b a03a
00000020: 207e 183b 2c5d c63a e8b4 b33a 4e28 94ba
00000030: 1ffb ca3a ca1b 513b d72b 52bb f92a b3ba
-0.002529596 -0.0009222575 -0.00045362118 -0.0018936949 0.0022457715 0.0016961837 0.00038011346 0.0012215212
0.0023268536 0.0015133969 0.001371053 -0.0011303516 0.0015486217 0.0031907433 -0.0032069588 -0.0013669423

arch.arch.net.inception_block_1.branches.1.5.running_mean f4 [16]
00000000: 3e95 7ebd d5fb 603d ddde 7bbd 72f7 92bc
00000010: 3ed3 9bbd d5e2 cc3c 42d9 20bd f3e8 91bd
00000020: 2180 07bd 91fb 313d 1f1c eb3c afd6 a13b
00000030: 263c 4dbd b151 c4bc 8299 d3bc fee2 85bd
-0.062154047 0.054927666 -0.061491836 -0.017940257 -0.076086506 0.025010506 -0.039269693 -0.0712451
-0.033081178 0.043452803 0.028699933 0.0049389224 -0.05010619 -0.023964735 -0.025830034 -0.06537436

arch.arch.net.inception_block_1.branches.1.5.running_var f4 [16]
00000000: b366 853d bdef eb3d 3f93 b63e 7cfe e73d
00000010: fde2 553e 9819 c13d 5dd0 6f3d 849b 023e
00000020: 7e49 223d 2513 c93d 5ce7 923d ad60 333d
00000030: 0f10 2e3e 1494 d03d 20fc 3b3d dc66 b93d
0.06513729 0.11520336 0.35659215 0.11327836 0.2088737 0.0942871 0.05854832 0.12754637
0.03962087 0.09818105 0.071730345 0.04379337 0.16998313 0.10184494 0.045894742 0.09052822

arch.arch.net.inception_block_1.branches.2.0.weight f4 [8, 1, 1, 15]
00000000: a1ba 01be 3b20 dcbd 462a da3d f492 113e
00000010: 6c65 313a f21d 1cbe 8beb 323e 2c43 64bd
00000020: 1f4f 563e 909f 683c 6cc6 62ba 327c 9abd
00000030: 6fb5 2f3e 033e 0d3e c171 ee3d 4533 0cbe
00000040: 9956 f8bd 4c86 443e 9a98 463e cd97 383d
00000050: e4fa 37be a9b0 0c3e d483 5b3b eff0 ae3c
00000060: adf8 34be 4530 4a3d 1f59 4cbd 0205 1dbd
00000070: 13ba d0bd cb09 d8bd ceb1 96bc 938f 3c3e
00000080: 9b59 543e c595 4a3e ec07 0abe d002 263e
00000090: 11e4 7fbd 8984 c6bd e5b9 9f3d dd60 00be
000000a0: a26f 6a3c b65c 063e 94d2 c43c a02c 783b
000000b0: 475e 09be 97d3 373e 4b71 1abe a885 3b3e
000000c0: d7a5 f7bd ecf5 9f3d 2cab b33d 3fa0 efbd
000000d0: f0f6 3fbe f49a 61bd 020f 8e3d 0354 b13d
000000e0: ca8e 25bd 0582 f5bd 62dc b83d 6232 3b3e
000000f0: ab7e ef3c be72 273e f0a4 8f3a 7560 2ebd
00000100: d570 2bbc 7ce5 6e3d 8307 2ebe e588 c7bd
00000110: dcb8 45be 17e4 9cbd 3083 4f3e 22b0 c3bd
00000120: 8cfd 663d b221 57bd 20e3 1dbe 1db6 9ebd
00000130: 9846 57bd e9a0 1d3e 2e9c 31be d628 713d
00000140: ac8f 97bd dc3a 1fbe 3907 183e 9b58 df3d
00000150: fc43 033e b673 b93d 571b f93d f810 5a3d
00000160: 0745 1a3e a061 babd 38e0 12be f9e5 133e
00000170: a6ca 7bbd c296 45be aedd 29be 5cb2 2c3e
00000180: 6de7 4fbe 542a 063e 99d5 323d 1e1c 2abd
00000190: 7167 f3bd 92a2 edbd 0d12 3b3d 1020 eebc
000001a0: 8b64 973d 1f7a e2bd b4fe 453e 92a8 04bd
000001b0: 58b4 20be 8696 0cbd cd1b 563e f84d 08be
000001c0: 13b9 043e 692d d73d 7057 18be e2e7 39be
000001d0: dbf0 2dbe 3e27 ee3c e00e d8bc fd18 d03d
-0.1266885 -0.10748335 0.10652594 0.14216214 0.0006767127 -0.15245798 0.17472665 -0.055728123
0.2092862 0.014198199 -0.0008650783 -0.075432196 0.17159055 0.13793187 0.116427906 -0.13691433
-0.12125892 0.19191855 0.1939415 0.045066644 -0.17966801 0.13739266 0.0033495324 0.02135512
-0.17672987 0.04936244 -0.04988968 -0.038334854 -0.10191741 -0.10548743 -0.01839533 0.18414144
0.20737307 0.19783695 -0.13479584 0.1621201 -0.06247336 -0.09693248 0.077991284 -0.1253695
0.014308842 0.13121304 0.024026193 0.0037868395 -0.1341487 0.17951809 -0.1508228 0.18312705
-0.12092178 0.07810578 0.08772883 -0.117004864 -0.18746543 -0.055079415 0.06936456 0.08658602
-0.040419377 -0.1198769 0.0902641 0.18280938 0.029235205 0.16352364 0.0010959189 -0.042572457
-0.010463913 0.058324322 -0.16995053 -0.097429074 -0.193088 -0.07660692 0.20264888 -0.09555079
0.056394145 -0.05252237 -0.15418673 -0.07749579 -0.052557558 0.15393414 -0.17344734 0.058876835
-0.0740045 -0.15549797 0.14846505 0.10905572 0.12818903 0.09055273 0.12163418 0.05323884
0.15065394 -0.09100652 -0.14343345 0.14443196 -0.061472557 -0.19295791 -0.1658847 0.16864914
-0.20303126 0.13102084 0.043660734 -0.04153072 -0.11884964 -0.116032735 0.04567151 -0.029068023
0.07392224 -0.11058449 0.19335443 -0.032387324 -0.15693796 -0.034323238 0.20909043 -0.13310993
0.12961225 0.10506708 -0.14877105 -0.18154863 -0.1698641 0.029071447 -0.02637428 0.10161016

arch.arch.net.inception_block_1.branches.2.0.bias f4 [8]
00000000: 5ce4 153a cfa1 9e39 2c6b a339 0601 a5b9
00000010: 8c5b bc39 a36c 2c3a 2924 98b8 8efd 1bb6
0.0005717927 0.00030256665 0.00031169632 -0.00031472015 0.00035926362 0.00065774674 -7.25466e-05 -2.3244388e-06

arch.arch.net.inception_block_1.branches.2.1.weight f4 [8]
00000000: d850 803f 5c5f 7f3f d066 7f3f 7266 803f
00000010: 0645 803f 4015 803f cbdf 7f3f 4b44 803f
1.0024672 0.9975488 0.99766254 1.0031264 1.0021064 1.0006485 0.99950856 1.0020841

arch.arch.net.inception_block_1.branches.2.1.bias f4 [8]
00000000: db3a 40bb 1cfb d43a d51a 28bb a343 39ba
00000010: 239c 75ba 278b 83ba 2d88 503a c4b9 b0ba
-0.0029331956 0.0016249153 -0.0025650759 -0.00070672686 -0.00093692745 -0.0010035977 0.0007954862 -0.0013483097

arch.arch.net.inception_block_1.branches.2.1.running_mean f4 [8]
00000000: d7fc 0e41 9cda 88c0 d1a6 dd40 8942 2640
00000010: 7a7d c5c0 0a94 c940 2a37 efc0 94ca 68c0
8.9367285 -4.2766857 6.9266133 2.597811 -6.171567 6.299321 -7.475484 -3.6373644

arch.arch.net.inception_block_1.branches.2.1.running_var f4 [8]
00000000: 0028 6843 eaad b942 53ed 3843 c199 4042
00000010: b742 1043 da0e 2a43 426d 1743 49c0 9b42
232.15625 92.839676 184.92705 48.15015 144.2606 170.05801 151.42679 77.87556

arch.arch.net.inception_block_1.branches.2.4.weight f4 [16, 1, 16, 1]
00000000: 609d b83b 80d6 01be 8e80 0b3d a192 bfbc
00000010: 96ff 77bd 9db2 fabc 9ba6 a73d cea5 11bc
00000020: 1729 59bd 5ad0 a33c c2dd 673d 0799 583d
00000030: d872 f0bd be69 adbc 1339 1a3e 0474 a13d
00000040: 1527 2cbd 332b 023e 21bb dbbd 390b 75bd
00000050: 2a45 e03c 07bb 8b3d dc8e b33d 7fe7 7a3c
00000060: a1db 43bd 4459 863d 7319 ddbd 0368 913d
00000070: fd10 8f3d c990 613c bf95 473d a4ce 8c3a
00000080: 97fd fb3d eed4 fe3d ead8 84bb ce2b 3dbd
00000090: dc34 fc3d 4c09 023e 454b b23d 436e 75ba
000000a0: f7c9 91bd d49c cf3c c798 813d 9d4a 1abd
000000b0: 999d febc 5de4 69bd b616 123e e0ac fd3c
000000c0: 12e3 b33d 5e53 e43d cbd0 b73c efac 01bd
000000d0: dd72 84bd 467b 713b 5094 013e 28c3 093e
000000e0: 4dea 79bd fbdf 87bd e2d2 adbc 8df4 a1bd
000000f0: 7d5f a0bd 3952 f0bd 13b6 e2bd 65fd 8abd
00000100: c10e 81bd 9021 09bd 7925 e0bd 6ee8 133e
00000110: 8500 873c 0131 dd3d f268 13be d9c8 c43d
00000120: ca72 d53d f06e bbbd b1db a93d ac58 debc
00000130: 3f06 fa3d 74c3 c63d 5ce8 8dbd 6fee 0bbe
00000140: 5db1 913d a1e0 98bd 501a 19be 0050 3dbd
00000150: 1bb7 b2bd 7cb0 67bd 8029 c7bd 88cc 41bd
00000160: b49c c83d 1ab4 4cbd bd4b babd d516 d73d
00000170: 7fae 793d 908e 2b3d 8d1a 11be c2f9 273d
00000180: 4006 4dbd 9aea bdbd 5b92 b33d 1333 d4bc
00000190: b81b e13d bcef edbd 0e5a 023e 4271 313d
000001a0: 7628 8a3d b020 b0bd 2da1 cd3c a2bb c3bd
000001b0: e3b6 a4bd 9bd1 b6bd d5c2 d3bd c016 283d
000001c0: f30a ad3c b599 cabd 8491 c7bd 6d6c 8d3d
000001d0: 25a5 03be 5ebc 58bd 0ec9 8dbd 138b d43c
000001e0: f30d 873d 99bb 123e fc12 67bc 5a9e 933d
000001f0: 01fb 0bbe 73d0 06bd 8b7c 6b3d b548 6aba
00000200: 9ec1 243d c361 8f3c 0424 143e 374a f43d
00000210: 57dd b33d 7ff2 933d f7e6 acbd fb48 3abd
00000220: 9066 573d faef a3bd 1669 49bd 0134 0dbe
00000230: c975 54bd 08d1 71bd 6b80 0bbe 2618 713d
00000240: 802c e93d f181 143e 0424 0c3e dd4d 05bd
00000250: ef98 c13d 6e21 293d f453 13be e7b3 4d3d
00000260: 2fba d1bd 4f87 b33d ef94 78bd 014f 503c
00000270: ab51 a4bc 72de 613d cdb7 11bd ad21 1abc
00000280: 90ed e73c ec28 8bbd d2b6 063e 2753 acbd
00000290: 81a5 38bd e8eb d7bd b8ca ccbd aeb1 a1bd
000002a0: 0123 96bd 26d8 e83d 19d8 92bd 195e bcbd
000002b0: 9906 80bd 4b93 23bd 4849 0fbe 223b bcbd
000002c0: cea4 063d 7577 15be 3d51 dbbd 89e5 23bd
000002d0: 2e32 733c f215 f2bd 8ec5 5ebd 45a7 dabc
000002e0: a480 8abd 1c55 febc 7b13 db3d 687b 153e
000002f0: bde2 6d3d b063 8cbd faed 65bd d805 393d
00000300: 1e5b b2bd 313b 0ebd 4e31 9ebc 7cc6 6dbd
00000310: 2dd9 e03d 53e2 423d 8407 8dbd b84e ad3d
00000320: aa8b de3d e949 543d 4667 43bd c1f5 0f3e
00000330: ec74 b0bc 3fd2 9f3d 5955 5bbd a13c 993d
00000340: 38fd 7c3d 932f 53bb 6f02 ddbd 5be5 9cbd
00000350: 1848 893d 89b3 84bd 63a9 7dbc 64c7 13bd
00000360: 95f4 77bc 52cb 3dbd 1c11 f8bd 44e1 173e
00000370: 1b75 4fbd 1af2 fdbb c76c 29bc 8712 823d
00000380: eb90 ac3d 72c0 8abd fdd5 f43d 0e11 013d
00000390: 033e d2bd 7fb0 acbd e9dc cb3d 0b1b b0bd
000003a0: 9bec 733d d42b 17be c24d 1dbc 44cd 803d
000003b0: 1c51 1b3d 5175 c23d 7c23 203d bca4 953b
000003c0: de97 37bd d04c 363d 176e 3ebc c7dc 2abd
000003d0: f0ea e03c a93c 0f3e d473 c63c 6e5d 16bd
000003e0: 0925 cfbd 535f 13bd 9846 9fbd cd35 a53d
000003f0: 9f7c bc3d febe e63d b194 063e 5b0f 2b3c
0.005633995 -0.12679482 0.034058146 -0.023385348 -0.06054648 -0.030602748 0.08186074 -0.008889629
-0.053017702 0.01999681 0.05660797 0.052880313 -0.11740655 -0.021168586 0.15060835 0.07883456
-0.04202946 0.12711792 -0.107290514 -0.059825156 0.02737673 0.06822782 0.08767483 0.015313982
-0.047816876 0.06559995 -0.1079587 0.07099917 0.06985662 0.01376743 0.048726793 0.0010742736
0.12304228 0.12442957 -0.0040541785 -0.046184354 0.123147696 0.12698859 0.08705763 -0.00093624386
-0.071186 0.025343336 0.06327968 -0.037668813 -0.031081008 -0.05710255 0.14266476 0.030966222
0.087835446 0.111487135 0.022438427 -0.031659063 -0.06467221 0.0036847158 0.12654233 0.13453352
-0.061014462 -0.06634518 -0.02121872 -0.079079725 -0.07830713 -0.11734433 -0.11069884 -0.067866124
-0.06301642 -0.033479273 -0.10944647 0.14444134 0.01647974 0.108003624 -0.14395502 0.09608621
0.10422285 -0.09152019 0.08293856 -0.027141891 0.122082226 0.097052485 -0.06929085 -0.13665174
0.071139075 -0.074647196 -0.14951444 -0.046218872 -0.08726331 -0.056564793 -0.09724712 -0.047314197
0.09795514 -0.049976446 -0.09096477 0.10502402 0.060957428 0.041884005 -0.14170285 0.041009672
-0.05005479 -0.09273262 0.087681495 -0.02590326 0.10991615 -0.11617991 0.12729666 0.0433209
0.067459986 -0.08599985 0.025101269 -0.095572725 -0.080426954 -0.08926698 -0.10339896 0.04103732
0.021123385 -0.098925985 -0.09744552 0.06905446 -0.12855966 -0.052914016 -0.06923114 0.025945222
0.065944575 0.14329375 -0.014103647 0.072079375 -0.13669969 -0.032913636 0.05749182 -0.0008937226
0.04022371 0.017502671 0.14466864 0.11928218 0.087824516 0.07223987 -0.084424905 -0.045479756
0.052588046 -0.08004756 -0.049172483 -0.13789369 -0.05187014 -0.05903724 -0.13623206 0.05886092
0.11385441 0.14502694 0.13685614 -0.03254496 0.09452998 0.041291647 -0.14387494 0.050220396
-0.1024059 0.087660424 -0.06068891 0.0127141485 -0.020058474 0.05514378 -0.035575677 -0.009407443
0.02831152 -0.067949146 0.13155678 -0.084142976 -0.04507971 -0.105430424 -0.09999603 -0.07895218
-0.07330895 0.11369352 -0.071701236 -0.09197635 -0.062512584 -0.03993539 -0.13992798 -0.09190966
0.032872014 -0.1459635 -0.10708854 -0.040013824 0.014843507 -0.11820592 -0.05438762 -0.026691088
-0.067628175 -0.031046443 0.10697075 0.14597857 0.058077563 -0.068549514 -0.056135155 0.04517159
-0.087087855 -0.034724418 -0.01931062 -0.058050618 0.10978923 0.04757912 -0.06886199 0.0846228
0.108664826 0.0518283 -0.04770591 0.14058591 -0.021540128 0.07803773 -0.05354819 0.07482267
0.061764926 -0.0032224401 -0.1079148 -0.076609336 0.06703204 -0.06479556 -0.0154822795 -0.036078826
-0.0151339965 -0.04633648 -0.12112638 0.14832026 -0.05064879 -0.007749808 -0.010340876 0.0635119
0.084260784 -0.06774987 0.119548775 0.031510405 -0.10265734 -0.084321015 0.09954245 -0.08598908
0.059551816 -0.14762813 -0.009601058 0.06289151 0.03791915 0.094950326 0.03909634 0.004566757
-0.044822566 0.044506848 -0.011622927 -0.041714456 0.027455777 0.13987984 0.024225153 -0.036710195
-0.10114486 -0.03597958 -0.077771366 0.08066902 0.09203457 0.112668976 0.13142659 0.010440673

arch.arch.net.inception_block_1.branches.2.5.weight f4 [16]
00000000: 6330 803f e673 803f b650 803f 0d19 803f
00000010: 2f60 7f3f f83a 7f3f 79ad 803f a410 803f
00000020: 4b41 803f 3ff2 7f3f 028e 803f 0551 7f3f
00000030: 0b73 803f 125d 7f3f 4bc8 7f3f d82b 803f
1.0014766 1.0035369 1.0024631 1.0007645 0.9975614 0.99699354 1.005294 1.0005078
1.0019926 0.99979013 1.0043337 0.99733 1.0035108 0.9975139 0.99915 1.001338

arch.arch.net.inception_block_1.branches.2.5.bias f4 [16]
00000000: f55d acba abad e13a a0e3 973a 529a 0b3b
00000010: 062c a63a 8470 50bb 80e2 0e3b 1590 1a3a
00000020: e4d5 f1b9 2bea d7b8 2936 9d3b 168b 4c3a
00000030: e77e 5f3b da20 a3ba ba3d 16bb 96b1 043b
-0.001315056 0.0017217895 0.0011588223 0.00213017 0.0012677915 -0.0031805346 0.0021802485 0.00058961037
-0.00046126463 -0.00010295616 0.004797716 0.0007802708 0.003410274 -0.0012445704 -0.0022924975 0.002024745

arch.arch.net.inception_block_1.branches.2.5.running_mean f4 [16]
00000000: 5de8 ec3c f01b 52bc bf86 b93d 7fbd 2dbd
00000010: 0c7d 94bc 0978 80bd 857a eabb 4226 f4bc
00000020: c260 c9bc f9d5 6e3d 5e14 a7bd e917 aebc
00000030: 5eb7 743d 9cf5 43bd fb19 263c b571 443d
0.028919393 -0.012824044 0.09058904 -0.042417046 -0.018126033 -0.06272895 -0.0071557187 -0.029803399
-0.02458227 0.05830953 -0.081581816 -0.021251636 0.059745185 -0.047841653 0.01013803 0.047960002

arch.arch.net.inception_block_1.branches.2.5.running_var f4 [16]
00000000: acd8 473d 17d1 c03d e663 0b3e 372f a93d
00000010: 8d09 893d d717 543e 5e95 e03d b00c a33d
00000020: 7a2f 8b3d 6a48 493d b8bb ba3e 2c2b 0c3e
00000030: 49f4 1f3d 563c 183d 7a12 603d 18c6 823d
0.04879062 0.09414881 0.13612327 0.08260959 0.06691275 0.20712219 0.109659895 0.07961404
0.06796165 0.049141325 0.36471343 0.13688344 0.039051328 0.037166916 0.05470512 0.0638544

arch.arch.net.inception_block_2.branches.0.0.weight f4 [8, 48, 1, 15]
00000000: 4722 24bd bb3b b13b ff1e c83c 09a3 f83c
00000010: a615 903d a3ca 133d 6830 25bd a16f 86bc
00000020: c26e 213d 8808 18bd dd87 ddbb c4e6 0b3c
00000030: bd46 44bd c141 77bd f2e8 70bc 1913 8f3d
00000040: e8ad 943d cc9f 83bd 7e1b 0abd f601 9c3d
00000050: 29ab 9cbd f7c7 5e3d c282 3f3d 6171 87bd
00000060: dfca 9fbd 4ab7 16bd 7760 143d f137 91bc
00000070: 4fde 783d 34f6 9fbd b05c 9ebc c4ce 89bd
00000080: d711 963d d50b a63d 40fb 883d 1a07 e5bc
00000090: b92a 00bd 8916 8b3d 2635 343d b02a 9c3c
000000a0: beb8 6a3d 9238 963d f9cf 2a3d be72 33bd
000000b0: 48d9 2f3d 93e5 83bd 944c 56bc c754 31bc
000000c0: df45 87bd 2e53 d6bb ee29 323d 6fb9 4abd
000000d0: 3108 cb3c d210 48bd 18c0 1cbd 9026 793d
000000e0: 5a9c c8bc 333a 0dbd bf10 313d 2e69 1a3b
000000f0: 8e0b 183d 3355 9a3d 7e1e a23b 1bc1 33bd
00000100: 9ff5 8938 c93a 753d 3f09 e5bc f867 983d
00000110: 706e 5b3c 006e 99bd 2485 94bc 6214 fb3c
00000120: c73c 1f3d 7f9c d63b 0570 803c 9337 223b
00000130: 9b4a 783d 4835 ae3b 239c 3ebd 56e0 9cbc
00000140: ae17 b33d 3842 40bd a28e d5bc 630f b9bb
00000150: c8df 513d fc2a 97bd 32d0 60bd c1ba a4bd
00000160: 414f 9d3d 18c7 ddbc db0e a1bc 0898 a53d
00000170: a8aa 13bd 8848 173d 4595 433d 7d09 98bd
00000180: 4258 0b3d cab2 a73d 56ba 92bd bb9f 8bbd
00000190: 270d fbbb f620 87bd 3ba3 b3bc 9a6b 8ebd
000001a0: 043e a83c 1f70 de3c f69f 2abd 61e3 8ebd
000001b0: 953d f53c 5df2 0bbd 3fa0 1bbd 59e2 403d
000001c0: f7d9 823d cf6d 56bd 298d 41bd 0977 aabd
000001d0: 35e7 483d 2f70 97bd 071c 7fbd c1d7 27bd
000001e0: 1a68 abbc 793e 203d 589c 483d 4dca 24bd
000001f0: f8e0 1abd 6ad4 ac3d 9dc3 9fbc 68f0 003d
00000200: f891 c23c 6028 2fbc e351 16bd 2a00 30bd
00000210: 5388 463d 8845 423d dca4 843d 125d 943d
00000220: 711c a63c 0179 8a3d 7d71 9cbd a0ae 9c3d
00000230: cc68 573c 239d 8dbd f5f1 63bd 5261 97bd
00000240: 9573 1b3c ee88 95bd ad94 993d 0c2f ab3d
00000250: 52f0 4dbc 51f0 81bd 99c9 38bd 7af0 94bd
00000260: 56b4 7dbd cf49 5e3d af32 02bd d981 8a3d
00000270: 0e91 11bd 096e 1fbd e17e ebbb 0ca4 8dbd
00000280: 7a5b 35bd c69c 803d 3d2c a2bc df0f 6fbd
00000290: 00d5 e2bc 9bb0 2e3c b2d2 2b3d 9021 8e3d
000002a0: b976 d0bc afec 9a3b 6e42 ccbc 4574 86bd
000002b0: 79dd 0d3d a272 2ebc 14ee dfba 1109 6b3d
000002c0: 4e73 353b 585d 26bd 8a19 2f3d b67d 65bc
000002d0: c384 9c3c 3f10 f33b c165 af3c c396 15bd
000002e0: 03cd ed3c c714 45bd 19b5 523c acab 4cbd
000002f0: 0fea 9a3c 34c8 27bd face 2fbd 3463 9bbb
00000300: 67a8 babb 5f76 6d3d f770 32bd 22e3 083b
00000310: b6a4 42bd 9d64 bdbb 962c 6e3d 8c75 62bd
00000320: 429a 953d cd9e 9fbd 5ad0 1e3d 5c38 e73c
00000330: 1f30 83ba 1eb0 8dbd 668d 69bd 991a 923d
00000340: 6a38 64bb 191f 9abd eefc 0ebd b7e1 1fbd
00000350: 4baf 96bd 8866 48bc 6f23 983d 788b 633d
00000360: 8a4b 8bbd cf54 64bd af70 883c d635 633d
00000370: ebf4 8bbb 2c36 293d 8c44 95bd 1257 233d
00000380: 4fe4 6ebd ca1b 163d 83d9 263d c96d 13bd
00000390: c6d4 c1bb e093 86bd c915 64bd 8fab 00bd
000003a0: d571 883c 9663 8abd ef6b ac3d e7c0 a33d
000003b0: 54e2 983d 0118 513d 7795 5c3b 42c1 77ba
000003c0: 6518 4dbd 424b a0bd 3ab5 bb3b 5655 e83c
000003d0: 7a4a a9bc 47c8 043d 7510 05bd 5fea a53c
000003e0: 7d31 353d 6047 0a3d c642 80bd f74b d0bc
000003f0: 1ded 9ebd 8f64 02bd 4f79 94ba a1fb 933d
-0.040071752 0.0054087318 0.024428843 0.030351179 0.07035379 0.03608192 -0.040329367 -0.01641065
0.039412268 -0.03711751 -0.006760581 0.0085389055 -0.047919024 -0.060365442 -0.014703976 0.069860645
0.072597325 -0.06426963 -0.033717625 0.076175615 -0.07649834 0.05438992 0.04675556 -0.06613422
-0.078023665 -0.03679589 0.03622481 -0.01772687 0.060758885 -0.078106314 -0.019331306 -0.067288905
0.073276214 0.081077255 0.06688547 -0.027957488 -0.031290743 0.067914076 0.043996 0.019063324
0.05730509 0.07335009 0.041702244 -0.0438106 0.042931825 -0.06440272 -0.013079781 -0.010823435
-0.06605124 -0.0065406775 0.04349702 -0.04949325 0.02478418 -0.048844166 -0.038269132 0.06082779
-0.024488617 -0.03447933 0.04322886 0.0023561227 0.037120394 0.07535782 0.0049474826 -0.04388533
6.5784196e-05 0.059870515 -0.02795851 0.074417055 0.01339303 -0.07491684 -0.018129893 0.030649368
0.03887632 0.0065494175 0.015678415 0.0024752363 0.060618024 0.00531641 -0.046535622 -0.01914994
0.08744751 -0.04693815 -0.02606899 -0.005647586 0.051238805 -0.073812455 -0.05488605 -0.08043433
0.07681132 -0.027072474 -0.019660404 0.08085638 -0.036051422 0.036934406 0.047749776 -0.07423685
0.034019716 0.08188398 -0.07164447 -0.068175755 -0.00766148 -0.06598084 -0.02192842 -0.06954117
0.020537384 0.027153073 -0.041656457 -0.06976963 0.029936591 -0.034166683 -0.03799462 0.047090862
0.0638923 -0.052350815 -0.04725376 -0.083234854 0.04904862 -0.07394444 -0.06228259 -0.040977243
-0.020923663 0.03912208 0.048977226 -0.04023199 -0.037812203 0.08438952 -0.019502455 0.03147927
0.023751244 -0.0106907785 -0.036699187 -0.042968906 0.048469853 0.04742959 0.06476757 0.07244314
0.020277234 0.06761361 -0.07638834 0.076504946 0.013147544 -0.06914737 -0.05565067 -0.07391609
0.009488006 -0.07301508 0.07499061 0.08358583 -0.012569504 -0.06344665 -0.045114134 -0.0727243
-0.06193956 0.054269608 -0.031786617 0.06763048 -0.035538726 -0.038923297 -0.007186756 -0.06916055
-0.044276692 0.06279902 -0.019796485 -0.058364745 -0.027689457 0.010662223 0.04194898 0.06939995
-0.025447236 0.004727922 -0.02493402 -0.065651454 0.03463504 -0.010647448 -0.0017084503 0.057381693
0.0027687135 -0.040616363 0.042748965 -0.014007023 0.019106274 0.007417708 0.021410825 -0.03652073
0.029028421 -0.048115518 0.01286056 -0.049968407 0.018910436 -0.040962413 -0.042921998 -0.0047420505
-0.0056963447 0.057974216 -0.043564763 0.0020887335 -0.04752036 -0.0057798163 0.05814799 -0.055287883
0.07304813 -0.07793961 0.03877292 0.028225116 -0.0010008848 -0.06918357 -0.057019614 0.07133979
-0.0034823664 -0.07525463 -0.03490918 -0.039033618 -0.07357653 -0.012231477 0.074286334 0.05555293
-0.06801517 -0.055744942 0.016655294 0.055471264 -0.00427114 0.041311428 -0.07288465 0.03987796
-0.0583232 0.036647595 0.04073478 -0.03599337 -0.005915257 -0.06571174 -0.05568484 -0.03141361
0.016655842 -0.06757276 0.08419024 0.079957776 0.07465044 0.051048283 0.0033658424 -0.00094511
-0.050072093 -0.07826854 0.005728391 0.028361004 -0.020665396 0.03241756 -0.032486398 0.020253358
0.04423665 0.033759475 -0.06262736 -0.025426848 -0.077600695 -0.03183418 -0.0011327657 0.07225729

arch.arch.net.inception_block_2.branches.0.1.weight f4 [8]
00000000: 1d3b 803f 6a15 803f ca1b 803f e9e9 7f3f
00000010: 8c6d 803f 9062 803f 417a 803f f009 803f
1.001804 1.0006535 1.000848 0.99966294 1.0033431 1.0030079 1.0037309 1.0003033

arch.arch.net.inception_block_2.branches.0.1.bias f4 [8]
00000000: 50b2 0a3b 54b7 c43a 1f16 383b 4ef3 b939
00000010: 8a3d 623b 08eb 063b 3219 543a ddee d43a
0.0021163411 0.0015008249 0.0028089357 0.00035467226 0.0034521543 0.0020586867 0.00080909126 0.0016245503

arch.arch.net.inception_block_2.branches.0.1.running_mean f4 [8]
00000000: d8b2 bbbe d7de 47bb f462 1abd b4f8 9f3d
00000010: 8dfd 923e 0228 ab3e 7ec3 62be cf8d cc3e
-0.36659884 -0.0030497813 -0.037692025 0.07811108 0.2870907 0.3342896 -0.22144887 0.3995194

arch.arch.net.inception_block_2.branches.0.1.running_var f4 [8]
00000000: 4a74 693f eded 073f 6869 5d3f a9c3 293f
00000010: d5f1 043f 7e3f 383f 7931 513f 78a2 643f
0.9119307 0.5309742 0.8648896 0.6631418 0.51931506 0.7197188 0.81716114 0.8931041
