checkpoints/epoch=99-step=24900.ckpt (torch, 230283 bytes, 133 tensors)

arch.arch.net.inception_block_1.branches.0.0.weight f4 [8, 1, 1, 62]
000000 dc 84 68 bd 69 59 59 bd ce 4c 14 3b 77 eb 80 bd
       -0.05676733 -0.053063784 0.0022628787 -0.06294911
000010 17 22 3b 3d 15 2f 74 3d 28 92 fe bc 52 a4 4a bd
       0.045686807 0.059615213 -0.031075552 -0.049473114
000020 d9 74 72 bb 10 70 8c bd 85 3c ad bd e2 98 cc 3d
       -0.0036995916 -0.06857312 -0.08458809 0.099900976
000030 6c 1f ba 3c be 5c 86 bd 43 9c e0 3c d6 10 bf bd
       0.022720061 -0.06560658 0.027418261 -0.09329383
000040 60 17 f0 bc 13 a0 8b 3d 24 95 b0 3d e3 d7 79 3d
       -0.029308021 0.06817641 0.08622196 0.0609969
000050 e3 7f 3d 3d fc 52 24 bd fe c5 89 bd 36 d1 c7 bd
       0.04626454 -0.040118203 -0.06727217 -0.09756701
000060 28 27 91 bd 0e e3 87 3b d3 c8 b8 3d ce 29 9f bd
       -0.070875466 0.00414694 0.09022679 -0.077716455
000070 ad 20 08 bd e7 e4 39 bc c2 1a 8b bb 6a 40 04 bd
       -0.033234287 -0.0113460785 -0.004245133 -0.032287993
000080 34 89 0b bc 0d 3e 70 bc 24 ef a6 bd db 6f ea 3c
       -0.0085165985 -0.014663232 -0.08151081 0.02861779
000090 30 fc 67 bd e0 bd c8 bd c3 80 8e bd 75 55 1b bd
       -0.05663699 -0.09801841 -0.06958153 -0.037923295
0000a0 92 43 8f bd 6d 49 32 3c 61 23 f4 bd a5 44 e3 bd
       -0.0699531 0.010881764 -0.119208105 -0.11097077
0000b0 48 69 40 bd 62 eb 13 3c fe 46 be bd 2a d7 c6 bc
       -0.046975404 0.009028288 -0.092908844 -0.02427252
0000c0 13 78 08 be 9d 45 0b be d1 e5 e3 3c f4 df dc 3c
       -0.13327055 -0.13600774 0.027819546 0.026962258
0000d0 0d 42 bd bd bb 16 7c 3d 6e 72 7e 3d c8 4c 00 bb
       -0.09241114 0.061545115 0.062120847 -0.0019577015
0000e0 ba c5 9a bd 8b 87 94 bd 69 30 65 3d 22 ec b7 bc
       -0.075572446 -0.07252415 0.05595437 -0.022451464
0000f0 d9 6a 71 bd 4e 34 76 bd c8 f8 80 3d 19 54 69 3c
       -0.05893979 -0.060108475 0.06297451 0.014241242
000100 a8 07 92 bd ee 35 dd bb dd 4c ab bd 68 6f 5f 3d
       -0.071303666 -0.0067508137 -0.0836427 0.054549605
000110 35 c5 c2 bd 9e a5 99 3b 2e ae 93 3d 4b 93 ba 3d
       -0.095102705 0.0046889326 0.072109565 0.09110125
000120 61 4e 31 3c 97 f8 87 bd 4f 2b 69 bd 13 a5 bd 3d
       0.01082191 -0.066392116 -0.056926068 0.09260001
000130 8b fb e2 3b 95 35 96 3d d7 38 ba bd 4c 84 10 3b
       0.006926959 0.07334439 -0.090928726 0.0022051511
000140 1d 7f 08 bd 9f 5f 73 3c 2b d7 c5 3c f6 80 4d 3c
       -0.03332435 0.014854341 0.024150452 0.012542954
000150 d1 67 19 bd 08 8d a7 bd e3 b7 b2 3d c6 6c 31 ba
       -0.037452523 -0.081811965 0.0872648 -0.00067682227
000160 40 8a 06 3e ae 8d 4a 3d ae c2 67 bb 80 4c 08 3c
       0.13138676 0.049451523 -0.003536384 0.00831902
000170 51 71 62 3d 7b c1 b5 3d 33 5c cf bb 82 ff be 3d
       0.05528385 0.08874794 -0.0063281297 0.09326078
000180 3c df 4b bd d5 b3 39 bd 8d 03 26 bd 26 a1 c3 3d
       -0.04977344 -0.045337517 -0.04053073 0.09552221
000190 3d 6f 30 3d ca 97 32 bd 36 29 68 bc f0 60 a1 3d
       0.043074835 -0.04360179 -0.014169982 0.078798175
0001a0 d9 d9 30 bd c2 97 ee bd c0 22 85 bd d2 b7 54 bd
       -0.043176506 -0.11650039 -0.06500769 -0.051933117
0001b0 ed fc 9b 3d 31 f5 71 bd 0e 65 98 3d 50 7f 56 bb
       0.07616601 -0.059071723 0.0744115 -0.0032729693
0001c0 a1 b5 60 bd 8d d9 a7 3d 33 f3 27 bd 28 34 56 3d
       -0.054860715 0.081957914 -0.041003417 0.052295834
0001d0 89 b2 e3 3d 47 c8 67 bd 26 31 43 3d e0 d0 d4 3c
       0.11118037 -0.056587484 0.047654293 0.025978506
0001e0 39 ce 84 bd bb c3 9b bd 52 57 45 bd 5b b3 d5 bb
       -0.06484646 -0.07605692 -0.04817898 -0.006521625
0001f0 2a a9 54 bd 40 3b 05 bd 9b e3 a8 bd 8f a1 6d 3c
       -0.05191914 -0.03252721 -0.08246537 0.014503851
000200 0f d1 db bd dd 02 d3 3c 81 a9 6d 3d bd 5e c9 bd
       -0.10733234 0.025758201 0.05802298 -0.09832523
000210 aa a9 e2 bc 38 43 68 bd 78 34 74 bd df 13 4b 3d
       -0.027668793 -0.05670473 -0.05962035 0.049579497
000220 08 06 30 bc e0 09 26 bd af 97 aa 3c 4a 0e 61 bc
       -0.010743625 -0.04053676 0.020824281 -0.013736317
000230 fd 05 1a bd ce ab 39 3d f9 12 94 3d d7 18 ab 3d
       -0.037603367 0.04532986 0.07230181 0.08354347
000240 d6 b8 92 bd e1 de 93 bc ee 23 24 3d ad aa 04 bd
       -0.07164161 -0.018050613 0.040073328 -0.03238933
000250 6e dd a2 3d 0b 17 d0 3c 96 57 a5 bb 1c 87 94 3c
       0.079523906 0.025401613 -0.0050458414 0.018130831
000260 c9 d4 d6 3c bd 57 96 3c 76 db b6 bd 92 62 87 bd
       0.02622451 0.018352384 -0.089285776 -0.06610598
000270 cd 22 c4 bd f4 61 8f bd 51 e5 29 3d 65 13 1b bd
       -0.0957695 -0.07001105 0.04147846 -0.037860293
000280 95 3d 20 3d 80 23 8a 3d 93 d8 ec 3c 10 ec 46 3d
       0.03912123 0.06745052 0.028911864 0.04856497
000290 ad 6d 53 bd 6e 01 96 3d 45 4a 6a bc 03 09 84 3d
       -0.051618267 0.073244914 -0.014299934 0.06447031
0002a0 bb 7f 97 bd 37 6f 7f 3d 18 41 90 3c 66 f7 2e 3d
       -0.073974095 0.062361922 0.017609164 0.042716406
0002b0 d5 d7 f7 3d 8f b4 37 bc a9 68 b7 bc 92 19 9d bd
       0.121017136 -0.011212482 -0.022388773 -0.07670893
0002c0 85 73 84 bd 05 aa 92 3a 85 16 74 bd 7a 1e 07 3d
       -0.06467346 0.0011189586 -0.05959179 0.03298805
0002d0 3f d5 f6 3b df 48 b8 3d 5b b1 62 bd 56 56 c6 3d
       0.007532745 0.08998274 -0.05534492 0.09684436
0002e0 6e 8b 4e 3b 0a c9 0a 3d 1a dc 5b 3c c5 82 0b bd
       0.0031516212 0.033883132 0.0134191755 -0.03406026
0002f0 bd f8 23 bd 33 be 9a 3d 99 fe a6 bc fa 3c 81 bd
       -0.040032137 0.07555809 -0.020385073 -0.063104585
000300 e2 d8 d1 3d 52 3a af bd b3 7e 9b bd fd ac d8 3a
       0.10246445 -0.085560456 -0.07592525 0.0016531047
000310 63 d5 9c 3d 24 d7 79 bc d9 b8 14 bd 1b 2a 15 3c
       0.07657888 -0.015249047 -0.036309097 0.009104277
000320 9b 7d 3a bd 33 88 d5 3c 12 99 85 bd 07 26 ba bb
       -0.045529943 0.026065921 -0.065233365 -0.0056808027
000330 a2 c0 bb bd f8 42 c2 bd 25 e2 d7 bd bc 3e 32 bd
       -0.09167601 -0.094854295 -0.105411805 -0.04351686
000340 72 4c 48 3d ac bf a0 3d c7 63 8f bd 75 2f 65 bd
       0.04890103 0.078490585 -0.07001453 -0.05595346
000350 3f 6d 98 3d 4b 2d d0 3d d6 96 c8 3b 9e a8 b5 3d
       0.07442712 0.10164889 0.0061214967 0.08870052
000360 2f 90 9e 3d 77 ff 55 3d 9e 57 a2 bd 38 b5 b0 3d
       0.077423446 0.052245583 -0.07926868 0.08628315
000370 8d 37 84 3d f2 12 74 3d db c8 2b 3d 9b cf 70 bd
       0.06455908 0.05958838 0.041939598 -0.058791738
000380 e6 6c cd 3d 71 ce cf bc ce 23 dd 3c 9b b9 6c bc
       0.10030536 -0.025366994 0.026994612 -0.014448549
000390 41 f9 bf 3d 4c fe 85 bd a3 c3 c5 3d 50 72 ad 3b
       0.09373713 -0.06542644 0.09656455 0.005293168
0003a0 f0 09 ae bc 65 39 d2 3d 31 1f a6 bc 87 8d 8b 3d
       -0.021244973 0.102648534 -0.020278545 0.068141036
0003b0 15 29 45 3d 3c cb eb 3d f4 90 9f 3c 3f 09 d6 bc
       0.048134882 0.11513373 0.019478299 -0.026127456
0003c0 05 bd 91 3c 76 bc 33 b8 fa 3e a2 bd ce c3 1b bd
       0.017790327 -4.2852444e-05 -0.07922168 -0.03802853
0003d0 37 1d 69 3b 62 4c 49 bc 02 08 6b bd ae 55 36 bd
       0.0035570392 -0.0122862775 -0.057380684 -0.044515304
0003e0 c9 f7 82 bd 98 dd 94 bd 0a fb 6e 3d 83 f1 e4 bc
       -0.063949175 -0.07268828 0.05834488 -0.027947193
0003f0 5e 4c 2d 3d ee 57 f9 bc c2 ce 09 3d e2 a4 03 bd
       0.042309158 -0.030437436 0.033644445 -0.032139666

arch.arch.net.inception_block_1.branches.0.0.bias f4 [8]
000000 33 86 ea b8 eb f4 4c bc f7 97 34 3a c9 2c a5 38
       -0.00011182986 -0.012509565 0.00068890996 7.876155e-05
000010 e9 09 1f bc a7 79 11 3a ea 86 9e 3b 4b ef 6f bb
       -0.009706953 0.00055494386 0.0048378604 -0.0036611136

arch.arch.net.inception_block_1.branches.0.1.weight f4 [8]
000000 f2 ff 80 3f 24 74 77 3f 97 fb 7c 3f c6 33 8b 3f
       1.0078108 0.9666159 0.98821396 1.0875175
000010 d0 92 86 3f dc 59 7c 3f 83 8d 85 3f 13 18 8d 3f
       1.0513554 0.98574615 1.0433811 1.1022972

arch.arch.net.inception_block_1.branches.0.1.bias f4 [8]
000000 37 eb 99 bd c0 a2 ad 3c af cb 84 3b e2 e5 90 bd
       -0.07515567 0.02119577 0.0040526013 -0.07075097
000010 2e 51 a0 bc c2 87 0d bc 59 60 48 3b 33 08 24 be
       -0.01956996 -0.008638324 0.0030575006 -0.16018753

arch.arch.net.inception_block_1.branches.0.1.running_mean f4 [8]
000000 40 8d a8 c1 4a 60 42 40 f3 b5 89 bf 64 04 80 40
       -21.06897 3.037127 -1.0758651 4.000536
000010 85 1b 51 40 72 f4 3b 41 5b 8e 6a 40 a0 db 3f c1
       3.2673047 11.747179 3.6649387 -11.991119

arch.arch.net.inception_block_1.branches.0.1.running_var f4 [8]
000000 f7 2c d7 44 c4 a5 22 43 43 0e 4a 43 bd fb f6 43
       1721.4052 162.64752 202.05571 493.9667
000010 4d bc ed 42 ce e3 1c 44 ee bc 37 43 e4 0c fe 43
       118.867775 627.55945 183.738 508.1007

arch.arch.net.inception_block_1.branches.0.4.weight f4 [16, 1, 16, 1]
000000 d1 14 97 bd 74 26 8d 3d 98 a6 12 be 7b 09 9e bd
       -0.07377017 0.068921 -0.14321363 -0.07716652
000010 76 40 d4 3d f5 2b f1 3d 1f f5 df bd d7 bc 38 3e
       0.103638574 0.11775962 -0.10935425 0.18040787
000020 9f 9e c4 3d ef 3d 42 3d e6 99 ec bd 41 9b 99 bd
       0.09600567 0.047422346 -0.11552791 -0.075003155
000030 42 cc 23 bd d9 c1 f4 bd f5 e6 be bd 5a d1 e3 3d
       -0.039989717 -0.11951036 -0.09321395 0.11123915
000040 4c 92 dc bd 02 b9 9c bd 57 5e 0d bd c3 ef af 3d
       -0.107700914 -0.07652475 -0.034513798 0.08590653
000050 d5 23 fa bd 0a a4 85 bd 35 66 13 3e 47 03 87 3d
       -0.12213866 -0.065254286 0.14394458 0.06592422
000060 3c b9 0a be c6 a9 0c 3e 68 a8 f8 bd 48 3b 05 3e
       -0.13547224 0.13736638 -0.12141496 0.13010895
000070 51 14 6d 3d 74 e2 02 be 35 93 e9 3d ff 56 9e 3c
       0.057880703 -0.12781698 0.11405031 0.019328592
000080 5c e3 d2 bd 79 37 07 be eb b6 64 bc 2e ba 8f bd
       -0.102972716 -0.13204755 -0.013959627 -0.07017933
000090 6d 6e e3 bd 51 fd 82 bd 3d 96 1e bd 13 c5 20 3e
       -0.111050464 -0.063959725 -0.038717497 0.15700178
0000a0 da 4d b3 bc ca 4d ee 3d 8e 66 e6 3d 9a 42 0e 3d
       -0.021887708 0.11635931 0.112500295 0.034731485
0000b0 53 1f a2 3c c9 45 79 3d 47 c2 03 3e bf d7 2c 3d
       0.019790327 0.060857568 0.1286708 0.04219794
0000c0 ef e0 09 bd e2 01 d4 3d a1 94 57 3d 79 db 2b 3d
       -0.03366178 0.103519216 0.052631978 0.041957352
0000d0 a0 d9 02 be 3b bd cb 3d c6 5f 82 3d ef 25 02 3a
       -0.1277833 0.09948202 0.063659236 0.0004964759
0000e0 dc b9 da bd 7c 1d d7 bd c2 88 1e be ec 16 70 3d
       -0.10679981 -0.105036706 -0.15481856 0.05861561
0000f0 f7 a8 0c 3e 86 42 f7 3c e2 00 f4 bd 06 ff 40 3c
       0.1373633 0.030183088 -0.11914231 0.011779552
000100 5a ec 05 be 37 a7 39 bd 67 02 dc bd 4f c0 b9 bd
       -0.13078442 -0.045325484 -0.10742646 -0.09069883
000110 f8 58 21 3e c3 61 81 bd 82 61 9b bc 14 7d ef bd
       0.15756595 -0.06317475 -0.018967394 -0.11693779
000120 93 6a 08 3e 3f 17 52 3d 84 19 9f bd 39 e5 7f bd
       0.13321905 0.0512917 -0.077685386 -0.062474463
000130 d2 0e 23 3d 26 b0 0c 3d 12 8c 4c 3d 9a 1a 9f 3c
       0.039809056 0.034347676 0.04993827 0.019421864
000140 76 d5 ba 3c d6 1b 0a bd bd ca d9 bd 16 78 7f 3d
       0.022806864 -0.033717953 -0.106343724 0.062370382
000150 d5 c6 91 bd 8f 8a 61 3d 95 65 bd bd dd 3c 8c 3b
       -0.07118002 0.05506378 -0.09247891 0.0042797164
000160 9a 3b 2e bc 99 c0 48 be 26 99 82 bd f5 a0 02 3d
       -0.010634327 -0.1960472 -0.06376867 0.03189178
000170 41 8d 63 3c 7f 7b 7e bc fa c3 19 bd 5f 9a 0d 3e
       0.013888658 -0.015532373 -0.037540413 0.13828419
000180 f7 e8 e9 3d 5a 25 1e 3e aa 9d 4f 3d 04 08 20 bc
       0.11421388 0.15443936 0.05068747 -0.009767536
000190 cc a3 04 bd 11 0b c2 bd 58 43 ae 3c 36 51 a2 bd
       -0.03238277 -0.09474767 0.021272346 -0.07925646
0001a0 54 ed f8 3d 2a b2 f3 bd 65 96 55 bd 74 8a 3a 3e
       0.12154642 -0.118992165 -0.05214538 0.18216878
0001b0 0d b6 cb 3d e8 e4 ca bd 94 6d 43 3d ad 9f 33 3e
       0.09946833 -0.09906942 0.047711924 0.1754138
0001c0 11 0b c4 bd 65 ed c0 3d 4d b2 e4 bc aa ce 92 3b
       -0.09572423 0.094202794 -0.027917052 0.0044802027
0001d0 17 74 06 3e 09 2f bd bd 5b df 69 3d 26 21 06 be
       0.13130222 -0.09237487 0.057097774 -0.13098583
0001e0 24 15 df 3d 1b 30 d4 3d ed 7b 53 bd f9 f7 d1 bd
       0.10892704 0.10360738 -0.051631857 -0.10252375
0001f0 8b 91 9f bd a4 59 e9 3d 0e 8a 92 3d d0 23 87 bd
       -0.07791432 0.11394051 0.07155238 -0.065986276
000200 95 4c a4 3d 86 5a 11 be fa 85 a2 3d 01 e4 8c bd
       0.08022419 -0.14194688 0.0793571 -0.06879426
000210 da ab 3c 3d 0c f4 0e 3e ab 6f db bd 61 d7 a9 bc
       0.046062328 0.13960284 -0.10714658 -0.020732583
000220 d7 df a0 3d 79 ee 08 be 57 e3 06 be 8d ea a1 3d
       0.07855194 -0.1337222 -0.13172661 0.07906065
000230 75 5d 9a bc 18 db 77 bd 02 ff d5 3b a1 75 0f 3e
       -0.018843392 -0.06051168 0.0065306434 0.14009716
000240 9e 72 10 be fb 1f fd bd 26 b1 bc 3d a4 d3 00 3e
       -0.14106223 -0.123596154 0.09213476 0.12580734
000250 a7 25 59 3d 75 d5 d9 bc 96 16 0f 3d 2c aa c2 bd
       0.053014424 -0.026591042 0.03493365 -0.09505114
000260 7c d6 96 3d b3 24 7a bd 3d 34 10 3e a5 bb 87 3d
       0.073651284 -0.061070155 0.14082427 0.06627587
000270 0f ab 60 3d 6e 86 c0 3d ed ac 1b 3e 4b 31 b1 ba
       0.054850634 0.094006404 0.15202685 -0.0013518719
000280 85 65 5a bc 7a 44 9d bd a4 3a a8 bd 87 62 b0 bd
       -0.013329868 -0.076790765 -0.0821431 -0.086125426
000290 83 00 2f bd e7 6c b3 3c 87 16 96 bd 2f 53 d5 3d
       -0.042725097 0.021902515 -0.073285155 0.10416257
0002a0 f3 8b 7f 3d 7c be ff bc c4 e3 04 3e b3 6a 51 3d
       0.062389325 -0.03121876 0.1297751 0.051127147
0002b0 cf 07 11 be dd c1 00 3e b0 3a 23 3d 61 e2 5e 3c
       -0.14163135 0.12573953 0.03985089 0.013603778
0002c0 73 32 60 3d 38 f9 cf 3c 63 10 b8 bd 76 b8 8e bd
       0.054735612 0.025387391 -0.089875005 -0.06968777
0002d0 e9 60 81 3d ef 45 c2 3d 43 0b 79 bc e3 dc a0 3d
       0.06317312 0.09485995 -0.015200439 0.07854631
0002e0 de 37 b0 3d ac b9 c9 bd 1e c9 b9 bd 84 c0 ca 3c
       0.08604406 -0.09849867 -0.09071563 0.024750002
0002f0 60 63 57 3a 95 55 c0 bd 66 73 3c bd 3b 4f 98 bd
       0.0008216407 -0.093913235 -0.04600849 -0.07436987
000300 52 8e f6 bd 1b ea 1a bd 9e af c0 bc 7b 67 f9 bd
       -0.12038864 -0.037820917 -0.02352124 -0.121779405
000310 40 3c 7e bc 3f b8 cf bc d5 68 ea 3d a0 aa c8 bc
       -0.015517294 -0.02535641 0.114457764 -0.024495423
000320 92 10 c4 3d 90 f5 1d 3e cf 3e 8a bd 90 a0 9d 3d
       0.09573473 0.15425706 -0.06750261 0.076966405
000330 03 43 51 3d e6 6b d5 bd 07 03 df 3d 94 be a6 bd
       0.051089298 -0.104209706 0.10889249 -0.08141819
000340 b1 ba 4e bd 31 87 56 bd ad 26 6b 3d 29 72 ff 3d
       -0.05047101 -0.052375022 0.05740993 0.12472946
000350 fe eb e5 bd a5 2e dd bd 84 58 92 3d 6d 95 d8 bd
       -0.112266526 -0.10799912 0.07145789 -0.10575376
000360 d7 6f 25 3e 36 50 8a bd f2 47 87 3b e2 37 c1 bd
       0.16155945 -0.0675358 0.0041284496 -0.09434487
000370 6f d5 42 3e cf 0c db 3d dd ab 50 3d 1a d3 f1 3d
       0.19026731 0.106958024 0.05094515 0.118078426
000380 2e e2 ae 3d 57 56 cd bc 00 9b 80 3b 32 2b 1a 3b
       0.08539234 -0.025065584 0.0039247274 0.0023524282
000390 9b 91 c2 3d 11 36 b9 3a d3 51 c3 3b ca b2 e6 bd
       0.09500428 0.0014130493 0.005960682 -0.1126457
0003a0 94 24 07 3e 4e 3a 45 be 27 18 bb 3d 0c 8b dc 3d
       0.13197547 -0.19260523 0.09135466 0.107687086
0003b0 5f 78 e1 bc 5b 93 40 3d 7e 3e 62 bd 1b d9 cf 3b
       -0.027523218 0.04701553 -0.05523538 0.0063430197
0003c0 0b fd b7 bd 3e 16 01 bd d4 1b bd bc 16 bd e0 ba
       -0.08983811 -0.031515352 -0.023084559 -0.0017146196
0003d0 80 df 0d be c1 58 48 3d 34 23 db bd a2 b4 d1 3d
       -0.1385479 0.048912767 -0.10700074 0.10239531
0003e0 70 10 72 bd 45 28 08 3e 80 09 1a 3e 4a ec a6 bd
       -0.059097707 0.13296612 0.15042686 -0.08150537
0003f0 60 53 07 3e e0 2f 72 bd 6c 25 ff 3d 99 c2 8c bd
       0.13215399 -0.05912769 0.124583095 -0.06873054

arch.arch.net.inception_block_1.branches.0.5.weight f4 [16]
000000 6c 34 78 3f a7 59 79 3f 60 bf 84 3f 68 bf 79 3f
       0.9695499 0.97402424 1.0370903 0.9755769
000010 68 71 80 3f 4e 94 79 3f 31 7f 7e 3f 86 7c 7d 3f
       1.0034609 0.9749192 0.9941283 0.9901813
000020 fc f8 80 3f 45 b4 78 3f 66 fc 82 3f 64 fd 7c 3f
       1.0075984 0.9715007 1.0233276 0.98824143
000030 47 31 80 3f 80 b9 74 3f 24 bc 85 3f 47 b6 7f 3f
       1.0015038 0.9559555 1.0448041 0.9988751

arch.arch.net.inception_block_1.branches.0.5.bias f4 [16]
000000 4d b8 fb bc 01 dc 03 3d fd 3a 3e bc 95 77 32 3c
       -0.03072753 0.032192234 -0.011610744 0.010892768
000010 b9 ef d4 ba ef 7b 5a 3c 64 2f e1 bd d9 f1 99 bc
       -0.0016245759 0.013335212 -0.10995367 -0.01879208
000020 2a b1 7a 3c 84 42 42 bd 85 42 bf bc 2d 57 97 bc
       0.015301028 -0.047426715 -0.023347149 -0.018474186
000030 b4 73 e0 3c f5 03 1b 3d 8c 8b 7d bc d9 53 d8 3c
       0.027398922 0.03784557 -0.015475165 0.02640717

arch.arch.net.inception_block_1.branches.0.5.running_mean f4 [16]
000000 0a 29 ad bb 28 10 32 bb d6 22 0d bd 68 8b a5 3c
       -0.0052844333 -0.0027170274 -0.03445705 0.020208076
000010 ff 7b 56 bd 57 00 18 bd 2d e0 80 bc ea b4 94 bc
       -0.052364346 -0.0371097 -0.015731895 -0.018152673
000020 63 ff c1 3c b6 ed 91 3d ed 4b a5 bd b7 da 21 bc
       0.023681348 0.07125418 -0.08071122 -0.009878806
000030 23 64 44 bd 8e fc e7 3c 48 7b 9d bb b8 47 c0 3c
       -0.04794706 0.02831867 -0.004805956 0.023471698

arch.arch.net.inception_block_1.branches.0.5.running_var f4 [16]
000000 d3 59 6c 3c bd ce 60 3c 86 96 9a 3d ef a8 80 3d
       0.014425713 0.013721165 0.07548241 0.062822215
000010 d9 6c a1 3d 3a 68 1a 3d 4b 5a be 3d 41 be f3 3c
       0.07882089 0.037697054 0.09294566 0.029753806
000020 60 55 62 3d 40 91 41 3e e7 cc cc 3d 38 75 2c 3d
       0.0552572 0.18903065 0.100000195 0.042103976
000030 a1 d0 85 3d 9d 56 aa 3d 22 2a b7 3c 58 d7 73 3c
       0.065339334 0.083173014 0.022358958 0.014882885

arch.arch.net.inception_block_1.branches.1.0.weight f4 [8, 1, 1, 31]
000000 3c 07 ac 3d 67 72 c0 bd 0a c0 31 3b a0 57 22 be
       0.08399817 -0.093968205 0.002712252 -0.15853739
000010 5b 11 7c 3d dc 94 10 be ee 97 2a be 22 1a e7 bd
       0.06153999 -0.14119285 -0.16659519 -0.11284281
000020 ab 73 3a bd 00 59 4f 3d ce 67 22 be b8 b4 59 bd
       -0.045520466 0.050621986 -0.15859911 -0.053150862
000030 0d 91 0a be b3 24 a5 3c 89 8a 83 3d 35 69 5f bc
       -0.13531895 0.020159101 0.06422908 -0.013635923
000040 b6 f2 28 bd b0 60 bc 3c 7b f8 cf 3d 10 3e a4 3d
       -0.041247092 0.022995323 0.10154816 0.0801965
000050 c2 39 12 be fe 0c f9 bd 6b 1e 0b 3d 86 05 92 bd
       -0.14279845 -0.12160681 0.033964556 -0.0712996
000060 33 2a b2 bd 2c 22 bc 3d 51 99 89 bc f1 70 9c bd
       -0.08699455 0.09186205 -0.01679674 -0.07638729
000070 7b 15 53 3b 8d 7d b8 bd ef d9 e6 3d 08 b8 bc 3d
       0.0032208848 -0.09008322 0.11272036 0.09214789
000080 0a 0b 6c bd cf c5 23 3c 5a 64 69 bd c5 1c 13 be
       -0.057627715 0.009995892 -0.05698047 -0.14366443
000090 8f ce 41 bd 83 48 1a be e8 ef 1a be 29 71 2d be
       -0.04731613 -0.15066724 -0.1513058 -0.16937698
0000a0 2b 3f 01 bc dc bc 2b bd 2c c6 d8 3c 40 c3 82 bc
       -0.007888596 -0.041928157 0.026461683 -0.015962243
0000b0 e0 48 f3 3d 3a 3d a1 bc 04 48 94 bd 31 e4 bc 3c
       0.11879134 -0.019682515 -0.072402984 0.023058029
0000c0 ef 76 82 3c 59 6c f4 3d 88 4e c7 bd 4d 43 8f 3d
       0.015925853 0.11934728 -0.097317755 0.069952585
0000d0 97 99 e3 3c 35 b3 07 3c ef 41 35 3d 81 c9 a7 3c
       0.027783198 0.008282472 0.044252332 0.020481827
0000e0 57 56 0b bd 0e 52 10 3e bf c8 58 3b 9d b9 b4 bc
       -0.034017887 0.14093801 0.0033078638 -0.022061164
0000f0 a5 d9 85 bd e5 84 d9 bd 6a ac 10 be 69 e9 db 3d
       -0.06535653 -0.10621051 -0.14128271 0.10737879
000100 73 b4 0e 3e 6b 1a 84 3d e7 cc e2 bd 9e 2f 7a bd
       0.13936023 0.06450351 -0.11074238 -0.061080568
000110 db 54 c4 3d eb a7 d6 3d ca 1c 12 3d db 38 29 bd
       0.095864974 0.104812466 0.035671987 -0.041313987
000120 ab 97 04 be bb 5b cf bd bf d0 9a 3c 14 33 fc 3d
       -0.12948482 -0.10124918 0.018898366 0.1231443
000130 8d 1a 2c bd 52 55 98 bb 60 74 11 3e 72 56 db bd
       -0.04201751 -0.004648843 0.1420455 -0.107098475
000140 e2 c2 05 be bb 07 34 bc bd 86 19 3e 14 90 15 bd
       -0.13062623 -0.010988171 0.14992805 -0.036514357
000150 06 9c 6d bc bc b3 8d 3d 66 e6 07 be 66 2d a1 3d
       -0.014502531 0.06919047 -0.13271484 0.07869987
000160 92 ca 84 bd ee a0 84 bd b3 11 34 bd 15 9b db bd
       -0.0648395 -0.064760074 -0.04396219 -0.10722939
000170 49 8d 0c 3e 16 d3 f6 3d 34 a6 bf 3d af a1 83 3b
       0.13725771 0.1205198 0.093578726 0.004017077
000180 a6 d0 bb 3a 07 b9 70 bd 3c da b9 3d 87 b3 bd 3d
       0.001432915 -0.058770206 0.09074828 0.09262758
000190 6e 42 13 be 92 40 03 3d b9 34 85 3d 94 4b b2 3d
       -0.1438081 0.032044 0.06504197 0.08705822
0001a0 9d 42 e0 bd 15 96 06 be 7e e4 06 be af 03 e1 bd
       -0.109502055 -0.13143189 -0.131731 -0.10987031
0001b0 9d 5d e1 3d e0 d1 e4 bd e5 d0 a4 bd 19 9b 93 bc
       0.110041834 -0.11172843 -0.08047656 -0.018018292
0001c0 d4 27 11 be 5d 5d 3e bd 7c d6 73 3d 11 ca 20 bd
       -0.1417535 -0.046475757 0.05953072 -0.039255206
0001d0 49 d2 c8 3d 6e be f1 3d e4 e3 8b 3d 65 87 02 be
       0.09805734 0.118039 0.06830576 -0.12746961
0001e0 2c 1b b0 bd 4c 1a f5 bd 4f 70 04 3d 48 b8 ee bd
       -0.085989326 -0.11967906 0.03233367 -0.116562426
0001f0 15 f3 66 bd 00 2d e3 3b 26 c4 c6 bc d5 cd 85 3d
       -0.056384165 0.0069328547 -0.024263453 0.065334
000200 72 a0 b5 3c c7 6c 36 be d9 27 1b be c0 7c 93 bd
       0.022171233 -0.17814933 -0.1515192 -0.072015285
000210 ef e9 f9 bd bb 9f 5a bd 97 97 7b 3d 48 85 29 be
       -0.122028224 -0.053374987 0.061423864 -0.16554749
000220 36 7c 08 bd 55 b1 4d 3b c4 b2 63 bd e2 29 0e 3d
       -0.03332158 0.0031386216 -0.055590406 0.03470791
000230 8d 22 7e bd 42 3a 06 bd 5a e2 92 3d 36 16 78 bc
       -0.06204467 -0.032770403 0.071720794 -0.015142014
000240 50 0d 8b bd 09 69 92 3d 4c d1 f8 bd 01 c6 13 3e
       -0.067896485 0.0714894 -0.12149295 0.14431001
000250 62 31 de bd 02 4b 4d 3b 0b e0 60 bc 50 0e b4 3b
       -0.10849263 0.0031325226 -0.013725291 0.0054948702
000260 9c 9e 73 3c ac 87 82 3d 83 6b 9a bd 3b 47 c5 3d
       0.014869358 0.063735336 -0.075400375 0.09632727
000270 51 9d 5e 3d 73 ca ff 3c 48 79 07 be 17 ff 87 bd
       0.054349247 0.031224465 -0.13229859 -0.066404514
000280 0a 04 cd 3d c7 48 4d 3d 9e b7 76 3d 1d 4f 2b bd
       0.10010536 0.050118234 0.060233705 -0.041823495
000290 d1 bb d1 3d 6b ac f1 bd 15 fb e8 3d a0 e0 21 bd
       0.10240901 -0.11800464 0.11376015 -0.03952086
0002a0 66 8e 82 bd 56 2b c4 bd da 83 17 be 90 01 af 3d
       -0.063748166 -0.09578578 -0.14796391 0.0854522
0002b0 44 98 c1 3b 43 91 07 3a 4c ab 8e 3c 8d 61 28 be
       0.005908044 0.0005171487 0.017415665 -0.16443463
0002c0 11 8d 25 be ce 3f f3 3d 8e 7f 18 be a9 7c 40 be
       -0.16167094 0.11877404 -0.14892408 -0.18797554
0002d0 52 e7 c8 bc 8e 38 64 bd 3c b9 0b 3d b6 39 07 be
       -0.024524365 -0.055717997 0.0341122 -0.13205609
0002e0 ca 20 a2 3d 9e a9 a5 bd d4 a1 10 bc fb 94 b9 bd
       0.0791641 -0.080889925 -0.008827645 -0.09061619
0002f0 8f 39 d2 3d af 42 90 3d 5e 68 b8 ba 96 56 c5 3d
       0.10264885 0.07043969 -0.001406919 0.096356556
000300 cf b8 67 3c 4a 8a f7 3c ba 4f 86 bd 3e 1f 02 bc
       0.014143183 0.030217309 -0.065581754 -0.007942019
000310 96 60 f0 bc b3 15 1c be 0e 5b c0 3d 43 f3 e7 bd
       -0.02934293 -0.15242653 0.09392367 -0.11325695
000320 23 05 93 bd 17 f6 f3 3d 0f 4e 0d bc 98 49 8f 3d
       -0.07178714 0.11912172 -0.008624568 0.06996459
000330 d7 d1 dc 3c 93 25 52 3d 7b 32 cb bd 8c 88 10 be
       0.026955528 0.051305365 -0.09921738 -0.14114588
000340 4a ed ad bd e8 75 2d 3c 24 cd 74 bc de fd 52 3d
       -0.08492525 0.010587193 -0.014941487 0.051511638
000350 b1 0e c1 3c c5 37 b2 bc b2 38 af bd a4 f3 dc 3d
       0.023566576 -0.021755109 -0.08555736 0.10788658
000360 6d c7 fd bd 50 27 20 bc 1f 3a 63 3d b3 a0 35 bd
       -0.12391553 -0.009774998 0.05547535 -0.044342708
000370 44 da 59 bb 46 2d cb bd 7b fb 07 bc 84 e8 f6 3d
       -0.0033241669 -0.099207446 -0.008299704 0.120560676
000380 d3 1d cd bd d0 8a cd 3d f2 27 33 be c7 b0 20 be
       -0.10015454 0.10036242 -0.17495707 -0.15692435
000390 2f 20 ae 3c 32 c1 3d bd 9e 0e 82 3d b5 3a 82 3c
       0.02125558 -0.046326824 0.06350444 0.015897134
0003a0 8e b1 b5 bd c4 2e a7 bd d6 3e 9f bc db 8a 74 3d
       -0.088717565 -0.08163217 -0.019439142 0.059702735
0003b0 09 02 01 3e e0 78 d6 bd db 15 82 3d 0b 6a 5c 3d
       0.12598433 -0.10472274 0.06351825 0.053812068
0003c0 c1 39 13 be b8 66 01 be 06 d2 e0 bd 7c 4c 8a 3c
       -0.143775 -0.1263684 -0.10977559 0.016882174
0003d0 86 3f c5 bd 7f 35 fe 3c 8d e6 d5 3d 15 2d e2 3c
       -0.09631257 0.031031368 0.10444365 0.027609387

arch.arch.net.inception_block_1.branches.1.0.bias f4 [8]
000000 49 10 8e 3b fb dc be 3b 94 58 24 bc 59 dd 6c ba
       0.0043354374 0.005824683 -0.010030884 -0.0009035669
000010 77 ea 7a bc b8 19 ad bc 7b 62 c6 3b c7 70 c8 bb
       -0.01531469 -0.021130428 0.0060542203 -0.0061169597

arch.arch.net.inception_block_1.branches.1.1.weight f4 [8]
000000 b7 df 86 3f 47 24 87 3f 3c fa 83 3f 7f c2 84 3f
       1.0537022 1.0557946 1.031074 1.0371855
000010 21 79 7f 3f 67 8b 8c 3f a9 8e 8d 3f 82 18 7f 3f
       0.99794203 1.0980042 1.1059161 0.9964677

arch.arch.net.inception_block_1.branches.1.1.bias f4 [8]
000000 c3 ad 5c bd 42 65 81 bd 19 a7 a6 bc a4 a8 6d bd
       -0.05387665 -0.063181415 -0.02034335 -0.058022156
000010 8a 89 8a bd 4b 51 0f be 3c d1 cf bd d9 94 84 bd
       -0.06764515 -0.13995855 -0.1014733 -0.06473703

arch.arch.net.inception_block_1.branches.1.1.running_mean f4 [8]
000000 f4 18 52 c1 a3 98 e1 c0 2b df 86 bf e3 7a d5 c0
       -13.131092 -7.0498824 -1.0536855 -6.671251
000010 24 cd 31 c1 67 39 17 c1 df 1e 55 c0 cc ed ea c0
       -11.112583 -9.451514 -3.3300092 -7.341528

arch.arch.net.inception_block_1.branches.1.1.running_var f4 [8]
000000 0b ea 6b 44 91 27 e3 43 d6 70 9c 42 7e f5 e0 43
       943.6569 454.3091 78.22038 449.9179
000010 95 a6 30 44 0f aa 2d 44 43 5a f4 42 e4 9c a1 43
       706.60284 694.65717 122.17629 323.2257

arch.arch.net.inception_block_1.branches.1.4.weight f4 [16, 1, 16, 1]
000000 6f 68 89 bd 33 ec f1 bd ea 7c fd 3c 82 e3 e4 bd
       -0.06709372 -0.118126296 0.030943353 -0.11176206
000010 4f c0 04 3e fc 5c 2e bd f1 b4 4f bd 0f f8 c9 bd
       0.12963985 -0.042569146 -0.05070967 -0.098617665
000020 22 a0 26 3e 56 4a 8b bd 78 28 ac 3d 16 3c ef 3c
       0.16272023 -0.06801288 0.08406156 0.029203456
000030 28 2d fd 3d 9e 05 c0 3d df 97 25 bd c4 75 c0 bd
       0.123621285 0.093760714 -0.04042804 -0.09397462
000040 fa 9e 6a bd dc f4 25 3d f0 96 00 3e 54 24 e0 bd
       -0.057280518 0.04051672 0.12557578 -0.10944429
000050 81 d6 07 3e 72 68 43 3d de d0 8e bc aa 68 0a bd
       0.1326542 0.04770703 -0.01743358 -0.03379122
000060 06 15 18 be 48 b2 df 3d a0 99 db 3d 9b c3 58 bc
       -0.1485177 0.10922676 0.10722661 -0.01323023
000070 cb 40 db bd 77 a2 56 bd 79 86 fb bd b6 8e 85 bd
       -0.10705718 -0.052401032 -0.12281508 -0.065213606
000080 aa 78 3a be a1 03 c2 bd 86 fa 16 be 18 fa d9 bc
       -0.18210092 -0.094733484 -0.14744005 -0.026608512
000090 9a 9b 39 3d 82 63 eb bd 85 dc 83 3d fe 6e d8 3d
       0.04531441 -0.11493589 0.06438545 0.10568045
0000a0 93 73 f1 bd 20 9e 15 3e 80 bb 58 3d f6 0c 9e bb
       -0.11789622 0.14611101 0.05291319 -0.0048233224
0000b0 a5 a8 88 bd 8d 1e 2a bc f1 77 37 3d e1 0c 4a bd
       -0.066727914 -0.01038326 0.04479212 -0.04932869
0000c0 e3 8c 46 bd 49 1c 12 be 4a d9 ac 3d 48 bb 0c 3e
       -0.048474204 -0.14268602 0.08439882 0.13743317
0000d0 2b 76 be 3d b7 1a 05 3c ce bc 90 3d 1a e5 04 be
       0.092998825 0.008124045 0.07067262 -0.1297802
0000e0 07 f8 ed 3d fb 0d a6 bd f5 a4 bb bd ce 49 be 3b
       0.11619573 -0.08108135 -0.091623224 0.005807138
0000f0 39 1f 29 3c 9d 5f 22 3b 7f b3 22 3d 76 93 aa 3d
       0.0103223855 0.0024776228 0.039721962 0.08328907
000100 c8 a5 f1 bd 36 23 46 3d d2 9a e9 3d 15 73 af 3d
       -0.117991984 0.048373424 0.11406483 0.08566872
000110 d5 a0 01 be 70 ec a3 3d 71 4d 81 3d 91 51 dc bd
       -0.12659009 0.08004081 0.06313599 -0.10757745
000120 40 34 b6 bc 46 e1 4c bc 45 f6 56 bc 82 e7 b8 3d
       -0.022241712 -0.012504881 -0.013120239 0.090285316
000130 92 ba 23 be 94 57 63 bd 5a 24 17 be 2e 21 00 3d
       -0.1598914 -0.055503443 -0.14759961 0.031281643
000140 9c c6 97 bd f2 95 a5 bd c5 4f fa bc 21 52 ab 3d
       -0.074109286 -0.080852404 -0.030555615 0.08365274
000150 96 b2 cb bd c9 61 6c 3d 52 81 d7 3d b6 b8 7e 3d
       -0.09946172 0.057710443 0.10522713 0.062187873
000160 92 e0 e7 3d 0d 82 07 3e 5b 2a d8 3c 89 96 56 3d
       0.1132213 0.13233204 0.026387384 0.052389655
000170 32 19 40 3c d3 cf 5a bd 2b 22 5a bc f8 c4 61 bd
       0.011724757 -0.053420853 -0.01331381 -0.055119485
000180 10 ee fb bc c7 5f 82 bd f4 9b c5 bd 45 9e e4 3d
       -0.030753165 -0.06365924 -0.09648886 0.11163
000190 47 87 d5 3c 43 c7 ed bd 8b e6 e2 39 c8 60 0d be
       0.026065482 -0.11610272 0.00043277847 -0.1380645
0001a0 67 a4 5e 3d 8e bd 6b 3d 43 a0 a6 3d 09 e6 01 be
       0.054356005 0.05755382 0.08136036 -0.12685408
0001b0 30 f3 89 bb 46 27 6b 3d 71 c4 15 be 30 e5 c8 bc
       -0.0042098984 0.0574105 -0.14625718 -0.024523348
0001c0 59 a3 c1 bd fa 13 a1 3a 16 52 bd 3d 36 cc 13 bd
       -0.09454984 0.0012289279 0.09244172 -0.036083423
0001d0 8a 2a 06 bd 4d 4c 49 bd c8 5d 44 bc ac b6 fd 3d
       -0.032755412 -0.04914503 -0.01198525 0.123883575
0001e0 4a 35 20 be 78 fe 56 bd b8 39 9d 3d a4 c4 e8 bd
       -0.15645328 -0.052488774 0.076770246 -0.11365631
0001f0 b7 b2 02 3e e0 e3 a9 bd 2b ff b6 bc f8 ba 29 bd
       0.12763487 -0.08295417 -0.02233847 -0.041438073
000200 3d 35 a3 3d 2a 64 a2 bd 47 26 53 bd 98 08 c4 bb
       0.07969139 -0.07929261 -0.051550176 -0.00598247
000210 70 be 63 3d 2d 11 5f 3c 6e 70 24 3d 48 49 da bd
       0.055601537 0.013614935 0.040146284 -0.106585085
000220 6d b1 28 3e e1 03 ac bd fb c9 dd bc d7 1b 81 bd
       0.16473933 -0.08399177 -0.02707385 -0.06304138
000230 fd e1 04 3d 4a 91 0c bd a4 ac 54 3d f1 b3 81 bd
       0.03244208 -0.034318246 0.051922455 -0.06333149
000240 52 75 f3 3c d8 a7 02 be f9 1e 51 bd c8 2b 50 3c
       0.029719029 -0.1275934 -0.05105493 0.012705751
000250 c7 f8 b9 bd 64 cd 17 3e 1f b5 0b be ca f0 dd bd
       -0.09080654 0.14824444 -0.13643311 -0.108369425
000260 ab 27 1c be 7a 67 c2 3d 53 be df bd 56 5f 64 bd
       -0.15249507 0.09492393 -0.10924973 -0.055754982
000270 1e 85 78 bc 13 c7 e5 bd 0b 11 58 bd a8 c3 f4 3d
       -0.015168456 -0.11219611 -0.05275063 0.11951381
000280 35 9c 16 bd 20 dc c3 bd a6 10 e3 b8 f9 b1 53 bd
       -0.036770064 -0.0956347 -0.000108273045 -0.0516834
000290 77 f3 26 3e 56 e1 c6 3d 87 80 3a 3d 8d b0 df 3c
       0.16303812 0.09710948 0.04553273 0.027305866
0002a0 58 04 8b bd 8a 96 80 bd 8b 59 93 3d 50 6e cd bd
       -0.06787938 -0.06278713 0.07194813 -0.10030806
0002b0 3e a0 0d bd 6e f4 22 3e dd ae 7b 3d f0 4d 13 3d
       -0.034576647 0.15913555 0.06144606 0.035963
0002c0 ed 3b af bd de 30 3f bd d4 1e 35 3d 5e 05 0e bd
       -0.08556352 -0.046677463 0.044218853 -0.034673087
0002d0 d6 3d 0d bd 3b c6 59 bd 44 be b0 3d 85 da 0b 3e
       -0.0344828 -0.053167563 0.0863004 0.13657577
0002e0 1a 9e 55 3d c7 11 0a be e1 5f d1 3d b8 22 6a bc
       0.05215273 -0.13483344 0.102233656 -0.014290504
0002f0 70 ac 43 3c 73 da 9f 3d b8 74 94 bd 27 3e 3e bd
       0.011942968 0.07805338 -0.07248825 -0.04644599
000300 d4 ef c5 bd d6 ad 91 3d 71 0a 85 bd cd 62 e7 bc
       -0.09664884 0.07113235 -0.06496132 -0.028245354
000310 a7 66 84 3d 8d 81 8a bc 71 d7 9d bd 36 52 0c be
       0.06464892 -0.016907478 -0.07707108 -0.13703236
000320 3f f2 ec bc 3e 3a e7 bd c1 78 00 3e 0d 8b 28 b7
       -0.028924106 -0.11290406 0.12546064 -1.0045956e-05
000330 81 b3 6a 3d 2a 9e e7 bd 1a 7e cb 3d b9 d2 ec bd
       0.057300095 -0.11309464 0.09936161 -0.1156363
000340 eb de f4 3b 17 0a b6 3d 7a 5b 33 bc b5 d2 c6 bd
       0.007472863 0.08888643 -0.010947103 -0.09708158
000350 16 14 8a bd 40 08 0f be 18 44 c7 3c 90 4c f2 3d
       -0.06742112 -0.13967991 0.024324462 0.118310094
000360 f7 b0 00 be 7a 3c 33 bd 6c 9d 31 3d ef 57 51 bd
       -0.12567507 -0.043758847 0.04336302 -0.05110925
000370 cd 88 a4 3d 6d 45 2e 3e 5f aa ee bd d9 44 1f bd
       0.08033905 0.17018671 -0.116535895 -0.038884018
000380 b3 6b ba 3d 6e 9e ba 3d 06 45 eb bc ac b5 a2 3d
       0.09102573 0.09112249 -0.028719436 0.079448074
000390 51 5c 58 3d 73 7c 6f bd 10 0a 0b be de 59 d8 3d
       0.052822415 -0.058468293 -0.13578057 0.10564016
0003a0 5a 3e bc 3d a2 d3 3b 3d ab 98 9d bd dc 0b 0b bd
       0.0919158 0.045856126 -0.07695135 -0.033946857
0003b0 61 64 2b 3e a6 6c 87 b9 dc d9 1b bc 08 4c 0c 3d
       0.1673751 -0.00025830156 -0.009512391 0.034252197
0003c0 d7 98 2c 3e 4c 5d b0 bd 4a 64 1a 3e 0c e1 bd 3d
       0.16855179 -0.08611545 0.1507732 0.0927144
0003d0 a8 db 5c 3d 8e b6 4a bc 0c a4 f3 3d 6a fa b8 3d
       0.053920418 -0.012372626 0.11896524 0.09032138
0003e0 8d 68 90 bd 98 b2 e9 3d a2 78 b3 bd e2 10 0c 3e
       -0.070511915 0.11411017 -0.08763243 0.13678315
0003f0 ce d5 0d be 0f 38 a2 3d 6c cf ba bd 3d c5 cc bd
       -0.13851091 0.079208486 -0.09121594 -0.09998558

arch.arch.net.inception_block_1.branches.1.5.weight f4 [16]
000000 70 cd 79 3f 76 05 7b 3f 56 3c 72 3f d4 24 83 3f
       0.975791 0.9805521 0.94623315 1.0245614
000010 2e 78 76 3f 8a 13 7c 3f 6c 19 7b 3f 24 6b 77 3f
       0.9627713 0.98467314 0.98085666 0.9664786
000020 ff b9 7f 3f 52 1c 6d 3f a9 30 82 3f 18 07 82 3f
       0.9989318 0.9262134 1.01711 1.0158415
000030 d5 3e 77 3f c6 7e 81 3f 63 f4 77 3f 5e 45 7d 3f
       0.9658025 1.0116813 0.9685728 0.9893397

arch.arch.net.inception_block_1.branches.1.5.bias f4 [16]
000000 f5 08 e1 3b ca 7b 09 bd 58 0d c6 3c f6 18 27 bd
       0.006867523 -0.03356532 0.024176285 -0.04079529
000010 59 f3 57 3b 80 30 25 bc 07 4a ad 3c 2b dd 49 3d
       0.0032951443 -0.010082364 0.021153463 0.049283188
000020 df 26 21 3c 12 ad cc bc 68 83 36 bd c9 eb d0 bc
       0.009835928 -0.02498487 -0.044558913 -0.025503056
000030 f5 5e 16 bd 9f fb 83 3d 32 ce 38 bc fd 69 2e bc
       -0.03671165 0.06444477 -0.01127963 -0.010645387

arch.arch.net.inception_block_1.branches.1.5.running_mean f4 [16]
000000 bf 53 3b 39 b2 00 c3 bc ee 82 d8 bc b3 a1 90 3b
       0.00017864908 -0.023804042 -0.02642962 0.0044138073
000010 11 a4 80 bc f4 f9 0e 3d ca a3 fc bc 07 a0 ca bc
       -0.015703233 0.034906343 -0.03083982 -0.02473451
000020 5c b6 58 bc 9f 36 3c bd a9 48 fb 3b 70 15 d7 b9
       -0.013227072 -0.04595053 0.007668574 -0.00041023968
000030 a5 e4 ff bc 09 2e 05 bc b3 46 25 3d 7f 20 c1 3c
       -0.031236956 -0.008128651 0.040350627 0.023575066

arch.arch.net.inception_block_1.branches.1.5.running_var f4 [16]
000000 d8 68 7a 3c f7 73 72 3c b3 40 13 3d 7e e4 b4 3c
       0.015283786 0.014798156 0.035950374 0.02208161
000010 d1 92 60 3d fa 07 2c 3d c6 b6 f8 3c 87 c7 ac 3c
       0.054827515 0.041999795 0.03036059 0.021091236
000020 89 79 db 3b d2 c4 1f 3d 74 44 3d 3c 13 55 de 3b
       0.0066978377 0.03900606 0.011551965 0.006785044
000030 35 bd 19 3d 3f e3 09 3d 29 32 b6 3c 12 0a 5a 3d
       0.037533958 0.033663984 0.022240715 0.05323226

arch.arch.net.inception_block_1.branches.2.0.weight f4 [8, 1, 1, 15]
000000 19 c1 0a be e3 ee 11 3e 84 4d 15 3e 32 7a 2c 3d
       -0.13550223 0.14251284 0.14580351 0.042108722
000010 2c 40 33 be 7d 6b 2e be 9c 5c 5a 3e 3b a3 41 3d
       -0.17504948 -0.17033191 0.2132439 0.04727481
000020 c5 9e 58 3c 06 2e 3a bd bf e7 81 3d 41 80 aa bd
       0.013221447 -0.045454048 0.0634303 -0.08325244
000030 a0 77 42 3e f2 5d 04 3e 40 28 2c be 31 a9 fc 3d
       0.18990946 0.12926462 -0.16812229 0.12336958
000040 37 78 24 be 67 da cc 3b 32 67 42 be fa 9c 53 3e
       -0.16061483 0.0062516215 -0.18984678 0.2066535
000050 91 93 b0 bc 92 18 08 be ce 02 52 3d 91 fc 12 3e
       -0.02155474 -0.13290623 0.051272206 0.14354159
000060 f0 f0 a8 bc d4 f5 e4 bc 99 ba 1b 3e 70 64 3f 3d
       -0.0206227 -0.027949251 0.152079 0.046726644
000070 b9 4c 6d 3e 5a ea 88 bd 83 7e 15 be 6e 13 bf 3d
       0.23173799 -0.06685324 -0.14599042 0.09329878
000080 69 e2 01 be 52 0e f1 ba ec e0 14 be 9d 4a c4 3c
       -0.12684025 -0.0018391109 -0.14538926 0.02396136
000090 a5 fe 92 bd 3b e5 0c 3c 1c e8 3f bd 96 c9 47 be
       -0.07177476 0.008599575 -0.046852216 -0.19510493
0000a0 c4 11 dd bd 86 10 ea 3d e9 36 2e 3e 86 e3 2f 3e
       -0.10794404 0.11428933 0.17013134 0.17176637
0000b0 ff f0 06 3e 1f 46 1d 3e 6b 15 2f 3e 89 42 52 be
       0.1317787 0.1535878 0.17098014 -0.20533194
0000c0 6e a1 13 bd f3 e4 44 be fa 66 17 3e 59 f5 be 3c
       -0.036042623 -0.19227962 0.14785376 0.02331035
0000d0 b2 69 dd bd 17 62 c8 bd 19 f0 28 be a2 48 1e be
       -0.108111754 -0.09784334 -0.1649784 -0.15457395
0000e0 6a 48 09 3d 79 6e e7 3d 53 ea 3a 3d 77 03 5a be
       0.033516325 0.11300368 0.045633625 -0.21290384
0000f0 7d 42 c5 3d 4a 03 48 be 37 32 42 3e 8f a9 2f 3e
       0.09631822 -0.19532505 0.18964468 0.17154525
000100 b3 b2 ff 3c 2e 30 3c be 09 a5 fe bd ba 16 93 bd
       0.03121314 -0.18377754 -0.12433822 -0.07182069
000110 00 11 c2 bc 80 de 25 be 7f 48 fb 3d 1e bc b3 3d
       -0.023689747 -0.16198158 0.12269687 0.08776115
000120 63 ef 8f bd 78 a8 47 3e 6a c2 10 be 14 10 df 3d
       -0.07028081 0.1949786 -0.14136663 0.108917385
000130 0c 8f ba bd 7b e7 14 bd 11 2d 2c 3e 58 54 ec bd
       -0.09109315 -0.03635357 0.16814066 -0.11539525
000140 ca ff cc 3d 93 e8 8a bd b5 42 13 3e 3a e0 30 3e
       0.100097254 -0.06782641 0.14380915 0.17273036
000150 45 fb ef 3d 66 1d 0b 3d 58 f7 29 be 10 9c 58 bc
       0.11717848 0.033963583 -0.1659826 -0.013220802
000160 6b 86 ed 3c ac 1f 1e be 0d 46 29 3e a6 05 2f be
       0.02899476 -0.1544177 0.16530629 -0.17091998
000170 4d b3 08 be 94 d7 68 bd b4 9d 3f 3c 2b 6b 2d 3e
       -0.13349648 -0.056846216 0.011695314 0.16935413
000180 4f a4 39 3c 30 de 46 3d 3b 25 22 3e 5d 9f c0 3d
       0.011330678 0.04855174 0.15834515 0.09405396
000190 d9 00 0d be e8 de 11 bd f5 9c 15 be 22 f4 2b be
       -0.13769855 -0.03561297 -0.14610656 -0.16792348
0001a0 3a 92 15 3e ee f9 17 3e 80 3b cc bc e9 cd 12 bc
       0.14606562 0.14841434 -0.024930716 -0.008960226
0001b0 b5 bc ef 3d f3 8f 7b bd 2a d3 b1 bd 20 4f 5b 3d
       0.11705915 -0.061416578 -0.086828545 0.053542256
0001c0 50 a9 33 3e 46 93 58 bd b5 e9 13 3e 42 75 4b bd
       0.17545056 -0.052874826 0.14444621 -0.049672373
0001d0 84 d8 0e be 04 60 6b bd 05 c8 53 be ec 7c 58 3d
       -0.13949782 -0.057464615 -0.2068177 0.05285351

arch.arch.net.inception_block_1.branches.2.0.bias f4 [8]
000000 e5 29 32 3c 53 99 8f ba aa 5e f2 3b c4 b0 a5 3b
       0.010874246 -0.0010955728 0.0073965387 0.0050564725
000010 85 5e 8c ba ce 2f 97 3b 4b 77 36 3c 71 84 30 3b
       -0.0010709321 0.004613853 0.01113684 0.002693441

arch.arch.net.inception_block_1.branches.2.1.weight f4 [8]
000000 9d 09 86 3f 7b d2 6a 3f ab a2 7e 3f c8 c0 8a 3f
       1.0471684 0.9172742 0.9946696 1.0840082
000010 6b e4 84 3f 59 a6 84 3f 47 46 82 3f e2 12 8d 3f
       1.0382208 1.0363265 1.0177697 1.1021388

arch.arch.net.inception_block_1.branches.2.1.bias f4 [8]
000000 c8 7d 14 3d ed 38 b0 3c 6d 2d 0f bd 43 59 c9 bd
       0.036252767 0.02151152 -0.03495543 -0.098314784
000010 46 1c 4d bd a2 b5 9f bc 96 53 40 bd e5 ba 47 bd
       -0.05007579 -0.019495789 -0.046954714 -0.04876222

arch.arch.net.inception_block_1.branches.2.1.running_mean f4 [8]
000000 ea 0b 33 40 e4 f8 90 40 b9 35 de bf 88 ac ce c0
       2.7976022 4.530382 -1.7360145 -6.458561
000010 1d e4 89 bf b1 48 46 40 5e 40 0a bf 00 87 82 3d
       -1.077274 3.0981867 -0.54004467 0.063734055

arch.arch.net.inception_block_1.branches.2.1.running_var f4 [8]
000000 fd a7 b0 42 6d 91 3a 43 ee ae 4b 43 1c c9 ab 43
       88.3281 186.56807 203.68332 343.57117
000010 69 eb 80 42 34 1f ff 42 1c 53 75 42 f9 a2 a3 42
       64.459785 127.56094 61.33116 81.818306

arch.arch.net.inception_block_1.branches.2.4.weight f4 [16, 1, 16, 1]
000000 58 b1 4d 3d 54 90 c9 3d d6 54 74 3d fe f8 1f bd
       0.050217956 0.098419815 0.05965122 -0.039055817
000010 ab 2a 59 bd 68 3a 07 3c 10 98 d4 bd b1 0c 6a bd
       -0.053019207 0.008253671 -0.10380566 -0.05714101
000020 7f d4 87 3d 6f 41 43 3c 49 bd dd 3d 86 26 62 ba
       0.06632327 0.011917456 0.10827119 -0.0008626956
000030 3c eb 07 be 28 88 c0 bd 19 ae 2a 3e 73 f7 cc bd
       -0.13273329 -0.0940097 0.16667975 -0.10008135
000040 75 f7 01 be fa 68 71 3d 12 3c e6 bd 27 6a 61 bd
       -0.12692054 0.058938004 -0.11241926 -0.055032875
000050 6d 8e 38 bd 45 48 ed 3d 95 96 0c bd 8c c4 f2 3d
       -0.045057703 0.1158605 -0.034323294 0.118538946
000060 45 99 87 3d 1c 57 db 3d 2e e2 d9 bd 40 6d c6 3d
       0.06621031 0.10709974 -0.106388435 0.096888065
000070 3b 91 8f 3d fd e6 84 3d 7d 0f 18 3d 7b e0 cd bd
       0.070101224 0.0648937 0.037124146 -0.10052582
000080 b4 05 68 bc cb 5a 3d 3d b3 43 eb bc 13 a8 d6 3d
       -0.014161516 0.046229165 -0.028718805 0.10481276
000090 dd aa 11 be 7f 32 a0 3d bd 3c 80 3c bc ee da bd
       -0.14225335 0.07822131 0.015653962 -0.10690066
0000a0 9e 8e 5b 3d 21 55 bf 3d 67 a1 ef bc 42 42 d4 bc
       0.053602807 0.09342409 -0.029251767 -0.0259105
0000b0 de 42 e7 3d fc c1 4f 3e 52 c6 bf 3d 6d 80 34 bd
       0.11292051 0.20288843 0.093639985 -0.04406779
0000c0 27 5e 6f 3d 58 8c 20 bd 0f 45 92 bd 0d 3c 8d 3d
       0.0584394 -0.039196342 -0.07142078 0.068962194
0000d0 59 f7 97 bc 87 27 45 3e a4 d3 83 3d 5c f2 bc 3d
       -0.018550562 0.1925336 0.064368516 0.09225914
0000e0 71 42 5b bb 38 90 07 3d 88 90 c1 3d 77 ee fb bd
       -0.003345635 0.033096522 0.09451395 -0.12301343
0000f0 f2 87 c7 bc 10 c1 95 bc ef 22 84 3d 02 8b 06 be
       -0.024356816 -0.018280536 0.064519756 -0.13138965
000100 08 7a f1 3c a0 a2 54 bd 67 cf 99 3d 3a 50 c1 bc
       0.029477134 -0.051912904 0.07510262 -0.023597825
000110 91 c5 08 3e 72 9a 04 3e b9 b9 f0 bc f1 7a eb bd
       0.13356616 0.12949541 -0.029385434 -0.114980586
000120 85 85 b5 3c 5e f4 f5 3d ff 16 f7 3d 01 2d e9 bd
       0.022158394 0.120095 0.12064933 -0.11385537
000130 13 87 d4 bd ff 00 06 3e df 1d a0 bd f9 8a 0b 3d
       -0.10377326 0.13086317 -0.078181975 0.03406808
000140 ff 52 48 3d 02 eb 42 bd e0 a3 9e 3c a2 80 30 ba
       0.048907276 -0.047587402 0.019365251 -0.0006733035
000150 fb e5 08 3e 92 13 ed 3d 53 ac 2c 3d 58 18 01 be
       0.1336898 0.11575998 0.04215653 -0.12606943
000160 3b 7b 79 bd 49 b5 04 3e b1 af 08 be 45 db 84 3d
       -0.060908537 0.1295978 -0.13348271 0.06487135
000170 33 af 22 3e f5 ae d8 bd 66 6e b4 3d fc 3f 11 3c
       0.15887146 -0.105802454 0.08810119 0.008865353
000180 d9 88 32 bc 6d bf a5 3d 5a be ea 3d 10 a5 5c bd
       -0.010896885 0.08093152 0.11462088 -0.053868353
000190 d9 29 33 3e 8a bd cd 3d b3 8a 19 be 11 e8 e6 bc
       0.17496432 0.10045917 -0.14994316 -0.02818683
0001a0 84 92 93 bd f3 08 74 bd bb 53 08 bd 5f 4e b8 3d
       -0.0720568 -0.059578847 -0.033282977 0.08999323
0001b0 a6 9b b8 3d 1c 13 31 bc e9 21 0c be 6f f9 1a bd
       0.090140626 -0.010807779 -0.1368481 -0.037835535
0001c0 bf 8f 72 bc 00 2d be bd 6b 32 1a be 44 42 a7 3d
       -0.01480478 -0.09285927 -0.15058295 0.08166936
0001d0 fe b9 39 bd 5f f6 ca 3d 53 f5 61 3d f3 82 c1 3d
       -0.04534339 0.09910273 0.0551656 0.09448805
0001e0 e7 a7 44 bd 8d 12 7a bd 26 f8 6e bd a0 bf 15 3c
       -0.048011687 -0.061052848 -0.05834212 0.009139925
0001f0 e7 a4 c6 3c a8 dc 08 3e 67 51 16 be 3e 8b e7 bd
       0.024248553 0.13365424 -0.1467949 -0.11305855
000200 7d 8d 6e 3d f8 11 12 3d 3d 85 b1 bd a6 07 06 be
       0.058240402 0.035661668 -0.08667991 -0.13088855
000210 0d 93 c6 3d b2 c8 88 3c d4 12 08 bb 57 9f 0c bc
       0.096960165 0.016697261 -0.0020763176 -0.008582911
000220 51 fe e1 3d 95 cd 2a be bb 5f e5 bd 0b 65 4c 3d
       0.11034835 -0.16679986 -0.111999 0.04990105
000230 99 0e ec bd 3a c7 06 3e e0 95 da bc 4e b7 31 3e
       -0.11526222 0.13161936 -0.026682794 0.17355081
000240 92 07 09 3e 38 22 4f bc 28 fc 54 bd 9b c1 b7 3d
       0.13381794 -0.012642436 -0.051998287 0.08972474
000250 2c 9d f3 3d 98 9b 97 3d 22 69 cb b9 95 c5 ad 3c
       0.118952125 0.07402724 -0.00038797507 0.021212379
000260 aa 8d 93 bd 78 61 89 bd 44 2b 03 be f3 9a a2 3d
       -0.07204755 -0.06708044 -0.12809473 0.079397105
000270 60 32 69 3d 7c ed c9 3d c7 f9 2e bd 39 4d 1f 3d
       0.056932807 0.0985975 -0.042718675 0.038892005
000280 6f 4e 98 3c d9 56 72 3d 76 89 26 3d 67 21 87 bb
       0.018592088 0.059164856 0.040658437 -0.004123855
000290 81 32 11 be 49 0c 2a bd 0c cb 53 3d 47 33 f8 3d
       -0.14179422 -0.041515622 0.051707312 0.121191554
0002a0 8d 29 b0 bc ef c0 d6 3b 82 2c 03 3e 4f c9 19 bd
       -0.021504188 0.006553761 0.12809947 -0.0375455
0002b0 db 90 3a bd 35 93 48 bd 6e dc 1b 3d c8 86 fb bd
       -0.0455483 -0.048968513 0.038052015 -0.12281567
0002c0 03 1e 78 bd 46 e4 1c be 39 bb 0c 3d 01 d5 b4 3c
       -0.060575496 -0.15321454 0.034358237 0.022074224
0002d0 31 26 06 be 44 13 b5 3d 3b 28 e9 bc ed 31 48 bc
       -0.13100506 0.08841565 -0.028461566 -0.0122189345
0002e0 95 60 b8 bd 34 11 f9 3d 95 73 8c 3d 0e 78 a7 bc
       -0.090027966 0.12161484 0.06857983 -0.020442989
0002f0 7a 4d df 3d 24 a1 fb 3d cb 52 ba 3d 88 02 b5 bd
       0.10903449 0.122865945 0.09097823 -0.088383734
000300 17 b8 0f 3d 51 31 81 3c 3e ca e1 3d 34 5e 2d be
       0.03508767 0.015770586 0.11024903 -0.16930467
000310 40 4e ce 3d a2 77 93 bd 45 05 0d be a8 56 83 bd
       0.10073519 -0.072005525 -0.13771541 -0.06413013
000320 98 3e da 3c f8 f6 07 3e 6c ee 3a bd c9 bf c7 bd
       0.026641175 0.13277805 -0.045637533 -0.09753377
000330 80 0c 1c 3e e1 a3 a9 bc 19 62 8d 3d fa 27 80 bd
       0.15239143 -0.020708026 0.06903476 -0.06257625
000340 a7 a4 58 bd 30 7c c0 3d da 92 33 bd 86 bf 7b bc
       -0.0528914 0.09398687 -0.04384122 -0.015365487
000350 5e f0 00 3e 1f 73 22 bd c3 47 cb 3c 7d 7d 4f bd
       0.12591693 -0.03966057 0.024814492 -0.050656784
000360 14 c8 2d 3b 62 02 89 bd e2 3f 83 3d 24 17 20 3e
       0.002651696 -0.066899076 0.06408669 0.15633827
000370 ea 22 9b 3d 8e 96 44 bd ee 2b dc bd 40 b0 89 bd
       0.07575019 -0.047995143 -0.107505664 -0.0672307
000380 c5 ff 34 3d d9 7d 7a bd 98 d8 86 bd 8e b4 70 3c
       0.044189233 -0.061155174 -0.06584281 0.014691485
000390 dd dc db bd 4e 2b 3d 3d bd 27 10 3e 47 93 f4 3d
       -0.10735486 0.046183877 0.14077659 0.119421534
0003a0 10 e4 e7 bd 40 34 05 be 39 61 17 be b6 38 4c bd
       -0.11322796 -0.13008213 -0.14783181 -0.04985877
0003b0 66 05 23 3e b0 9d 33 bd 9b 13 a3 3d 99 28 a2 bd
       0.15920028 -0.043851554 0.07962724 -0.079179
0003c0 f3 cc 6e bd 3d 4c ee bd ba 21 ec bd 6f 73 87 3d
       -0.058300924 -0.11635635 -0.1152987 0.06613814
0003d0 23 02 19 bd 98 f9 1f 3e 26 c3 a7 3c 7c 86 b3 bd
       -0.037355553 0.15622556 0.020478796 -0.08765885
0003e0 0a b8 94 3d fb 05 61 bd 0b a8 3c bd ce 6a ee 3d
       0.07261665 -0.054937344 -0.046058696 0.11641465
0003f0 8e e3 de bd 5c a9 6a 3d 12 66 cd 3a a9 51 0a be
       -0.10883246 0.05729042 0.0015670678 -0.13507713

arch.arch.net.inception_block_1.branches.2.5.weight f4 [16]
000000 d6 56 82 3f b1 8a 7d 3f 24 a1 76 3f 6d b2 75 3f
       1.018275 0.9903975 0.9633963 0.9597538
000010 9f ca 7a 3f 64 b2 72 3f c4 9f 81 3f 4a 31 79 3f
       0.97965425 0.9480345 1.0126882 0.97340834
000020 e6 8e 82 3f b1 ec 7c 3f e0 64 78 3f cc 50 80 3f
       1.0199859 0.9879866 0.97028923 1.0024657
000030 a4 7c 7d 3f f0 4d 84 3f ca 72 83 3f 99 ae 81 3f
       0.9901831 1.0336285 1.0269406 1.0131408

arch.arch.net.inception_block_1.branches.2.5.bias f4 [16]
000000 87 51 e3 3c 69 5c 8b bc 99 d8 93 bb 74 08 bc bc
       0.027748836 -0.017011838 -0.0045119044 -0.02295325
000010 9d 58 bf bb 56 11 b9 bc 8c 74 04 bd af 4d fd 3c
       -0.005839421 -0.022591274 -0.03233771 0.030920831
000020 a1 14 08 3d de e8 66 bc 5d c2 e9 bc 04 20 88 3c
       0.0332228 -0.014093606 -0.028535062 0.016616829
000030 8f a8 07 bc ba b7 0a bd 92 9e 50 3b 79 ac 69 38
       -0.008279934 -0.03386662 0.0031832797 5.5712157e-05

arch.arch.net.inception_block_1.branches.2.5.running_mean f4 [16]
000000 5e 29 12 bc b9 93 1d bd 62 df 4a bc 7c f5 10 3d
       -0.0089209955 -0.038470957 -0.01238236 0.035390362
000010 02 09 b9 3c af eb ef 3c 09 1d 7b bb 57 a8 6e bc
       0.022587303 0.029287187 -0.0038316867 -0.0145665025
000020 3e 69 71 ba f4 ca 03 3d 08 75 1d 3c ab 81 38 bc
       -0.0009209103 0.032175973 0.009610422 -0.011261384
000030 91 77 a6 bb 69 8d a7 3b cd 44 de bb 53 28 a9 bc
       -0.0050801714 0.005113293 -0.006783104 -0.02064911

arch.arch.net.inception_block_1.branches.2.5.running_var f4 [16]
000000 a5 17 38 3d 49 0c 90 3d 5d 54 77 3d a2 01 c7 3d
       0.044944424 0.07033593 0.06038319 0.09717108
000010 15 93 2f 3d e1 49 55 3d 5e 46 91 3c 36 ed ab 3c
       0.042864878 0.05207241 0.017733749 0.020987134
000020 39 96 59 3d 5e d7 3b 3d 8f a9 17 3d d7 f5 10 3d
       0.05312178 0.045859687 0.037026938 0.0353907
000030 df 6c 52 3d cd 59 f6 3c e7 56 4a 3d fc 9f 3f 3d
       0.05137336 0.030072117 0.049399283 0.046783432
