checkpoints/epoch=39-step=160.ckpt (torch, 259103 bytes, 103 tensors)

arch.conv.0.weight f4 [16, 16, 11]
00000000: 2c20 663d 0314 723d 4e82 bfbc 35e1 823d
00000010: 0911 a7bc d98f 473c d14b 21bd 6af0 293d
00000020: 8b63 823d 13e0 6dbd cdf9 7d3d 23c5 333c
00000030: e458 4e3d 90d8 9d3b 6155 fa3c 1816 9dbc
00000040: f694 413d da1c e3b9 a87f 3fbd 8f8d 113c
00000050: 08ec 31bd 59ef 8cbc a1e1 fbbc 5617 423d
00000060: 4bb4 81bd 5e93 1fbd 3558 dcbc 0c94 57bd
00000070: ee80 85ba 5367 a9bd 8ef5 783d 37e8 8fbd
00000080: 32da 563d 2aa5 8b3c 9f2e abbc 5861 463d
00000090: 0ce3 583c 222e 813d b5e8 293c 7ea0 b6bc
000000a0: 6a86 b23c 94ee 94bc 25e4 043d 6915 8b3d
000000b0: 617f 543d b9d1 c6bc ca2b 533d 3e62 ac3c
000000c0: 6000 3f3d 3ede 17bd 51f9 86bd 6823 a5bc
000000d0: 5aee 46bd 4a17 903d 105c f53c f41d 243d
000000e0: 887f 0f3d 2770 333c a6b0 8f3d 7e79 2fbd
000000f0: 644d 813c 79a0 27bd a747 0a3d c2fd 75bc
00000100: 71c3 083d d5ed babb c658 833d 4240 28bd
00000110: 66b2 20bd b9fe 23bd 0906 913d 56a4 de3c
00000120: 1190 973d f07c 79bd 6352 95bd a4a6 65bd
00000130: 7f92 40bd 808c fc3c 9273 e23c 9ae5 833d
00000140: a641 18bd 0d57 51bd 6637 1f3d b060 01bd
00000150: 07f4 373d c8a4 96bc 42c2 353d 0c62 65bd
00000160: 44b5 1cbd b397 b13c 2754 683c 3819 a1bc
00000170: 8256 353d 79a9 493d 858b 61bd 8b9f 1fbd
00000180: 7a71 903d 62fb b5bc 423c b7bc bd1a a8bd
00000190: 2b89 5bbd a817 f03b f47d 9fbc e015 80bd
000001a0: a1ca bfbb f32d 63bd d053 82bd 5a64 31bd
000001b0: 44ca 8cbd 7fc0 52bd f1fb 7a3d 9394 90b7
000001c0: ffa4 1b3c f71a a7bd 6213 70bd 0eba 08bd
000001d0: 57e9 923b 0667 96bd d570 2bbd a9f6 66bd
000001e0: 49d8 38bc d4c0 0abd eaba 19bc 1566 5dbd
000001f0: a5ba 5ebd 685c 3bbd e444 ddbc cd6b 80bd
00000200: 9796 6a3d 2fd5 bebc 694a 5f3d a29d 4a3c
00000210: 11ab 78bd 54b7 633d c095 92bc 74ea e8bc
00000220: 56a9 7fbd 8483 96bd 44ff af3c 57a8 9cbc
00000230: e688 d73c 7a7b 85bd 6857 543d 9126 52bd
00000240: 1ac8 28bc 299f 813c 7d2d 153d 5264 6f3d
00000250: 8a28 8b3d 3b2f 76bd ba78 973c 2c86 01bd
00000260: c448 bcbb e9d2 5fbd befe 913d 5c5c 60bd
00000270: 4cc4 193d 1cfd b13c ba33 a63c 9e2d 30bd
00000280: a86c 8a3d 0a5e 873c 3e30 483c 8692 81bd
00000290: 72ce 0a3d 558d a4bb 88b5 ebbc 9403 8e3d
000002a0: 081c a83c 3d21 1bbd 9a0a 0ebd e1cc 8eba
000002b0: 84b4 363d 903b 80bc 0372 22bd e450 babc
000002c0: d559 5bbd 50be eb3c acff 703d c4c4 91bd
000002d0: d265 943c aa0c 2a3d 6e05 8f3c f0ca bfbc
000002e0: 59eb 2c3d 7911 2d3d 4ecb f73c fa22 4bbc
000002f0: 01e1 9bbc 77d0 113c 03cc 55bc 4458 c0bc
00000300: e8db 3c3d a704 7f3d fe62 1dbc c74e 96bc
00000310: b8f8 82b9 5416 c2bb 1d10 983c 3a18 b13c
00000320: ea00 8bbd 6a11 e1bc 80e7 803d 5690 e43c
00000330: 47e8 bebb a02e 42bd 9c28 43bd fb6a 8dbd
00000340: eec9 d6bc edf1 d03c 6ad6 443d 9bc3 0f3d
00000350: 2f73 87bd 515c 39bd 58ac 4dbc b7b4 923d
00000360: 5054 1c3c ec5a a9bc 83f1 f53c 0caf f5bc
00000370: 8be2 4bbd 428a 5c3d a917 0fbd 9654 77bc
00000380: 61b3 99bd f4fb 4b3d 2fe7 653d e0a4 d83c
00000390: 38fd 5abd 45f5 99bd 2d20 7fbd f9dd 563d
000003a0: 4256 043d fed4 753d fbaf 163d 4add 813c
000003b0: 4b3f 95bb b948 77bd 33f4 88bd 59d3 93bd
000003c0: c969 f53c 58e5 1fbd 779c 68bc 7b2c 2bbd
000003d0: 20e2 49bc c1b3 55bd 9cbb 48bd 2836 ca3c
000003e0: 5d63 b7bc 231a 433d 2c97 b4bc 1137 58bd
000003f0: acaa 37bc 840b fbbc d14c 89bc 9978 86bd
0.056183025 0.059101116 -0.023377564 0.06390611 -0.020393865 0.012180292 -0.039378945 0.041489042
0.063666426 -0.058075022 0.062005807 0.010972294 0.05037774 0.004817076 0.03055829 -0.019175574
0.0472612 -0.0004331831 -0.0467526 0.008883848 -0.043437988 -0.017203974 -0.030747237 0.047385536
-0.06333216 -0.0389589 -0.02689753 -0.052631423 -0.0010185519 -0.08271661 0.060781054 -0.07026713
0.05245418 0.01704653 -0.020896254 0.048432678 0.013237726 0.06307627 0.010370423 -0.022293326
0.02179261 -0.01818017 0.032444138 0.06791193 0.05187929 -0.024269925 0.051555432 0.02104294
0.046631217 -0.03707718 -0.06590522 -0.020158485 -0.048567154 0.07035692 0.029951125 0.040067628
0.035033733 0.010952032 0.07016115 -0.042840473 0.015783973 -0.040924523 0.03375974 -0.015014114
0.033389512 -0.0057046213 0.064134166 -0.041076906 -0.039232634 -0.040037844 0.07081229 0.02717797
0.07400525 -0.060910165 -0.07291105 -0.056067124 -0.04701471 0.030828714 0.027642999 0.064402774
-0.037171982 -0.05110841 0.03887119 -0.03158635 0.044910457 -0.01838912 0.04437471 -0.056001708
-0.038258806 0.021678781 0.01418022 -0.019665346 0.044271953 0.049233887 -0.055064697 -0.03897051
0.07052894 -0.022214595 -0.0223676 -0.08208225 -0.05359761 0.007327039 -0.019469239 -0.06254172
-0.0058530127 -0.055463742 -0.06363642 -0.043308593 -0.068745166 -0.05145311 0.061275426 -1.7235323e-05
0.009499787 -0.0815944 -0.058612235 -0.03338056 0.0044833827 -0.07343869 -0.041855652 -0.056387577
-0.011282035 -0.0338753 -0.009382943 -0.05405243 -0.054377217 -0.045742422 -0.027010389 -0.06270561
0.05727252 -0.023295013 0.054514322 0.012366684 -0.060710017 0.055594757 -0.017893672 -0.028432108
-0.06241735 -0.07349303 0.021484025 -0.01912324 0.026310395 -0.06517692 0.05184117 -0.05130631
-0.010301614 0.015822964 0.036420334 0.058445282 0.067948416 -0.060103636 0.018490184 -0.031622097
-0.005745979 -0.0546445 0.07128666 -0.05477558 0.03754072 0.021727137 0.020288337 -0.043012254
0.06759006 0.016524334 0.012218533 -0.06326775 0.033888288 -0.005021731 -0.028773084 0.06934276
0.020521179 -0.037873495 -0.03467808 -0.0010894799 0.044605747 -0.015653402 -0.03965951 -0.02274365
-0.053552467 0.028777272 0.058837578 -0.07117608 0.018114958 0.041515984 0.017458644 -0.023412198
0.042216633 0.04225299 0.03024831 -0.012398476 -0.019028189 0.0088998 -0.013049128 -0.023479588
0.046108156 0.062260296 -0.009606121 -0.01834811 -0.00024980842 -0.005923072 0.01856237 0.021617997
-0.06787284 -0.027474124 0.06294155 0.027900856 -0.0058260295 -0.047407746 -0.04764615 -0.069051705
-0.026219334 0.025505984 0.048056044 0.035098653 -0.066137664 -0.045254055 -0.012553297 0.07163375
0.009541586 -0.020673238 0.030022388 -0.029990695 -0.049776595 0.05384279 -0.034934673 -0.01509585
-0.07504917 0.049800828 0.056128677 0.026445806 -0.053464144 -0.075174846 -0.062286545 0.052457783
0.032308824 0.06001758 0.03678892 0.01585259 -0.0045546643 -0.060372088 -0.06687202 -0.07218046
0.029957669 -0.03903708 -0.01419746 -0.041790467 -0.012321979 -0.05217338 -0.049007043 0.024684027
-0.022386247 0.047632348 -0.02204474 -0.05278689 -0.011210125 -0.03064514 -0.016760262 -0.06565971

arch.conv.1.weight f4 [16]
00000000: 84c4 813f 5b83 803f 6e01 7e3f 4459 7d3f
00000010: 4759 7e3f c6d7 803f 0150 7e3f 658d 7f3f
00000020: c14a 803f 46fa 7f3f b9cb 7d3f ad27 7d3f
00000030: 5cb8 7c3f 631f 803f b4e9 7c3f fdef 803f
1.0138097 1.0040087 0.9922093 0.98964334 0.99354976 1.0065849 0.99340826 0.99825126
1.0022813 0.9999126 0.9913898 0.98888665 0.9871881 1.0009578 0.987941 1.0073239

arch.conv.1.bias f4 [16]
00000000: 2e92 ae3b 3a4c 21bb c111 d2bb ad1f 16bc
00000010: 8b67 13bc 42ea 923a 9e73 c5bb 6bc5 1bbb
00000020: ee95 90bb f6a2 86bb 3ef7 01bc 13d0 04bc
00000030: aadf ebbb 3476 fdbb 11b9 07bc 26ec 86bb
0.0053274846 -0.0024612085 -0.006410808 -0.0091628255 -0.008996855 0.001120873 -0.0060257455 -0.0023768793
-0.0044124043 -0.004108782 -0.007932482 -0.008106249 -0.0071982937 -0.007735038 -0.008283869 -0.0041175066

arch.conv.1.running_mean f4 [16]
00000000: 2482 1f3f e509 1a3f e20f 1d3d 19be 8c3e
00000010: 7029 fbbe 9d7f 183f ee40 f7be 82f8 91be
00000020: b46c 82bf ca3f cbbe d19c 7ebf 51f1 1cbf
00000030: 5196 6c3e 6b00 713d a418 c0be b23b a9be
0.62307954 0.6017135 0.038345225 0.27488783 -0.49055052 0.5956972 -0.48291725 -0.2850991
-1.0189424 -0.39697105 -0.9945803 -0.6130572 0.23104216 0.05883829 -0.375188 -0.33053356

arch.conv.1.running_var f4 [16]
00000000: e4fd b742 dcc6 a442 268a 5042 00dd ab42
00000010: 3ce8 6043 9550 2743 0813 b142 2843 4a42
00000020: c88b 3e43 cc0a 3743 fa4e b143 1c43 8e42
00000030: cd8a b742 53db 1943 1387 7342 81ce c143
91.99588 82.3884 52.13491 85.93164 224.90717 167.31477 88.53717 50.565582
190.54602 183.04218 354.617 71.13107 91.771095 153.85674 60.88191 387.6133

arch.conv.4.weight f4 [32, 16, 11]
00000000: 1725 793d ae60 ffbc 9d42 d2bc e36e 863d
00000010: 1164 193d 6c6e 0ebd 20bf fa3c 0296 3c3d
00000020: 0ccb 6fbd 1c07 b63c f3e7 ce3c 3933 0b3b
00000030: 2a41 9d3d a802 34bd 8284 433d 26f1 06bd
00000040: 93f8 6cbd e26e 6b3d d732 fabc 577d 0c3c
00000050: cf95 3a3d 640c 63bd 5755 8ebd 5355 933c
00000060: 928a 693d a005 87bc 8698 3c3d faad a53c
00000070: 50b7 743c 0877 61bd cc1d 843d 0031 dd3c
00000080: af04 643b 5657 3b3d 3dfc 93bd c968 103c
00000090: 0867 2ebd 6e94 6dbc c1cd 923c f31c e13c
000000a0: ea8b 4d3c 5008 81bd c48c 57bd d401 9cbb
000000b0: 3a1f 94bb fea4 62bd babd a53d 3834 7a3c
000000c0: 326f 45bd 9a51 193d 2bfd 173d d784 02bd
000000d0: 18db 2e3d a882 2ebd ae3b f73c f341 9f3d
000000e0: 6946 603d 6a83 2c3d 36b0 1ebc b97f a43c
000000f0: 3c72 043d 1e28 cc3c 55b5 09bc 45f5 893c
00000100: 1a3f cbbc c0ce 16bd faab 84bd b636 6cbd
00000110: a82d 36bd 27a5 963d 8781 833c 397b 88bd
00000120: 4bb8 13bd 9366 a73c 0e4f 9ebc 1f83 94bc
00000130: 27b6 cdbc 6351 24bc e796 813c 9bc5 373c
00000140: e19b 643d 8eff 643d 286f 913d 35e4 053c
00000150: f756 bbbc c557 2d3c 22f8 1fbd 4de7 2c3d
00000160: e729 0cbc 1c7a c4bc d68c 82bd d21d 163d
00000170: 5cb7 2c3d 25ca 8c3d bd51 d6bc faf8 c43c
00000180: dd20 8f3b 8c3e 3ebd ba96 39bd 3b6b 413d
00000190: d3fe 18bd 12a3 743d 6f20 033d 0647 073d
000001a0: c8a7 6e3d e91b 343d 66f8 1e3d c8e0 3b3d
000001b0: c8ed d8bc abf2 0dbd 4e00 82bc 6d1b 223d
000001c0: df64 4f3d e7d3 5d3d 1c14 c7bc 67ad 23bc
000001d0: 08ab 54bd 3688 3d3d 41f1 4fbd 149e 01bd
000001e0: 92da 803d 855d bc3c 8a50 dcbc ea12 39bd
000001f0: d2b4 3bbd 672f 883d 5d28 82bd 0f7e 903d
00000200: 9a66 873d 15be 383c 9565 a93a abaf 863d
00000210: 1a2d 073d 9290 913d ea83 793d eb99 4bbd
00000220: 9674 3a3d 1f37 163d bb7c 60bd 3b4b 0f3d
00000230: 7e7e 24bd 4569 3cbd 54b3 263a cf35 d8bb
00000240: 48d7 8ebc c173 3cbd 049e 343d 77d4 a03d
00000250: 72c4 3abc e8be 34bd 0386 383b 59a1 6fbd
00000260: a14c 5dbd 8533 98bc 02da 3f3d 8781 69bd
00000270: 43da 2fbc 0221 18bd b45b 88bd e58c 50bc
00000280: 6a3d 6d3a 74b5 f9bb 26e2 713d ca9f 073d
00000290: 1e41 4c3d 1714 173d ec01 7a3c 131d 453d
000002a0: a40d 29bd 6932 373d 2633 2b3d 5d34 d5bc
000002b0: f3d1 5e3b 9acb 50bd e34e 73bd c53b ee3b
000002c0: e6d6 a83c 5c84 13bc d2e0 003d 6480 4ebd
000002d0: 2cf7 0bbd a19e 743d af14 85bd 4cce a53c
000002e0: a7cf 893d 4bde 873d 59ef 133d a7f3 6dbd
000002f0: 3d01 9b3c 0db0 95bc 2b8a 48bc 8957 903d
00000300: 27b4 43bc a807 2bbd 8ea9 4bbd 67f7 6a3d
00000310: ffc3 583c 221c af3d fafe a23c 655f 89bd
00000320: c746 b23c 3986 963d 3230 583d a559 eb3c
00000330: 1dad 4fbd 26af 18bd bdf1 743d 9ac0 34bd
00000340: 00ef a33c be2b 1ebc 3be4 ca3c f415 ce3b
00000350: 8178 5dbd f4c1 dfbc 00da 883d a39d 073c
00000360: ecb6 123d 322d 25bd 422a 683d a0bd a9bc
00000370: efbf c3bc 47d5 713c eca9 ebbc 3bf9 02bd
00000380: b799 3cbc 7efc e5bb 107a 40bd 7630 b83c
00000390: 239d 98bd e5eb 363d c0ef 883d 288d ab3c
000003a0: 7d98 1dbc 89fe 77bd 5075 373d f3c1 923d
000003b0: ff3f 993d e8bb 8f3c bf57 143d 0b7b a93d
000003c0: 38b9 ad3c eaac d8bc 870c 9abd c809 fd3c
000003d0: 648a db3c 88bb 833d 5377 2bbd 30c8 dc3c
000003e0: f1e7 f3bc 14c4 abbc 3e6c 2e3d 79f8 90bd
000003f0: 0812 5a3d 0651 223d c4dd 24bd 25ea 2d3d
0.060826387 -0.03117403 -0.02566653 0.06564119 0.037448946 -0.034773275 0.030608714 0.046041496
-0.05854325 0.022220187 0.025257086 0.0021240248 0.07678445 -0.043947846 0.04773379 -0.03294482
-0.057854246 0.057478793 -0.03054182 0.008574805 0.045553025 -0.05543174 -0.06949871 0.017985022
0.057016917 -0.016482174 0.046043895 0.02022456 0.014936283 -0.055045158 0.06450996 0.027000904
0.003479283 0.045737587 -0.07225845 0.008814045 -0.042578727 -0.01450072 0.017920377 0.027479624
0.012545565 -0.063004136 -0.05262448 -0.00476096 -0.004520324 -0.05533313 0.08092828 0.015271239
-0.048201747 0.037431337 0.037106674 -0.031864967 0.042689413 -0.042605072 0.030179825 0.07776251
0.05475465 0.042117514 -0.009685567 0.020080434 0.032335505 0.024921473 -0.008405049 0.016840586
-0.024810363 -0.036818266 -0.064781144 -0.057669364 -0.044477135 0.07355719 0.016052974 -0.06664128
-0.036064427 0.020434653 -0.019324806 -0.01812893 -0.025111271 -0.01002917 0.015819026 0.011216546
0.05581272 0.05590778 0.071012795 0.008172085 -0.022868617 0.010580008 -0.039054997 0.042212773
-0.008554912 -0.023984008 -0.063745186 0.036649533 0.042167053 0.068744935 -0.026162023 0.024044503
0.0043679313 -0.046446368 -0.04530976 0.047221404 -0.037352394 0.05972583 0.032013353 0.033026718
0.058265477 0.04397193 0.03881111 0.045868665 -0.02648057 -0.034655254 -0.015869286 0.039576937
0.050633308 0.054157164 -0.024301581 -0.009990073 -0.05192092 0.04627248 -0.050767187 -0.031644896
0.06291689 0.022993812 -0.026893873 -0.045184053 -0.04582674 0.06649666 -0.06355355 0.07055294
0.066113666 0.011275788 0.001292395 0.06576475 0.033001997 0.07107653 0.06091682 -0.049707334
0.04552134 0.03667366 -0.054806452 0.034983855 -0.040159695 -0.04599883 0.00063591194 -0.0065982114
-0.017436638 -0.04600883 0.044096008 0.078530245 -0.011399375 -0.044127375 0.002815605 -0.058503482
-0.054028157 -0.018579254 0.046838768 -0.057008293 -0.01073319 -0.037140854 -0.06658116 -0.012728904
0.0009049984 -0.007620508 0.059053563 0.03311137 0.049866788 0.036884394 0.015259247 0.04812343
-0.041272774 0.04472581 0.041796826 -0.026025945 0.0033999651 -0.05097542 -0.059401404 0.0072703087
0.020610284 -0.009003725 0.031464405 -0.05041541 -0.03417127 0.059721593 -0.06498086 0.020239972
0.0672906 0.06634196 0.03611693 -0.058093693 0.018921489 -0.018272424 -0.012239973 0.07047946
-0.011944807 -0.04175535 -0.049722247 0.057364848 0.013230323 0.08550288 0.019896973 -0.06707648
0.021762265 0.0734982 0.052780338 0.02872927 -0.050702203 -0.03727641 0.059800852 -0.04412899
0.020011425 -0.009653984 0.024767032 0.006289238 -0.05407 -0.027314164 0.06682205 0.00827733
0.03581898 -0.040326305 0.056680925 -0.020720303 -0.023895232 0.014760322 -0.028767549 -0.031975966
-0.011511258 -0.007018625 -0.046991408 0.022484045 -0.074518465 0.04465856 0.06686354 0.020941332
-0.009618876 -0.060545478 0.044789612 0.07165899 0.074829094 0.017545655 0.036216494 0.08275422
0.021206483 -0.02644964 -0.07521921 0.030888453 0.026799388 0.06432253 -0.041861843 0.026950926
-0.029773684 -0.02096752 0.042583697 -0.070786424 0.053239852 0.03962805 -0.040250555 0.042459626

arch.conv.5.weight f4 [32]
00000000: 70c6 7f3f 9941 7f3f 0b08 803f a79c 803f
00000010: cc0e 803f fc6e 7f3f abd5 803f 708d 7f3f
00000020: c516 813f a48e 803f 75c5 7f3f b927 7e3f
00000030: 1eda 803f 095d 803f 7a8f 7d3f f644 7e3f
00000040: 4b6f 7e3f 9ee2 7e3f 3cec 803f cac9 7f3f
00000050: 6575 7e3f ed2b 813f 3328 813f a9f0 803f
00000060: bdb3 803f b13e 803f 6c64 803f 8c56 803f
00000070: 85b6 813f 2872 7d3f a101 7f3f 1527 813f
0.99912167 0.9970947 1.0002455 1.0047807 1.0004516 0.99778724 1.0065206 0.9982519
1.0085074 1.004353 0.9991067 0.9927936 1.0066564 1.0028392 0.9904705 0.99323976
0.9938857 0.9956454 1.0072093 0.9991728 0.9939788 1.009153 1.0090393 1.0073444
1.0054852 1.0019132 1.0030646 1.0026412 1.0133826 0.99002314 0.9961186 1.0090052

arch.conv.5.bias f4 [32]
00000000: cc5b 3d3a ed63 c93b 7e30 d53b 07d3 afb9
00000010: 3ca8 85ba 7b9c 06bc 38db faba 0ab2 0e3b
00000020: 6aab f33a dbe8 403b f54e 263c 815f 643b
00000030: b8e0 9bbb 06ed 86bb 2c12 513b 2564 a83a
00000040: 2675 41bb bb25 2fbb fc3f 6e3b 754e 123b
00000050: 67b7 663b 647f b1bb b079 1dbb 835b 323b
00000060: c369 5c3c f1c8 8d3b 645e 05bb 50a1 413a
00000070: c299 893b 70d9 8eba 19e7 5c3a a3ce ee3b
0.00072234566 0.0061459453 0.006506025 -0.0003353583 -0.0010197232 -0.008216019 -0.0019138819 0.00217736
0.0018590514 0.0029435668 0.010150661 0.0034846964 -0.004757013 -0.004117611 0.00319017 0.0012847228
-0.0029519289 -0.002672537 0.0036354056 0.0022324596 0.003520453 -0.0054167975 -0.002402883 0.002721519
0.01345295 0.0043269326 -0.002035045 0.0007386403 0.0041992376 -0.0010898542 0.000842677 0.0072878166

arch.conv.5.running_mean f4 [32]
00000000: 6a35 933e b424 8e3e 96c9 82be 40d2 b5be
00000010: aae5 bdbe ad74 42be c41e c63e 5ee5 2cbe
00000020: 47f2 a83e 9a2b 1cbf 4e58 23be 2bdc 24be
00000030: 920e 013f 6c78 0b3f cd40 f63d 8a1c ea3e
00000040: e6d0 653d 056d 993e 4c69 39bf 77e4 8dbe
00000050: 4941 093e e827 f33e bb62 d93e 06dc b9be
00000060: a530 a2be 10ee c2bd bf08 993e 8647 cc3d
00000070: fb36 04bf 951d 88be e0e1 723d 694d e1bd
0.2875169 0.27762377 -0.25544423 -0.3551197 -0.37089282 -0.18989821 0.38695347 -0.16884372
0.32997343 -0.6100403 -0.15951654 -0.16099612 0.5041286 0.54480624 0.120240785 0.457249
0.056107424 0.29965988 -0.72426295 -0.27713367 0.1340381 0.47491384 0.42458138 -0.36300677
-0.31677738 -0.09518063 0.29889485 0.099745795 -0.51646394 -0.2658507 0.059297442 -0.11001093

arch.conv.5.running_var f4 [32]
00000000: c4ab e83d 5502 1d3e b2f0 1e3e 155e be3d
00000010: 3b60 0e3e e1c9 da3d 00d5 1d3e a38c 163e
00000020: 3960 3c3e e187 683e 4a54 303e bd7a 063e
00000030: 6d0d 593e ca7d 603e 9cf3 023e db19 7d3e
00000040: fdc2 a73d 8d75 f03d 51c8 cf3e 2a61 6e3e
00000050: f04a 723e 636c 453e 5ddd 253e a1c7 743e
00000060: 39c1 ee3d 991c 263e 7d28 d83d f9a3 ed3d
00000070: 6f74 713e 49f7 123e c093 653e 6059 893e
0.11360887 0.15332921 0.15521505 0.092952885 0.13903897 0.106830366 0.15413284 0.14702086
0.18396081 0.22708084 0.17219654 0.13132758 0.21196528 0.21922985 0.12788242 0.24716894
0.08191488 0.11741171 0.40582517 0.23279253 0.23661399 0.19279628 0.16197725 0.23904277
0.11657948 0.16221847 0.105545975 0.11603541 0.23579572 0.14352144 0.22419643 0.26826

arch.transformer.1.attention.in_proj_weight f4 [96, 32]
00000000: eb77 493e a7d7 913d d5a6 cdbd 58e3 2c3d
00000010: 14eb c83b 936f 383e bb51 cb3d c46f 403e
00000020: 3c1b a53c cb88 2dbe a636 0cbe 2b7b 453e
00000030: 6252 4a3e 47bb 9d3d 8a06 18be e86d 213e
00000040: c4cc ab3d 6269 23be b195 643d f1dc 533e
00000050: 9f29 15be e79c 833c 8ccc 7e3d 9fb6 abbd
00000060: 3c76 053e c1d1 3d3e 6667 5f3e 3486 49be
00000070: 20c4 543b 565a 2e3e 32b4 3e3e c84d 7ebd
00000080: fad0 153e 5613 263e 3bee 91bc 6447 163e
00000090: 6655 043e ff29 05bd 4c2c b9bd f865 f5bd
000000a0: 811d 33be 92b1 fcbd 61aa 593d 11c7 903d
000000b0: 533a 89bd ba97 d9bc 90aa 0f3e ed6f 093d
000000c0: 9f55 1abe 2f1f 393e 73c2 063e 5fb9 aa3c
000000d0: 9cd9 d63d c071 3cbe eb35 023e fbe8 523d
000000e0: d706 b8bc f8ae 8ebd b10c 2f3e c6e0 393d
000000f0: 5614 fbbd e3a5 c63d d6c9 243d f318 9cbd
00000100: 6630 1a3e ec39 5d3e f64f 13bc 25ed b5bd
00000110: 417e f1bd 535b debd b1c9 ec3d f460 083e
00000120: e34c 0abe 616e eb3d 3f9f 183c f1d5 91bb
00000130: f986 8cbd 0754 4ebe c284 42be 81a2 223e
00000140: 10ff 0dbd 70c0 4bbc a2a2 03be ad8d 32bd
00000150: ebf7 a9bd 2050 983c d90f 53be c916 b33c
00000160: fa03 3dbe 5b33 1dbe bb67 9cbb 00fc c2bc
00000170: 6612 81bd c13b 023e d9d5 0d3c 1d14 3b3d
00000180: 2f3a c63d 89dc 7f3c e1dd 46be 720b aabd
00000190: baf3 0c3e 66b5 f73d 4bb8 973d c306 3e3e
000001a0: 1a81 e6bd be4c 59bd fd95 15bd 6894 6cbd
000001b0: 377d 3a3e 2f1a 61be 334d 0b3d 55d8 593e
000001c0: 6393 fdbd 9c9c 2d3e 9227 3fbe 8ad7 063d
000001d0: e7ab f8bd d9a5 883d ee7c 423d 8202 403d
000001e0: c510 64bd dc12 89bd 235f 57be 23e5 0a3d
000001f0: b53a 533e b74d 27be 07ae a3bd a1e9 643d
00000200: 37fd eb3d 126f 963d 3ea9 0f3e fc8e ef3c
00000210: 63ef 4ebd e392 39be 7e7f 61be 860c 33be
00000220: b0af d53d 50f2 533e 4129 503e 2bbc 223e
00000230: d645 803b d7e4 103e e770 923d 0e38 16be
00000240: e414 24bd 5483 51be f6fd 403e c789 413d
00000250: 0fce 4d3e 38e0 cbbc e50e 303e 7cc6 d43d
00000260: 3793 efbc 81ee 64bb 72f4 1c3e 4206 e3bc
00000270: b7de 2d3e 6fcf 4a3d 6498 aebd d23c c6bd
00000280: 5e56 d3bd f850 0d3e b934 2c3e d9e3 bdbd
00000290: 656f 40be d497 053e 4eba 7bbd 4263 4fbe
000002a0: 34d8 253d 451e 16bc e199 1e3e 2bdb 3d3d
000002b0: 809c 0cbe 2ce8 40bd fefd 27be 5259 df3d
000002c0: 9a21 913d 1b73 eb3d 7059 17be 1dbe eabd
000002d0: 29b0 fabd 6131 32be 06de 44be 37a4 29be
000002e0: 099f 243e 2e3f 59bd 2cd1 31bd e46b 933d
000002f0: ab36 8b3d bee6 de3d c0fe 19be 176a 4e3e
00000300: dd99 8bbc 072d d1bd d83b 0c3e 5fb6 42be
00000310: 10c8 0dbe 2b00 fa3d 03ee be3d c5e2 bebd
00000320: d710 afbc 3489 3bbd 9dae bb3d 5f66 383d
00000330: 93a7 a23d 91f3 3b3e 7631 13be 46f2 2bbe
00000340: 34e0 62bd deec bdbd daeb 21be 309f 453e
00000350: afa5 393e 04b5 313e 5e35 09be 5da2 e9bc
00000360: ccd1 36be 3b1f a7bd df2c 3c3e e623 c93c
00000370: 9b33 853d 430f 60be e125 a63d 88f3 123e
00000380: 4e90 adbd c556 2b3e beeb bd3d ccf2 2bbe
00000390: 12be 2fbe 5806 6ebb 68dc 4cbe 6638 16be
000003a0: 96bc b43d cee1 acbd 8b70 65bb 2a94 b6bd
000003b0: 2bc9 163e fb0f 3f3e eedc 253e 7a73 45be
000003c0: d33c 8fbd 4cbc ee3d 7257 f73d 2a20 6abd
000003d0: ff31 e83d 22c2 22bc 5ffb b43c d18f 0d3e
000003e0: 76e6 0f3e 796a 25be c356 fabd 0255 923d
000003f0: 384c ef3d 7234 6ebd d182 433e 230d 06bd
0.19674651 0.071212105 -0.10041586 0.042209 0.006131539 0.18011312 0.09927698 0.18792635
0.020154588 -0.16946714 -0.13692722 0.19285266 0.19757989 0.07701736 -0.14846244 0.15764582
0.08388665 -0.15958169 0.05580682 0.20689751 -0.14566658 0.016066028 0.06220679 -0.083844416
0.13033384 0.18537046 0.21816787 -0.196801 0.0032465532 0.17026648 0.18623427 -0.062085897
0.146305 0.16218314 -0.017813792 0.14675671 0.12923202 -0.032510754 -0.09041652 -0.119823396
-0.17491724 -0.12338556 0.053141 0.07069219 -0.067005776 -0.026561607 0.14029908 0.033554006
-0.15071724 0.18078302 0.13160114 0.020840345 0.104907244 -0.18402767 0.1271588 0.05149172
-0.022464199 -0.069669664 0.17094685 0.045380376 -0.12259738 0.09699609 0.04023155 -0.07621946
0.15057525 0.21604127 -0.008991232 -0.08883122 -0.11791659 -0.108572625 0.11561907 0.13318235
-0.13505892 0.114956625 0.009315311 -0.0044505526 -0.068616815 -0.20149241 -0.18995956 0.15882303
-0.034667075 -0.012436017 -0.12855008 -0.043592144 -0.0829924 0.018592894 -0.20611514 0.02186145
-0.18458548 -0.15351622 -0.004773108 -0.023801804 -0.06302337 0.12718107 0.008656942 0.04567348
0.096790664 0.0156165445 -0.19420578 -0.08302964 0.1376485 0.12095146 0.07408198 0.18557267
-0.11255093 -0.053051703 -0.036519993 -0.05775872 0.18211828 -0.21982644 0.03400917 0.2127393
-0.123816274 0.16954273 -0.18667439 0.032920398 -0.12142163 0.06672258 0.047482423 0.04687739
-0.055680055 -0.0669305 -0.21032386 0.033909928 0.20627864 -0.1633824 -0.079921775 0.05588687
0.11522906 0.07345404 0.14029405 0.029242985 -0.050521266 -0.18122439 -0.2202129 -0.17485246
0.104339 0.20697904 0.20328237 0.15892093 0.003914575 0.14149795 0.07150441 -0.1466982
-0.040058985 -0.20460254 0.18846878 0.047250535 0.20098136 -0.02488719 0.17193182 0.103894204
-0.029245002 -0.0034932198 0.15327623 -0.027712945 0.1697949 0.04951423 -0.0852516 -0.09679569
-0.103192076 0.13800418 0.16816987 -0.09271974 -0.18792494 0.13046199 -0.06145697 -0.20252708
0.04048939 -0.00916249 0.15488388 0.046351593 -0.13731575 -0.047096416 -0.16405484 0.109057084
0.07086487 0.11496564 -0.14780211 -0.114620425 -0.12240631 -0.17401649 -0.1922532 -0.16566549
0.16076292 -0.05303877 -0.043412372 0.07198313 0.067975365 0.10883854 -0.15038586 0.20157658
-0.017041141 -0.102136664 0.13694704 -0.19014882 -0.13845849 0.12207063 0.09322741 -0.093205966
-0.021370335 -0.045785144 0.09164164 0.045019504 0.079421185 0.18354632 -0.14374337 -0.16791639
-0.055389598 -0.092736945 -0.15812626 0.19299006 0.1812961 0.17354208 -0.13399264 -0.028519804
-0.17853469 -0.081602536 0.18376492 0.02455325 0.065039836 -0.21880822 0.081126936 0.14350712
-0.084747896 0.16732319 0.0927348 -0.16791838 -0.1716235 -0.00363197 -0.20005953 -0.14669952
0.088250324 -0.08441506 -0.0035009708 -0.08914979 0.14725177 0.1865844 0.16197559 -0.19282332
-0.06994023 0.116570085 0.12077226 -0.05715958 0.11337661 -0.00993398 0.02209252 0.13824393
0.14052758 -0.16153897 -0.1222358 0.0714512 0.116844594 -0.058155484 0.19092871 -0.032727372

arch.transformer.1.attention.in_proj_bias f4 [96]
00000000: de4b a1bb 857c 32b9 2e91 783a f0d0 36ba
00000010: cc80 213b 53c8 3a3c 8861 30bb 1933 e7bb
00000020: 1141 af3b 9068 0c3a 3c29 6e3b 74d1 3e3b
00000030: 72f3 28bc 9314 c93b b56c f2ba 12be 7f3b
00000040: 0bd5 3dbc 96f5 44bb 89f7 183c add8 093c
00000050: 565f e43a 8f4d 343b b1d1 0bbc 849d 6fbc
00000060: f843 483a c0fb 463c 6043 e2bb eab5 8bbb
00000070: 7abf fb3b 5b7a 603c 5e43 47bc d457 db3b
00000080: dca1 1a36 dfa0 fbb5 75c7 a2b6 9520 5cb5
00000090: fece 35b6 cbb6 4536 fab2 30b7 7d00 4ab6
000000a0: 39c8 f935 96a2 b5b4 a72e 9236 c4a6 0f36
000000b0: f7cb 30b6 af69 f234 4c32 9a36 bb58 23b6
000000c0: daae b136 ca4c aa36 4f9b b2b6 fd28 92b7
000000d0: cd4b 9eb4 68e1 2436 4a0d 1237 f0d0 0cb7
000000e0: 85e5 7e37 0c45 9736 a0e7 38b6 6545 8137
000000f0: 0e03 bab6 64d1 03b6 8ebf 4e37 78bf 5b36
00000100: f403 973b 6095 5dbb 194d 9db9 e67c 393b
00000110: 8489 3bb8 51d3 86bb 6086 283a c002 3abb
00000120: 6d11 e1b9 9ebe 5bbb 34d4 c33a 3f7e c03b
00000130: 52fc 873b 8c33 553b c83f 59ba 7601 65bb
00000140: bd60 40bc e1e5 d63a 1774 1b3a f7de ce3a
00000150: 3eca 00bc ad74 e9bb 60de 653b e09b c7ba
00000160: 1428 5fbb 6962 593b 65e4 233c 1f92 0abb
00000170: 7193 6d3b 6e01 643b 8643 643c 586b c7ba
-0.004922374 -0.0001702179 0.00094820827 -0.0006973883 0.002464342 0.0114003 -0.0026913602 -0.007055652
0.0053483327 0.0005356157 0.0036340496 0.0029116543 -0.010311948 0.006136486 -0.0018495532 0.0039023203
-0.011586438 -0.0030053607 0.009336361 0.008413476 0.0017423432 0.002751205 -0.008533881 -0.014624957
0.00076395227 0.012144983 -0.0069050044 -0.004263629 0.007682738 0.013701047 -0.012162058 0.0066938195
2.3042003e-06 -1.8747777e-06 -4.851196e-06 -8.20038e-07 -2.7091587e-06 2.9461687e-06 -1.0532089e-05 -3.010063e-06
1.8610218e-06 -3.3832174e-07 4.35657e-06 2.140573e-06 -2.6344767e-06 4.5152908e-07 4.595413e-06 -2.434054e-06
5.2953665e-06 5.0753342e-06 -5.3228937e-06 -1.7423643e-05 -2.9484946e-07 2.4569108e-06 8.705372e-06 -8.393297e-06
1.5193019e-05 4.508189e-06 -2.755296e-06 1.5410313e-05 -5.5435876e-06 -1.9642403e-06 1.2323157e-05 3.2744992e-06
0.0046086255 -0.0033810958 -0.00030002816 0.0028303205 -4.4712346e-05 -0.0041145463 0.0006428715 -0.0028382987
-0.00042928327 -0.0033530365 0.0014940561 0.0058744247 0.004149952 0.0032531945 -0.0008287397 -0.0034943498
-0.011741814 0.0016395414 0.00059300795 0.0015783001 -0.007860718 -0.0071245045 0.0035075173 -0.001522895
-0.0034050988 0.003317023 0.010003184 -0.0021144224 0.0036251212 0.0034790891 0.0139321145 -0.0015214486

arch.transformer.1.attention.out_proj.weight f4 [32, 32]
00000000: e4a3 bdbd cf78 ca3d 2ba5 103e 868a d73d
00000010: ff2e 46bd aa5b 03be 4553 13be 41f7 fabc
00000020: 1f7a 32bd 2dd1 febd 2d56 1c3d 38fc 8ebd
00000030: 7c0b 503d 26d7 c0bd 26f5 afbb 30aa 0cbd
00000040: 4c4e f73d d234 34be 35b9 b0bd ba89 4d3d
00000050: bb64 20bd 7292 213c 17dd dc3d 079a cd3c
00000060: 8fd2 c33b cf09 113d b597 b2bd 6dbc 80bd
00000070: dff3 8c3d 0298 d63c 1f39 ff3d 745a b9bb
00000080: c017 303e 2de3 bf3d 9586 1cbd 0597 c2bd
00000090: 4365 2a3d 9ff0 1abe 2e84 a8bd f87c 463d
000000a0: aec7 6d3b e285 903d 19e9 9bbd 565b 1e3e
000000b0: 8ed7 bdbd 7dcb c0bd f63a dd3d ea66 4cbd
000000c0: b21d 183d 8687 9bbc 14a8 e6bd 335a b6bc
000000d0: 41c5 8e3d e47c e33d 425b 173e 9067 4ebb
000000e0: c7db 0f3e 48aa 823d 22d1 3b3b 6d90 c8bb
000000f0: 24a7 bbb9 d730 4d3d 9ab4 6dbc 0b61 c73d
00000100: ad86 17bd 2c89 bebd fca6 393d f5f7 babd
00000110: e662 d13d caf1 1b3e a1ec e43c 4055 c8bc
00000120: d8d4 20bb 100f b43d 7844 0fbe fe9c 36bd
00000130: ee97 d0bd 0f2c 28be aef9 f1bd c461 cdbd
00000140: aabb 113e 0f57 cd3d 93f8 00be 1022 06be
00000150: 4a54 223e bfcb 453d c6b5 9f3d 1472 e33c
00000160: 3238 9abd 0b04 d0bd 9b16 cd3d 5d86 31be
00000170: bc51 1cbe d21f 3a3d 1224 32bd 64fb 223d
00000180: b944 d83d df65 eabd b425 b6bd 3273 f1bd
00000190: 7f86 17be c752 b2bc 2e8f 183e f439 b3bc
000001a0: 6614 b03d 3244 c5bd 6ff0 a53c 1f0c 06be
000001b0: 5be4 3dbc edf9 213d c17e aabd ece8 153e
000001c0: 658e 1e3d a6f8 cb3d f142 3d3e fcbc 843d
000001d0: 82a8 babc 9fc4 9c3d 7419 3b3e bd4f 2cbe
000001e0: 84f5 aabc 085a c73d 546f 49bd 21ea 1cbe
000001f0: 4363 b4bd e87c babd 652d 8b3d 898f c73d
00000200: 3da5 fcbb 6a0f 24be c716 163d 1867 263d
00000210: d148 71bd 7bcb 4b3d fa2f 98bd fa82 473d
00000220: 2fc0 e93d c5f2 9e3d 4e67 5ebc 1f82 313e
00000230: 9855 63bc 28b7 21be bbcf ef3d 8c81 163e
00000240: e3df 8a3d d655 2d3e fc60 dc3d 8225 6f3d
00000250: 614c b53d 2cad 15be 3845 1f3c 6d56 95bd
00000260: 749a 833d 5903 11be 2424 733b 2823 6b3d
00000270: c690 47bd 0bae 95bd 81aa f9bd de4d fe3c
00000280: 07dc 16be 9db3 35bd 3ff3 443c 9283 533d
00000290: 5a56 1bbe 5ee4 0e3d a28a 9ebd 84e3 abbc
000002a0: 91f7 0cbe 997c 13be ca74 c43c fe7a 1e3d
000002b0: bd75 243e bd9f 243e f8d3 f83d 6bbe 733d
000002c0: 7021 e73d f41d 9f3d 1406 23be dfce 023e
000002d0: d190 373c 368e 39bd 6e1c 2dbd 2742 113e
000002e0: 8017 023e cbec 84bc ac5e 84bd 7466 d6bd
000002f0: 09a1 d33d d74c e4bd 6a8b ecbd ef99 debd
00000300: b18b 1a3d f9e8 1c3e 6e1e b23c c399 9a3d
00000310: 3331 1cbe 3ae2 f0bd 4fc3 cbbd a558 cfbd
00000320: 73b2 86bd 7fe8 c5bd 9875 76bd 5bc0 ebbd
00000330: 70e1 4c3d 4cf7 e23b 20a0 aa3c 1f43 bf3d
00000340: bbe2 12be 91c6 adbd bde5 a4bc a6eb 19be
00000350: 114e dd3d 95a5 f6bd c2a1 d93d a090 2f3e
00000360: 5ecf a13c 48f4 d2bd 1f14 073e a2c7 d5bd
00000370: e6a5 12bc 033a e73d 91a4 303e 3dc7 ff3c
00000380: 2804 93ba 8d26 00bd 2919 23be 8817 b83c
00000390: 839a 06be 27e5 8b3b e19d 32bd 58c5 cf3d
000003a0: 68ab a9bd a8b0 ea3d 7d64 20bd cbee fabc
000003b0: 0696 23be b55e 1c3e 2aa4 b43b ed07 35be
000003c0: fbdc 8cbb 28dc b13d e5bc ccbc ab2d 053e
000003d0: d9a3 943d a83b 09bd 80bb 403e fadc 023e
000003e0: 8ab6 debb 3ddf 85b9 607e 3f3d 4299 94bd
000003f0: 0f70 003e c949 2ebe 66d3 cfbd d1c9 823d
-0.09259775 0.09886324 0.14125507 0.10524468 -0.048384663 -0.12827936 -0.14387234 -0.030635478
-0.043573495 -0.12442241 0.03816812 -0.06981701 0.050792202 -0.09416036 -0.0053698 -0.03434199
0.12075481 -0.17598274 -0.086290754 0.050180174 -0.039158564 0.009861575 0.10784357 0.02509786
0.0059760283 0.035409745 -0.08720342 -0.06285939 0.06882452 0.02619553 0.12462067 -0.005656535
0.1719656 0.09369502 -0.038214285 -0.09501461 0.041600477 -0.15130852 -0.08228336 0.048459023
0.0036282348 0.07056786 -0.07612819 0.1546453 -0.092696294 -0.09413812 0.108022615 -0.049902834
0.037137695 -0.018985521 -0.11262527 -0.022259807 0.06971217 0.11107805 0.14780906 -0.0031494834
0.14048682 0.06380135 0.0028658588 -0.0061207325 -0.0003579195 0.050095405 -0.014508391 0.09735306
-0.03699367 -0.09303507 0.045325264 -0.09129325 0.102239415 0.15228954 0.027944865 -0.024454713
-0.0024540927 0.087919354 -0.13990963 -0.044583313 -0.10185228 -0.16423057 -0.11815201 -0.10028413
0.14231744 0.10026371 -0.12594824 -0.13098931 0.15852466 0.04829001 0.077983424 0.027764358
-0.0753025 -0.10157021 0.10014077 -0.17336412 -0.15265554 0.045440502 -0.04349143 0.039790526
0.10559983 -0.114452116 -0.0889391 -0.1178955 -0.147974 -0.021767987 0.14898369 -0.02187822
0.08597641 -0.09632148 0.02025625 -0.13090561 -0.011590089 0.03954499 -0.08324958 0.14639634
0.038710017 0.09959535 0.18482567 0.064813584 -0.022785429 0.0765469 0.18271428 -0.16827293
-0.020869024 0.09733969 -0.049178436 -0.15323688 -0.08807995 -0.09105855 0.06795768 0.09744174
-0.0077101276 -0.16021505 0.036642816 0.04062566 -0.058907334 0.0497546 -0.07431026 0.048708893
0.11413609 0.07761148 -0.013574434 0.17334794 -0.013875388 -0.15792525 0.11709543 0.14697856
0.06780984 0.16927275 0.10760686 0.05838538 0.08852459 -0.14616841 0.009721093 -0.07291875
0.06425944 -0.14161433 0.00371004 0.057406574 -0.04872205 -0.07308587 -0.12190724 0.03104299
-0.14732371 -0.044360746 0.012020885 0.051639147 -0.1516966 0.034885757 -0.07741286 -0.020982511
-0.13766314 -0.14402999 0.02398147 0.038691513 0.16060539 0.1607656 0.12149805 0.05950777
0.112856746 0.07769385 -0.15920287 0.12774228 0.0112039605 -0.04530164 -0.04226344 0.14185391
0.12704277 -0.016226193 -0.0646337 -0.1046876 0.103334494 -0.111474685 -0.115500286 -0.10869204
0.037730876 0.15323247 0.021743026 0.07548859 -0.15253143 -0.11761899 -0.099493615 -0.101243295
-0.06577005 -0.09663486 -0.06017074 -0.11511298 0.05001968 0.0069264527 0.020828307 0.09338974
-0.14344303 -0.08485139 -0.020129079 -0.15031299 0.108059056 -0.12043301 0.10626556 0.17145014
0.0197522 -0.10300499 0.1319127 -0.104384676 -0.008950686 0.11290362 0.17250277 0.031222934
-0.0011216449 -0.031286765 -0.15927567 0.022472158 -0.13144879 0.0042692604 -0.043607596 0.10145062
-0.08284646 0.11459476 -0.039158333 -0.030631443 -0.15975198 0.15270503 0.005512734 -0.17678805
-0.004298804 0.086845696 -0.024992416 0.13005702 0.07257814 -0.03350416 0.18821526 0.12779608
-0.0067966627 -0.00025534062 0.04675138 -0.07255794 0.12542747 -0.17020334 -0.10147743 0.0638615

arch.transformer.1.attention.out_proj.bias f4 [32]
00000000: d86a 43bb 6920 c1ba ccea babb 5664 263b
00000010: 04f7 033b a41b bdbb 20c5 fdb9 7a80 253b
00000020: aa98 cdba b858 5c3a d781 023c 463a 05bb
00000030: 73ab 3dbb a6f3 a3bb 55e7 01b9 6566 8ebb
00000040: b0d8 03bb cb28 1dba 25f1 e63b 9752 233a
00000050: 5860 003b a4bd 3cbc 8b81 f5ba 0f73 1d3a
00000060: a41a 303c 0eaa 6c3b 32e4 9fba 8e8d 12bc
00000070: 4d3a 9e3b 3728 1bbb 992e fbba b5f8 ea3b
-0.0029818323 -0.001473439 -0.0057042595 0.0025389395 0.0020136246 -0.0057711173 -0.0004840279 0.002525358
-0.0015685756 0.0008405554 0.007965527 -0.0020328923 -0.0028941303 -0.0050034104 -0.00012388577 -0.0043457025
-0.002011817 -0.00059951533 0.0070477896 0.00062302634 0.0019588675 -0.011519823 -0.0018730623 0.000600622
0.010748539 0.0036112103 -0.0012198745 -0.008944882 0.0048287273 -0.0023675093 -0.0019163667 0.0071707615

arch.transformer.1.mlp.0.weight f4 [2, 32]
00000000: d532 93bc 7346 cb3d 2728 bb3d 9ac1 f33c
00000010: 1872 e13c 1dd8 573d 421e 6a3d d400 123e
00000020: 98a4 313d 5986 de3d f04b f93d 3af7 18be
00000030: 6bb9 d0bd 1fd9 a43d 533d c83c 17d5 cfbd
00000040: 4288 5c3d 5c90 2abe db08 66bd 87b9 cd3d
00000050: e0bd bf3b 4cb6 e0bd 18ab 933d 49f2 103c
00000060: 95c6 78bc 65e6 1cbe 559b 90bd af6c 983c
00000070: b95e a6bd e3f7 f13c f189 f0bd 6e58 023e
00000080: 58f7 123e 53a4 e13d 3504 a8bc 2cb7 30be
00000090: 4733 7dbd e6d5 8bbc 6d19 21be 2911 093e
000000a0: 0bd1 763d e840 fe3d b884 1ebe cfb7 a9bd
000000b0: d14d 383d a14e fb3b 03e6 c7bd caf7 013e
000000c0: 3197 a03d 3a38 30bb cc32 283e 9ae2 38be
000000d0: d9ae 2cbe be7c 003d 5ed2 313e ea89 c53d
000000e0: 67f2 dfbd 71fb f13d 56f5 cc3d 1cb1 0f3c
000000f0: fe1a cc3d 1f87 f13c 325d cab9 e3dc 4cbd
-0.017968575 0.099255465 0.09138518 0.029755402 0.027520224 0.052696336 0.057157762 0.14258128
0.04336986 0.108654685 0.12172687 -0.1493806 -0.10191616 0.08049225 0.024443304 -0.101480655
0.053840883 -0.16656631 -0.05616079 0.10045152 0.0058514923 -0.1097227 0.07210368 0.008846828
-0.015184064 -0.15322264 -0.07060877 0.018606512 -0.08123536 0.029537147 -0.1174506 0.12729046
0.14352167 0.110176705 -0.020509819 -0.17257375 -0.06181648 -0.017069768 -0.15732355 0.13385452
0.060257953 0.12414724 -0.15480316 -0.08287012 0.044996087 0.0076692854 -0.09760668 0.1269218
0.078413375 -0.0026888982 0.16425627 -0.18055192 -0.16863574 0.031368963 0.17365405 0.09645446
-0.109349065 0.11815537 0.100077316 0.0087702535 0.09966086 0.029483376 -0.00038597878 -0.05001534

arch.transformer.1.mlp.0.bias f4 [2]
00000000: 555f d4bd 3e38 ecbd
-0.10369746 -0.11534165

arch.transformer.1.mlp.3.weight f4 [32, 2]
00000000: e2f1 acbd cfb0 f8be 95f8 943e df78 4e3e
00000010: 2de3 30bf 4b10 06bf d43d 003f 3e22 bcbe
00000020: 37b7 86bc 3a84 e6be fc4f 29be 398a af3e
00000030: f8d7 3f3e 6d5d b03e 3a3f 46bd 6892 0fbf
00000040: a7ac 2a3a 2169 d53e 3fb3 293e 9918 193e
00000050: 9e42 153e 0051 143f 5b85 b83e 807d f2bd
00000060: 3cea c0be 0178 123f 987e babe 584b f4be
00000070: e5a0 583e 96d6 e7be 67fa 1cbf 1e9b 12bf
00000080: 29a1 363e 6db8 e4be 8619 213f 1a4a f9bc
00000090: 46b2 9bbe 5574 dbbe b60e 60be b91f 1e3f
000000a0: 30ff e5be 6a63 27bf 0d6c 4c3e e94e 6b3e
000000b0: 0634 17bf 58be a3be f303 1b3f 0d8b a9be
000000c0: ce88 9d3e 3ed6 aabe 1bfd 1fbf eb9e 2dbf
000000d0: 6e6b 093f dbb4 5c3e 600d 3f3e a859 713e
000000e0: 7c11 8b3e 732c f13e 48ff 0b3f cdc7 0a3f
000000f0: 071a 623e 8482 003e 374c 1a3e 26e1 10bf
-0.08444573 -0.48572394 0.29095903 0.20163296 -0.6909664 -0.5236861 0.5009434 -0.36744875
-0.016444786 -0.45022756 -0.16534418 0.34285143 0.1873473 0.34446278 -0.04840014 -0.56082773
0.00065107126 0.4168177 0.16572283 0.1495079 0.14576194 0.57936096 0.36039242 -0.118403435
-0.37678707 0.5721436 -0.36424708 -0.47713733 0.21155126 -0.45280904 -0.61319584 -0.5726794
0.17834915 -0.44671956 0.6292957 -0.030430842 -0.3040945 -0.42862192 -0.21880612 0.61767155
-0.44921255 -0.6538607 0.19963093 0.2297932 -0.59063756 -0.31981158 0.605529 -0.331139
0.30768436 -0.3336658 -0.62495583 -0.67820615 0.5367955 0.21553366 0.18657446 0.23569357
0.27161777 0.47104225 0.54686403 0.5421112 0.22080241 0.12549788 0.15068136 -0.5659355

arch.transformer.1.mlp.3.bias f4 [32]
00000000: 0dff a13e f6f4 313e 70cf 9a3e 9b6f 31be
00000010: 7f50 163f 6730 9f3d 5418 2cbe b17b 94bc
00000020: b433 90be 2356 cdbd e6e7 193f 9dfd 6d3e
00000030: ca30 a5bd 292f b83c d172 213e 0f9d d1be
00000040: bdb0 c6be 1a70 1f3f f651 173c ec2d 553e
00000050: f25c a6be d134 08bf 5630 0f3e db28 c43e
00000060: 1f0b 28bf 882f 32bf f11c 71be 34b0 e43e
00000070: 7192 20bf 3f45 103f 77c4 223f af18 1bbe
0.316399 0.17378601 0.30236387 -0.1732773 0.5871658 0.07772904 -0.16806155 -0.018125387
-0.28164446 -0.10026195 0.60119474 0.23241277 -0.080659464 0.022483425 0.15766455 -0.4094014
-0.38806716 0.6228043 0.00923585 0.20818299 -0.32492787 -0.5320559 0.13983282 0.3831242
-0.6564197 -0.69603777 -0.23546197 0.44665682 -0.6272345 0.5635566 0.6358103 -0.15146135

arch.transformer.1.layernorm0.weight f4 [32]
00000000: 59e9 7f3f 9232 7e3f 90eb 7d3f fc5a 7e3f
00000010: dc51 7d3f da5d 7e3f ff6b 803f 1853 7f3f
00000020: 30c1 803f b584 7c3f f11f 7d3f 25f2 803f
00000030: c009 813f 361d 823f 1785 7d3f 6649 7d3f
00000040: 63d3 7e3f b2b6 7e3f 5eb5 803f 9614 7f3f
00000050: 5ad1 7f3f f79e 7c3f b6e2 813f eed9 7f3f
00000060: fcf8 7f3f 8d0e 813f 5ce9 7e3f 40c4 7c3f
00000070: 8477 813f dc83 7e3f 8484 7e3f cf2d 803f
0.99965435 0.99295914 0.99187565 0.9935758 0.9895303 0.99361956 1.0032958 0.99736166
1.0058956 0.98639995 0.98876864 1.0073897 1.00811 1.0165164 0.99031204 0.9894012
0.995413 0.9949752 1.0055349 0.99640787 0.9992882 0.9868006 1.0147312 0.9994191
0.99989295 1.0082566 0.9957483 0.98736954 1.0114598 0.9941995 0.9942095 1.001398

arch.transformer.1.layernorm0.bias f4 [32]
00000000: eb89 04bb 3a8e 66bb 9541 afbb 8e2b 043b
00000010: 9b89 023a 7522 e9bb f682 1f3a 98f0 9d3a
00000020: a575 c5ba 4b46 953a 8252 f13b aaf8 a8ba
00000030: fa5e dcba 2436 8cbb 28e9 a3ba 5512 b2bb
00000040: e78f c6ba 7e84 5fb9 119f a43b 7e6f bdb8
00000050: aabb 093b 0924 3cbc caa4 9aba 0320 0aba
00000060: 9ecc 403c afa8 523b f8ca e2ba 9916 29bc
00000070: a45e 983b f379 ceba 72c1 45bb 5790 d93b
-0.0020223807 -0.0035179988 -0.005348394 0.0020167562 0.0004979611 -0.0071147033 0.00060848834 0.0012049852
-0.0015064968 0.0011388747 0.007364572 -0.001289149 -0.0016812973 -0.004278915 -0.0012505399 -0.0054343143
-0.0015149087 -0.00021316294 0.005023845 -9.032989e-05 0.0021016398 -0.011483201 -0.0011798379 -0.00052690523
0.011767535 0.0032144 -0.0017302921 -0.010320329 0.004649954 -0.0015752896 -0.0030175117 0.006639521

arch.transformer.1.layernorm1.weight f4 [32]
00000000: 562f 7f3f f3b3 7c3f e0aa 7d3f 9a5b 7e3f
00000010: f691 7d3f c951 7d3f 688a 803f c56d 7f3f
00000020: 7769 803f 5474 7d3f b590 7f3f 1967 813f
00000030: 47b8 803f 24ec 813f 88b5 7c3f a556 7f3f
00000040: 23b4 7f3f 3797 7e3f 02d9 803f 0c59 7f3f
00000050: b365 7d3f 5230 803f b5eb 813f 0d0b 803f
00000060: 9baa 7d3f db0c 823f ad08 7e3f 60ce 7c3f
00000070: 5a90 803f be1e 7f3f 5cce 7e3f b87c 7e3f
0.99681604 0.9871208 0.9908886 0.9935852 0.99050844 0.9895292 1.0042238 0.9977687
1.0032185 0.9900563 0.9983018 1.0109588 1.0056237 1.0150189 0.98714495 0.99741584
0.9988424 0.99449486 1.0066226 0.9974525 0.98983306 1.0014746 1.0150057 1.0003372
0.9908845 1.0160173 0.9923199 0.98752403 1.0044053 0.99656284 0.9953363 0.99409056

arch.transformer.1.layernorm1.bias f4 [32]
00000000: 2d53 cd3a 121f 3fba 0e2e a3bb ef81 653a
00000010: f63d e4b9 a687 f6bb 8589 22b9 c94d b93a
00000020: 38d4 5e3a a81f 5d3b 2a00 bd3a 8ccf e5ba
00000030: 4710 9dba 536f 79bb 5328 89bb f61f f9ba
00000040: 3316 e1b9 c7b6 b9b9 4269 9d3b 38d5 21bb
00000050: 0c62 9939 23b7 49bc c066 3cb8 a9e0 5c3a
00000060: 86a6 1d3c 94db 363b 026c 6539 f531 31bc
00000070: b734 813b 4429 9cba df4c 61bb 8a40 da3b
0.0015665047 -0.00072907016 -0.0049798554 0.00087550184 -0.00043533713 -0.007523495 -0.00015500754 0.0014137562
0.0008500251 0.0033740792 0.0014419605 -0.0017533167 -0.0011983 -0.003806074 -0.004185715 -0.0019006717
-0.00042931884 -0.0003542213 0.0048038075 -0.0024693739 0.00029255485 -0.01231173 -4.4918386e-05 0.0008425811
0.009622222 0.0027901875 0.00021879378 -0.010815133 0.0039430517 -0.0011914154 -0.0034378094 0.0066605257

arch.transformer.2.attention.in_proj_weight f4 [96, 32]
00000000: ad8e 463e 204f f7bd 35af 383e 18fd 1c3c
00000010: cebc 543e 1392 d0bd 35a7 0f3e 9f06 eebd
00000020: 27dd 2dbe fc16 153e 2515 933d ce41 683e
00000030: f511 c53d 1028 9dbd 4435 f7bd 237c 363e
00000040: 4588 1fbd 8c8f 01be c353 2cbe 1e2b 19be
00000050: b701 c8bd 3b72 32be a87f 643e 5218 ba3c
00000060: ede5 8e3d 2d62 fabd 5eb5 763c 30e6 153e
00000070: d5b7 aabd ce91 2f3e 2b3d 8cbd 7c7f afbd
00000080: f7fe 2cbe 57f0 65be df17 ca3d b515 11be
00000090: 6815 f2bd 1812 aabd 5df2 31be 3db6 2dbe
000000a0: 2aa7 1abe da13 653e 9a58 943c 67cd c6bd
000000b0: 22a6 c7bc 1bce 293e 8102 08be fd8e a83d
000000c0: 8322 43bd dbcb 39be 3db3 1c3e 668f da3d
000000d0: 142f 243e 1998 ce3d da90 a43c e5c4 923d
000000e0: 049a 26be 6db2 653e 0cbb 18be 584c 213e
000000f0: 2113 05be 6b9f 19be 0f77 bd3d fcfb 183e
00000100: 1f87 81bd 9c1c 583d 8171 3dbe 5daf d5bc
00000110: f185 443e ba67 553e cc18 9abd 1b0e 9d3d
00000120: 78da 453e cd64 b83d 6a19 2f3d 0fd9 3abe
00000130: 6766 733d 1ce7 3a3d 11dd 02be ae92 d93d
00000140: 88f6 14be 2937 543e f4d0 cdbb b316 1c3e
00000150: 2314 5fbd 43de ddbd dd41 153e 8429 093e
00000160: 336f 583e 3257 a03d e111 cebd d641 ffbd
00000170: 7bdb 4cbe af50 963c 7c3e 573e f623 8dbd
00000180: a37d 3fbd 810b 143e bff1 4d3e 78a1 7f3d
00000190: 951e 823c 7b9a 5d3e 97a9 393e d601 07be
000001a0: 9f5b 1abe 5371 36bd e20f a83d ecb9 0cbe
000001b0: 7b73 bdbd 70a9 303c c103 68bd 151a 1f3e
000001c0: 8cbc 123e 3a6d 113e c673 fb3d 6894 03be
000001d0: 6c2c 21be 030e 13be a5dc 0cbd 7073 273e
000001e0: 89e6 22bd f6c9 533e 948d 203e 6a6c 57be
000001f0: ed86 df3d 7256 c8bd 5f5b 59be 4dab a03d
00000200: e911 a9bd fc11 51be 6463 17be 2310 1f3e
00000210: bb91 59bd 3bba 343e cb1d a9bd b3d3 503e
00000220: c221 81bd 34bc 593e b831 b93d 131b 33be
00000230: 29d3 b33d c5b6 9f3d fa28 45be f997 43be
00000240: 6796 043c 6711 f63d 722b 483e 01b3 57bd
00000250: 6916 4ebe 2089 c93d 170c 193b 07b6 203c
00000260: c201 0b3e 151f 253d 805e 363e d4aa 2d3e
00000270: c764 7a3d 2679 2b3e 5c10 973d 8f9e 4bbe
00000280: 99c8 3f3e a364 c6bb c421 bbbc 3d50 353e
00000290: 9077 3c3e b5e4 25be 7090 9f3d 9454 fbbd
000002a0: 77d3 83bd 109a 753d 06ea 9abd f4af dcbd
000002b0: a3cd ca3d 1d1f 88bd c9ef 963d a9be 513e
000002c0: f7b4 3d3d 2798 4f3d 18d0 4b3e bb99 9bbd
000002d0: 5c35 ea3b 1859 4cbe 8dd7 dabd d69e 52bc
000002e0: 7bba 493e f083 0d3e cb62 4cbd 867b 65bd
000002f0: 757a 7e3d b24b b7bd c548 f4bc 81f9 753d
00000300: 8b25 8abd a943 183e fe3f ba3d cbac 97bc
00000310: 03b6 29bd 58a1 d43c 5077 e33d 725b 7a3d
00000320: db7b 85bd b71e b23d b02b 38bc ac5e 2dbe
00000330: dee2 37be 19a0 62bc e2ae 3a3e bd45 a1bd
00000340: 2bc4 0c3e 4dac 8dbd 9a5b 083e 38bc 40bd
00000350: 49cd a0bd 4591 933d f6dd cf3d 9e5d 2cbe
00000360: d1a4 1abc b9b9 7a3d a18a 083d b74c 553e
00000370: bc27 36be 087c 3b3e eaa2 d73d d147 4abe
00000380: b751 bebd debc 7a3d 7406 23be d246 4e3e
00000390: 5dbe a2bd edcf c23d 3533 043d ff94 aebd
000003a0: 6ea2 5bbe ef1a c03c 2961 30be 0be2 76bd
000003b0: 6388 1a3d 8bf4 b7bd b2ec e73d f48d 48be
000003c0: c6d6 36be 55ac eb3d 3429 d5bd 0dab 3d3e
000003d0: 7c3d 1dbd d9ae 21bd 256c 453e 021b a1bc
000003e0: 8f23 32be 584b 98bd ec78 6a3d 5c2b 1a3e
000003f0: c4bf 423e b2e4 99bd 9794 0c3d e948 203e
0.19390364 -0.12075639 0.18035586 0.009581827 0.20775148 -0.101841114 0.14028628 -0.116223566
-0.16978894 0.14559549 0.071817674 0.22681352 0.09622566 -0.07673657 -0.120707065 0.17820792
-0.038948316 -0.12652415 -0.16828828 -0.14957854 -0.09765952 -0.17426388 0.22314322 0.022716675
0.069774486 -0.12225757 0.01505789 0.14638591 -0.083358444 0.17145464 -0.06847604 -0.085692376
-0.16894136 -0.22454964 0.09867834 -0.14168437 -0.11820489 -0.08304232 -0.1737761 -0.1696405
-0.1510283 0.22370854 0.018108655 -0.09707146 -0.02437121 0.16582529 -0.13282205 0.08230398
-0.047640335 -0.18144171 0.15302749 0.10671882 0.16033584 0.10087604 0.020088602 0.07166461
-0.1626969 0.22431345 -0.14915103 0.15751779 -0.12995578 -0.1500222 0.09251224 0.14939874
-0.063246004 0.05276166 -0.1850033 -0.026084596 0.1919172 0.2084035 -0.07524261 0.07668706
0.1932162 0.09003601 0.042748846 -0.18246864 0.05942383 0.04563056 -0.12779643 0.1062368
-0.14547169 0.20724167 -0.0062810127 0.15243034 -0.054462563 -0.10833409 0.14575906 0.13394743
0.21136169 0.07829131 -0.10062004 -0.12463729 -0.200056 0.01834902 0.2101993 -0.06891625
-0.046750676 0.14457513 0.2011175 0.062409848 0.015883723 0.21640961 0.181311 -0.13184294
-0.15074013 -0.04454167 0.082061544 -0.13742799 -0.09250542 0.010782585 -0.056644205 0.15537293
0.14329737 0.14201823 0.122779414 -0.12849581 -0.15739602 -0.14360814 -0.03439011 0.1635263
-0.039770637 0.2068251 0.15679008 -0.2103745 0.10914407 -0.09782113 -0.21226262 0.07845173
-0.08255369 -0.20417017 -0.14784008 0.155335 -0.053117495 0.17649166 -0.08257636 0.20393257
-0.06305267 0.212632 0.09042686 -0.17490797 0.0878051 0.077985324 -0.19253913 -0.19100942
0.008092499 0.12015038 0.19547823 -0.052660946 -0.20125736 0.09840608 0.0023353153 0.009809024
0.1357489 0.040312845 0.17809486 0.16959697 0.061131265 0.16745433 0.07376167 -0.19884704
0.18728866 -0.0060544773 -0.02284325 0.1770639 0.18404984 -0.16200526 0.07791221 -0.12271991
-0.06436818 0.05996138 -0.07564168 -0.10775748 0.09902503 -0.066465594 0.07369954 0.20482887
0.04631516 0.050682213 0.199036 -0.07597681 0.007147474 -0.19955862 -0.10685644 -0.012855252
0.19700043 0.13819861 -0.049898904 -0.056026004 0.062128503 -0.089499846 -0.029819855 0.0600524
-0.06745442 0.1486956 0.09094237 -0.018515011 -0.041433346 0.025955841 0.111067414 0.061122365
-0.06517764 0.08697265 -0.011240885 -0.16930646 -0.17957637 -0.013832116 0.18230775 -0.0787463
0.13746707 -0.069176294 0.13316193 -0.0470545 -0.07851655 0.07205442 0.101497576 -0.16832587
-0.009438709 0.061212275 0.03333533 0.20830046 -0.17788595 0.18309033 0.1052912 -0.19753958
-0.092929296 0.061215274 -0.1592043 0.20144203 -0.07946465 0.09512315 0.032275397 -0.085245125
-0.21448681 0.023450343 -0.17224564 -0.060274165 0.037727725 -0.0898219 0.11324443 -0.19585401
-0.17855367 0.11507479 -0.104082495 0.18522282 -0.038388714 -0.03947339 0.19279535 -0.019666199
-0.17396377 -0.07436246 0.057244226 0.15055603 0.19018465 -0.07514323 0.034321394 0.15652813

arch.transformer.2.attention.in_proj_bias f4 [96]
00000000: e4d6 e4ba 75d7 8f3b cd57 483b 953e c8bb
00000010: 707b a53b ef4b 4b3b 6e58 84bb 143f 3e3b
00000020: a2ab 52bb aa50 7fbb 6304 6fbb 19fe 25bb
00000030: 37b9 213c 89d5 c43b 6508 2b3b cd2d 33bb
00000040: 42e0 84bc bfea 993a ad4b 5c3c db26 b9ba
00000050: a976 b5bb cb44 ac3b ef3c bb3b 1e0b 4ebb
00000060: 8421 bf3a 8a58 cd3a 4c26 c2bb dc7c ad3b
00000070: c6f1 82ba aaa7 1a3b 2707 913a 1d22 4abb
00000080: 2ea8 94b6 8029 4736 3429 7736 2eff 3737
00000090: 729f 3db3 b5d7 9fb7 1210 58b5 52af 5bb6
000000a0: 1501 ebb5 45ac 6335 b7c0 bcb5 9c29 d0b6
000000b0: f1db c335 70f7 7c33 5703 31b6 234b 1736
000000c0: 4be0 1e35 18cf df35 f0fc 3737 3b11 2bb6
000000d0: 747a 3fb7 b416 4037 64fb c836 73e6 aa35
000000e0: 4221 8935 5f89 11b6 523f 21b6 f16a b9b6
000000f0: b499 2835 3b94 3f36 5a58 c035 ee8a 81b5
00000100: 28a4 6b39 9b86 c3ba 2dbc 7839 42cf 063b
00000110: f693 5ab9 b74b 25ba 7001 ab3a 82fe 013b
00000120: 7b48 5bbb 069e 84bb 4b70 a03b 3596 34bb
00000130: 41e8 85bb d832 a439 6d7a da3a 23f1 7d3a
00000140: b2e7 e23a 9e58 c7bb 0e4d 1cbb 1ff2 2d3c
00000150: a914 97bb 369f 4cba ac6d 27bb 8623 55bc
00000160: e0b1 8b3a edd5 abb9 a9c3 173c a36d 41bb
00000170: 5401 d93b b711 5ebb 0b21 1a3c 1b4e 2c3a
-0.0017459062 0.004389698 0.0030569911 -0.006110976 0.0050501153 0.0031020602 -0.004038862 0.0029029297
-0.0032145758 -0.0038957992 -0.003647112 -0.0025328456 0.009870819 0.0060069007 0.0026097533 -0.0027340532
-0.016220216 0.0011742933 0.013445777 -0.001412596 -0.005537827 0.005257224 0.005714051 -0.0031439732
0.0014582132 0.0015666645 -0.0059249755 0.0052944254 -0.0009990267 0.002359847 0.0011064754 -0.0030843087
-4.4303224e-06 2.9677467e-06 3.6829852e-06 1.0967064e-05 -4.4150006e-08 -1.9054723e-05 -8.0489656e-07 -3.2735593e-06
-1.7509179e-06 8.4814775e-07 -1.4063179e-06 -6.203727e-06 1.4592644e-06 5.8898365e-08 -2.6377e-06 2.2544489e-06
5.9185976e-07 1.6675067e-06 1.0966542e-05 -2.5491015e-06 -1.1412998e-05 1.1449378e-05 5.98973e-06 1.2733057e-06
1.0216975e-06 -2.1686644e-06 -2.4027727e-06 -5.5258793e-06 6.2808544e-07 2.85475e-06 1.4330828e-06 -9.651683e-07
0.000224725 -0.0014917435 0.00023721224 0.0020570313 -0.0002084522 -0.0006305533 0.0013046693 0.0019835536
-0.003345995 -0.004047158 0.004896199 -0.002755535 -0.0040865247 0.000313184 0.0016668566 0.0009687116
0.0017311482 -0.006083562 -0.002384964 0.010616808 -0.004610617 -0.00078057067 -0.0025547547 -0.013008958
0.0010657869 -0.0003277505 0.009262958 -0.0029514811 0.006622473 -0.003388507 0.009407292 0.0006572918
