checkpoints/epoch=39-step=2920.ckpt (torch, 259103 bytes, 103 tensors)

arch.conv.0.weight f4 [16, 16, 11]
000000 00 8d 7b 3d ae 27 85 3d 97 74 aa bc 17 33 82 3d
       0.061413765 0.06501709 -0.020807547 0.06357401
000010 5d d0 9d bc 50 f3 8d 3c 27 0c 0c bd c4 fe 35 3d
       -0.019264394 0.017327935 -0.034191277 0.044432417
000020 6f 0f 8d 3d ff 89 48 bd 3a 0f 94 3d 11 29 b5 3b
       0.06887709 -0.04895973 0.07229467 0.005528577
000030 f8 4c 45 3d e6 58 d8 3b 4d 7c f6 3c 0f df 8f bc
       0.048169106 0.0066023944 0.030088568 -0.017562417
000040 dd 76 6a 3d dd 7d 43 3c 4f b6 20 bd 67 25 36 3c
       0.057242263 0.011931864 -0.039236363 0.011117316
000050 b5 e4 32 bd 59 fd 97 bc 35 f4 fd bc c8 93 49 3d
       -0.043675143 -0.018553423 -0.031000236 0.0492132
000060 03 52 72 bd e0 35 15 bd 33 ce 9a bc bd 0d 0c bd
       -0.059160244 -0.036428332 -0.018897152 -0.03419279
000070 13 50 a5 3c 2e 34 86 bd 5b 9a 8e 3d e1 f5 8b bd
       0.020179784 -0.06552921 0.06963035 -0.06834007
000080 46 75 5c 3d 45 d3 c3 3c 2f ab 59 bc de ab 66 3d
       0.05382278 0.023904452 -0.013285442 0.05631625
000090 48 64 ae 3c dc 8a a3 3d ca 28 07 3d 2a 99 17 3b
       0.021288052 0.0798547 0.032997884 0.0023132064
0000a0 ed 56 3f 3d 4b b6 02 ba bd c8 28 3d 7c 07 9e 3d
       0.04671376 -0.000498627 0.041207064 0.07716271
0000b0 dc 23 97 3d 17 3a 86 ba 0a 0d 98 3d b9 93 2d 3d
       0.073798865 -0.0010240701 0.07424362 0.042377207
0000c0 79 4e 9e 3d 9f f9 0f bc 32 a5 1a bd 6e 87 58 3c
       0.07729811 -0.008787542 -0.0377552 0.013215883
0000d0 e9 21 53 bc 66 b7 cc 3d 67 fd 60 3d 9f 72 1b 3d
       -0.012886503 0.09995918 0.054929163 0.037951108
0000e0 b0 47 22 3d bd 34 8a 3c 95 4a 94 3d d4 47 2e bd
       0.039619148 0.01687085 0.07240788 -0.04254897
0000f0 dc 1c 90 3b 90 6d 7c bd 6e fa a4 3c a1 24 e3 bb
       0.0043979716 -0.061627924 0.020138945 -0.0069318567
000100 24 96 36 3d 9e 7c 6f bb 2a 58 1d 3d 01 22 90 bd
       0.04457678 -0.0036542783 0.038414158 -0.07037736
000110 59 e8 81 bd 76 f7 77 bd f6 f3 20 3d 13 a1 1f bc
       -0.06343145 -0.06053873 0.03929516 -0.009742993
000120 ef 83 11 3d 84 2e ce bd f2 11 da bd 20 35 a2 bd
       0.035526212 -0.10067466 -0.10647954 -0.07920289
000130 a7 17 90 bd 6f 04 26 bc db e7 9e bc 8b c7 a9 3c
       -0.07035761 -0.010132893 -0.019397667 0.020725032
000140 08 d8 8d bd 49 28 b9 bd db 2d 26 bb 72 28 86 bd
       -0.0692597 -0.09040887 -0.0025356922 -0.06550683
000150 23 da 35 3c 22 ed 79 bd fa 0c 41 3b d9 d5 b1 bd
       0.011099371 -0.061017163 0.0029457198 -0.08683366
000160 7e 7f 84 bd fe 68 1e bc 72 33 82 bc 14 23 2e bd
       -0.0646963 -0.009668587 -0.015893672 -0.04251392
000170 16 31 a7 3c 68 b9 da 3c 35 45 83 bd a5 91 3c bd
       0.020409148 0.026699737 -0.064096846 -0.046037335
000180 3a f6 3b 3d 89 92 4e bd 58 0e 26 bd 77 f4 93 bd
       0.045889117 -0.050432716 -0.040541023 -0.07224362
000190 bc 70 2d bd d2 a9 82 3c 1d 0b 48 bc d9 5e 68 bd
       -0.04234384 0.015950117 -0.012209681 -0.05673108
0001a0 97 63 98 ba b8 ab 4e bd 24 45 7a bd 7b 73 26 bd
       -0.001162636 -0.050456733 -0.061101094 -0.040637475
0001b0 e3 f9 81 bd 73 7b 3a bd cd cb af 3d f2 b4 fe 3c
       -0.0634649 -0.045527887 0.08583794 0.03109214
0001c0 91 29 20 3d a1 f7 70 bd 0b 97 1d bd b0 e2 8d bc
       0.03910214 -0.058829907 -0.038474124 -0.017320007
0001d0 34 c4 4a 3c d8 60 89 bd 7a 31 cd bc db 35 0a bd
       0.01237588 -0.067079246 -0.025048006 -0.033742767
0001e0 b8 5b b5 3b 97 1d 40 3b 7a f2 05 3d a4 85 4e bc
       0.0055346154 0.0029314512 0.032701947 -0.012605105
0001f0 2e a8 a2 bc 98 0d 4f bc 77 5a 89 3b 1c 4c 2f bd
       -0.019855585 -0.012637518 0.0041916925 -0.042797193
000200 ce 17 95 3d e6 38 7f 3b 7b 0b af 3d f9 db 13 3d
       0.07279931 0.0038943826 0.085471116 0.036098454
000210 0c 87 24 bd 67 bc 9b 3d dc 8d ad 3a e9 46 27 bc
       -0.040167853 0.07604294 0.001324113 -0.010209777
000220 4a 2d 2c bd 7e 5c 55 bd fd fb 1f 3d 2f fb 6f bb
       -0.04203538 -0.05209016 0.039058674 -0.0036618223
000230 fc 94 3b 3d f6 ef 39 bd 3c f1 91 3d 8c 76 49 bd
       0.04579638 -0.04539486 0.0712609 -0.04918532
000240 4a 15 10 bc ed 47 63 3c c8 63 0b 3d ec 2a 6e 3d
       -0.008794138 0.013872129 0.034030706 0.058146402
000250 a0 68 90 3d 4c 33 72 bd ab 8e 99 3c ab ff e9 bc
       0.07051206 -0.05913095 0.018744787 -0.028564295
000260 ff a8 0d bb 80 11 44 bd 51 fd 7b 3d 5f ca 84 bd
       -0.0021615622 -0.04786825 0.06152088 -0.06483912
000270 ab 8f be 3c 75 55 c8 3b 31 95 cb 3b d8 5b 5c bd
       0.023261866 0.006113703 0.0062128534 -0.053798527
000280 0d 3e 64 3d ec 3f 9d 3b 55 1b 6a 3b 7e 00 8e bd
       0.05572324 0.00479888 0.0035721858 -0.069336876
000290 89 3a 01 3d 0a f9 d6 3a 9e b1 a3 bc 37 50 a2 3d
       0.031549964 0.0016401124 -0.019982155 0.07925456
0002a0 dd 84 f3 3c 6c 5c aa bc 6f ce 40 bc 77 0c be 3c
       0.02972644 -0.020796023 -0.011767968 0.023199303
0002b0 77 9d 8d 3d aa d5 83 3b 10 29 e8 bc e1 5e 49 bc
       0.069148 0.0040232735 -0.028339893 -0.012290687
0002c0 ea 85 0b bd 86 63 48 3d 0b 0e a5 3d 9a 06 56 bd
       -0.034063257 0.048923038 0.08059319 -0.05225239
0002d0 60 7b ed 3c fd 01 3a 3d c5 91 98 3c 55 6f b3 bc
       0.028989494 0.045412052 0.018624196 -0.021903673
0002e0 52 be 3c 3d 11 c0 44 3d 8d 66 15 3d 12 c8 6d 3c
       0.04607994 0.04803473 0.036474753 0.0145130325
0002f0 e2 47 4e 3b d3 ad fa 3c 74 03 8a 3b 90 df 2c bc
       0.003147595 0.030600464 0.0042118374 -0.010551348
000300 c1 8f 80 3d 3e ea ad 3d 67 15 3a 3c 88 52 4f bb
       0.06277419 0.08491944 0.011357642 -0.0031634886
000310 24 b5 8d 3c 98 af c7 3c 29 94 ed 3c 2e 5c f1 3c
       0.017298289 0.024375722 0.029001312 0.0294629
000320 f0 b7 61 bd 51 db 5d bc 60 86 94 3d 0d a3 16 3d
       -0.055107057 -0.013541059 0.072521925 0.03677659
000330 9a 64 ef 3b 20 3c 04 bd 5c 18 0b bd d3 51 61 bd
       0.007305694 -0.032283902 -0.033958778 -0.055009674
000340 50 c7 dd bb e2 b2 60 3c 29 b3 16 3d 0b 52 05 3d
       -0.0067681447 0.013714524 0.036791954 0.032548945
000350 6b d6 7c bd 91 f6 36 bd b0 ac 82 bc 1e d6 91 3d
       -0.061727922 -0.044668738 -0.015951484 0.07120918
000360 e1 16 52 3c c4 6d 7c bc 26 ba 0b 3d 56 d1 e7 bc
       0.012822838 -0.01540703 0.03411307 -0.028298061
000370 ad e0 ba bd 47 96 87 3c fe 89 88 bd 6b b6 0f bd
       -0.09124885 0.01655115 -0.06666945 -0.035086077
000380 47 41 be bd f6 03 f3 3c 92 92 1c 3d dd 27 16 3c
       -0.092897944 0.029664975 0.038225718 0.009164778
000390 b7 65 90 bd 62 5c bc bd c7 d2 b3 bd ff f0 03 3d
       -0.070506506 -0.09197308 -0.08780437 0.032212254
0003a0 9c 37 5e 3c b5 3b 18 3d f3 5b 7b 3c c9 b8 a4 3b
       0.013563063 0.037166316 0.015341747 0.005026911
0003b0 40 d4 88 bb 3b 2c 83 bd e4 7c b0 bd 11 05 c0 bd
       -0.004175693 -0.06404921 -0.08617571 -0.09375966
0003c0 3e ab 72 3c f6 5c 6c bd 5a 82 81 3c a7 da 3e bc
       0.014811335 -0.057705842 0.015809227 -0.0116488105
0003d0 9a db 12 3c d9 57 24 bd 9a b1 df bc 6b 99 54 3d
       0.00896349 -0.04012284 -0.027306367 0.051904123
0003e0 ba d8 ed ba 68 33 80 3d 12 02 23 bc 8e 4d 1c bd
       -0.0018146255 0.06259805 -0.009949224 -0.0381599
0003f0 26 94 4a 3c 2a e0 0f 3c 82 5c aa 3c 4b bd d7 bc
       0.012364423 0.008781472 0.020796064 -0.02633538

arch.conv.1.weight f4 [16]
000000 c6 e3 80 3f bf f0 7c 3f 14 c1 7a 3f a5 d0 82 3f
       1.0069511 0.9880485 0.97950864 1.0219923
000010 81 9c 81 3f f2 48 7c 3f 20 33 80 3f 6c 06 77 3f
       1.0125886 0.98548806 1.0015602 0.96494174
000020 9e 79 81 3f d7 c2 81 3f c4 77 7e 3f 9d 7f 7c 3f
       1.011524 1.0137585 0.994015 0.9863222
000030 02 21 81 3f 1b 73 81 3f 98 04 7c 3f 6e 39 7c 3f
       1.0088198 1.0113252 0.9844451 0.9852513

arch.conv.1.bias f4 [16]
000000 27 d4 6c 3c 5e 76 af 3b 25 7a db 3c d3 3a 85 3c
       0.014454878 0.0053546866 0.026791641 0.016263401
000010 c9 4e 61 3d 40 67 03 bd 0a e1 4a bb 2f f6 86 bd
       0.055006776 -0.03208089 -0.0030956888 -0.065899245
000020 92 4a 68 3d 08 98 69 3d 76 fe ae 3c a7 a2 10 3d
       0.05671174 0.057029754 0.02136157 0.035311367
000030 28 27 da 3c 04 d1 92 3d cd a9 f6 3c 6f 84 b5 3b
       0.02663 0.07168773 0.030110264 0.005539469

arch.conv.1.running_mean f4 [16]
000000 2e 21 1e 3d 10 80 8d be 5b 8f 1e 3e b5 76 09 bf
       0.03860586 -0.27636766 0.15484373 -0.5369676
000010 ee aa 03 bf 40 49 7c 3f 92 ca 21 3f fc fe 83 3f
       -0.51432693 0.9854927 0.6319972 1.031219
000020 9c 86 dc be 8b e8 a1 be c6 3b db 3e cf d5 aa be
       -0.4307145 -0.3162273 0.4281904 -0.33366248
000030 b3 62 84 be ee de b5 be d2 c3 7f be 77 a5 47 3f
       -0.25856552 -0.35521644 -0.24977043 0.77986854

arch.conv.1.running_var f4 [16]
000000 b6 97 75 44 bb d3 22 44 cb 4c be 43 2d 9e 60 44
       982.3705 651.3083 380.59995 898.4715
000010 93 67 29 44 16 e9 77 44 68 65 04 44 67 b5 2e 44
       677.61835 991.64197 529.5845 698.8344
000020 b7 9d b2 43 32 81 d6 43 b8 f2 b8 43 0c 7f 7c 43
       357.23215 429.00934 369.89624 252.49628
000030 ac 8d 1d 44 05 f6 c5 43 2c a4 5f 43 68 2e 02 44
       630.2136 395.92203 223.6413 520.7251

arch.conv.4.weight f4 [32, 16, 11]
000000 0f 86 71 3d 0c 47 07 bd 77 0d de bc 5c 49 81 3d
       0.05896574 -0.03302674 -0.02710603 0.0631282
000010 92 e4 10 3d a7 9c 18 bd a1 6b d8 3c 68 98 29 3d
       0.03537423 -0.03725877 0.026418509 0.04140511
000020 35 df 81 bd f2 11 91 3c 43 c5 ac 3c b4 05 c2 bc
       -0.063414015 0.017708752 0.021090155 -0.02368436
000030 92 12 53 3d c9 86 8b bd 10 2b c3 3c d8 69 61 bd
       0.051531382 -0.068128176 0.023824245 -0.05503258
000040 11 07 a1 bd 62 27 0b 3d 08 79 5e bd 3f 5d 66 bc
       -0.07862676 0.033973105 -0.054314643 -0.014060318
000050 fd c8 ac 3c 22 4b ad bd 86 2a 80 bd 26 81 e2 3c
       0.021091932 -0.08461596 -0.06258111 0.027649473
000060 44 02 8f 3d eb ad d6 bb 9e f7 51 3d d1 ff df 3c
       0.06982854 -0.0065514944 0.051261537 0.027343662
000070 e4 03 d1 3c 20 be 33 bd 50 b0 99 3d bf ff 24 3d
       0.02551455 -0.04388249 0.07504332 0.04028296
000080 b3 b7 b1 3c 05 9e d7 3c ec 5d ba bd e4 33 24 bc
       0.02169404 0.026320467 -0.090999454 -0.010022137
000090 3e d1 78 bd 5b 66 06 bd 4e 10 c9 b8 4a d6 12 3c
       -0.060746424 -0.032812458 -9.587464e-05 0.008962223
0000a0 9d 1a 16 bc 58 d3 b3 bd 92 fd 9f bd 86 fe 00 bd
       -0.009161619 -0.08780545 -0.078120366 -0.031492732
0000b0 7e 95 c6 3a 19 7e 4c bd cf a9 af 3d 43 b5 8d 3c
       0.0015150753 -0.049924944 0.0857731 0.017298346
0000c0 77 c5 36 bd 14 4d 2b 3d 7c a6 25 3d 0c 08 fa bc
       -0.04462191 0.041821554 0.040441975 -0.030521415
0000d0 15 3a 35 3d 72 ec 20 bd 30 b8 0e 3d f9 9e 7b 3d
       0.044244844 -0.03928799 0.034843624 0.061430905
0000e0 34 a7 20 3d 8f e8 c6 3c 84 9c e0 bc 0f 72 66 3b
       0.039221957 0.024280814 -0.027418382 0.00351632
0000f0 33 06 8d 3c a4 0c d5 3b ea 19 f7 bc d4 23 52 bb
       0.01721487 0.006501751 -0.030163724 -0.0032064812
000100 4c 96 2b bd c0 55 5d bd cf 83 af bd 5f 73 9b bd
       -0.04189138 -0.054036856 -0.08570062 -0.07590365
000110 3e a5 7e bd f9 b7 59 3d 54 99 00 bb 29 eb a4 bd
       -0.062169306 0.053153966 -0.001962264 -0.08052666
000120 99 82 53 bd f0 05 59 3b 76 06 17 bd 66 c7 1e bd
       -0.05163822 0.0033115111 -0.036871396 -0.03876438
000130 17 f0 48 bd ea 44 e1 bc fd 18 33 bb 00 93 f0 bb
       -0.049057093 -0.027498681 -0.0027328127 -0.0073417425
000140 51 95 21 3d 67 5c 23 3d 01 f8 57 3d e4 45 53 bc
       0.03944904 0.039883044 0.05272675 -0.012895081
000150 f1 37 22 bd 55 56 87 bb b1 45 62 bd 5a a3 be 3c
       -0.03960413 -0.0041301646 -0.055242244 0.023271251
000160 37 8d cf 3b 56 9e 0d bc 75 98 4a bd 27 7c 4a 3d
       0.006333973 -0.008643707 -0.0494618 0.049434807
000170 69 69 66 3d a1 61 a6 3d d9 88 61 bc d4 fe 16 3d
       0.05625287 0.0812409 -0.013765537 0.036864117
000180 94 b0 a8 3c de f5 e2 bc 29 13 d5 bc 6e 5e 68 3d
       0.020592012 -0.02770513 -0.026010113 0.05673068
000190 ca ce e3 bc d5 f6 8b 3d 43 2b 26 3d 04 18 2b 3d
       -0.027808566 0.06834189 0.0405686 0.04177095
0001a0 a2 51 84 3d e2 1f 4b 3d 46 8d 38 3d c9 34 5d 3d
       0.06460883 0.049590953 0.045056604 0.054005418
0001b0 dd 48 85 bc d0 e6 c9 bc 65 2b 27 bd 0e 87 79 3c
       -0.016270095 -0.024646193 -0.04081287 0.015229953
0001c0 c0 18 d4 3c 20 e3 f2 3c 6a 44 44 bd 2c f0 08 bd
       0.025890708 0.029649317 -0.047916807 -0.03343217
0001d0 f6 97 9e bd b1 78 ac 3c a6 95 99 bd 40 ab 66 bd
       -0.07743828 0.021053644 -0.07499246 -0.05631566
0001e0 54 ee 15 3d 09 15 00 3d 6d b3 9a bc 22 6e 21 bd
       0.03660424 0.03127006 -0.018884385 -0.03941167
0001f0 bc e1 2b bd de 98 8b 3d f5 8f 80 bd ea e6 8d 3d
       -0.041963324 0.068162665 -0.062774576 0.06928809
000200 64 61 85 3d 21 75 37 3c d0 ac 90 39 5f dd 85 3d
       0.065127164 0.011197359 0.00027594576 0.06536364
000210 e8 2e e3 ba ad 69 17 3d e5 3a e1 3c 87 a0 a8 bd
       -0.0017332705 0.036966015 0.027493903 -0.08233743
000220 9f 41 72 3c 0a 30 e9 3b 7a 91 b2 bd 78 fa 17 ba
       0.014786153 0.0071163224 -0.08719154 -0.00057975156
000230 27 1c 9b bd ee 4e a6 bd 7a 10 18 bd 8f 4c 60 3c
       -0.07573729 -0.081205234 -0.03712509 0.013690128
000240 78 15 01 3a b7 22 fd bc e8 44 6e 3d e7 d3 bb 3d
       0.00049241586 -0.030900342 0.058171183 0.091712765
000250 89 82 5a 3a 69 52 03 bd 86 68 86 3c 6f 14 31 bd
       0.00083354913 -0.032061014 0.016407263 -0.043232378
000260 e4 eb 1c bd 1a 8f c3 ba ae 3f 6c 3d b2 26 40 bd
       -0.0383109 -0.0014919967 0.057677917 -0.046911903
000270 1f 9a 2f bb 1c df fc bc 8b ed 7b bd 3d da 42 bc
       -0.0026794744 -0.030868106 -0.061505836 -0.011892852
000280 b6 f2 77 3a dc c8 73 bb 84 92 86 3d d1 67 29 3d
       0.0009458469 -0.003719858 0.065709144 0.041358773
000290 34 7e 75 3d 0b e8 2c 3c 11 6b 38 bc 2e d4 b2 3c
       0.05993481 0.01055337 -0.011255995 0.02182969
0002a0 c7 74 85 bd cd f5 bd 3c 12 7b b1 3c 5d 08 3f bd
       -0.06516414 0.023188496 0.02166513 -0.046638835
0002b0 64 66 84 bc 87 b7 8f bd 33 82 a2 bd 9a 1c 73 bc
       -0.016162105 -0.07017427 -0.0793499 -0.014838362
0002c0 84 c7 73 3c 7e e9 6d bc b1 ce d1 3c b8 fe 5e bd
       0.014879111 -0.014521001 0.025611253 -0.054442137
0002d0 5a c6 12 bd 83 30 72 3d d8 b9 88 bd e6 5f 8c 3c
       -0.035833694 0.059128296 -0.06676072 0.017135572
0002e0 7b 71 7b 3d 92 6b 74 3d ba 13 da 3c c2 22 0f bd
       0.06138752 0.0596729 0.026620734 -0.034945257
0002f0 72 a1 2d 3d 06 a1 90 3b ad 0f cc 3b d8 24 ae 3d
       0.042390294 0.0044137267 0.0062274546 0.08503121
000300 63 8a cb 38 46 79 f1 bc ea 0d 06 bd 1e bf 9d 3d
       9.705571e-05 -0.029476773 -0.032728113 0.07702468
000310 7e 93 fb 3c 9f 84 ce 3d 91 ba 9e 3b 2b 59 9f bd
       0.030709978 0.10083889 0.004844018 -0.07780679
000320 77 8b 25 3c 1e 8e 6a 3d 91 90 19 3d 8b b9 71 3c
       0.010104052 0.05726444 0.037491385 0.01475371
000330 41 f5 89 bd ec 43 6f bd 49 df 15 3d 5f 5a 82 bd
       -0.067362316 -0.058414385 0.036589894 -0.06364893
000340 e4 8e a4 3a 93 66 1a 3c cd 47 30 3d 00 d4 bb 3c
       0.0012554792 0.00942387 0.043037225 0.022928238
000350 62 31 22 bd 3c 17 5b bc b2 31 a4 3d a7 02 c5 3c
       -0.039597876 -0.013372239 0.08017291 0.024049116
000360 6a 60 67 3d 90 ba 99 bc e9 57 a2 3d 12 1f a1 3b
       0.056488432 -0.018765718 0.07926924 0.004917034
000370 fd a7 55 bd e8 35 2e bc f4 02 5d bd cf 4f 62 bd
       -0.05216216 -0.010632969 -0.053957894 -0.055251893
000380 31 43 fd bc 74 56 c1 bc 2c 03 81 bd 2a c0 98 3b
       -0.030915828 -0.023600794 -0.06299433 0.0046615796
000390 fc 3e be bd 1a 58 d1 3c 12 9c 42 3d 79 fe 1e 3b
       -0.09289357 0.025554705 0.04751212 0.0024260564
0003a0 c6 1d ed bc 3e 85 a5 bd 21 65 ce 3c 10 1e 55 3d
       -0.028944861 -0.080820546 0.025194706 0.052030623
0003b0 75 bd 63 3d 58 ca de 3a 73 9b af 3c b7 8a 8d 3d
       0.055600602 0.0016997559 0.021436429 0.069112234
0003c0 f8 f8 f9 3b 7e 56 21 bd b3 74 82 bd 8b 06 30 3d
       0.0076285563 -0.039389126 -0.06369915 0.04297499
0003d0 b8 ef 1c 3d 8b ec 98 3d ae 09 e5 bc ba 6f 2f 3d
       0.03831455 0.07466992 -0.027958717 0.04283116
0003e0 e5 80 84 bc 7a cd fd bb d9 92 6b 3d 31 e5 59 bd
       -0.016174743 -0.007745442 0.05751309 -0.05319709
0003f0 df de 93 3d 94 eb 6b 3d 7d 82 bc bc 1c f1 85 3d
       0.07220244 0.05759771 -0.02301144 0.065401286

arch.conv.5.weight f4 [32]
000000 cb 1f 84 3f 10 60 84 3f be cc 7c 3f c8 f5 81 3f
       1.0322202 1.0341816 0.9874991 1.0153131
000010 42 75 83 3f 8e 66 82 3f 8b 3a 81 3f 0f 79 84 3f
       1.0270159 1.0187547 1.0095991 1.0349444
000020 b3 6c 7f 3f 2a e4 7c 3f 9d 53 79 3f c0 b2 7c 3f
       0.99775237 0.9878565 0.9739321 0.9871025
000030 8a de 81 3f 80 97 81 3f bf bb 7f 3f 01 69 81 3f
       1.0146039 1.0124359 0.9989585 1.011017
000040 71 93 7c 3f 73 99 7a 3f 4c f1 80 3f 17 03 81 3f
       0.9866248 0.97890395 1.0073638 1.0079068
000050 92 1f 7e 3f d8 37 88 3f 9c 27 80 3f 1e ef 7e 3f
       0.9926692 1.0642042 1.0012088 0.99583614
000060 5e 65 7f 3f d5 a7 81 3f 49 6f 81 3f 59 db 78 3f
       0.9976405 1.0129343 1.0112087 0.972097
000070 fb ac 81 3f 17 e3 75 3f 1d 3d 83 3f a5 e2 80 3f
       1.0130914 0.96049637 1.0253025 1.0069166

arch.conv.5.bias f4 [32]
000000 0e 45 fa 3b d5 97 50 bc 9c 4a 7d bc 15 58 06 bc
       0.0076376265 -0.012731512 -0.015459683 -0.008199711
000010 0d 18 87 bb d1 0f 13 ba 6b b4 53 3b 33 9a b4 bb
       -0.00412274 -0.0005609962 0.0032303582 -0.005511546
000020 42 13 d6 ba bc 13 25 bc 49 c2 93 3c 20 f2 42 3a
       -0.0016332644 -0.010075506 0.018036978 0.0007436592
000030 0d 4a 12 3c 85 1b 3c 3c bd 3d ea bb 0c 30 86 3c
       0.008928788 0.011481171 -0.007148473 0.016380332
000040 28 ec ab bc 1c 20 4c 37 1d aa cb bc 50 8d 64 bb
       -0.020986632 1.2166824e-05 -0.02486139 -0.0034874268
000050 5c c9 45 3a a2 01 cb ba 24 0e 5e 3c 58 08 18 bd
       0.00075449585 -0.0015488158 0.013553176 -0.037117332
000060 78 cf a4 3c 67 89 88 bc 2d d4 9c bb a2 af 31 bc
       0.02011846 -0.016667081 -0.0047860355 -0.010845097
000070 85 40 82 3b c1 5c 98 bb cd 04 48 bb 79 19 58 bb
       0.0039749765 -0.004649729 -0.003052044 -0.0032974167

arch.conv.5.running_mean f4 [32]
000000 e2 f0 2f be 89 e6 f6 3d b4 95 8a 3d 52 b9 d7 be
       -0.17181733 0.1205569 0.06766835 -0.42133576
000010 39 cf b5 bd d8 97 11 3f 51 1c 9d 3e e6 b4 16 be
       -0.08877415 0.5687232 0.30685666 -0.14717445
000020 83 ac 8a be 39 d6 93 be 6a 9e 67 be 31 c2 4d 3e
       -0.2708474 -0.28874376 -0.22619024 0.2009361
000030 ea f1 0a 3f 23 33 08 3f a1 d9 3f 3e a5 6c e6 3e
       0.5427538 0.5320303 0.18735363 0.45004764
000040 a4 7b 87 be 8b 71 18 3f bd 45 22 3f fd 91 83 be
       -0.26461518 0.5954825 0.6338766 -0.25697318
000050 e0 25 27 3f bb bb c8 3e 51 eb 52 3e b2 04 b0 3e
       0.6529217 0.39205727 0.20597579 0.34378582
000060 46 b7 16 bf be 86 e8 3d 13 64 d5 3e 14 a4 78 be
       -0.58873403 0.11353825 0.41677913 -0.24281341
000070 a9 51 a0 be fa 8c ab 3d 65 3d 5e be 39 87 32 3f
       -0.31312302 0.083764985 -0.21703108 0.69737583

arch.conv.5.running_var f4 [32]
000000 2c 31 95 3f f4 76 8e 3f 72 61 a0 3f a6 f5 84 3f
       1.1655631 1.1130052 1.2529738 1.0387466
000010 74 5d a1 3f a3 b4 71 3f f7 c5 8f 3f 8e b8 b8 3f
       1.2606645 0.94416255 1.1232289 1.4431322
000020 7e fd f4 3e 6a e7 ec 3e 15 da 1e 3f 52 49 4c 3f
       0.4784965 0.46270305 0.62051517 0.7979938
000030 aa 2e b5 3f 2c 76 e3 3f 0c 8b 50 3f 8c 7c 9d 3f
       1.4154866 1.7770438 0.8146217 1.2303634
000040 50 c1 a2 3f 86 5b 81 3f 91 46 99 3f c5 fa 64 3f
       1.2715244 1.0106056 1.197466 0.89445144
000050 69 f6 e1 3f 5d c2 f3 3f 40 e4 8d 3f bf 63 2f 3f
       1.7653323 1.904369 1.1085281 0.68511575
000060 f3 eb 2d 3f 48 67 4c 3f 2b e7 8e 3f e4 9d 03 3f
       0.67938155 0.79845095 1.1164297 0.51412797
000070 a7 ee a2 3f b9 0b 15 3f 0d 57 b8 3f 36 f4 60 3f
       1.2729081 0.5822101 1.4401566 0.87872636

arch.transformer.1.attention.in_proj_weight f4 [96, 32]
000000 3c 1a 5d 3e 09 83 51 3d 79 f8 f8 bd 36 fc b0 3c
       0.21592039 0.051150355 -0.121567674 0.021604639
000010 d2 80 c5 3a a0 33 3c 3e 27 f8 d0 3d 62 21 25 3e
       0.0015068299 0.18379068 0.10203581 0.16126016
000020 9e 38 34 3b d1 cd 32 be 6a ca 00 be 17 fd 5f 3e
       0.0027499567 -0.17461325 -0.12577215 0.2187389
000030 11 b4 68 3e 7b e8 b6 3d 5f de 5a be ca e2 0d 3e
       0.2272494 0.08931061 -0.2137389 0.13856044
000040 42 ee 38 3d 4a e1 27 be 78 df 22 3d d1 a5 22 3e
       0.045149095 -0.16394535 0.039763898 0.15883566
000050 7c 85 13 be a6 d7 3f ba 00 31 88 3d 3e a3 e6 bd
       -0.14406389 -0.0007318206 0.06649971 -0.11261605
000060 4b 6b 92 3d d9 4c 15 3e 13 9c 73 3e 27 a2 57 be
       0.07149371 0.14580096 0.23790006 -0.2105795
000070 69 9f 1d bc f7 df 1d 3e 14 41 16 3e 35 7c b2 bd
       -0.009620526 0.15417467 0.14673263 -0.08715097
000080 ed ac 1d 3e 6f b9 1c 3e b0 a7 a8 bc 13 2d 17 3e
       0.15397997 0.15305112 -0.020587772 0.14763288
000090 1b 57 cb 3d 68 6e 8c bd 95 86 a8 bd de f0 03 be
       0.099287234 -0.06856996 -0.082287945 -0.12884852
0000a0 41 b6 1a be c4 a5 ef bd c3 8b 90 3d 3e ea 14 3d
       -0.15108587 -0.11701539 0.070579074 0.036356203
0000b0 e7 73 aa bd 16 fd a3 bc 0a ff 2d 3e 6c 93 b6 3c
       -0.08322888 -0.020018142 0.16991821 0.022287093
0000c0 ed ec 15 be 9b 81 46 3e d7 0a 0b 3e 1f 40 fb 3c
       -0.14641161 0.19385378 0.13578354 0.030670224
0000d0 2f 4e dd 3d 1e e7 2c be fc 96 02 3e 28 7d 9c 3d
       0.10805928 -0.16885039 0.12752908 0.07641059
0000e0 61 cc 6c 3c 59 bb 67 bd dc e5 48 3e 42 7f 8c 3d
       0.014453025 -0.056575153 0.19618934 0.0686021
0000f0 af 89 03 be b2 d3 ea 3d ef 40 d4 3c f0 51 9e bd
       -0.12845491 0.11466159 0.025909869 -0.07730472
000100 4e 93 1a 3e 8e 6f 60 3e 85 85 d9 bc f8 b8 a5 bd
       0.15095255 0.21917555 -0.026552925 -0.080919206
000110 30 c9 db bd 18 92 fa bd 83 8a db 3d 46 77 17 3e
       -0.10731733 -0.122348964 0.107197784 0.14791593
000120 aa 75 da bd d5 f6 0f 3e 67 70 13 3d ff 37 ee bc
       -0.10666974 0.14059003 0.035995867 -0.029079435
000130 e4 d6 ac bd 1b d4 61 be b7 d0 32 be a0 af 2c 3e
       -0.08439425 -0.22053568 -0.17462431 0.1686387
000140 1e 03 36 bc cd 66 13 bd 0d 3f c4 bd 37 13 96 bc
       -0.011109142 -0.03598671 -0.095823385 -0.01831971
000150 05 de 73 bd 88 ee 09 3d 1c d1 43 be da 24 6d 3d
       -0.059537906 0.033674747 -0.19122738 0.057896473
000160 9a fd 23 be 0e 8f f5 bd c3 21 99 bc 13 56 c7 3c
       -0.1601471 -0.11990176 -0.018692857 0.024333036
000170 72 bd 20 bd 26 2e 20 3e e3 48 f3 3c bf 72 82 3d
       -0.03924317 0.15642604 0.029697841 0.06369542
000180 25 7b d7 3d 11 f8 06 3a b7 d0 3e be dc 7f c8 bd
       0.10521535 0.0005148659 -0.18634306 -0.09790012
000190 74 ef e6 3d 53 e6 c1 3d 8c 35 c1 3d 61 80 36 3e
       0.11276141 0.09467759 0.094340414 0.1782241
0001a0 5e 61 85 bd 81 66 5c bd 6b 96 c2 bb 9c c0 95 bd
       -0.06512712 -0.053808693 -0.0059383414 -0.07312128
0001b0 96 4b 51 3e 79 d9 47 be f0 17 0f 3d 52 f5 69 3e
       0.2043899 -0.19516553 0.034934938 0.22847489
0001c0 33 16 0f be 66 ad 37 3e 11 3e 43 be 0f 1e e5 3c
       -0.13973312 0.1793724 -0.19066645 0.027968435
0001d0 64 47 ed bd fe 9a b0 3d 69 a3 7b 3d bc 6c 57 3d
       -0.11585882 0.086233124 0.061435137 0.05259393
0001e0 5d f2 ca bc 91 e0 68 bd 27 07 4b be 06 4b 3c 3d
       -0.024773771 -0.05685479 -0.19826947 0.045969985
0001f0 e8 49 4a 3e 80 62 14 be 08 2a af bd 04 ba 67 3d
       0.19754755 -0.144907 -0.08552939 0.056573883
000200 91 3d de 3d 4a 75 af 3d 8e 08 14 3e 66 70 e4 3c
       0.108515866 0.08567293 0.14456388 0.027885627
000210 53 d8 1b bd 4f 83 35 be 9b 9f 58 be 57 e0 16 be
       -0.0380481 -0.17725872 -0.21154635 -0.14734016
000220 a9 9c 1d 3e 33 28 4d 3e 3f 80 64 3e 05 bc 29 3e
       0.15391792 0.20034866 0.22314547 0.1657563
000230 aa 20 a2 3c 1d bf 12 3e f9 fa 9e 3d 38 af e4 bd
       0.019790966 0.14330716 0.07762713 -0.11166233
000240 36 6c 6c bd 9b b2 43 be 31 37 3b 3e 86 4c 23 3d
       -0.057720385 -0.19111101 0.18282773 0.0398679
000250 6d 1d 25 3e 0d ac 4e bd 98 3a 1d 3e 71 a4 a8 3d
       0.16124506 -0.05045705 0.15354383 0.0823449
000260 b0 b8 c5 bc 7c ff 75 bc a9 98 0b 3e 63 66 02 bd
       -0.024135917 -0.0150145255 0.13632454 -0.031835925
000270 fd a2 43 3e 7a f5 fa 3c e9 ed a3 bd 3f 3a f2 bd
       0.19105144 0.03063463 -0.08004362 -0.11827516
000280 51 34 c6 bd d1 7f 07 3e a2 23 36 3e c9 e1 c2 bd
       -0.09677947 0.13232352 0.1778703 -0.09515721
000290 14 61 4e be d2 16 08 3e 81 31 2e bd c6 0c 58 be
       -0.2015422 0.13289955 -0.04252768 -0.21098623
0002a0 0e 0f 4e 3d 46 49 68 bd 5a 75 09 3e ed ef 60 3d
       0.050307326 -0.056710504 0.13423672 0.05491631
0002b0 76 35 e4 bd 27 d5 b0 bc 8f 0d 12 be 5b 95 ca 3d
       -0.11143009 -0.021586014 -0.14262985 0.098917685
0002c0 72 f1 80 3d 46 e8 1c 3e ef 60 2a be d0 e0 0d be
       0.06296052 0.1532298 -0.1663854 -0.1385529
0002d0 a7 83 22 be aa d8 40 be ff 5f 5c be a0 3c 3e be
       -0.15870534 -0.18832651 -0.21520995 -0.18577814
0002e0 aa f2 14 3e 39 30 aa bd 00 ea 20 bd 2b 2c 0b 3d
       0.14545694 -0.08309979 -0.03928566 0.03397767
0002f0 b7 4a 26 3d be 7d 9e 3d c8 bf 1a be 25 44 3a 3e
       0.040598597 0.07738827 -0.15112221 0.18190058
000300 82 36 fe bb d9 70 de bd dc 85 f8 3d 4c b7 36 be
       -0.0077579627 -0.10861368 0.12134907 -0.1784336
000310 cf 8d 08 be 5f 84 b5 3d 63 e2 a7 3d 0b ca a7 bd
       -0.13335346 0.088631384 0.08197477 -0.081928335
000320 62 80 e2 3b f4 08 0b bd d5 6c e6 3d 19 d9 37 3c
       0.006912277 -0.033944085 0.11251227 0.011221194
000330 ff 32 5d 3d 42 43 2b 3e cc 0e f6 bd 1c 22 23 be
       0.05400371 0.16724876 -0.12014541 -0.1593098
000340 6a 41 9d bc 4d fd da bd e8 44 e8 bd bd 03 6d 3e
       -0.01919623 -0.106928445 -0.11341268 0.23145957
000350 57 c1 5d 3e 7c b3 59 3e 72 6e e4 bd 10 e9 fa 3c
       0.21655785 0.21259874 -0.11153878 0.030628711
000360 24 a9 ff bd 05 9d 02 bd 6b 99 4d 3e f8 67 b2 3d
       -0.12483433 -0.031888027 0.20078056 0.08711237
000370 f8 4c aa 3d 62 d7 30 be b5 85 bc 3d f8 31 36 3e
       0.08315462 -0.17269662 0.0920519 0.17792499
000380 4a 33 b1 bd 22 81 32 3e b9 53 b8 3d a6 cd 14 be
       -0.08652361 0.17432073 0.09000344 -0.14531574
000390 58 66 1f be bc ff a7 3b 1d bf 68 be 5e 03 1a be
       -0.15566385 0.0051269215 -0.22729154 -0.15040347
0003a0 c5 84 87 3d 16 e9 6d bd 77 75 14 bc 9b fb a8 bd
       0.06617121 -0.058083616 -0.009061209 -0.08251115
0003b0 15 39 04 3e 47 f6 20 3e cd 97 18 3e e9 20 58 be
       0.129124 0.15718947 0.14901657 -0.21106304
0003c0 c1 69 41 bd 0c 10 b1 3d 20 48 13 3e bd 94 0e bd
       -0.047219995 0.08645639 0.14382982 -0.034809817
0003d0 d1 f6 fc 3d aa 12 c7 bb d1 49 a3 3c 97 48 27 3e
       0.12351764 -0.006075223 0.01993266 0.16336285
0003e0 9e 98 1c 3e 12 ff 17 be 05 f3 f8 bd 5e 13 b2 3d
       0.15292594 -0.14843395 -0.12155727 0.086951
0003f0 fe af 0d 3e ab ba 42 bd 2a 68 3c 3e 8b 47 a4 bc
       0.13836667 -0.0475413 0.1839911 -0.020053646

arch.transformer.1.attention.in_proj_bias f4 [96]
000000 85 07 10 bd eb ed 4d 3c 91 5a 0f 3d 5d c7 0c 3c
       -0.03516342 0.012568931 0.03499848 0.008592454
000010 39 7c a5 bc ab b2 c4 bc d8 1f 42 3d df d5 1b 3c
       -0.020200836 -0.024010977 0.04739365 0.00951144
000020 97 38 d4 b9 d2 6c 9f 3c 7f 84 aa bc fc b2 00 3d
       -0.00040477954 0.01946107 -0.020815132 0.031420693
000030 e1 f8 78 bd b7 50 19 3d 57 32 cf bc bb 21 e3 3a
       -0.060784224 0.03743049 -0.025292559 0.0017328778
000040 aa 03 9c 3b 4c a3 b3 3c b5 07 6a bd fd e1 7d bc
       0.004761179 0.021928452 -0.057136256 -0.015495774
000050 8b 8d 27 3d 07 0e 55 3d f7 56 91 3c 99 e8 40 3d
       0.04090647 0.05201533 0.017741663 0.047096822
000060 98 b8 ca bc 8c 69 e1 3c 80 dd e2 bb 90 00 09 3c
       -0.024746224 0.027516149 -0.0069233775 0.0083619505
000070 a1 2d 47 3c 88 57 95 3c 9a 26 8d ba 6f 72 2d 3c
       0.012156875 0.018230215 -0.001076895 0.010586365
000080 d5 33 04 38 d6 21 2a b7 f5 10 8a 37 01 02 da 37
       3.1519525e-05 -1.0140668e-05 1.6458778e-05 2.5988558e-05
000090 a2 b8 70 b7 d1 a2 0b 36 39 5b 9d 37 0e 58 a6 b7
       -1.4348103e-05 2.0807386e-06 1.8758337e-05 -1.9829746e-05
0000a0 ab 46 a8 39 da 0d 3a b9 06 10 fc 38 dc 8c 95 b9
       0.0003209611 -0.00017743502 0.00012019281 -0.00028524443
0000b0 f1 49 e3 b7 c6 5a ab 38 ed 68 8d b9 a5 8b 40 b9
       -2.709494e-05 8.170823e-05 -0.00026971792 -0.00018362569
0000c0 c5 60 a9 36 a1 f0 b3 37 6a 9c 3d b7 50 e1 7a b8
       5.047858e-06 2.1450514e-05 -1.1301696e-05 -5.9814483e-05
0000d0 8c 4c 55 37 e3 8f 19 b9 38 ad f5 35 3b cb b1 b8
       1.2713612e-05 -0.00014644819 1.8304336e-06 -8.477872e-05
0000e0 19 be 9d b7 0a bf 11 39 f2 56 9e 37 0f 6d 5a b9
       -1.880438e-05 0.00013899445 1.8875555e-05 -0.00020830728
0000f0 71 62 05 b9 ad 3b ad 38 4d 2b 31 38 b0 77 25 39
       -0.0001272054 8.260398e-05 4.2240415e-05 0.00015780213
000100 b6 6c 67 ba 6c 57 43 39 d3 92 db b9 4c ff b5 3b
       -0.000882815 0.00018629216 -0.00041880328 0.0055541154
000110 0b c3 e3 3b 73 f6 58 3c e3 2f 53 3c 32 90 8f bb
       0.006950741 0.013242352 0.012889835 -0.004381203
000120 68 ba e1 bb e9 51 37 3a 62 a9 a2 b9 c7 ff af bb
       -0.0068886764 0.00069931016 -0.00031025248 -0.005371067
000130 ef 11 30 3c 26 07 52 39 42 83 38 bc b2 af 6c 3c
       0.010746463 0.00020029824 -0.011261763 0.014446186
000140 78 59 01 bc 1f d7 49 bb 6c 44 94 bc 90 df 98 bb
       -0.007894866 -0.0030798388 -0.018099032 -0.0046653226
000150 5c 4f 31 bb 3a 54 d8 bc a2 15 53 bc 7b 9a 7b bc
       -0.0027055359 -0.02640735 -0.012883576 -0.015356655
000160 af 3b bd 3b 6c 16 26 bc 1b df 7c 3c 34 fd 82 3b
       0.005774937 -0.010137182 0.015434052 0.0039974693
000170 6f 84 e7 bc 0d 05 71 3b 2c bc b6 3c ff 84 42 3d
       -0.028261391 0.0036776692 0.022306524 0.047490116

arch.transformer.1.attention.out_proj.weight f4 [32, 32]
000000 4b a6 a8 bd ba 52 9f 3d 2c 9a 08 3e 45 d4 f3 3d
       -0.08234843 0.07779451 0.13340062 0.119057216
000010 54 7c 3d bd 6a bd 08 be 0a f1 13 be ef c4 fe bc
       -0.046261147 -0.13353506 -0.14447418 -0.031099765
000020 f3 17 38 bd 63 b0 06 be a3 5d 36 3d 21 cd 80 bd
       -0.044944715 -0.13153224 0.044522893 -0.06289125
000030 25 4d 4c 3d 1f 3b c0 bd 5a 49 8f bc e1 cd 55 bd
       0.04987826 -0.093862765 -0.017491031 -0.052198295
000040 50 21 e7 3d 9b 5c 2a be d4 06 a7 bd ad b1 06 3d
       0.11285651 -0.16636889 -0.08155599 0.03288429
000050 b1 7a 8a bd 3a 4b 3d 3a 42 fd 05 3e d3 40 51 3d
       -0.06761683 0.00072209875 0.13084891 0.05108721
000060 4b ff da 3c 94 d9 30 3d 10 2c ab bd 2a e5 60 bd
       0.026733061 0.04317625 -0.08358014 -0.054906048
000070 16 02 d8 3d ca 99 c4 3c 5c ea 09 3e f2 fa 8e bc
       0.10547273 0.023999114 0.13468307 -0.017453644
000080 f9 d1 24 3e c1 53 e5 3d e9 86 f8 bc 77 4a cb bd
       0.16095723 0.111976154 -0.030337768 -0.099263124
000090 0a 66 eb 3c 6b dd 1a be 96 12 bc bd 24 46 5e 3d
       0.02873518 -0.15123527 -0.091832325 0.05426611
0000a0 96 9f 1d 3c 1d f1 b2 3d d5 04 a5 bd 63 3b 1d 3e
       0.009620568 0.08737395 -0.08057562 0.15354685
0000b0 e1 5c b2 bd 11 ec d1 bd 76 c8 fc 3d f7 7d 11 bd
       -0.087091215 -0.10250104 0.123429224 -0.03552052
0000c0 d3 22 36 3d 86 4c 22 bd 2e af 01 be 30 14 6a ba
       0.044466805 -0.03962376 -0.12664482 -0.00089294
0000d0 73 2f a5 3d 49 d2 05 3e a2 c8 0a 3e 53 cc c5 bc
       0.08065691 0.13068499 0.13553098 -0.024145281
0000e0 dd 14 e1 3d b5 c2 5b 3d 6a 8a a4 ba 4e a6 fe bb
       0.109903075 0.053652484 -0.0012553458 -0.00777129
0000f0 e0 38 06 bd 14 9b 42 3d b0 e3 97 bc c4 90 e3 3d
       -0.032769084 0.047511175 -0.018541187 0.11111596
000100 ad 63 11 bd ac 15 c1 bd ff 58 3c 3d 22 59 d5 bd
       -0.03549545 -0.09427962 0.04598331 -0.10417391
000110 fc ed d0 3d 76 22 1d 3e 04 6e 27 3c 37 2f d5 bc
       0.10201642 0.15345177 0.010219101 -0.02602349
000120 6c eb 44 bc 70 a7 b2 3d 5c 6e 17 be 70 5d d2 bc
       -0.01201902 0.087233424 -0.14788193 -0.02567932
000130 72 cb 9c bd 74 70 34 be ab 6a 0a be f1 05 ff bd
       -0.076559916 -0.17621022 -0.13517253 -0.12452305
000140 e0 43 10 3e 83 06 c1 3d 1a 79 f4 bd 98 14 e9 bd
       0.14088392 0.0942507 -0.11937161 -0.11380881
000150 41 86 3c 3e 6c 8c 65 3d f7 3f c3 3d de e7 ba 3b
       0.18410589 0.05604212 0.09533685 0.0057039103
000160 9a b1 ad bd 90 d2 d3 bd 00 bf cd 3d 7e e9 25 be
       -0.084811404 -0.10342896 0.10046196 -0.16202351
000170 0a 11 34 be ee b6 33 3d f6 c9 4e bd fa 3b 23 3d
       -0.17584625 0.043875627 -0.050485574 0.03985212
000180 f2 fc ca 3d 05 b9 be bd 31 35 a5 bd 15 5b f2 bd
       0.09911527 -0.093126334 -0.08066786 -0.11833779
000190 65 55 16 be 6c 24 1c bc 8c 78 18 3e f1 3e e4 bc
       -0.14681013 -0.009530168 0.14889735 -0.027862044
0001a0 eb a2 ad 3d be 1a b6 bd f0 54 9a 3c ad 13 01 be
       0.0847834 -0.088918194 0.01883933 -0.12605162
0001b0 c9 11 f2 bb 5f 9e 18 3d 83 f4 b5 bd 3d 27 07 3e
       -0.007387374 0.03726041 -0.088845275 0.13198562
0001c0 54 b3 1f 3d 39 7a b7 3d 0c 4e 3e 3e 4a dc b5 3d
       0.03898938 0.08958859 0.1858446 0.088799074
0001d0 8f d8 c1 3b 4d 1d af 3d 41 6b 26 3e e9 2e 41 be
       0.0059157084 0.085505106 0.16251852 -0.18865551
0001e0 b4 1a 0e bd 23 89 c4 3d b9 7e 8d bd 05 ac 20 be
       -0.034693435 0.09596469 -0.06908936 -0.1569062
0001f0 37 4e c4 bd 69 9c cc bd f8 10 91 3d 4d 3e d8 3d
       -0.09585231 -0.0999077 0.07083315 0.10558758
000200 a1 a5 7f bc e5 69 18 be 07 3c 79 3d 28 29 12 3d
       -0.015603454 -0.14884146 0.060848262 0.03568378
000210 a5 8f 76 bd f9 43 30 3d c2 67 a2 bd d9 fd 45 3d
       -0.060195584 0.043033574 -0.079299465 0.04833779
000220 c0 d4 f1 3d 0d fc a4 3d 92 7b 9f bc 48 bd 32 3e
       0.11808157 0.08055887 -0.019468103 0.17455018
000230 29 0f de bb 4e e5 26 be a7 f1 05 3e 65 72 24 3e
       -0.0067767096 -0.1629841 0.13080464 0.16059263
000240 7c 22 90 3d 52 17 1f 3e 8e 77 d1 3d 52 5d 96 3d
       0.070378274 0.1553624 0.10227881 0.07342018
000250 97 8f e1 3d 38 09 07 be 73 95 8d bb 13 1d cf bd
       0.11013716 -0.1318711 -0.0043207943 -0.10112967
000260 1e 98 1e 3d 04 97 16 be f8 d9 5f 3b 42 30 72 3d
       0.03871929 -0.14706045 0.003415702 0.059128053
000270 ba 1b b9 bd 45 a0 91 bd 08 27 04 be 3e 2b 43 3d
       -0.090384915 -0.07110647 -0.12905514 0.04764866
000280 4b 96 0b be 19 f2 2b bd 2d 19 25 3d 7b c2 f4 3c
       -0.13631551 -0.04197893 0.040307213 0.029877892
000290 bb 71 0a be 4b f6 41 3c 73 c0 92 bd ef a1 02 bd
       -0.13519947 0.011838506 -0.07165613 -0.031892713
0002a0 51 b7 13 be f9 6b 20 be b8 78 e7 3c 9d c0 f3 3c
       -0.14425398 -0.15666188 0.028255805 0.029754931
0002b0 18 ff 16 3e b4 25 31 3e d6 28 01 3e 21 3c 71 3d
       0.14745748 0.17299539 0.12613234 0.058895234
0002c0 4b 50 fb 3d d1 e3 b2 3d b1 87 10 be b7 37 0a 3e
       0.12271174 0.08734859 -0.14114262 0.13497816
0002d0 66 1b 2e 3d 63 52 5a bd 32 4a 74 bd b8 6a ee 3d
       0.042506598 -0.053301226 -0.05964107 0.11641449
0002e0 4d 9f f9 3d 9a a3 31 3b 54 01 a5 bd bb 08 e2 bd
       0.12188587 0.002710557 -0.08056894 -0.110368215
0002f0 5f b6 a5 3d 97 b3 e2 bd b2 da 12 be cd ef e8 bd
       0.08091425 -0.1106941 -0.14341238 -0.11373863
000300 0f 58 4b 3d 75 e1 0a 3e c6 be 07 bc 8b 72 a9 3d
       0.049644526 0.13562568 -0.00828523 0.082738005
000310 56 55 15 be 9b c8 c8 bd 30 88 b2 bd 3b 8f d7 bd
       -0.14583334 -0.098038875 -0.08717382 -0.10525366
000320 c7 d4 91 bd 94 53 dc bd c2 c3 5b bd 0c 0a e9 bd
       -0.07120662 -0.10758129 -0.053653486 -0.113788694
000330 0a 72 33 3d 28 ec 59 3c 90 4a a6 3b cb 1b 9a 3d
       0.043809928 0.013300933 0.0050748065 0.07524832
000340 67 56 1c be cf a0 8b bd 2c 27 31 bc 3f 58 27 be
       -0.15267335 -0.06817781 -0.010812562 -0.16342257
000350 d0 8d b0 3d 77 2f 0d be 6c 4e f5 3d 40 6b 4f 3e
       0.086207986 -0.13787638 0.119778484 0.20255756
000360 5c 4e 52 3d b0 3e c4 bd 3a c3 03 3e c2 d5 d6 bd
       0.05134426 -0.09582269 0.12867442 -0.1048999
000370 c5 a0 2b 3d 8e 6d e7 3d f1 ae 41 3e e7 3f 63 3c
       0.04190137 0.11300193 0.18914391 0.013870216
000380 f8 18 d2 bb 30 7f 86 bc 0e 75 0a be 40 68 88 3c
       -0.006411668 -0.01641807 -0.13521215 0.016651273
000390 45 fb 0a be 30 48 5c bb 13 e4 54 bd e4 9e c8 3d
       -0.13572414 -0.0033612363 -0.05197532 0.09795931
0003a0 91 7e a5 bd 80 c1 f8 3d 6d aa 2f bd fd a1 d8 bc
       -0.08080781 0.12146282 -0.04288714 -0.02644443
0003b0 69 40 1b be 0e 68 17 3e 71 29 23 3c 56 31 39 be
       -0.1516129 0.14785787 0.009958611 -0.18085226
0003c0 5a f7 8f ba 3e d8 98 3d 58 97 f2 bc 99 f0 17 3e
       -0.0010983751 0.0746312 -0.029613182 0.14837874
0003d0 c0 53 c6 3d 9b 88 a5 bc 1c 1c 30 3e 13 00 cb 3d
       0.09683943 -0.02020674 0.17198223 0.099121235
0003e0 db 7f fd bc 6e df d7 ba 37 d3 28 3d 97 7d a2 bd
       -0.030944755 -0.0016469785 0.041217055 -0.079341106
0003f0 42 c6 ce 3d 67 78 34 be 24 bc e2 bd c7 fe 93 3d
       0.100964084 -0.17624055 -0.11071041 0.07226329

arch.transformer.1.attention.out_proj.bias f4 [32]
000000 da b8 03 3a 17 18 3f bc df f4 b9 bc f4 86 6b bb
       0.00050247984 -0.011663458 -0.022699771 -0.0035938593
000010 b8 21 9b bb 48 bc a9 3b d0 8a e1 3b 95 aa 92 bb
       -0.004734244 0.0051799156 0.006883003 -0.0044759014
000020 3d 97 15 bb bc ae 7f 39 a5 1e 9f 3c 18 71 02 3d
       -0.002282574 0.00024383789 0.019423792 0.031846136
000030 dc 14 f6 3b 92 37 e5 3b a1 be 55 bc 77 64 ee 3c
       0.007509811 0.00699515 -0.013045938 0.02910064
000040 41 69 a8 bc 23 7a 25 bc bf 83 f2 bb 8c 78 11 bc
       -0.020558001 -0.01009992 -0.0074009593 -0.008878838
000050 ea a6 b0 3b e3 09 b2 bb ff 3e 48 3c a6 37 fa bc
       0.0053909915 -0.0054333075 0.012222051 -0.030544113
000060 30 61 e3 3c 62 1b 9c bb c1 35 be bb 77 a0 17 bb
       0.027756304 -0.0047640065 -0.005804748 -0.0023136416
000070 b6 25 d6 3b df 43 01 bb 38 35 14 3b 98 75 32 3b
       0.006535257 -0.0019724292 0.0022614729 0.0027230736

arch.transformer.1.mlp.0.weight f4 [2, 32]
000000 87 c8 69 3b a9 81 cc 3d a6 4d e3 3d 9c cf f3 3c
       0.0035672502 0.09985668 0.11098795 0.029762082
000010 d8 57 e0 3c 62 41 34 3d 15 61 7d 3d 3b 0b 12 3e
       0.027385637 0.044007666 0.061860163 0.14262097
000020 be a1 83 3d 9c 3e a8 3d 99 03 f4 3d 74 a2 fe bd
       0.06427334 0.08215067 0.11914749 -0.12433329
000030 ba dd b1 bd d7 a6 88 3d e7 53 8a 3d fc ce f1 bd
       -0.08684869 0.06672447 0.06754284 -0.11807057
000040 4e 1c cb 3d f2 c3 0e be 12 ee 3c bd 78 37 bb 3d
       0.09917508 -0.13941935 -0.04612548 0.09141439
000050 f8 42 bf bc 55 87 e6 bd 7d 3c 8e 3d 76 55 af bb
       -0.023347363 -0.11256281 0.06945131 -0.005350764
000060 cf b4 c7 bc 2c 2c 3c be 76 76 99 bd e5 7b 9b 3c
       -0.024378208 -0.18376225 -0.07493298 0.018979976
000070 ab 3d d1 bd 90 36 fd 3b f3 2a ea bd 06 77 04 3e
       -0.1021684 0.0077274516 -0.11433973 0.12936029
000080 1f 01 0b 3e fd 0f d3 3d 18 5a de bc b8 a6 35 be
       0.13574646 0.10305784 -0.02714257 -0.1773938
000090 32 40 5d bd a1 db 98 bc dc 6f 22 be f0 bb 15 3e
       -0.0540163 -0.018659415 -0.15862983 0.14622474
0000a0 f1 d1 54 3d 7c ab f2 3d 0f 15 13 be d0 7e 97 bd
       0.05195803 0.11849114 -0.14363502 -0.073972344
0000b0 91 03 88 3c 0d 5b 31 3c b5 29 be bd b7 3a 1e 3e
       0.016603263 0.010824931 -0.09285299 0.15452085
0000c0 61 51 08 3d 60 50 27 bc ab 24 2e 3e ac 06 4a be
       0.033280734 -0.010212034 0.17006175 -0.19729108
0000d0 61 62 1e be 50 ec a1 3c 20 05 24 3e 53 65 dd 3d
       -0.15467216 0.019766003 0.1601758 0.10810342
0000e0 ff 93 e1 bd 02 aa fe 3d fc fa d1 3d ab d1 50 3c
       -0.11014556 0.1243477 0.102529496 0.012745301
0000f0 3f 70 df 3d 7c bb f2 3c 6c 85 87 ba 5b 04 47 bd
       0.10910081 0.029630415 -0.0010339445 -0.048588138

arch.transformer.1.mlp.0.bias f4 [2]
000000 48 90 f6 bd 1d 66 ef bd
       -0.12039238 -0.116893984

arch.transformer.1.mlp.3.weight f4 [32, 2]
000000 5a d7 f3 bd c0 69 fa be 40 1b a4 3e 15 cd 44 3e
       -0.119063094 -0.48908806 0.3205204 0.19218858
000010 3a f0 33 bf 04 02 09 bf 23 18 05 3f 37 3c c0 be
       -0.7028843 -0.535187 0.51989955 -0.3754594
000020 28 46 1f 39 e4 1e e7 be 75 59 fd bd b1 2e b6 3e
       0.00015189557 -0.45140755 -0.12370578 0.35582498
000030 99 6e 28 3e 61 a9 b0 3e 19 a7 d1 bc 86 84 10 bf
       0.1644844 0.34504226 -0.025592374 -0.56452215
000040 60 7e a0 3c 6d 55 cf 3e c7 37 0d 3e cd 90 23 3e
       0.01959151 0.40494862 0.13790809 0.15973206
000050 b2 9f d2 3d 8f 2c 16 3f 91 7d b7 3e f4 cf c2 bd
       0.10284366 0.5866174 0.35837987 -0.0951232
000060 8d 50 ca be 42 fc 12 3f d3 bf c3 be b5 7f f1 be
       -0.3951458 0.57416165 -0.38232288 -0.47167745
000070 1b 44 7d 3e f6 a4 ec be 18 10 15 bf 72 b7 10 bf
       0.24733011 -0.46219605 -0.5822768 -0.56529915
000080 6e 30 49 3e 17 3a ea be 77 07 1e 3f bc 4c 19 bd
       0.1964738 -0.45747444 0.6173014 -0.037426695
000090 c0 86 94 be 12 b6 e0 be 55 8c 4a be 01 0a 1d 3f
       -0.29009056 -0.4388891 -0.19780095 0.6134339
0000a0 15 5b eb be 8c 2f 28 bf 37 77 47 3e 1d 67 6d 3e
       -0.45967928 -0.6569755 0.1947907 0.23183866
0000b0 e1 84 1d bf 54 3e 9e be 9e cb 1d 3f d8 d9 af be
       -0.6153088 -0.30906928 0.6163882 -0.3434589
0000c0 a9 c0 97 3e 09 1c 9e be 30 fe 1a bf 15 ed 2d bf
       0.29639176 -0.30880764 -0.6054411 -0.67939883
0000d0 26 75 04 3f 4b 39 4c 3e 62 0c 34 3e f3 72 75 3e
       0.51741254 0.1994373 0.17582849 0.23969631
0000e0 da 4a 92 3e 32 39 f3 3e 8a 2d 04 3f 5a 12 0b 3f
       0.28572732 0.47504574 0.5163199 0.5432488
0000f0 85 b3 78 3e e6 62 06 3e b3 d9 22 3e c0 9b 10 bf
       0.24287231 0.13123664 0.15903358 -0.56487656

arch.transformer.1.mlp.3.bias f4 [32]
000000 5a 28 9e 3e ba 74 2b 3e b3 f6 90 3e 1b 88 36 be
       0.3089016 0.16743746 0.28313217 -0.17825358
000010 4c f1 15 3f 7f cb bc 3d 6c e5 2b be 7e 1a 96 bc
       0.58571315 0.09218501 -0.16786736 -0.01832318
000020 64 e5 93 be 77 13 c2 bd d7 9b 1a 3f c4 c0 7f 3e
       -0.2888595 -0.09476369 0.6039404 0.24975878
000030 1c de 9e bd 3d d0 db 3c 2c 3f 19 3e 1b cf c4 be
       -0.07757208 0.026832694 0.14965504 -0.3843926
000040 75 b1 cb be 58 62 1c 3f 41 a6 2b 3b aa d3 4b 3e
       -0.39783826 0.6108756 0.0026191624 0.19904962
000050 32 92 a7 be 83 65 07 bf 89 09 1a 3e 62 72 bd 3e
       -0.32728726 -0.5288927 0.150427 0.3700133
000060 c8 9f 22 bf 12 40 32 bf 93 d0 7c be 7b 79 e8 3e
       -0.63525057 -0.69629014 -0.2468894 0.45405182
000070 ef 3f 1f bf 9b 72 0f 3f 9b 1b 25 3f 8a 09 1b be
       -0.6220693 0.5603425 0.6449525 -0.15140358

arch.transformer.1.layernorm0.weight f4 [32]
000000 8c c8 7e 3f f3 94 81 3f 29 da 77 3f 71 93 7a 3f
       0.9952476 1.0123581 0.9681726 0.9788123
000010 12 6f 80 3f 5e ae 7c 3f 4d 28 81 3f 08 c4 7e 3f
       1.0033896 0.98703563 1.0090424 0.9951787
000020 cc 11 73 3f 47 ce 77 3f be 32 80 3f cb 06 79 3f
       0.9494903 0.9679913 1.0015485 0.9727599
000030 3a 9c 7c 3f 56 57 83 3f a5 7c 82 3f a7 cf 88 3f
       0.9867588 1.0261028 1.0194288 1.068837
000040 1d 78 87 3f b4 e5 81 3f a3 5c 7d 3f 71 7d 82 3f
       1.0583531 1.0148225 0.9896948 1.0194532
000050 c8 b6 7e 3f 74 5b 82 3f 92 06 83 3f e7 c4 76 3f
       0.9949765 1.0184159 1.023638 0.963942
000060 82 54 82 3f fb c0 7f 3f e5 74 81 3f 3f 3b 75 3f
       1.018204 0.9990384 1.0113798 0.9579353
000070 7f 49 80 3f 79 1a 7b 3f 84 7e 83 3f 9e fc 78 3f
       1.0022429 0.9808727 1.0272985 0.97260463

arch.transformer.1.layernorm0.bias f4 [32]
000000 06 f6 dd bb 4a 6f f5 bb 81 9c bd bc d8 48 0a ba
       -0.006773713 -0.0074900733 -0.023145916 -0.0005275137
000010 c7 76 d4 b9 8c ed 06 3c 23 33 21 3a 66 3c f5 37
       -0.00040524287 0.0082353465 0.00061492826 2.9234401e-05
000020 1a c6 0b bc e2 f2 af bb 51 f1 24 3c e0 64 b7 3c
       -0.008531118 -0.00536953 0.0100673 0.022386968
000030 75 aa e9 3a d6 e0 03 39 e5 aa 04 bc 25 27 ef 3c
       0.0017827289 0.00012576891 -0.008097385 0.02919347
000040 36 2c 70 bc 67 13 10 bc f0 30 e2 bb 0e 2d 8e bb
       -0.014658978 -0.008793688 -0.0069028065 -0.004338867
000050 72 f0 6f 3b cf 6b 26 bc 0e 38 fe 3b 0f 4f c0 bc
       0.0036611822 -0.0101575395 0.007758147 -0.023475198
000060 16 f8 fe 3c e7 27 53 3a 5a 7f 26 bc 79 aa 17 bb
       0.031124156 0.0008054957 -0.010162199 -0.002314238
000070 1d cf 36 3c f8 49 98 bb ff 6a f9 3b 8c 21 ce 3b
       0.011157778 -0.0046474896 0.007611632 0.00629062

arch.transformer.1.layernorm1.weight f4 [32]
000000 68 1c 80 3f b2 ae 83 3f fb f7 79 3f 2d 5c 7d 3f
       1.0008669 1.0287688 0.97644013 0.98968774
000010 fb 83 80 3f d5 35 80 3f a8 23 81 3f 4c 23 80 3f
       1.0040277 1.0016428 1.0089006 1.0010772
000020 1a 71 78 3f 06 6c 79 3f d1 08 83 3f b3 7e 80 3f
       0.9704758 0.97430456 1.0237066 1.0038666
000030 4c 82 82 3f 76 b3 83 3f 39 e7 84 3f db 2a 86 3f
       1.0196013 1.0289142 1.0383064 1.0481828
000040 c0 f7 88 3f ab 45 80 3f 0d 97 7a 3f bd 13 81 3f
       1.0700607 1.0021261 0.97886735 1.0084149
000050 9a c7 7e 3f 80 82 89 3f e8 a6 85 3f 5e 2b 7c 3f
       0.9952332 1.074295 1.0441561 0.98503673
000060 3d 0d 7b 3f 6d 28 7d 3f 81 00 84 3f e8 f6 7d 3f
       0.98067075 0.9888981 1.0312654 0.99204874
000070 2e 15 7e 3f 92 5f 7f 3f b7 01 83 3f 8e 37 77 3f
       0.9925107 0.99755204 1.0234898 0.96569145

arch.transformer.1.layernorm1.bias f4 [32]
000000 6d cf 79 bb 07 78 db bb 02 68 ca bc f2 2f 90 bb
       -0.003811802 -0.006697658 -0.024707798 -0.004400247
000010 49 73 cb ba 02 ee 07 3c 12 8f 91 ba df f5 85 3a
       -0.0015522029 0.008296492 -0.001110526 0.001022037
000020 63 fe 37 bc 58 fa 7f 3c 06 9b 61 3b 98 aa 2d 3c
       -0.011230084 0.015623651 0.0034424677 0.010599755
000030 05 83 93 39 c6 32 01 bb dc 27 d1 bb 24 c5 ef ba
       0.00028135642 -0.0019714101 -0.0063829254 -0.0018293005
000040 68 c5 da 39 1a d8 8c ba 51 32 86 3a 8c 87 6a b9
       0.0004172728 -0.0010745556 0.0010238384 -0.00022366474
000050 56 a3 45 bb 84 f6 09 bc 99 0f 25 3c c1 89 67 bb
       -0.003015717 -0.00842059 0.01007452 -0.003532991
000060 22 c8 f0 3c 66 13 2f 3b 0b 35 24 bc 8e 49 4f 3c
       0.029392306 0.0026714443 -0.010022412 0.012651814
000070 79 50 0a 3c 87 2f de 3a 06 17 0b 3c ca 2f 07 3c
       0.008442038 0.001695142 0.008489376 0.00825114
