checkpoints/epoch=99-step=400.ckpt (torch, 229643 bytes, 133 tensors)

arch.arch.net.inception_block_1.branches.0.0.weight f4 [8, 1, 1, 62]
000000 fd 2f 68 3b 6d 46 46 3d 1a d9 e4 3c 03 ec 03 bd
       0.0035428994 0.048407007 0.027935553 -0.0322075
000010 ba 4d 5a 3b de 5a ce bd a4 d7 b5 3d 7d c7 10 bd
       0.0033310489 -0.10075925 0.08879021 -0.035346497
000020 5a 88 9f bc 21 9e 82 3d 95 b3 33 bd 7a fc 8a 3d
       -0.019474197 0.06377817 -0.043872435 0.06786437
000030 c9 32 45 3d 7c 7b a8 bc b9 ee 7c bd 64 f4 aa bd
       0.048144136 -0.020566694 -0.0617511 -0.08347395
000040 be 0c 6a bb 1b fb 9c bc 3a 57 25 3d 68 0f 5b bc
       -0.0035713161 -0.019162705 0.04036639 -0.013370372
000050 76 50 7f 3b 6c fe 5e 3d ce 4d f8 bb 21 cb 39 3d
       0.003895787 0.054441854 -0.0075776344 0.045359734
000060 51 78 8d bd ef 1c 6f 3d 17 cd ab 3d 4a 9f ba bc
       -0.06907714 0.058377203 0.08388727 -0.022781033
000070 2b f9 bc 3d c8 53 ad bd ff d0 ca bd 30 e5 db bd
       0.092272125 -0.08463246 -0.09903144 -0.107370734
000080 ce 71 db bd b1 98 e8 bc 2f ec 81 3d 09 50 92 3c
       -0.10715066 -0.028393121 0.063438766 0.01786043
000090 b8 f1 92 3c 35 91 99 3d 7b ca 90 3d 48 37 b4 bd
       0.017937526 0.07498399 0.0706987 -0.087996066
0000a0 ef 85 bc bd cc 90 85 bd 74 54 b4 bd 75 86 62 bd
       -0.09205233 -0.065217584 -0.08805171 -0.05530401
0000b0 6f 53 64 bd 1c 48 49 3d 54 29 39 bc 6f ec 35 3c
       -0.05574363 0.049141034 -0.011301357 0.011103733
0000c0 d2 4d 3b 3d 72 4e 96 bd a0 d2 4c bd 58 13 87 bd
       0.045728512 -0.07339181 -0.050005555 -0.065954864
0000d0 70 8a db bc d3 fc da bb 10 00 ad bd 1f b0 4f 3c
       -0.02679941 -0.006682971 -0.084472775 0.012676268
0000e0 c7 86 36 bd 21 e6 91 3d f6 8c 67 bd ba 9c b8 3d
       -0.044562127 0.07123972 -0.056530915 0.09014268
0000f0 57 06 8d 3d 97 37 82 3d 69 5d 1b 3d f5 4e 8c bd
       0.06885975 0.06358259 0.03793088 -0.06850997
000100 25 37 97 bc 60 10 bf bd 52 f2 98 3c c9 ba 10 bd
       -0.018458912 -0.09329295 0.018670235 -0.035334382
000110 33 06 56 bc 28 f6 aa bd 6b 76 a3 bd 65 6e d8 3c
       -0.013063001 -0.08347732 -0.07981571 0.026419828
000120 36 40 9e bd 74 ef d3 3d 23 a2 af bd 91 ff a9 bd
       -0.07727091 0.103484064 -0.08575847 -0.083006985
000130 60 f3 7e 3d 2c 4a bd 3d ba 34 67 3d ec 6b b1 bd
       0.06224382 0.09242663 0.05644677 -0.086631626
000140 22 a3 2f bb 7c c3 13 3d 94 3b 57 3d dc 78 7c 3d
       -0.0026800116 0.0360751 0.052547053 0.061638698
000150 ff 66 d6 3a 21 ab 7f 3d 0a 04 d9 3d 2c f4 b6 bd
       0.00163576 0.06241906 0.105964735 -0.08933291
000160 fd 0d ab 3d d3 bf 13 bd 29 09 ac bd c6 b3 50 3d
       0.083522774 -0.03607161 -0.08400185 0.050952695
000170 84 3a 9c 3c 5e fc b9 3d 9b 5b 83 3c 32 dc a0 bd
       0.019070871 0.09081338 0.016034892 -0.07854499
000180 6d e0 68 bd 42 40 fd bc 6c 4a a3 3d 69 6e a4 bd
       -0.056854654 -0.03091443 0.07973179 -0.080288716
000190 7b 39 48 bb ab ec cb 3d 03 10 2c bd 75 74 78 3c
       -0.003055184 0.0995725 -0.042007457 0.015164484
0001a0 40 73 df 3c cf d0 56 3c db d1 3b bd e8 b3 44 3c
       0.027276635 0.013111307 -0.04585443 0.012005784
0001b0 f1 25 8b 3c 16 da af bd 91 27 92 3d 41 27 41 bd
       0.016985865 -0.085865185 0.07136453 -0.047156576
0001c0 de d3 7f 3d 95 03 a3 bc 35 9d ad bd 3a 60 a5 bd
       0.06245791 -0.019899169 -0.084772505 -0.080749944
0001d0 24 05 44 bd 80 4f 69 3d 36 2b 16 3d 55 33 cb bc
       -0.047856465 0.056960583 0.036662303 -0.02480475
0001e0 6c 82 fe 3c 05 5d 22 3d 18 50 d0 3c dd a8 64 bd
       0.03106805 0.03963949 0.025428817 -0.055825103
0001f0 75 86 98 3d c2 d3 63 bd 47 ed c9 bd 1a fd 49 3a
       0.07447521 -0.05562187 -0.0985971 0.00077052566
000200 2b 32 68 bd c7 0a 0c 3d e8 a0 ba bd a9 2d a9 bd
       -0.05668847 0.034189966 -0.09112722 -0.08260662
000210 7d 8f 18 bd a5 3b 55 3d 94 38 b2 bd 94 73 18 bd
       -0.037246216 0.052058835 -0.08702198 -0.0372196
000220 11 b3 3e bc 0b 0e a5 3d 1a ee c9 b9 00 01 ba bc
       -0.011639372 0.08059319 -0.00038515107 -0.022705555
000230 4c 43 c0 bd 79 04 ca 3d 54 31 25 bd 61 1b f6 ba
       -0.09387836 0.09864134 -0.040330246 -0.001877647
000240 9e b9 9c 3d 5e e4 d3 bd 8f 5d 3a bd bd ea d7 3c
       0.07652591 -0.10346292 -0.04549938 0.02635705
000250 d0 ae 85 bd c3 ac a0 3c 4b e0 0c bb d2 5d 87 bd
       -0.065274835 0.01961363 -0.0021495994 -0.06609692
000260 66 8c 9f 3b 85 86 b5 3d 8e ed 68 bd 69 84 7e 3d
       0.0048690317 0.08863548 -0.056867175 0.062137995
000270 8d 75 d2 bc 05 10 aa 3d 0d 51 95 bd 9a 54 a3 bd
       -0.025690818 0.08303837 -0.0729085 -0.07975121
000280 84 cf 55 3d 11 ec 50 3d 2e 41 59 bb 95 38 96 3d
       0.052199855 0.05100638 -0.0033150422 0.07335011
000290 a1 19 d6 bd 2a 69 8e bd 61 91 82 3d c9 0f 48 3d
       -0.10454107 -0.06953652 0.06375385 0.04884318
0002a0 c3 c3 b2 3d 14 b4 ba 3d b1 99 5f 3b 4f d8 a7 3d
       0.08728745 0.091163784 0.0034118707 0.081955545
0002b0 39 8e e2 bd a1 5a ea bc 5d 31 aa 3b fa c4 b9 bd
       -0.11062283 -0.028607668 0.005193873 -0.090707734
0002c0 2b 7c b9 b9 67 a5 cb 39 6a f8 71 3d 5a aa 84 bd
       -0.00035378462 0.00038842412 0.059074797 -0.064778045
0002d0 0d 13 16 bd b9 c4 cf 3c ae 21 70 bc d0 af bf 3d
       -0.036639262 0.02536236 -0.014656467 0.093597054
0002e0 c3 ac 8b 3d 1f 37 b4 3c 03 97 4c bc 29 2a 3f bd
       0.06820061 0.02199894 -0.012487176 -0.046671066
0002f0 a3 c4 9b bc 7a b0 6f bd 5d d2 2e bd 09 dc 04 bd
       -0.019014662 -0.05851791 -0.042681087 -0.032436404
000300 7c d9 a2 3d 05 f8 be 3d 34 b4 52 3d 61 e9 a7 3d
       0.07951638 0.0932465 0.051441386 0.0819881
000310 1f 44 21 bd 8f b8 bb bd 32 d4 f1 bc ec 21 df b9
       -0.039371606 -0.09166061 -0.029520128 -0.00042559148
000320 b9 ee 21 bd 26 31 dc 3c 36 4e c2 3c fd 89 50 bb
       -0.039534304 0.026878905 0.023718935 -0.0031820529
000330 5f 4b a0 3d c3 cc cd 3d 56 f0 e9 3c 17 f8 e4 3b
       0.07826876 0.10048821 0.028556984 0.0069875824
000340 27 29 ad bd 57 3d 01 bd 66 5d e4 bb 42 87 99 3d
       -0.08455115 -0.03155264 -0.006969142 0.074965015
000350 1f e3 da bc b6 ff 1d bd dc 0f b3 bd bf 97 a0 bc
       -0.026719628 -0.038573943 -0.08743259 -0.019603608
000360 7c ac c8 b9 00 c1 7c 3d 51 64 93 3d 86 e6 1f 3d
       -0.00038275484 0.061707497 0.07196868 0.039038204
000370 67 3c 04 3d 72 25 60 3d 40 48 d1 3d 00 ab 98 bb
       0.032284167 0.05472321 0.10218859 -0.0046590567
000380 74 0e 72 bd d5 88 44 3d 10 97 b9 bd b1 01 a5 bd
       -0.059095815 0.047982056 -0.09062016 -0.08056963
000390 a4 da 11 bd a9 d4 cf 3d c7 94 e5 bc eb 29 dd bc
       -0.035608903 0.101479836 -0.028025044 -0.026997527
0003a0 f4 a2 8d bd 6f 89 67 bc 2f 42 63 3c 58 42 09 bb
       -0.069158465 -0.014131888 0.01387076 -0.0020944085
0003b0 1e e1 18 bd b2 85 b2 3c 00 a1 14 3c bb 9e 0b bd
       -0.037324063 0.021792267 0.0090715885 -0.034086924
0003c0 e8 65 85 bd bf 73 02 3d ee d5 6f bd b6 56 a7 3d
       -0.06513578 0.031848665 -0.05855363 0.08170836
0003d0 9f 3b 5a 3d 4a ae 06 3d 51 80 bf bb 14 d5 78 bc
       0.053279515 0.03288106 -0.005844154 -0.0151875205
0003e0 0b f6 90 bd 71 40 d1 3a 87 1e 4a bd 85 a4 c8 3c
       -0.07078179 0.001596464 -0.04934552 0.024492512
0003f0 d9 80 00 3d 22 b7 2a bc 53 f0 a4 3d fe cd 3c bd
       0.03137288 -0.010419639 0.08053651 -0.046094887

arch.arch.net.inception_block_1.branches.0.0.bias f4 [8]
000000 44 0b 8f b7 9b 43 42 ba 46 ba 19 3a 2c 21 29 3a
       -1.7052174e-05 -0.00074105867 0.0005864244 0.00064517814
000010 f6 df a6 b9 2e b3 af ba 59 58 1c bb 82 4d 0b 38
       -0.0003182885 -0.001340484 -0.002385637 3.3212367e-05

arch.arch.net.inception_block_1.branches.0.1.weight f4 [8]
000000 f5 60 7f 3f 80 cc 7f 3f 3e 0f 80 3f 45 51 81 3f
       0.9975732 0.9992142 1.0004652 1.0102926
000010 c1 a7 7f 3f d5 6c 7e 3f 18 65 81 3f c2 27 7e 3f
       0.9986535 0.99384815 1.0108976 0.99279416

arch.arch.net.inception_block_1.branches.0.1.bias f4 [8]
000000 2e de 53 3b 5f fd 43 3a a5 94 8b ba a0 89 0c bc
       0.0032328474 0.0007476415 -0.0010649158 -0.008577734
000010 9c 78 e9 3a bc cb 32 3b 54 3a 36 bc b7 70 a9 3b
       0.0017812434 0.002728208 -0.011122305 0.0051709074

arch.arch.net.inception_block_1.branches.0.1.running_mean f4 [8]
000000 ed 1e c0 c0 98 2e 17 c0 f4 a5 47 c0 48 b8 9c 3f
       -6.003775 -2.3622189 -3.119504 1.2243738
000010 09 d7 c6 40 ce e2 0e c1 37 31 c3 c0 b0 2c 02 40
       6.2137494 -8.930372 -6.0997577 2.0339775

arch.arch.net.inception_block_1.branches.0.1.running_var f4 [8]
000000 15 c5 3c 43 77 30 c5 42 72 bf 17 43 1c ce a5 42
       188.76985 98.59466 151.74783 82.90256
000010 19 9f 23 43 b9 9e 36 43 08 51 c5 42 3f af e0 42
       163.62148 182.62001 98.658264 112.34228

arch.arch.net.inception_block_1.branches.0.4.weight f4 [16, 1, 16, 1]
000000 be 97 32 3d 97 0f f0 3c 18 d7 ba 3d c0 55 12 be
       0.043601744 0.029304309 0.09123057 -0.14290524
000010 10 38 40 bc 33 70 6a bd d6 8b 18 bd 3c e7 6b bd
       -0.011732116 -0.057235908 -0.037242733 -0.05759357
000020 35 f5 c7 bd 6a 26 3c bd 14 2d 05 be b8 17 ff bd
       -0.097635664 -0.045935072 -0.13005477 -0.12455696
000030 25 77 78 bd ef 99 a5 3d 22 54 74 3d 21 15 97 bd
       -0.0606605 0.08086001 0.059650548 -0.07377077
000040 81 24 3f bd c9 3b 98 bd 68 a9 cf 3c 04 8f 31 3d
       -0.046665672 -0.07433278 0.025349334 0.04334928
000050 bd e8 32 3d 13 da 00 bd 04 0b 13 3e 39 c6 5f bc
       0.043678988 -0.03145797 0.14359671 -0.0136581
000060 b1 e9 ff bd ac 23 bf 3d d1 fd f1 bc 4b 5f 0e 3e
       -0.12495745 0.09332976 -0.029539974 0.13903539
000070 17 91 9c 3d ce 2a 87 3c ca 42 c7 3d cb 89 14 3c
       0.07644861 0.016499903 0.09729536 0.0090660555
000080 99 e6 4f bc 59 54 9b 3c bc 4e b0 ba 6b 57 99 3d
       -0.012689256 0.018961119 -0.0013451199 0.07487377
000090 b9 2b 1e bc 62 e0 68 bd f2 18 e7 3d a4 de 87 3d
       -0.009653979 -0.056854613 0.11284055 0.06634262
0000a0 8e 08 9f 3d 1e a8 3e 3d 68 59 2d 3d 29 f5 b7 bd
       0.077653036 0.046547048 0.042321593 -0.089823075
0000b0 8c 7a 10 3e fc bd ff bd 5d 7e c2 bd f1 93 8d bc
       0.14109248 -0.124874085 -0.09496758 -0.017282458
0000c0 66 2f 84 bc 6e 6c bd bd 66 f4 49 bd d5 a9 d5 bc
       -0.016135883 -0.09249197 -0.049305342 -0.026081959
0000d0 3f 99 a6 bd af d8 2f 3d 66 12 0b 3e c1 c5 bf bd
       -0.08134698 0.042931255 0.13581237 -0.093638904
0000e0 27 8c e6 bd 61 bc fe bd 8f 55 b1 3d 20 0d 0b 3d
       -0.11257201 -0.12438274 0.08658897 0.033948064
0000f0 bc a1 08 3d 69 6f 0b 3e 35 16 81 3c 05 ac 94 bc
       0.033357367 0.13616718 0.01575766 -0.018148432
000100 93 87 03 be 9d 13 f2 3d 45 16 3b 3c 4a 01 ec bd
       -0.12844686 0.11820147 0.011418884 -0.11523683
000110 05 4f 18 3d 8a ea 02 3e 4e d1 a0 3d 2a de e4 3d
       0.037184734 0.12784782 0.07852422 0.11175187
000120 af 62 ed 3d c2 1c a7 3c c5 f9 3d bc 9f 2e d5 bd
       0.11591088 0.020399455 -0.011595194 -0.10409283
000130 db 56 e8 bd e7 1f ae 3d 56 0b 45 bb 21 22 ad bd
       -0.11344691 0.08502179 -0.0030066571 -0.08453775
000140 a9 0a 40 bd 3c f9 02 3e 6d c7 0f 3e 2a 0a 4d bd
       -0.046885166 0.12790388 0.14040919 -0.05005852
000150 51 bc eb 3d 10 ba 71 bd 56 a3 69 3d 49 3c a9 3b
       0.11510528 -0.059015334 0.057040535 0.0051646573
000160 c0 d5 cd bd dc 2f cc 3d d0 6d fe bd af 13 94 bd
       -0.10050535 0.09970066 -0.12423289 -0.07230317
000170 6f 87 97 bd 8f 89 8a bd 64 a3 ad 3d da e0 4a bc
       -0.07398879 -0.067645185 0.0847843 -0.01238271
000180 ec d6 04 3e 44 01 b9 bd d6 d9 39 3d fd 0b 59 bd
       0.12972611 -0.090334445 0.04537376 -0.05298995
000190 a8 54 b7 3d da 4f 42 bb 29 b9 dc 3a 9a 6d aa bd
       0.08951694 -0.0029649646 0.001683985 -0.08321686
0001a0 ee 7c bc 3d 50 30 0f 3e 2b f3 24 3c e2 55 e7 bd
       0.09203516 0.13983274 0.010067741 -0.11295678
0001b0 bc 11 e4 bd 85 ad e1 3d f7 ab 80 3d 0c a9 3f bd
       -0.11136195 0.11019424 0.062828 -0.046792075
0001c0 59 25 eb bc 6c e9 9d bd 7e 6b 11 3e 56 6f 91 3d
       -0.028704332 -0.07710537 0.14201161 0.07101314
0001d0 a1 d7 46 3d db f7 ca 3b ee 27 43 3d b6 6f 93 bc
       0.048545483 0.0061940975 0.0476455 -0.017997604
0001e0 85 69 d6 3d f0 a8 27 3d 0d 40 e9 ba 50 0b cc bd
       0.10469345 0.040932596 -0.0017795578 -0.09963095
0001f0 d0 2d 46 bd 9e 06 05 3e 54 3d 9a 3a 10 b4 76 3c
       -0.048383534 0.12990806 0.0011767545 0.015057579
000200 b0 b9 c6 bd f7 61 09 3e 27 eb be bd e7 0b 92 3d
       -0.09703386 0.13416277 -0.093221955 0.071311764
000210 ec 2d c9 bd 9f 0a cc 3d 0e e6 05 bd 3f d7 4a 3d
       -0.09823212 0.09962963 -0.0326901 0.04952168
000220 b5 c1 be bd 58 a2 8a bc e2 c6 b0 3d f4 e8 56 bd
       -0.093142904 -0.016923115 0.08631684 -0.052468255
000230 61 4c ca bc 1e 9f ff bd 1c f0 00 3d 9a ae f9 3c
       -0.024694623 -0.12481521 0.031478986 0.030478764
000240 7a b4 b9 3d a8 f6 e2 3d c7 f6 a6 3d e5 d3 bc bd
       0.09067626 0.11082202 0.08152538 -0.09220103
000250 d6 4c 72 3d 17 01 e6 39 9d 90 be bd 66 39 ab bd
       0.059155308 0.0004386983 -0.093049265 -0.08360557
000260 50 0e b7 bd 68 e1 ab bd 39 a4 27 bd 9d 69 08 be
       -0.08938277 -0.08392602 -0.0409281 -0.13321538
000270 db 2d 0c 3e f6 36 fb 3d 30 92 d5 bd 37 79 0c be
       0.13689367 0.12266342 -0.10428274 -0.13718115
000280 d8 ca 1f 3d 4f cf 3f 3d 45 f9 58 3d e7 15 c3 3c
       0.039011806 0.046828564 0.052972097 0.023814155
000290 71 86 d1 3d a1 71 7c bd 87 8b d0 3d 21 04 2c bc
       0.10230721 -0.061631802 0.10182863 -0.010499031
0002a0 9a aa 02 3d 30 c4 7f 3c 53 43 89 bd 23 18 ae 3d
       0.03190098 0.01561074 -0.06702294 0.085006975
0002b0 72 1d 92 bb 4f 42 d8 3d 3a 12 22 3d c5 9c c9 3d
       -0.0044590766 0.10559522 0.039568163 0.098443545
0002c0 ea 3a df 3d 43 c1 6c bd 93 38 d9 bc be b3 16 3e
       0.10899909 -0.057801496 -0.026516235 0.14717004
0002d0 60 23 01 3e 5d 6c c6 3d 7c 81 12 3d ed 35 12 3e
       0.1261115 0.096886374 0.035768017 0.14278384
0002e0 c7 59 c5 3d eb f5 c6 3d aa af 55 3d e8 e1 d9 bc
       0.09636264 0.09714874 0.05216948 -0.026596978
0002f0 9b 42 1e 3e d4 bb 8c bd 13 fd 00 3c 05 42 13 3e
       0.15455095 -0.06871763 0.007872838 0.14380653
000300 e0 00 67 3d 13 09 d3 3d 2c 20 85 3d da 38 97 bc
       0.05639732 0.10304465 0.06500277 -0.018459726
000310 4a e5 c0 3d 13 1f 0a be 31 14 03 3e fe a4 b9 3c
       0.094187334 -0.13488416 0.12800671 0.022661682
000320 6c b1 a5 bd 37 d2 7e bd a0 90 08 be 6f eb a1 bd
       -0.08090481 -0.062212195 -0.1333642 -0.079062335
000330 02 14 b8 bd a2 3b f9 bd 00 19 ba bd 77 db 0b be
       -0.08988191 -0.12169577 -0.090867996 -0.13657938
000340 e7 fc 7b 3d c5 5b ce bd 78 d3 df bd 31 72 18 3e
       0.061520483 -0.100760974 -0.10929006 0.1488731
000350 96 10 d1 3d 20 87 15 3e 69 62 85 3d 87 37 40 3d
       0.10208242 0.14602327 0.06512911 0.046927955
000360 c0 e8 e4 bc 6f 0d f4 3d d3 ca fc 3d b1 9e ea 3d
       -0.027943015 0.11916625 0.12343373 0.11456049
000370 40 83 bd 3d 1e f4 65 ba ac 99 85 3a e2 a8 90 bd
       0.092535496 -0.0008772033 0.0010192893 -0.07063462
000380 0f 35 c0 3d 18 22 1f 3d 91 b3 14 3e c9 c1 b0 bd
       0.0938512 0.038850874 0.14521624 -0.086307116
000390 4f 85 1e 3d 8e ed 66 3d 5c 03 89 bd f7 dd 6f 3d
       0.03870135 0.056378894 -0.06690094 0.05856129
0003a0 d1 ca cb bd 57 6f 87 bd 3f d7 d3 3d 65 21 83 3d
       -0.099507935 -0.06613033 0.10343789 0.06402854
0003b0 4d 4c 17 3d 42 86 f0 bd e4 95 c3 3d a5 f7 58 3d
       0.036938 -0.11744358 0.09550074 0.052970547
0003c0 23 fa b1 bd 7c f6 e0 bd df 54 08 be 52 76 63 3a
       -0.08690288 -0.10984513 -0.13313626 0.0008676994
0003d0 7d 91 2f bc 57 dc db bb ae 2f b6 bd ed 52 03 be
       -0.010715839 -0.006709616 -0.08895813 -0.12824602
0003e0 2c eb 1b bd 7c d9 e2 ba 3d 54 e2 3c 8b ab 2c 3d
       -0.038066074 -0.0017307247 0.027628059 0.042155784
0003f0 71 39 c2 3d d5 6b e0 bd ea c2 ab 3d fc db b4 3d
       0.09483612 -0.10958067 0.08386786 0.08831021

arch.arch.net.inception_block_1.branches.0.5.weight f4 [16]
000000 e3 1c 7f 3f 34 63 7f 3f eb 50 80 3f 8a 77 7f 3f
       0.9965345 0.99760747 1.0024694 0.9979178
000010 fc 1f 7f 3f ab 61 7d 3f 25 10 7f 3f f7 08 81 3f
       0.9965818 0.98977154 0.9963401 1.0080861
000020 e5 0b 81 3f 1f 28 7e 3f 83 b9 80 3f 89 8a 7d 3f
       1.0081755 0.9927997 1.0056614 0.9903951
000030 06 ee 7d 3f 11 04 81 3f 50 46 7d 3f 76 0c 7f 3f
       0.9919132 1.0079366 0.98935413 0.9962839

arch.arch.net.inception_block_1.branches.0.5.bias f4 [16]
000000 95 9e 98 3a 94 c3 88 bb 2e 39 4a bb 78 0c 27 ba
       0.0011643941 -0.0041737054 -0.0030856836 -0.00063724024
000010 bf 07 20 bb 25 38 07 bc 2f df b0 ba 84 43 62 39
       -0.002441868 -0.008253132 -0.0013494248 0.00021578191
000020 80 9f 80 3b df d2 95 bb a8 69 f1 3b 75 b6 6e bb
       0.003925264 -0.004572257 0.0073673315 -0.003642467
000030 22 06 a7 bb b3 1a 8f 3a 6d b5 e6 bb 03 06 48 bb
       -0.0050971666 0.0010917991 -0.0070406706 -0.0030521161

arch.arch.net.inception_block_1.branches.0.5.running_mean f4 [16]
000000 d1 93 b8 bd 75 d9 80 3d dd 2c c2 3c 34 ea 8f bc
       -0.09012569 0.06291477 0.023703033 -0.017567731
000010 55 6a 72 3c 31 ab c2 3b c0 4b b1 3c ab 43 26 3d
       0.014795859 0.0059408178 0.021642566 0.040591877
000020 bc 4e 83 bc f7 e4 21 bd 90 f0 c9 3d da 13 27 3e
       -0.016028754 -0.039525 0.09860337 0.16316167
000030 3d a4 c9 bd 0e 2f f0 3d 40 4e 9c 3d e5 1d 07 bd
       -0.09845779 0.11727725 0.076321125 -0.032987494

arch.arch.net.inception_block_1.branches.0.5.running_var f4 [16]
000000 0c e7 c9 3d 80 26 7f 3d fc e3 52 3d a4 c0 57 3d
       0.09858522 0.062292576 0.051486954 0.05267395
000010 d7 98 6e 3d d0 d3 5d 3d 60 65 84 3d 8c ec b0 3d
       0.05825123 0.05415708 0.06464648 0.08638868
000020 c2 25 86 3d f9 a0 aa 3d c8 06 e2 3d aa d0 81 3e
       0.065501705 0.08331484 0.1103645 0.2535451
000030 68 6b 28 3e 5a 1b 2b 3e 2f 03 f7 3d d3 cc 0b 3e
       0.16447222 0.16709653 0.12061154 0.13652353

arch.arch.net.inception_block_1.branches.1.0.weight f4 [8, 1, 1, 31]
000000 09 a8 d1 3d ef d5 0e be 0b 99 7d 3d 29 2a 0b be
       0.10237128 -0.13948797 0.06191353 -0.13590302
000010 9c 64 eb 3d 0d ea 8c bd 34 c5 fd 3d d1 7c 55 bd
       0.11493799 -0.06880579 0.12391129 -0.052120987
000020 d6 e8 dd 3d fa 7e 04 be 64 09 b5 3d 89 57 05 3e
       0.108354256 -0.12939063 0.08839682 0.13021673
000030 47 f0 a7 3d dc d6 bc 3d f7 db ea 3d af 40 96 bd
       0.08200126 0.09220669 0.11467736 -0.07336556
000040 99 44 c0 bd 4d a4 df bd 06 a9 c0 3d 27 d1 87 3c
       -0.09388084 -0.1092001 0.09407239 0.016579224
000050 7d 1c 14 be e6 b5 2a 3d ca d3 f4 bd a0 ee 8a bd
       -0.14463992 0.041677378 -0.11954458 -0.06783795
000060 b7 57 8a 3d 60 aa 99 bc 4b d4 91 3d 11 e7 08 be
       0.067550115 -0.018757999 0.0712057 -0.13369395
000070 53 13 7b 3c 4a f8 23 bc 86 bb 50 bd 7f 6f d2 3d
       0.0153244315 -0.010007927 -0.050960086 0.102751724
000080 2a 24 80 bd af b8 00 be 4b 0e 88 bd 9f 4c af 3d
       -0.06256898 -0.12570451 -0.06643351 0.08559536
000090 93 5f 1b bd 68 2a 80 3d 46 f3 ab 3d d7 d8 bc bd
       -0.037932944 0.06258088 0.0839601 -0.092210464
0000a0 90 b0 3c 3d 2f e3 32 bd 70 05 86 3d 6b 3e 78 3c
       0.04606682 -0.04367369 0.06544006 0.0151516
0000b0 d8 4a 40 3d 34 9d 1f 3c 87 6e d5 bd 3f cd bb bd
       0.046946377 0.00974207 -0.10421472 -0.09170007
0000c0 d9 de ef bd df 1c 7b 3c 44 d8 76 3c 8e 1e 36 3d
       -0.11712427 0.015326708 0.01506621 0.044462733
0000d0 97 2f 34 bc 86 3c ab bd fd af a4 bd 0b b8 0b 3e
       -0.010997674 -0.08361153 -0.080413796 0.13644426
0000e0 19 6e 69 3d f8 48 0e 3e 65 c7 ca bd 1b c8 0b 3e
       0.056989763 0.13895023 -0.09901313 0.13650553
0000f0 8c ec 36 bd 6d e5 dc bd 7c 5a 92 bd 57 81 54 3d
       -0.044659182 -0.10785947 -0.07146165 0.05188116
000100 a6 c2 2a 3d 66 ec 0e 3e 9c 93 09 3b 81 f7 c6 3d
       0.041689537 0.13957366 0.0020992523 0.097151764
000110 f5 e0 51 bc f1 a3 14 3e 6c 2b d7 3c 91 fd 01 be
       -0.012809982 0.14515664 0.026265822 -0.12694384
000120 09 37 aa 3d b1 6c 48 bd 5e 1d 16 3d ff 78 4c bd
       0.083112784 -0.04893178 0.0366491 -0.04992008
000130 55 90 26 3d 13 68 ea bc 9c 07 16 3b 6b 5d 49 bd
       0.04066499 -0.02861408 0.002289272 -0.049161356
000140 5e aa f3 3c 18 b0 0c be ac 71 fb 3d a6 ff e9 bd
       0.029744323 -0.1373905 0.122775406 -0.11425714
000150 8b ea a7 bd 7b 68 15 3d 09 0d 00 3e 5f 1e d5 bd
       -0.081990324 0.036476593 0.12504973 -0.104061835
000160 08 ae 9f 3d 42 32 cd 3c 57 f1 97 3d 9e c0 e9 bd
       0.07796866 0.025048379 0.07419079 -0.11413692
000170 21 f1 d4 bd 49 9c 54 bd b2 4d 99 3d 5b 8c 14 3d
       -0.10397554 -0.051906858 0.07485522 0.036266666
000180 6e 10 a1 3d 07 39 a5 3c 1b 98 d7 3d dd 2d fa 3d
       0.07864462 0.020168794 0.10527059 0.12215779
000190 55 0b 8b 3d e4 b1 8b 3d 18 a0 36 3d 47 25 3d bc
       0.06789271 0.06821039 0.04458627 -0.011544532
0001a0 5d 3b 0d 3d c3 8c 33 3d 5c fe 69 3d 26 33 25 bd
       0.03448044 0.043835413 0.05712734 -0.040331982
0001b0 5f f3 52 bd ec e8 8e 3d ae 8e d7 3d a6 2d 6e 3d
       -0.051501628 0.0697802 0.10525261 0.058149002
0001c0 10 95 9c 3c c8 52 f1 bd a4 77 8a 39 19 c2 96 3d
       0.019114047 -0.117833674 0.0002641055 0.0736124
0001d0 b0 be f1 3d b4 99 18 3e eb 17 0e 3e ab 6a d4 bd
       0.11803949 0.14902383 0.13876311 -0.10371908
0001e0 74 a5 38 3d 13 6a d1 3d 51 ad 12 3e 4f cd 19 bd
       0.045079663 0.1022531 0.14323927 -0.037549313
0001f0 5c 7a 39 3d a8 a1 b9 bd 7e bd f2 3d b0 ee 21 3d
       0.045282707 -0.090640366 0.11852549 0.03953427
000200 b5 d5 07 3d 99 db 46 3c b8 92 ce bd 98 9c 1d 3e
       0.03316279 0.012137317 -0.10086578 0.15391767
000210 fb 2a c1 bd 19 0e a8 bd ee a8 96 bc 7f 8a 10 3e
       -0.09432026 -0.08205814 -0.018391099 0.14115332
000220 f3 b3 bd 3d 42 a3 69 3d 50 70 cd 3d 2e 45 d7 bd
       0.09262838 0.05704046 0.100311875 -0.10511242
000230 1d 11 ef 3d d7 b4 07 be d4 85 76 bc 5d ff ea bd
       0.11673186 -0.13252579 -0.015046556 -0.11474488
000240 06 90 c1 3d 91 32 cc bd 4c 62 11 3e 40 63 10 3e
       0.094512984 -0.09970582 0.14197654 0.14100361
000250 6e c7 49 3d 47 5b 90 bd 99 db 07 3d 4b 36 16 be
       0.049262457 -0.0704866 0.03316841 -0.14669149
000260 3d f8 4a 3d 0e 24 16 3d 16 d1 fb 3c 43 35 08 be
       0.049553145 0.03665548 0.030739348 -0.13301568
000270 44 1a a8 bd f5 73 95 bc 78 2a 26 3d 00 75 a0 bb
       -0.08208135 -0.01824377 0.040567845 -0.00489676
000280 74 ba 85 bc 55 4b 4d 3d 3c 1b f3 3d d2 88 bb bc
       -0.01632426 0.05012067 0.11870429 -0.02289239
000290 45 3f d2 bd e2 1f 99 bd 97 e9 8b bd 31 73 9a 3c
       -0.10265974 -0.07476784 -0.06831663 0.018853756
0002a0 8f 6b 1c be 20 9f 5e bd 2b 7e b2 bc 3f ff 98 bc
       -0.15275405 -0.054350972 -0.021788677 -0.018676398
0002b0 d3 34 0d 3e 72 6d b4 bc 26 80 d2 3d 9a 9d a5 3d
       0.13789682 -0.022024844 0.102783486 0.08086701
0002c0 2c ac c2 3d 12 77 a3 bd f8 8c f7 3c dd 19 5a 3d
       0.095054954 -0.07981695 0.030218586 0.05324732
0002d0 10 e3 bd bd b1 a1 d9 bd 57 c2 0a be b4 a0 eb bd
       -0.09271824 -0.10626543 -0.13550697 -0.11505261
0002e0 df 75 c6 bc 44 15 ce 3d 86 6d b5 bd e4 2e 1d be
       -0.024226127 0.1006265 -0.088587806 -0.15349919
0002f0 69 7d 16 bc 8b 17 98 3b c1 be 11 bd 49 24 1a be
       -0.009185174 0.0046414784 -0.035582308 -0.15052904
000300 22 dd 75 bc 84 0a de 3d 9c ff 7f bd de 97 0e be
       -0.015006335 0.108418494 -0.062499627 -0.1392512
000310 63 70 04 be d2 38 ac ba c0 5c b1 bd 01 c2 a1 bd
       -0.12933497 -0.0013139492 -0.08660269 -0.078983314
000320 56 98 02 bd 21 09 08 3e 5d ef a5 3c 17 8a fb 3d
       -0.03188356 0.13284732 0.020255739 0.12282198
000330 78 a6 df 3c 79 16 15 3e fb 30 05 be f0 2d d7 bd
       0.027301058 0.14559354 -0.13006966 -0.10506809
000340 8e 11 e9 bc db e3 17 3e 14 15 db bb 61 8e 8e 3d
       -0.028450754 0.14833014 -0.0066858623 0.0696075
000350 70 28 c8 3d 0b 45 90 3c f0 96 f3 bd 81 88 72 bb
       0.09773338 0.017611047 -0.118940234 -0.0037007632
000360 eb 14 cc 3d 4f d9 cb 3d 65 b3 a9 bd 3f ef af 3d
       0.09964927 0.09953558 -0.0828617 0.085905544
000370 4d df 04 3e 2c 7f 3d 3a 15 d5 7c 3d 58 db be bd
       0.12975807 0.0007228728 0.06172665 -0.0931918
000380 45 d9 83 3d 71 a0 d9 3c 98 b3 fe 3d 76 91 02 3e
       0.06437925 0.026565762 0.124365985 0.12750801
000390 19 43 07 3d 6c 23 1a bd fb f8 10 3e cf d1 0f be
       0.033022974 -0.037631437 0.14157479 -0.1404488
0003a0 1e 49 de bd 20 8a 86 bd 6b 2c 95 bd 2b d6 10 be
       -0.1085379 -0.06569314 -0.07283863 -0.14144199
0003b0 24 e2 4b 3d 84 31 96 3d c6 ac 02 3e f9 2b 0c 3e
       0.04977621 0.07333663 0.1276122 0.13688649
0003c0 b8 03 86 3d f6 f3 10 3e ad a9 a2 3d 0d 1e 75 3d
       0.06543678 0.14155564 0.07942519 0.05984311
0003d0 6f e2 d6 bd 63 8f f5 bc 68 c5 a2 bd 19 ee 7c 3d
       -0.104924075 -0.029975599 -0.079478085 0.061750505

arch.arch.net.inception_block_1.branches.1.0.bias f4 [8]
000000 15 e5 9a 39 b7 40 83 3a 90 a2 f0 b9 0f fa 20 b9
       0.00029543848 0.0010013793 -0.00045897486 -0.00015351943
000010 a5 12 1e ba fc e4 04 ba 7f 88 65 3a ce c2 62 ba
       -0.000603 -0.0005069522 0.0008755996 -0.0008650244

arch.arch.net.inception_block_1.branches.1.1.weight f4 [8]
000000 73 ca 80 3f c9 6c 7f 3f 6c 4b 7f 3f a3 a7 81 3f
       1.0061783 0.9977537 0.9972446 1.0129284
000010 10 4c 80 3f 3e 18 80 3f 22 85 80 3f 97 a8 7f 3f
       1.0023212 1.0007398 1.0040629 0.9986662

arch.arch.net.inception_block_1.branches.1.1.bias f4 [8]
000000 28 cd 75 bb ec 53 ab ba ab b2 c1 bb ff 52 34 bc
       -0.0037506316 -0.0013071275 -0.0059111915 -0.011006116
000010 81 02 fe ba 2f 3c 27 bb a0 a2 e6 bb a0 52 12 3b
       -0.0019379408 -0.002551805 -0.0070384294 0.002232708

arch.arch.net.inception_block_1.branches.1.1.running_mean f4 [8]
000000 77 19 a0 be 4f d9 f2 bf 09 64 ba 3f af 96 ae 41
       -0.31269428 -1.8972567 1.4561778 21.823576
000010 c4 f6 d5 40 a5 19 fa c0 6a db c8 c0 e2 6c 39 41
       6.6863728 -7.8156304 -6.276784 11.589083

arch.arch.net.inception_block_1.branches.1.1.running_var f4 [8]
000000 13 06 c1 42 41 17 58 42 1b f9 a8 42 10 80 47 44
       96.51186 54.02271 84.486534 798.001
000010 17 21 e4 42 7d 2c 32 43 90 0c 83 43 38 ed a1 43
       114.06463 178.17378 262.09814 323.85327

arch.arch.net.inception_block_1.branches.1.4.weight f4 [16, 1, 16, 1]
000000 35 cd ed bc 6b 7d 08 be d2 dc ff bd a2 d9 f3 bd
       -0.029028514 -0.13329093 -0.1249329 -0.119067445
000010 8b b2 c6 bd 5e 5e 77 3d 64 99 94 3d 6d 9e f1 bc
       -0.09702023 0.06039273 0.072558194 -0.029494489
000020 24 7a d5 3d 7e 6d 32 3c 52 a9 f3 bc aa 2a b1 bd
       0.10423687 0.010890363 -0.029743824 -0.08650716
000030 c3 89 8c bc 6e a9 c7 3d b3 b9 aa 3d 90 de d7 3d
       -0.017155534 0.09749113 0.083362006 0.10540497
000040 d3 87 53 bd c9 d3 ae bd bd 73 72 3d a3 d1 23 3d
       -0.051643204 -0.085364886 0.059192408 0.039994847
000050 c1 5c 1c bc e7 f2 7f 3d 5a 78 ee bc c4 9b 01 3e
       -0.009543599 0.06248751 -0.029110122 0.12657076
000060 b4 e4 9d bd 13 f3 c3 bc 0f 83 53 bd 6a c9 13 be
       -0.07709637 -0.023919618 -0.05163866 -0.14432302
000070 76 80 59 bd 3d 57 0b be 72 30 ce 3c 15 e8 ea bd
       -0.053101026 -0.13607498 0.025169585 -0.114700474
000080 ba db 5c bc 6a b9 31 bc 40 b9 93 3d 6c 94 e6 3d
       -0.013480121 -0.010847429 0.07213068 0.11258778
000090 52 89 f0 3d bb 59 29 bd 6e a7 3e 3d 7d 08 ca 3d
       0.11744942 -0.04134534 0.046546392 0.098649
0000a0 6b cb 66 bd 0d c7 c8 3d cb 84 c1 3d af 33 a5 3c
       -0.05634634 0.09803591 0.094491564 0.020166246
0000b0 47 93 03 3d ec e2 e8 3d b8 22 dd bd a2 b9 f5 3d
       0.032122876 0.11371407 -0.10797638 0.11998297
0000c0 03 8c 15 3c ff 2b bb bd 62 8c c1 3d c3 19 0d 3e
       0.00912762 -0.09139251 0.09450604 0.13779359
0000d0 d6 90 f1 3d 36 d6 22 3c 0f f3 d8 bc 5c 85 36 3d
       0.117952034 0.009938767 -0.026483087 0.044560775
0000e0 5d dd 05 be dc 41 fc bd 38 0b d3 bd 19 c1 9d 3d
       -0.13072725 -0.12317249 -0.10304874 0.07702846
0000f0 9c 16 11 3d a1 ac b2 bc 2d a3 06 be fd 49 16 be
       0.035421953 -0.021810832 -0.13148184 -0.14676662
000100 61 43 b9 bd 31 a5 cc bd dc 50 bb bd 7e 39 43 bd
       -0.09046055 -0.09992445 -0.09146282 -0.04766225
000110 33 f8 38 3d e3 de 7a ba 28 c1 09 be 84 65 aa bd
       0.045158576 -0.0009569956 -0.1345259 -0.08320144
000120 65 66 d4 bc 37 bd a2 3d cd 9c 06 3e 9d e1 dd 3d
       -0.025927732 0.07946246 0.13145752 0.10834048
000130 41 df 0d 3e 46 72 14 3e a6 7a 17 be fb 40 bf bc
       0.13854696 0.14496717 -0.1479288 -0.023346415
000140 e4 02 07 3e d6 7c c2 bd 85 20 c0 3d 6a 85 8c bd
       0.13184696 -0.09496467 0.093812026 -0.06861384
000150 ff a0 ca 3d 99 75 e4 bc e9 2b 13 3d dd e6 96 3d
       0.09893989 -0.027888106 0.035930548 0.073682524
000160 d2 8c bf 3d de 49 81 3b 0a 1b aa bc 1e 1c b4 bd
       0.09353031 0.0039455732 -0.020764846 -0.087944254
000170 7e db 4f bc 99 c8 ae bc a7 2d fe 3d 62 40 ef bd
       -0.012686608 -0.021335887 0.12411051 -0.11682202
000180 47 2d 82 3d 24 d2 4a 3d 9b d7 cb bd b0 71 a5 bb
       0.06356292 0.049516812 -0.09953233 -0.005048953
000190 e1 c4 02 be b4 20 07 be 93 31 1b 3d 88 5b e4 bd
       -0.12770416 -0.13196069 0.037889075 -0.11150271
0001a0 55 dc a0 3d e7 f9 d0 3d d8 e3 0f 3e 93 0c 87 bd
       0.07854525 0.10203915 0.14051759 -0.06594195
0001b0 16 c6 26 3d 37 85 73 bd 5d 5f 96 bd b2 d0 f1 3d
       0.040716253 -0.059453215 -0.07342408 0.118073836
0001c0 3c 5c 0f bd 03 6b 2f bc 84 15 d7 bc dd a7 b9 3c
       -0.03500007 -0.010706666 -0.026255377 0.022663051
0001d0 fb 32 1c be cc 4e 1c 3d 87 a0 a4 bc e3 02 c4 bb
       -0.15253823 0.038161084 -0.020096077 -0.0059817894
0001e0 b2 27 8d bc da ca 34 3d 0f 88 c1 bc 10 43 5a bd
       -0.017230842 0.044138767 -0.023624448 -0.053286612
0001f0 ee dc ef 3d 5d 72 6f 3d 8b c4 bb 3c 18 53 8d bd
       0.11712061 0.058458675 0.022920867 -0.069006145
000200 2e a5 f5 bd 95 91 8c bd 83 a7 7f bc 8c 44 1a 3e
       -0.11994396 -0.06863705 -0.015603903 0.15065211
000210 f8 8b ef 3d bf 84 dd bd 23 55 9f 3d 8e 53 2b 3c
       0.11696619 -0.10816335 0.077799104 0.010456933
000220 90 c9 ab bd 8e 8b 77 bd 6f 0f 79 3d 33 50 6a bd
       -0.08388054 -0.060435824 0.060805734 -0.05720539
000230 1a 40 90 3d cf 24 f9 bd 7d 4d f6 bd f3 2b 83 bb
       0.070434764 -0.12165224 -0.120264985 -0.004003042
000240 b0 54 6d 3d 51 5b a8 bd de 66 eb 3d 6f 71 ef 3d
       0.057942092 -0.08220542 0.1149423 0.116915576
000250 c1 b9 9a 3c 75 c8 14 be 52 43 d0 3d 22 9a f8 3d
       0.018887402 -0.14529593 0.1016909 0.121387735
000260 77 1d 41 3d 9a a5 c6 3d 21 ac 0f bc 94 83 09 be
       0.04714724 0.09699555 -0.008769066 -0.134291
000270 d4 87 bd 3d 3d ae 80 3d 62 74 0f 3e ce e9 c3 3d
       0.09254423 0.06283233 0.1400924 0.09566079
000280 cc b4 16 bd 15 a1 ac 3c 24 f8 64 3d b4 96 02 3e
       -0.036793515 0.021072904 0.055900708 0.12752801
000290 8d d8 7b bd 7a 62 ac 3d d3 53 d4 39 d4 f1 db 3d
       -0.061485816 0.084172204 0.00040498245 0.107394844
0002a0 d6 67 30 3d a8 4d b1 bc 3d 64 41 bd fa eb 60 bd
       0.043067776 -0.021643475 -0.047214735 -0.054912545
0002b0 b3 fb ac bd ca 6e a9 39 92 9f 8f bd 33 96 45 3c
       -0.08446445 0.00032316736 -0.070128575 0.012059736
0002c0 24 aa e6 bd e3 87 82 bd f7 df cf 3d 5f 9f ec bd
       -0.112629205 -0.063735746 0.1015014 -0.11553835
0002d0 f4 21 d8 bd d7 e6 ea 3d 59 26 34 3d a1 d7 52 bd
       -0.10553351 0.114698105 0.043981884 -0.05147517
0002e0 54 f2 1a 3e 65 cf a4 bd ae be 36 3d df 8d b8 3c
       0.15131503 -0.0804737 0.04461544 0.022528587
0002f0 33 fd be 3c 34 0e ac bd 00 79 b8 bd 94 d2 92 3d
       0.023314094 -0.084011465 -0.09007454 0.07169071
000300 3f 2f 84 3d 29 38 88 bc 17 62 65 3c 88 a8 81 bc
       0.06454324 -0.016628342 0.014000437 -0.015827432
000310 e7 f5 8d 3b 22 65 a6 bd dc 28 db bc 52 d8 86 bc
       0.0043322924 -0.08124758 -0.026752882 -0.016460571
000320 08 e4 9f bd 10 0c f1 bc ce d6 04 be d5 61 11 3d
       -0.078071654 -0.029424697 -0.12972566 0.03549369
000330 67 24 91 3d 49 f9 7a 3d 93 ea 4c 3c a6 09 9e bc
       0.07087021 0.061272893 0.012507099 -0.01929171
000340 a0 14 0d 39 61 99 92 3d 4c ba 7d 3d 09 0a f9 bc
       0.00013454491 0.07158161 0.061945245 -0.030400293
000350 0e 8e 63 bd 02 05 9d 3d 37 00 83 3d 00 0c 14 3c
       -0.055555396 0.07666971 0.06396525 0.009036064
000360 ec 5a c9 bd d0 5b ac bd ef 85 b4 bd cf ec 19 3c
       -0.09831795 -0.08415949 -0.08814608 0.0093948385
000370 7d fe e4 bc 4d f6 0c be d5 15 ca 3d ac 12 ac 3d
       -0.02795338 -0.13765831 0.098674454 0.08401999
000380 14 46 ff 3d 0d fe 47 3d 01 21 d9 bd 89 f6 96 bb
       0.12464538 0.048826266 -0.10601998 -0.004607026
000390 6a 8f d6 3d 42 be 1e 3d 0e 23 ac bc b4 9d 1b bd
       0.10476573 0.038755663 -0.02101281 -0.037992194
0003a0 78 fc 04 3e 8b f7 ad 3d a6 8d 00 3e a8 dc 9d bd
       0.12986934 0.08494481 0.12554035 -0.077081025
0003b0 90 49 0e be b3 1e 96 3b 1b 19 0e be ec 81 58 3c
       -0.1389525 0.0045812964 -0.13876764 0.01321457
0003c0 87 d0 db 3d e5 bc 40 3c b8 4b 86 bc 6e 87 b4 bd
       0.10733133 0.011763786 -0.016393527 -0.08814894
0003d0 1a 1f 94 3c 73 a2 e7 bc ff a3 46 bd 6c 0b 86 3d
       0.018081237 -0.028275704 -0.048496243 0.06545147
0003e0 ab 59 d1 bd eb 30 e4 3d 40 3a 99 bd 64 89 68 3d
       -0.10222181 0.11142143 -0.074818134 0.05677165
0003f0 b2 6a ad bd e0 cc b9 3d 4d 02 f4 bb 53 74 96 bd
       -0.08467616 0.0907228 -0.0074465633 -0.07346406

arch.arch.net.inception_block_1.branches.1.5.weight f4 [16]
000000 39 18 7f 3f 6e 81 7f 3f 7a 37 81 3f aa f6 80 3f
       0.99646336 0.9980687 1.0095055 1.0075276
000010 76 43 7d 3f 1a 46 80 3f 6e fd 7f 3f b7 c9 7e 3f
       0.9893106 1.0021393 0.9999608 0.9952654
000020 7a f9 7f 3f 4c 7b 80 3f e5 7d 80 3f d6 0f 80 3f
       0.99990046 1.0037627 1.003842 1.0004833
000030 18 46 81 3f 8f 98 82 3f 04 f5 7e 3f 80 3a 7e 3f
       1.0099516 1.0202807 0.99592614 0.99308014

arch.arch.net.inception_block_1.branches.1.5.bias f4 [16]
000000 96 1a bb b9 2d 7e 48 3a ba cd c2 3a f5 dc a5 b8
       -0.00035687228 0.0007648196 0.0014862337 -7.9089696e-05
000010 39 66 00 bc 4b 69 c2 bb 4c be e3 3b fc 61 e3 3b
       -0.007836872 -0.005932962 0.0069501754 0.006939171
000020 ec ac 8e 3b 98 da 12 3c e9 46 9b 3b 32 ff 9d 3b
       0.00435411 0.00896325 0.0047386778 0.0048216814
000030 c6 de f0 3a fc f3 fc 3b 87 54 7f 3b f7 b0 84 bb
       0.0018376939 0.007719515 0.0038960294 -0.004049416

arch.arch.net.inception_block_1.branches.1.5.running_mean f4 [16]
000000 91 64 be bc 6c a3 60 bd 7a 69 db 3d 48 2d a2 bd
       -0.023241313 -0.05484335 0.107134774 -0.07918793
000010 cb 67 1d bd c7 de ec 3c 84 b4 75 bd f7 5c 4f bd
       -0.038429063 0.028914822 -0.059986606 -0.050625768
000020 b5 64 f1 3b 46 a5 ae 3d b0 94 8f 3b 90 d3 0b bd
       0.0073667415 0.08527617 0.0043817386 -0.03413731
000030 d3 98 bb bc bc c2 88 bc c3 ba 00 bd 55 83 69 bd
       -0.02290002 -0.01669442 -0.03142811 -0.057010014

arch.arch.net.inception_block_1.branches.1.5.running_var f4 [16]
000000 dd 7c af 3d 0a d4 38 3e 44 8d fd 3d c8 da 06 3e
       0.08568738 0.18049636 0.1238046 0.13169396
000010 9e 3f d9 3d 41 d6 9f 3d b2 71 06 3e 7f 29 71 3d
       0.10607837 0.078045376 0.13129309 0.058877464
000020 55 52 f0 3d 11 f9 86 3e ad a5 5a 3d d2 49 1a 3d
       0.117344536 0.26361898 0.053380657 0.037668057
000030 e2 95 06 3d e8 cc 0f 3d a6 b6 a6 3d 4e ad 69 3d
       0.032857783 0.035107523 0.08140306 0.05705004

arch.arch.net.inception_block_1.branches.2.0.weight f4 [8, 1, 1, 15]
000000 9f af 27 bc 61 27 88 bd 27 a6 a1 bd 80 da 18 3e
       -0.010234742 -0.06648136 -0.07893019 0.14927101
000010 a5 8e b4 3d bf 75 26 be 3e 64 0e 3d 17 24 44 be
       0.0881627 -0.16255854 0.034763567 -0.19154392
000020 2d fb d4 bd 62 7c d5 bd 64 c0 8f 3a dd cc 37 be
       -0.103994705 -0.10424115 0.0010967371 -0.17949243
000030 6b 66 3d 3e d3 93 93 3d a4 a1 9f bd cf 10 d8 bd
       0.184961 0.072059296 -0.077945024 -0.10550081
000040 c3 91 21 be b2 d6 33 be a3 09 4c bb 6f 5e 02 be
       -0.1577826 -0.17562369 -0.0031133674 -0.12731336
000050 c6 7f f0 bd b4 23 51 be 61 0d ec 3d 26 9c 15 be
       -0.11743121 -0.20423776 0.11525989 -0.14610347
000060 87 58 0d 3d 26 f5 8d 3d 28 6f 4b be 22 a4 0c 3e
       0.034508254 0.06931524 -0.19866621 0.13734487
000070 13 f2 e4 3d ba 72 49 be db 5b 06 be 3b 4c 00 3c
       0.111789845 -0.19672671 -0.13120978 0.007830675
000080 00 8a 95 3d 38 94 d5 bd b8 f6 00 3e 58 79 06 be
       0.07301712 -0.10428661 0.12594116 -0.13132226
000090 ef bf 14 3e 19 94 07 3e cf 60 30 3e 4c d6 cd bd
       0.14526342 0.13240089 0.1722443 -0.100506395
0000a0 68 96 c7 3d 52 b4 9f bd 74 cc b5 3d 77 dc 03 bd
       0.097454846 -0.07798065 0.08876887 -0.032192674
0000b0 55 57 43 3d b1 08 e5 bc 19 08 5e 3d 95 15 08 3d
       0.04769071 -0.027958246 0.05420694 0.033223707
0000c0 ab 16 32 3d 40 f4 2c 3e 9d 30 df bd 0f ab 40 3e
       0.04347865 0.16890049 -0.10897944 0.18815254
0000d0 4e 1e 3d be 2e a8 c5 bd 32 7e 4a 3e b2 17 d0 bc
       -0.18468592 -0.09651218 0.19774702 -0.025401924
0000e0 b5 e2 bd 3d 16 2c 59 be 9b 86 f0 bd 8a fc a3 3d
       0.092717566 -0.21208224 -0.11744424 0.080071524
0000f0 9c af 4e 3e 56 74 ed ba 14 d7 1a bc 7b b8 3f 3e
       0.20184177 -0.0018116336 -0.009450693 0.18722717
000100 d3 03 29 be df 46 35 be 0c ac 05 3e fa fa 31 3e
       -0.16505365 -0.17702816 0.13053912 0.17380896
000110 f4 3c 06 3e aa a4 64 3d 6e 00 7f bd ef bf bd 3c
       0.1310919 0.0558211 -0.06225627 0.02316281
000120 49 a5 ec b9 2a 42 07 3e 1d c7 3a 3d 70 32 6a bc
       -0.00045136575 0.13208833 0.045600045 -0.014294252
000130 98 4d 09 3e 36 3f 82 bd e6 29 2a 3e 24 f2 fa 3b
       0.13408506 -0.06359713 0.16617545 0.00765826
000140 f7 f6 ea 3c 8e ef 3b 3e 77 92 0f be e0 dc 90 bc
       0.028682215 0.18353102 -0.14020716 -0.017683446
000150 81 7f 9d 3d ae 75 bd bd 08 2a 40 be b9 51 a1 bd
       0.07690335 -0.09250961 -0.18766034 -0.078769155
000160 d1 70 92 bc dd 80 54 3d 1b fd 63 3d 4f 04 2f be
       -0.01787606 0.051880706 0.055661302 -0.17091487
000170 ef 6d 3d 3e 19 c5 2b 3e 4a 39 16 3d c9 3d 08 3d
       0.18498968 0.16774406 0.03667573 0.033262048
000180 5e 92 34 3e 38 70 cf 3d 36 fc 3d 3e 75 b8 ba bd
       0.1763396 0.10128826 0.18553242 -0.09117214
000190 9f 4a ea bb 0f 8a 91 3d 40 5a 2a be 24 6b 11 bd
       -0.007150009 0.07106411 -0.1663599 -0.035502568
0001a0 d2 40 fc bd f3 fb 58 3e 6b 9c b0 3c d2 68 15 bd
       -0.12317051 0.21189861 0.02155896 -0.036476918
0001b0 ce fd 26 3e ad 5f d6 bd 18 e9 19 3e 23 e7 97 3b
       0.16307756 -0.104674675 0.15030324 0.004635708
0001c0 23 d8 cb bc 92 f9 97 3c 6d d7 4d 3c a0 44 48 3e
       -0.024883335 0.018551622 0.012563569 0.19557428
0001d0 e7 73 c2 bd 46 46 48 3e 2d f9 ed 3c 78 3c 32 3e
       -0.09494763 0.19558057 0.02904948 0.1740588

arch.arch.net.inception_block_1.branches.2.0.bias f4 [8]
000000 42 4d be ba 28 85 9f b8 41 25 2f 3a 3c 68 9b 3a
       -0.0014518874 -7.606513e-05 0.00066812715 0.0011856626
000010 c7 96 b0 ba d6 df a5 b8 20 60 69 b9 c1 39 ee b9
       -0.001347267 -7.909506e-05 -0.00022256421 -0.00045437927

arch.arch.net.inception_block_1.branches.2.1.weight f4 [8]
000000 c5 b6 80 3f 8a d7 7f 3f 28 7a 7f 3f b7 6b 80 3f
       1.0055777 0.9993826 0.9979577 1.0032872
000010 55 ab 7f 3f 9d fd 7e 3f 05 6b 7d 3f 74 46 7e 3f
       0.99870807 0.99605733 0.98991424 0.9932625

arch.arch.net.inception_block_1.branches.2.1.bias f4 [8]
000000 8b 13 c0 bb 6d 65 90 b9 13 72 6b 38 f8 90 93 3a
       -0.0058617047 -0.00027541388 5.6134606e-05 0.0011258414
000010 55 75 6f 3b bc bf dc 3a fc 4b c8 3b 3f b0 05 3c
       0.0036538441 0.0016841809 0.0061125737 0.008159696

arch.arch.net.inception_block_1.branches.2.1.running_mean f4 [8]
000000 4e 67 e2 c0 de 25 78 c1 e6 ef 9e 40 54 9e cc 3f
       -7.0751104 -15.509245 4.9667845 1.5985818
000010 b1 02 2b 41 d3 41 08 3f 98 ca e9 40 f9 cc 6a 41
       10.688157 0.5322544 7.3059807 14.675042

arch.arch.net.inception_block_1.branches.2.1.running_var f4 [8]
000000 34 ca 16 43 2c c7 0a 44 08 1e b1 42 55 ba 25 42
       150.78986 555.11206 88.558655 41.431965
000010 94 53 81 43 f7 31 7c 42 63 44 6a 43 f0 53 da 43
       258.65295 63.048794 234.26714 436.65576

arch.arch.net.inception_block_1.branches.2.4.weight f4 [16, 1, 16, 1]
000000 41 a1 e7 bd d2 f0 16 bd 31 21 6d bd e4 4d 0a 3e
       -0.113100536 -0.036850758 -0.057892982 0.13506275
000010 5c e1 10 3e 12 0e a5 3c 9f b9 06 be 7b 97 28 3d
       0.14148468 0.02014831 -0.13156746 0.041160088
000020 61 e8 11 bd 52 6e 8d 3c 57 0b c8 3d 13 fe 92 bd
       -0.035622004 0.017264519 0.09767788 -0.07177367
000030 81 9f cb bd 8e 2c bb 3d f3 47 ba bd 6d 7a b7 3d
       -0.09942532 0.091393575 -0.090957545 0.08958898
000040 44 aa 16 be 11 5a 9b bd f2 7c ab 3d 1b 34 92 bd
       -0.14713389 -0.07585538 0.08373441 -0.071388446
000050 2b d7 99 3d 99 f2 e9 3d 1c 65 9b bd 73 11 16 3e
       0.07511743 0.11423225 -0.075876445 0.14655094
000060 d8 fa c4 bd 72 a3 b3 3d 82 3b d9 3d b8 92 26 3c
       -0.09618157 0.08771409 0.10607053 0.010166816
000070 07 fc 16 3e 15 b4 04 3e b0 e7 f3 3d 2d 1e f3 3d
       0.14744578 0.12959321 0.11909425 0.1187099
000080 b0 8c b8 3d 76 1c 1d 3e 49 27 b3 bc c0 82 22 bd
       0.09011209 0.15342888 -0.021869319 -0.039675474
000090 5c e3 fa bd 62 e9 0c be 9b 74 09 be ce 05 8d 3c
       -0.122503966 -0.13760903 -0.13423388 0.017214682
0000a0 b9 ac 07 be dd b4 53 bd 9e d2 6a bd 18 02 4d 3d
       -0.13249482 -0.051686157 -0.057329766 0.050050825
0000b0 fb 53 99 bc 22 4f 64 bc 20 af 37 bd af 9f 21 bd
       -0.018716803 -0.013934882 -0.044844747 -0.039458927
0000c0 c3 51 60 bd 6d 62 72 3d b1 75 0c 3e d2 9d fd 3d
       -0.054765474 0.059175897 0.1371677 0.123836175
0000d0 5c 57 ca 3d 29 af b9 3d fb a9 ff bd 65 b5 79 bc
       0.09879944 0.09066612 -0.12483593 -0.015241002
0000e0 1d b8 e3 bd 34 a3 06 3d 23 46 91 3d e8 2b 98 3d
       -0.11119101 0.032870486 0.07093456 0.074302495
0000f0 da af a6 3b 9e 28 07 3e 1e 64 0c 3d 7f c2 8c 3d
       0.005086881 0.13199088 0.034275167 0.06873035
000100 99 f9 ef bd ea b2 aa 3c ea d7 cd bd e4 0a 10 be
       -0.11717529 0.020837266 -0.10050948 -0.14066654
000110 04 d2 0c be 3c 90 94 bd 9f fd b3 3d 55 09 f7 3d
       -0.1375199 -0.07254073 0.08788609 0.12062327
000120 5b 67 00 3e 24 c4 fa bd d7 f2 7e 3d 06 2c 19 3e
       0.12539427 -0.12244442 0.06224331 0.149582
000130 08 ab 7f 3d 21 5d 15 be a9 b5 04 be 3c e1 b2 3d
       0.062418967 -0.14586307 -0.12959923 0.08734366
000140 8f b0 ce bd 8d 4f 6e bd 6b 89 66 bb 87 3d 1e bc
       -0.1009227 -0.058181334 -0.0035177122 -0.009658224
000150 d1 bb 2c 3c aa 1d 05 be 90 a1 75 3d 28 f8 dd 3d
       0.010542826 -0.12999597 0.05996853 0.10838348
000160 ce 2b 0c 3e d1 71 61 3b f9 85 f3 3d 01 9d fa bd
       0.13688585 0.0034400115 0.11890788 -0.12236977
000170 7e cb 92 3d 7f b4 c1 3d ef 67 11 3d c9 a4 67 3d
       0.07167719 0.09458255 0.03549951 0.056553636
000180 d7 c9 c4 bd 66 64 00 3d 42 a2 15 be e1 d4 0c be
       -0.096088104 0.031345747 -0.14612678 -0.13753082
000190 61 1e 5e 3d ea a6 0a be 80 77 9b bb d9 c2 c5 3d
       0.05422819 -0.13540235 -0.00474447 0.09656305
0001a0 ec ee bf 3c 97 1a 94 bd e5 cf 05 3d 25 8a 0f 3e
       0.023429357 -0.07231634 0.032668967 0.14017542
0001b0 42 f7 d9 3d 04 fe 03 3e e4 7d 9b bd 50 54 91 bd
       0.10642864 0.12889868 -0.07592371 -0.070961595
0001c0 ba bf 04 3e 67 db 31 bd ab f7 b4 3d 60 95 34 3d
       0.12963763 -0.04342213 0.088363014 0.044087768
0001d0 dd 33 0d 3e 5c 07 ab bc 0c 99 05 be f1 39 c2 3d
       0.13789316 -0.020877533 -0.13046664 0.09483708
0001e0 f4 69 10 be 7b c9 14 bd e0 ec 3e 3d db f7 d9 3c
       -0.14102918 -0.03632496 0.04661262 0.026607445
0001f0 d0 11 81 3d 34 d4 82 bc 6f bd c6 bd d5 1b 46 bd
       0.063022256 -0.015970327 -0.097041 -0.048366386
000200 5e 9d f7 3c 9c b2 18 3c 1c 87 d4 3d 90 f5 56 3c
       0.030226406 0.009319928 0.103773326 0.01312007
000210 8d 58 e4 3b b6 0e 82 bd ae 05 09 be c9 a0 56 bc
       0.006968564 -0.06350462 -0.13381073 -0.013099858
000220 f6 a4 c9 3d 56 b6 8f bd f4 2a d7 3d 1e 20 1c bd
       0.09845917 -0.070172 0.105062395 -0.038116567
000230 90 68 7a 3d b0 65 13 bb 1d 65 92 3c 5b 98 9b 3d
       0.061134875 -0.002249103 0.01787048 0.07597419
000240 6c 8c 5f 3d 57 6f d4 3d c9 f9 4e bb ff 8a 04 bd
       0.054577276 0.10372799 -0.003158199 -0.03235912
000250 25 5f 27 bd 9c 02 b7 bd d2 d9 13 3e 6e c9 9d 3d
       -0.04086222 -0.089360446 0.1443856 0.07704435
000260 af 78 9b 3d 63 96 02 be ad 80 22 3c 90 f5 af bd
       0.07591378 -0.1275268 0.009918374 -0.08591759
000270 48 20 de bd 4c c8 ec 3d 3c eb 3d 3d 3d 6f c3 3d
       -0.10846001 0.11561641 0.046366915 0.095427014
000280 3c 26 91 bd 7c b5 45 3d c2 e7 3e bc 2f 17 d0 3d
       -0.07087371 0.04826878 -0.011651935 0.10160672
000290 3e ec fb 3c 29 88 16 3e 80 fa 31 3d 6f 3c e6 bd
       0.030752297 0.14700378 0.043451786 -0.112419955
0002a0 22 ac 04 3e 77 7f 40 bc 4f 2f 72 bd c0 a9 d5 bd
       0.12956288 -0.01174914 -0.05912715 -0.10432768
0002b0 ed 1a 02 3d 5d fe f7 bd 33 01 b3 bd ba 48 9d 3d
       0.03176396 -0.12109063 -0.08740463 0.07679887
0002c0 ee 07 e4 bd 37 36 28 bd 82 44 19 be 56 45 ca ba
       -0.11134325 -0.04106733 -0.1496754 -0.0015432041
0002d0 66 33 a0 3d f7 90 82 bc b8 2e 8b 3d ba f2 96 3b
       0.078223035 -0.015938265 0.0679602 0.004606572
0002e0 aa 61 ae 3d b3 18 b3 bb aa 5b ac bd cd b5 9b bc
       0.08514722 -0.005465591 -0.08415921 -0.019007588
0002f0 25 c9 d1 bc ba 5c a7 bd 8d 09 12 3e c5 04 f2 bd
       -0.025608608 -0.08171983 0.14261456 -0.11817316
000300 ac 11 e0 bc 08 1c 0d be 3c 00 bf 3d 83 d8 be bd
       -0.027352177 -0.13780224 0.093262166 -0.0931864
000310 34 72 cf 3d 41 39 08 3e 62 91 01 be 40 50 f3 bd
       0.101292044 0.1330309 -0.12653115 -0.11880541
000320 83 8a f1 bd a0 35 9b bd c0 d5 0e bc f5 a7 0b 3e
       -0.11793997 -0.075785875 -0.008717954 0.1363829
000330 10 e8 65 ba cf c3 84 bb 51 7f ed 3b e7 ef 40 bd
       -0.0008770237 -0.0040516625 0.0072478433 -0.04710379
000340 c1 19 0a 3e 7c 81 ef bd f4 f1 50 bd 58 88 81 bc
       0.13486387 -0.11694619 -0.051011994 -0.015812084
000350 05 d6 ba bd f3 42 b5 3c 07 d6 81 bd 33 fa ae 3d
       -0.09122852 0.02212665 -0.063396506 0.085438155
000360 64 af ed bd 4c dc a2 3d 82 70 0a 3d 80 83 af bd
       -0.11605719 0.079521745 0.033798702 -0.085700035
000370 cf ad a0 3d 1a 90 ab 3d 43 1b 0d 3e 71 a3 e4 bd
       0.07845651 0.083770946 0.13779931 -0.111639865
000380 fa c3 91 3d ad e7 c5 bd 86 b2 12 3e c7 ed fe 3d
       0.07117458 -0.09663329 0.14325914 0.12447696
000390 b3 21 59 bd 4f fb c3 bd 39 de d0 3b 40 35 e8 bd
       -0.053010654 -0.09569418 0.0063741473 -0.11338282
0003a0 45 56 0c 3d 95 b6 52 bd 80 0f 51 bc a4 39 67 bc
       0.03426196 -0.051443655 -0.012760043 -0.014112864
0003b0 35 92 ec bd c3 d3 03 3e c0 4b 88 bd 97 8d d0 bb
       -0.11551324 0.1287375 -0.06655073 -0.006364535
0003c0 cb 27 19 3e e0 1e 81 3d 00 2e 10 bc db e8 c1 bd
       0.14956586 0.06304717 -0.00880003 -0.09468242
0003d0 ab 4e f5 bd 49 60 ac bc 77 e9 07 3e 44 47 97 bd
       -0.11977895 -0.021042006 0.13272654 -0.0738664
0003e0 99 43 11 be 7f e0 11 3e 92 ef f3 bd 72 ee 4a bd
       -0.14185943 0.14245795 -0.11910929 -0.049543805
0003f0 e7 63 80 bd 3e 2a 11 be 46 14 df bb 8f ce c4 3d
       -0.06269055 -0.1417627 -0.0068078367 0.096097104

arch.arch.net.inception_block_1.branches.2.5.weight f4 [16]
000000 49 1e 81 3f 77 d0 7f 3f bb 4f 7f 3f ee 11 80 3f
       1.0087367 0.9992747 0.99731034 1.0005472
000010 b0 45 80 3f f1 ae 80 3f e0 20 81 3f 0b 4a 7e 3f
       1.0021267 1.0053388 1.0088158 0.9933173
000020 e8 0e 7e 3f 89 74 7f 3f e4 2c 80 3f 0c 67 7e 3f
       0.99241495 0.99787194 1.00137 0.9937599
000030 4b 17 7f 3f c6 00 7e 3f f0 41 80 3f 08 9e 81 3f
       0.9964492 0.9921993 1.0020123 1.0126352

arch.arch.net.inception_block_1.branches.2.5.bias f4 [16]
000000 a1 15 8c 3b e9 d4 6c ba 66 d0 76 3b ac 82 14 ba
       0.0042750393 -0.00090344116 0.0037660836 -0.00056652236
000010 2e d8 d8 3b b3 83 d6 3b 6d fc b7 3b 75 82 0c bc
       0.0066175675 0.0065464615 0.0056148083 -0.008576025
000020 33 46 8f bb c8 94 31 bb 46 39 29 bb 62 fc d1 bb
       -0.004372382 -0.0027096737 -0.002582149 -0.00640826
000030 04 95 2c 3a b4 ea 5f 3b b2 4c ac bb 04 9b 28 3c
       0.00065834844 0.0034166994 -0.005258166 0.010290865

arch.arch.net.inception_block_1.branches.2.5.running_mean f4 [16]
000000 15 8d 9b 3b 1c c5 fc 3d 53 77 9d bd 84 12 d6 3d
       0.004747043 0.12342283 -0.07688775 0.1045275
000010 bb 38 17 bd fa c5 97 bb cf 2a 74 bd 2d e6 a7 3c
       -0.036919337 -0.004631755 -0.059611138 0.020495499
000020 5f b2 4f 3d e6 8b 2f 3c dc 39 35 3c bf 5e 1a bd
       0.050707217 0.010714507 0.011061158 -0.037688013
000030 cd 3d 8a 3c 11 c9 fb bc 3c a4 de 3c 2d b1 d5 bc
       0.016875172 -0.030735524 0.027177922 -0.02608546

arch.arch.net.inception_block_1.branches.2.5.running_var f4 [16]
000000 b7 2f 20 3d d7 ff dd 3d d7 70 a6 3d 39 68 be 3d
       0.039108004 0.10839813 0.08126991 0.09297223
000010 c8 11 31 3e dc 90 88 3d e1 89 03 3e 10 5d 8f 3d
       0.1729194 0.06668255 0.12845565 0.07000172
000020 dc 03 a2 3d 11 83 74 3d 6d 49 87 3d ea 0e 85 3d
       0.07910892 0.059695307 0.06605802 0.06496985
000030 c5 f0 98 3d 6d 28 8e 3d 47 2c 04 3e 60 1c e8 3d
       0.07467798 0.06941304 0.12907515 0.11333537
