checkpoints/MultiSubjectEEGModel_best_20250522_021518.ckpt (torch, 259103 bytes, 103 tensors)

arch.conv.0.weight f4 [16, 16, 11]
000000 04 e6 01 3e 05 c3 ff 3d 15 f6 22 3d 05 6f d5 3d
       0.126854 0.12488369 0.039785463 0.10421566
000010 ba 4b c6 3c da d6 4d 3d 0a bc c6 bb fc c7 b3 3d
       0.024206031 0.050253727 -0.0060648965 0.08778378
000020 ea a6 b2 3d ed ff b1 bd 91 0f 9e 3c 38 3b 3a bd
       0.087232426 -0.08691392 0.019294532 -0.04546663
000030 f6 08 d0 3c 59 52 ab 3c 71 90 6f 3d a2 6a 74 bc
       0.025394898 0.02091329 0.05848736 -0.014918001
000040 d1 41 69 3d 22 f1 5f 3b 5b 3b 3a bd b0 25 4c 3c
       0.056947533 0.0034170826 -0.045466762 0.012460157
000050 e5 e9 9d bd 34 61 bf bd 15 80 95 bd f1 92 dd 3c
       -0.077106275 -0.09344712 -0.0729982 0.027047606
000060 43 9e 0b bd b3 2d 50 3c 1e a0 1e bb cf 70 a3 bc
       -0.034086477 0.012706208 -0.0024204324 -0.019951252
000070 24 a3 49 3d 3d 69 57 bd bb b4 93 3d 4c 20 ab bd
       0.04922785 -0.052590597 0.07212206 -0.083557695
000080 e0 d9 de 3b 12 24 04 bc 58 a7 23 bd 7b e3 89 3d
       0.006800875 -0.00806524 -0.039954513 0.067328416
000090 d3 b6 5f 3d 7b d2 ae 3d ca 9a 0b 3d 5d f7 1d 3d
       0.054617714 0.0853624 0.034083165 0.038565982
0000a0 1f 54 61 3d 8d b2 aa bc 68 89 1a 3d 21 e4 90 3d
       0.055011865 -0.020837093 0.037728697 0.07074762
0000b0 a9 e4 b4 3c f6 e2 80 bd bf 14 3b 3c 08 4d 3c bc
       0.02208169 -0.06293289 0.0114185205 -0.011492975
0000c0 e1 bc a4 3c 77 cb 9e bd 0e 53 9b bd a5 96 27 bd
       0.020109596 -0.077536516 -0.07584201 -0.04091515
0000d0 cf 49 bd bd 60 7d a1 3d f2 d8 c0 3d 1b 9b b2 bc
       -0.092425935 0.078852415 0.09416379 -0.021802476
0000e0 9c 58 12 bd ec 4f d1 bd ce 93 8b bd b1 56 24 be
       -0.035729036 -0.10220322 -0.06815301 -0.16048695
0000f0 bf 28 05 be 26 b7 47 be 35 aa 8e bd 59 7e b8 bd
       -0.13003825 -0.1950346 -0.06966058 -0.09008474
000100 bd 99 6b 3c 05 8e 73 3d e7 9d cf 3c 6e a9 a9 bd
       0.014379916 0.059461612 0.025343848 -0.08284269
000110 b1 22 bd bd 43 96 cd bd 29 61 42 3c 09 c8 cd bc
       -0.092351325 -0.10038426 0.011863985 -0.025119798
000120 dc 83 5f 3b 0f 93 d3 bd 1f ce a8 bd 09 6f 68 bd
       0.0034105694 -0.103307836 -0.082424395 -0.056746516
000130 86 ca 01 bd b2 45 d7 3c c2 f4 97 3c b0 c6 92 3d
       -0.031687282 0.02627835 0.018549327 0.07166803
000140 8e 90 92 bc 47 15 44 bd b8 dd 9d 3d ba 64 2c bb
       -0.017891195 -0.047871854 0.07708305 -0.0026305155
000150 70 01 64 3d 0a c9 b1 3c 5b b1 90 3d 11 87 9d bd
       0.055665433 0.021702308 0.07065078 -0.076917775
000160 4f ea 92 bc 99 5e 14 3d e3 b6 f9 3c 79 51 43 3c
       -0.017933993 0.036223028 0.030482715 0.01192128
000170 da 58 95 3d 49 5d d5 3d 6c 66 3c bc f5 45 09 bd
       0.07292338 0.10418183 -0.011499029 -0.03351398
000180 42 58 bc 3d 19 7f 8b bc 48 32 ad bd 7e 4b 53 bd
       0.09196521 -0.017028378 -0.08456856 -0.051585667
000190 c7 1b bf bc 1f 56 09 3c 9e 1d dc bc dd 30 49 bd
       -0.023328675 0.008382349 -0.026869591 -0.049118865
0001a0 83 40 37 ba ae 25 a7 bd 35 c7 bb bd d0 0d 7a bd
       -0.0006990509 -0.08161484 -0.09168855 -0.06104833
0001b0 32 11 dc bd bb ca f4 bd c2 8a 08 3e 46 aa 98 3d
       -0.10745467 -0.1195273 0.13334182 0.07454352
0001c0 4b 90 30 3d ae fd a7 bd 1a 9c 08 bd 8a e8 05 bd
       0.04310636 -0.082026824 -0.033351995 -0.03269247
0001d0 bb 47 9f bc 1c ca 6e bd 2c ba 20 bd 38 f1 b2 bd
       -0.019443383 -0.058298215 -0.039240047 -0.08737415
0001e0 6c ee f0 bc 56 42 9e 3d 64 9a ba 3d 5a be 04 3d
       -0.029410563 0.07727496 0.09111479 0.032408096
0001f0 33 fb 46 bb 57 5f a6 3b 74 e9 8d 3c 22 41 33 bc
       -0.0030362129 0.0050772834 0.017323233 -0.010940822
000200 7f 2c 04 3e b8 a8 95 3c ea 33 9a 3d 50 2c 73 3d
       0.12907599 0.018268928 0.07529433 0.05936843
000210 3e 41 fa 3a f1 70 d4 3d 7f 95 27 3d fb 8e 79 3c
       0.001909293 0.10373104 0.040914055 0.015231843
000220 76 f6 17 bd bd 86 54 bd 60 6c 8d 3d 61 88 eb 3c
       -0.037100278 -0.05188631 0.069054365 0.028751554
000230 22 9e 6d 3d dc 39 98 bc d1 19 03 3e 3a 45 c1 bd
       0.058012135 -0.018582277 0.12802817 -0.09437032
000240 20 6b 64 bd 66 f3 68 bc 4e 5c 5e 3c a1 8f e1 3c
       -0.055766225 -0.014218187 0.013571812 0.027534308
000250 d2 0b 96 3c ab 7b c3 bd f1 ff 83 bc c6 a1 76 bd
       0.018316183 -0.09545072 -0.016113253 -0.060212873
000260 f4 2c b1 bb 05 2c b4 bc 09 da 80 bc b3 f5 08 be
       -0.00540697 -0.021993646 -0.015728967 -0.13374977
000270 96 93 f7 bc 33 c5 f4 bc 9e 51 e2 bc b7 c6 eb bd
       -0.030221742 -0.029879188 -0.027626809 -0.11512511
000280 be df 26 3a 62 f9 32 bd 5d 0e 1f bd ac 63 b8 bd
       0.00063657376 -0.04369486 -0.038832057 -0.09003386
000290 aa 0d 16 3d 3e cd 54 bd 73 1e 87 bd 65 be 83 3d
       0.036634125 -0.051953547 -0.065976046 0.06432799
0002a0 1b 79 02 3d 37 38 32 bd 43 58 33 bd b0 f7 97 3c
       0.031853776 -0.043510642 -0.043785345 0.018550724
0002b0 d1 87 42 3d 1f 21 23 bd f7 a5 61 bd a3 5b 08 bd
       0.047492806 -0.03982651 -0.055089917 -0.033290517
0002c0 d7 7c cc bd 7d 61 d5 bc 7e fb db 3b 74 61 c4 bd
       -0.09984749 -0.026047463 0.00671333 -0.095889
0002d0 74 94 92 3c 02 94 52 3d 6a d3 10 3d 03 4f 48 bc
       0.017893054 0.051410682 0.03535787 -0.012225869
0002e0 90 ca 2b 3d 34 c5 72 3c 08 10 41 bc 50 2e ba bd
       0.041941226 0.014817525 -0.011783607 -0.09090865
0002f0 72 98 bc bd 87 b2 f0 bc 81 29 8c bc 46 87 0b bd
       -0.09208764 -0.029382003 -0.017109634 -0.034064554
000300 f0 69 42 3c e0 3a 10 3d be f8 0b bd 84 15 38 bd
       0.011866078 0.035212398 -0.034172766 -0.044942394
000310 0b 72 82 39 71 a9 fe 3c 6d c6 80 bc c6 85 c3 bc
       0.000248805 0.031086655 -0.015719617 -0.0238675
000320 d9 5c ba bd 5b f2 ca bc ad 6b 68 3d 67 76 5a 3c
       -0.090997405 -0.024773767 0.056743313 0.013333893
000330 3c 7f 90 bb 59 ba 4b bd ab fc 69 bd 53 eb 7d bd
       -0.004409699 -0.04973826 -0.05712573 -0.061992
000340 dd 87 a8 3b d9 7c 69 3d 49 a8 50 3d 67 33 33 3d
       0.0051431493 0.05700383 0.05094174 0.043750193
000350 7a 60 34 bd 85 6f 02 bd 51 f0 56 3c 77 20 fa 3d
       -0.04403732 -0.031844635 0.013118819 0.122132234
000360 01 93 3f 3d 3d 14 88 3a 79 90 52 3d fe 0c 88 bb
       0.046771053 0.0010382008 0.05140731 -0.0041519394
000370 29 4c 92 3d 99 69 17 3e 46 3f 4a 3d b5 99 68 3d
       0.07143433 0.14786376 0.04937675 0.05678721
000380 00 56 66 bc b1 0a 17 3e 9c 38 35 3e 6c e6 f6 3d
       -0.01405859 0.14750172 0.17697376 0.12055668
000390 95 a0 81 3c e5 58 00 bd 70 10 2b bd 2d bc ea 3d
       0.015823642 -0.031334776 -0.041763723 0.11461673
0003a0 42 35 01 3e e1 e9 10 3e 17 88 a6 3d a2 54 81 3d
       0.12617972 0.14151718 0.08131426 0.063149706
0003b0 f5 fa 37 3d be 62 38 bd 76 d1 65 bd 0d d1 63 bd
       0.044917066 -0.045016043 -0.05610796 -0.05561929
0003c0 15 68 26 3d 65 a1 05 bd 67 3e 98 bd fa 56 52 bd
       0.040626604 -0.03262462 -0.07433777 -0.05135248
0003d0 39 27 b3 bc f2 e0 ad bd c5 7f a5 bd e8 07 12 bd
       -0.021869289 -0.084901705 -0.08081011 -0.03565207
0003e0 22 8d 00 be 73 3f 0f bd 9d 25 8f bd 8b 9c 92 bd
       -0.12553838 -0.03497262 -0.06989596 -0.071587645
0003f0 ce bd 36 bc 73 71 05 be ed 85 b6 bd 8e 4b 10 be
       -0.011153651 -0.13031559 -0.08912263 -0.14091322

arch.conv.1.weight f4 [16]
000000 9a 9e 6d 3f ca 4b 7e 3f ca ac 7b 3f 9f 76 78 3f
       0.9282013 0.99334395 0.9831053 0.97056
000010 d3 53 82 3f 28 ac 80 3f 98 e8 78 3f ed d4 70 3f
       1.0181831 1.0052538 0.9722991 0.940749
000020 07 69 86 3f c7 a0 84 3f 2e e6 7e 3f 5c 21 81 3f
       1.0500802 1.0361565 0.99569976 1.0088305
000030 de fd 84 3f 99 d7 80 3f cf 1f 84 3f 36 da 7a 3f
       1.0389974 1.0065795 1.0322207 0.97989213

arch.conv.1.bias f4 [16]
000000 67 c0 f3 bc 7b 8d 2f 3d dd 12 6d 3a eb 67 02 be
       -0.02975483 0.042859536 0.00090436434 -0.12734954
000010 ff 23 1c 3e 03 6c fd 3d 07 0c 70 3e 59 ef dd 3c
       0.15248106 0.12374117 0.23442088 0.027091669
000020 ff 50 4c 3d 49 05 9d 3b 74 c2 e6 bb 67 a0 84 3d
       0.04988193 0.00479189 -0.0070422236 0.06475907
000030 19 bb 0e 3d 3f 6c d7 3d 15 59 89 3d fb 18 9f bd
       0.0348464 0.10518693 0.06706444 -0.077684365

arch.conv.1.running_mean f4 [16]
000000 a2 c6 50 bf 9d cf eb bf 2f ee d1 3e 36 bb 7c 3e
       -0.8155309 -1.8422734 0.41002032 0.2468079
000010 54 c3 28 3f 14 83 f7 be d3 48 ed be ef de 9c 3f
       0.6592305 -0.48342192 -0.46344623 1.2255534
000020 b4 1c fb 3e c1 8e 47 3f 22 7b e8 be d0 32 e5 be
       0.49045336 0.779522 -0.45406443 -0.4476533
000030 48 53 d9 3d 64 92 dd 3d 5d b6 73 3e be 1a 36 3e
       0.10611588 0.108189374 0.23800035 0.17783639

arch.conv.1.running_var f4 [16]
000000 a8 ac 39 44 c8 8d a1 44 2c 8d fe 44 4b b8 86 44
       742.69775 1292.4307 2036.4116 1077.7592
000010 84 00 4f 44 e0 5b 55 44 89 17 bb 44 d8 f8 10 45
       828.00806 853.43555 1496.7355 2319.5527
000020 8d be 28 44 6a 78 22 44 da 73 70 44 2f a9 1f 44
       674.97736 649.8815 961.8102 638.6435
000030 4c 64 d5 44 c1 16 4d 44 c9 24 30 44 b3 62 4b 44
       1707.1343 820.3555 704.57477 813.5422

arch.conv.4.weight f4 [32, 16, 11]
000000 fb e9 f0 3d 71 00 e2 3b ea 4f a4 3b 99 25 cf 3d
       0.11763378 0.0068970253 0.0050144093 0.10114593
000010 37 0a 82 3d 15 53 ab bc 5b b8 13 3d 9f 3f 2f 3d
       0.063496046 -0.02091364 0.036064487 0.042785283
000020 f5 16 89 bd 25 3e 63 3c 2c 64 66 3c 56 d2 cf 3c
       -0.06693832 0.013869797 0.014061969 0.02536885
000030 2e e5 ba 3d 5a ee 2e bd 19 61 3d 3d cd 23 01 bd
       0.09125744 -0.04270778 0.046235178 -0.031528283
000040 fa e9 04 bd a7 0e bc 3d 5f ca 9a bc c2 a8 fc bb
       -0.0324497 0.09182482 -0.018895326 -0.007710547
000050 43 48 bf 3c c8 e1 7d bd 12 d1 0d bd 78 b4 73 3d
       0.023349887 -0.0619829 -0.034623213 0.05949828
000060 b7 78 b4 3d 12 c1 46 3c d5 a9 a4 3d 99 eb 89 3d
       0.08812087 0.0121309925 0.080402054 0.0673439
000070 0d 38 5f 3d d1 7a 2b bc aa 2d ca 3d 87 3a 6f 3d
       0.054496814 -0.010466293 0.09871991 0.058405425
000080 a4 d6 fe 3c a6 14 19 3e ba f4 14 3d c9 61 c4 3d
       0.031108208 0.14949283 0.036366202 0.095889635
000090 f6 8f a4 3c 52 9b e6 3c 87 7e 5c 3d b7 5e 87 3d
       0.020088177 0.028150234 0.053831603 0.06609862
0000a0 25 28 e6 3c 7e 7b af bd 8a ca bb bd 4b 54 af bc
       0.028095314 -0.08568476 -0.09169491 -0.021402499
0000b0 2a 02 1a bd e5 9e ed bd ba ff 91 3a 3a 76 57 bd
       -0.03759972 -0.11602572 0.0011138835 -0.052602984
0000c0 d2 aa d1 bd ec 13 cd bc 6c 1c 7f 3b 8e ea 54 bd
       -0.102376595 -0.025033914 0.0038926853 -0.0519815
0000d0 52 96 fd 3c 66 1d 8c bd fc c4 ec 3a da ee ee 3d
       0.030955467 -0.06841545 0.0018064077 0.11666651
0000e0 e1 b7 94 3d 3b dd 1f 3d 02 a4 0c bd e9 30 ab bc
       0.072616346 0.03902934 -0.034336098 -0.020897346
0000f0 6e 21 ee bc 9b 87 d4 bc 4c 3f ee bc 04 26 4a 3c
       -0.029068675 -0.025943568 -0.029082917 0.012338165
000100 92 f7 fa bc 6f 9e 75 bc db 69 82 bd 25 97 89 bd
       -0.030635629 -0.014991387 -0.063678466 -0.06718282
000110 fd 4f 58 bd 7d f6 a4 3d dc 9b e3 3c cc 66 cd bd
       -0.052810658 0.080548264 0.02778428 -0.100293726
000120 d3 72 72 bd 30 75 f7 ba 00 ff 19 bd 49 b5 13 bd
       -0.059191536 -0.0018879529 -0.037596703 -0.03606156
000130 12 f0 d4 bc d3 06 0f bd 10 c1 aa 3a f8 5c 9a bb
       -0.02599338 -0.034918617 0.0013027508 -0.00471079
000140 d1 16 f1 3c 51 24 9d 3c c1 d9 80 3d f1 e9 97 3c
       0.029429825 0.019182356 0.06291533 0.01854417
000150 7b 86 93 bc 16 a0 a6 3c 0a 2a 19 bc 18 5d 8a 3d
       -0.018008461 0.020340007 -0.009348402 0.067560375
000160 b0 f7 12 bd 65 b7 5e bd 51 db c1 bd 29 53 9f 3b
       -0.035880744 -0.054374117 -0.094656594 0.0048622084
000170 8e 3a 60 3c 3f b9 14 3d f9 0c c9 bb a4 fa a7 3d
       0.0136858355 0.036309477 -0.0061355797 0.08202103
000180 be 48 2c 3d 12 18 56 bd fe 32 3f bd 9e 37 eb bc
       0.04206156 -0.05226905 -0.04667949 -0.028713044
000190 6b 34 e6 bd d3 9a 4b bc cc fd bc bc ee 4b a3 39
       -0.11240467 -0.01242705 -0.023070239 0.00031146355
0001a0 a8 79 04 3d 21 38 cf 3c bb 81 7c 3c bc 35 5e 3c
       0.032342583 0.025295319 0.0154117895 0.013562616
0001b0 cb 2e 86 bd e3 9a 4f bd e2 8d 61 3d 38 b8 c3 3d
       -0.06551894 -0.05068482 0.05506695 0.09556621
0001c0 a2 5e c3 3d 35 bd b6 3d f4 46 97 ba 6a 08 b1 bc
       0.09539534 0.08922807 -0.0011541531 -0.021610457
0001d0 cf 04 b4 bd 26 db d8 3c 35 2b 73 bd 6c 6d 72 bd
       -0.0878998 0.026471686 -0.059367377 -0.059186384
0001e0 bf 92 76 3d 87 81 45 3c e0 1f 7f bd 21 21 cc bd
       0.06019854 0.0120548075 -0.062286258 -0.09967256
0001f0 e0 64 ff bd a9 3e 0f bc b0 e3 1b be ce 74 8e 3c
       -0.12470412 -0.008742967 -0.15223575 0.017389681
000200 49 a5 d9 3c 49 f0 82 bd db c3 d5 bd 33 5a e5 3b
       0.026568072 -0.06393487 -0.10437747 0.006999278
000210 4b 30 44 3d df d9 d5 3d 48 50 c9 3d ae e0 8d bc
       0.04789762 0.10441946 0.098297656 -0.01731905
000220 b8 8c a0 3d eb c0 9a 3d 56 10 11 bd fb ff d9 3c
       0.0783934 0.075563274 -0.03541597 0.026611319
000230 2b fd 8d bd 10 6a b8 bd 04 d1 24 bd e8 8b e8 bc
       -0.069330536 -0.09004605 -0.040238395 -0.028387025
000240 d0 2b 7e bd b5 34 e4 bd 78 ce 88 bc 3c 36 5f 3d
       -0.0620535 -0.111428656 -0.016700014 0.05449508
000250 83 57 1d bd a1 8f ed bd 64 83 ba bd 32 22 de bd
       -0.038413536 -0.11599661 -0.09107092 -0.10846366
000260 2d f7 81 bd 5b 41 b3 ba 6d a9 16 3d f2 3d 91 bd
       -0.06345973 -0.0013676094 0.03678267 -0.07091893
000270 c2 f8 f6 bc 9b c3 76 bd fa 11 ad bd 11 5f c0 bc
       -0.030147914 -0.060245138 -0.084506944 -0.023482831
000280 0b d7 b1 bb 48 5a 3b bd 48 6d 31 3c 9b 20 f4 bb
       -0.0054272464 -0.045740396 0.010829277 -0.007450176
000290 13 d5 8d bc be 8f c3 3d f2 7b 81 3d 68 56 a8 3d
       -0.017313516 0.09548901 0.06322469 0.08219606
0002a0 b1 36 22 bc 39 71 a3 3d bb 0a 23 3d 7c 29 ba bc
       -0.009900735 0.0798058 0.039805155 -0.02272486
0002b0 a9 48 a9 ba fd 4e 9d bd e3 a2 a0 bd ae 37 70 3c
       -0.0012915331 -0.076810814 -0.07843568 0.014661713
0002c0 a4 d2 04 3d 60 ae d0 bb 4d 91 b7 3c 75 d4 5f bd
       0.032427445 -0.0063684434 0.022408152 -0.054645974
0002d0 3f 6a ca bc de 16 8d 3d 8f 73 ae bd c4 d6 f4 bc
       -0.024708865 0.06889127 -0.08518135 -0.029887564
0002e0 08 fb 05 bc e7 a0 e0 bc 74 38 80 bd dd 03 e4 bd
       -0.008177526 -0.027420474 -0.062607676 -0.11133549
0002f0 81 58 0d bd e6 a2 80 bd 09 53 13 bd 7d 90 1e 3d
       -0.034508232 -0.062810704 -0.03596786 0.038712014
000300 52 15 7e bd b2 01 e0 bd a3 97 16 be c8 a0 ec bc
       -0.06203205 -0.10937823 -0.14706282 -0.02888526
000310 26 ce 58 bd c5 50 a6 3c 57 90 b4 bc ba 1e ed bd
       -0.052930973 0.020302186 -0.022041483 -0.11578126
000320 7f e8 f9 bc f4 04 cc 3c ca e1 26 3c ca c4 12 bc
       -0.03050637 0.024904706 0.010185668 -0.008958051
000330 f1 05 b8 bd 6c 29 b7 bd 2a 5e 86 bc ba 3a 03 be
       -0.08985508 -0.089434475 -0.016402323 -0.12815371
000340 2c eb 63 bd 78 19 1b bd 05 61 08 3c 68 c2 8b 3b
       -0.0556442 -0.037866086 0.0083239125 0.0042651184
000350 0a bf 07 bd 67 97 01 bc 63 1e c0 3d 08 13 6e 3d
       -0.033141173 -0.007909632 0.09380796 0.05812362
000360 f7 f6 ad 3d 65 08 e5 bb 42 f9 87 3d 16 38 9a bc
       0.084943704 -0.006989526 0.06639339 -0.018825572
000370 4b 5c 9f bd 8f 2b 23 bd 71 e0 ac bd 16 17 d6 bd
       -0.07781275 -0.039836463 -0.08441246 -0.10453622
000380 55 c6 d7 bd 9e b0 b6 bd d9 56 a2 bd 2c 7a 83 bc
       -0.10535876 -0.08920406 -0.07926721 -0.016049467
000390 d9 e9 04 be 36 17 aa 3b 4b 47 4f 3d b9 08 06 3b
       -0.12979831 0.0051907552 0.0506051 0.0020451976
0003a0 88 9f 2f bc 8d 4f 61 bd 69 91 5c 3d 97 8d 95 3d
       -0.010719188 -0.055007506 0.05384961 0.07302397
0003b0 4b 72 52 3d 17 3d ee bc b0 bb 03 bc 87 88 a5 3d
       0.05137853 -0.029081864 -0.008040354 0.08082681
0003c0 3e d7 20 3d fa c6 e4 bc 21 a6 f3 bd 35 be 8c bc
       0.03926777 -0.02792691 -0.11896921 -0.017180542
0003d0 a8 05 19 bd 24 fe f9 bb f4 b5 ce bd 98 64 23 bd
       -0.03735891 -0.007629173 -0.100932986 -0.039890856
0003e0 c6 4a 9d bd 8f 01 a4 bd ff 67 b2 3a d8 55 c1 bd
       -0.076802775 -0.0800811 0.0013611316 -0.094402015
0003f0 c3 78 3e 3d ad 78 4c 3d 4e 58 31 bd 1c 41 ca 3c
       0.046501886 0.049919773 -0.043297105 0.02468925

arch.conv.5.weight f4 [32]
000000 8b 17 81 3f 68 88 7f 3f 59 b0 7a 3f 9a f7 83 3f
       1.008531 0.99817514 0.97925335 1.0309937
000010 e2 2b 73 3f a9 d0 84 3f 40 89 85 3f ac 63 6b 3f
       0.94988835 1.0376178 1.043251 0.9194896
000020 bd 4f 82 3f b5 87 69 3f 9b a8 85 3f 48 14 81 3f
       1.0180584 0.912227 1.0442079 1.0084314
000030 35 b9 70 3f 29 50 6b 3f 1d 97 7c 3f 62 ba 75 3f
       0.94032604 0.9191919 0.9866808 0.9598752
000040 aa 6f 76 3f 4e 00 8a 3f ed 3d 69 3f 7b 6c 81 3f
       0.96264136 1.0781343 0.91110116 1.0111231
000050 2b ba 77 3f 45 95 84 3f 27 3a 7a 3f 59 dd 87 3f
       0.96768445 1.0358053 0.97744983 1.0614425
000060 ca d9 70 3f 79 b1 71 3f ff 2a 7c 3f d6 cc 8b 3f
       0.9408232 0.94411427 0.98503107 1.0921886
000070 e7 2e 86 3f 4b 9a 7d 3f 41 5e 7a 3f 82 25 83 3f
       1.0483063 0.9906356 0.9780007 1.0245821

arch.conv.5.bias f4 [32]
000000 9d a6 c0 b9 a8 34 b9 38 ce 73 fb bc e6 5d f6 bc
       -0.0003674523 8.8312954e-05 -0.030694868 -0.030074071
000010 9f 1a 99 bd f8 13 37 bd 3f 14 cd 3c a8 e8 92 3a
       -0.07475781 -0.044696778 0.025034068 0.0011208253
000020 81 c9 d0 bb bb 98 73 bc 50 06 8a bc 52 e4 ae bc
       -0.0063716774 -0.014867957 -0.016848713 -0.021349106
000030 f3 7c 8c 3c b8 0f 45 3d cc 11 9c bc ea c8 8d bc
       0.017149424 0.048110694 -0.019051455 -0.017307717
000040 65 f8 0b bc d3 76 f3 bd a4 03 1c bd be 04 f0 bc
       -0.008543109 -0.11887898 -0.03808941 -0.029299136
000050 e0 6d 02 b9 05 5b f3 bc 4d 9b d9 3c 06 d8 92 bd
       -0.00012438698 -0.029706487 0.026563311 -0.071701095
000060 8e 64 22 3d a7 0f f9 bc 49 00 24 39 ab d3 aa bd
       0.039646678 -0.030402971 0.00015640365 -0.08341154
000070 77 62 cf bc 0f 96 97 bd 5c f5 b6 3c e4 98 6d bd
       -0.025315506 -0.07401668 0.022333793 -0.058007136

arch.conv.5.running_mean f4 [32]
000000 11 21 c3 be 48 7e 99 bf 22 00 60 3f 12 58 9c 3e
       -0.38111165 -1.1991663 0.875002 0.30535942
000010 53 cd 52 bd 01 86 c0 be 97 b6 b1 be f1 e6 c7 bf
       -0.051465344 -0.37602237 -0.34709617 -1.5617353
000020 58 11 18 bf ea d5 6d 3e 9e 2e 82 3f b8 00 35 3e
       -0.59401464 0.23226133 1.0170476 0.17676055
000030 d5 fd ca be 59 d1 c5 3e c9 5d 45 3f 5b 48 84 3f
       -0.39646783 0.38636282 0.7709623 1.0334581
000040 66 85 fb 3e 88 da 49 3f fe 9e 4e bf 3f fa c0 3f
       0.49125212 0.7884908 -0.8071135 1.5076369
000050 6d fb 81 3f a1 59 b7 3f c3 6d 09 bd db 94 88 3f
       1.0154854 1.4324228 -0.033551943 1.0670427
000060 4d 5d 92 be 16 60 91 bf b4 57 6f 3f 2b 49 7d 3f
       -0.28586808 -1.1357448 0.934932 0.9893977
000070 ba 91 2d bf 80 fd 93 3f 08 d7 a7 be 4b 90 c7 3f
       -0.67800486 1.1561737 -0.32781243 1.559091

arch.conv.5.running_var f4 [32]
000000 96 51 d2 3f 4b 5c de 3f 44 67 2f 40 8c b1 95 3f
       1.6431148 1.7371916 2.7406778 1.1694808
000010 da cb 9c 3f fc 1e 56 40 4a ec e9 3f f9 79 87 40
       1.224971 3.3456411 1.8275235 4.2336392
000020 44 8b d0 3f 7c 4f 9c 3f 82 98 42 40 32 72 bd 3f
       1.62925 1.2211757 3.0405583 1.4800475
000030 44 34 ce 3f b0 0a e8 3f b0 14 f5 3f 43 98 f5 3f
       1.61097 1.8128262 1.9146938 1.9187092
000040 0b cc bf 3f 91 a3 b2 3f 70 dc ba 3f 99 70 4e 40
       1.4984144 1.3956167 1.4598522 3.2256224
000050 cb dc 2c 40 9e 54 26 40 d4 71 5d 3f e6 6d 8a 3f
       2.7009761 2.5989146 0.8650181 1.0814788
000060 70 cf 86 3f 51 f8 06 40 49 14 1a 40 ee 26 f5 3f
       1.0532055 2.108906 2.407488 1.9152505
000070 37 c1 f3 3f ec a3 be 3f 92 93 fc 3f c1 55 81 40
       1.904334 1.4893775 1.9732535 4.041718

arch.transformer.1.attention.in_proj_weight f4 [96, 32]
000000 da 6c 97 3e 52 84 e5 3d 84 35 93 bd af cd 06 3e
       0.29575235 0.11206879 -0.07187942 0.131644
000010 a5 ec 02 3d f0 69 50 3e 03 6e 26 3e 13 16 6f 3e
       0.031963963 0.20352912 0.16252904 0.23348264
000020 20 c9 68 3d b1 b9 d9 bd c4 61 04 be e1 ca 72 3e
       0.056832433 -0.10631121 -0.1292792 0.23710205
000030 79 d0 81 3e 75 1c 6a 3e 47 bc 06 be 5c f7 62 3e
       0.25354365 0.22862418 -0.1315776 0.22164673
000040 24 f3 05 3e 0a 5a 09 be cf 93 2c 3d a1 7f 8e 3e
       0.13081032 -0.13413253 0.04213315 0.27831748
000050 6b 06 56 be 8c 69 58 3d 1e 69 f1 3d ce 77 0f bd
       -0.20900886 0.052835032 0.11787628 -0.035026364
000060 a6 a2 10 3e 41 d0 8c 3e 2c d1 46 3e de 62 0f be
       0.14124545 0.27502635 0.1941573 -0.14002559
000070 e4 22 22 3b 39 1b 7d 3e 71 c8 83 3e 15 f8 0f bc
       0.0024740035 0.24717416 0.25738862 -0.008787175
000080 93 08 2d 3e c8 5d 0f 3e 04 42 c4 3b fc 82 34 3e
       0.16897802 0.14000618 0.005989315 0.17628092
000090 b2 68 d3 3d 11 d4 55 bd f9 6a 4c bd 04 57 9c bd
       0.103227034 -0.052204195 -0.049906705 -0.076337844
0000a0 86 ed 0b be 52 87 05 be e0 ab 1a 3e c9 4f aa 3d
       -0.13664827 -0.13039902 0.15104628 0.08315999
0000b0 2d 57 ce bc ca 69 0d 3e 20 a4 0f 3e 38 a1 e8 3d
       -0.025188053 0.13809887 0.14027452 0.11358875
0000c0 e7 5b 35 be f9 77 6e 3e b1 d2 cb 3d f6 fa a2 3d
       -0.17710839 0.23287953 0.099522956 0.07958023
0000d0 e2 c1 a1 3d 00 24 27 be ef f1 ef 3d 0a 8a d1 3d
       0.07898308 -0.16322327 0.11716067 0.10231407
0000e0 19 bd a3 bc a0 72 d2 bc 41 45 52 3e 16 21 5f 3d
       -0.01998763 -0.025689423 0.20534231 0.054474913
0000f0 6e 7d fa bd cc b0 09 3e 29 ec a1 3d 52 7f 0c bd
       -0.12230955 0.13446349 0.07906372 -0.03430111
000100 f7 79 ce 3d c5 f2 1d 3e 6d 2f b2 3d f8 42 f7 bd
       0.10081857 0.1542464 0.08700452 -0.1207332
000110 7e bb 25 be 01 ac de bd 52 8a 2f 3e 81 18 07 3e
       -0.16184804 -0.10872651 0.17142609 0.13192941
000120 33 0e 42 be b9 15 ff 3d c7 91 91 3c 3e 04 8b 3c
       -0.18950729 0.12455315 0.017769707 0.016969796
000130 bd 76 d8 bd 70 75 18 be 68 be 4e be 55 d1 c7 3d
       -0.105695225 -0.14888549 -0.20189822 0.09756724
000140 30 92 e9 ba bf 3a 16 3d de 41 86 bd 19 e1 02 be
       -0.0017820057 0.03667712 -0.06555532 -0.1278118
000150 e5 1e bb bc 33 22 12 3d cc d6 67 be a6 ce 97 3c
       -0.02284188 0.035677146 -0.22640532 0.018531155
000160 66 f5 9e bd 13 4e e9 bd a7 7b cc 3d 02 ee 2e 3d
       -0.0776165 -0.113918446 0.09984522 0.04270745
000170 8d 8c d2 bd e5 cc cf 3d ba d6 5d 3c 73 9c ed 3d
       -0.10280714 0.101465024 0.013539964 0.11602106
000180 91 b2 04 3e d1 75 5e 3d 63 b8 98 be 87 0a 94 bd
       0.12958743 0.054311577 -0.29828176 -0.072285704
000190 d0 77 2e 3e 68 5f 13 3e 09 60 09 3d f4 1d 79 3e
       0.17037892 0.14391863 0.033538852 0.24327832
0001a0 71 f9 cd bd 1e 6f 0d be e3 2e 5e bc 5d b8 06 be
       -0.10057343 -0.13811919 -0.013560983 -0.13156267
0001b0 b8 12 7d 3e 97 4d 31 be 4b e4 6f 3d 48 6a 70 3e
       0.24714172 -0.17314754 0.058567327 0.23478043
0001c0 8f 22 a8 bd 40 14 12 3e 29 44 0b be 41 6d 77 3d
       -0.082097165 0.14265537 -0.1360022 0.060406927
0001d0 d9 26 0d be 28 12 57 3d f7 ff c0 3d 97 f2 28 3d
       -0.1378435 0.05250755 0.094238214 0.041246977
0001e0 7c 09 4c bd 49 3d 18 3c 48 8d 78 be 2d 7b 21 3d
       -0.049813733 0.009291955 -0.24272645 0.03942411
0001f0 d2 3e 98 3e ca 1e 09 be e5 7b 81 bc 40 1c b1 3c
       0.29735428 -0.13390651 -0.015806148 0.021619916
000200 57 93 87 b9 30 3e 34 bc 71 ff 36 3e 0b dc 70 bd
       -0.00025858983 -0.011001155 0.1787088 -0.0588036
000210 95 41 0c be 1b fe 8c be 34 bf 05 be b8 fa 45 be
       -0.13696893 -0.27537617 -0.1306122 -0.19333923
000220 1e 6d da 3d f9 08 40 3e 36 cd b9 3e e8 05 71 3e
       0.10665344 0.18753423 0.36289376 0.2353741
000230 5e 6d 91 bc 8f 98 8d 3e 2c 62 0a bd 44 86 e7 bd
       -0.017752346 0.27655455 -0.03378503 -0.11304906
000240 a6 bc 13 be 25 0f 33 be d6 81 0f 3e 4e b8 bb bc
       -0.14427432 -0.17486246 0.14014372 -0.022915032
000250 4f 2a 79 3e 6f be 07 bd 2b e5 8b 3d d3 15 71 3d
       0.24332546 -0.033140596 0.0683082 0.058858704
000260 c6 10 54 bd 9f 39 3a bd 1b 26 81 3e 67 ae 01 bd
       -0.05177381 -0.045465108 0.25224385 -0.031660464
000270 ac 4c e6 3d 09 40 4c bd a3 a7 26 be fd 35 84 bd
       0.11245093 -0.049865756 -0.16274886 -0.0645561
000280 c9 7b af bd 13 d1 21 3e 65 28 0d 3e 23 ae cd bd
       -0.08568532 0.15802412 0.1378494 -0.100429796
000290 24 a9 67 be dd 7e 00 3e 23 4f 55 bd 77 fb 26 be
       -0.22623116 0.12548395 -0.052077424 -0.16306864
0002a0 87 e7 e5 3d b9 cc cf bd 9c 39 45 3e e1 63 1f bd
       0.11225801 -0.101464696 0.19260257 -0.03891361
0002b0 62 fb d4 bd 90 9a 9e 3d d5 77 47 be 02 25 2b 3d
       -0.1039951 0.07744324 -0.19479306 0.04178334
0002c0 cd 04 be 3c 22 28 1b 3d be 1a 1d be 5c 67 44 be
       0.023195649 0.03788007 -0.15342233 -0.19180053
0002d0 d5 e8 2c be 48 2d 8e be 66 06 52 be 60 17 75 be
       -0.16885693 -0.27768922 -0.20510253 -0.23934698
0002e0 1b 9a 23 3e a2 14 8a bd 6c ba fd bc 75 6b 2b bb
       0.15976755 -0.06742217 -0.030972682 -0.0026156579
0002f0 fd b2 bf 3d 9f 19 36 3d 66 9e e5 bd a7 b0 09 3e
       0.09360311 0.044458028 -0.11211853 0.13446294
000300 15 e7 1b bd ef 3c 1d be 3f b0 88 3e c3 73 59 be
       -0.038062174 -0.15355276 0.26696965 -0.21235566
000310 96 fc 3e be 5c d4 85 3d 15 ca 33 3e e4 9c 83 bc
       -0.18651041 0.06534645 0.17557557 -0.016066022
000320 0f be e8 bc bd 1b 93 bd 79 10 3a 3e 5c 07 94 3d
       -0.02841094 -0.07183025 0.18170346 0.07227966
000330 b8 0f 90 3d 93 6a ca 3e 66 0f 80 be 56 6b 1b be
       0.07034248 0.39534435 -0.25011748 -0.15177664
000340 74 fe 0d be f1 32 bd bd 91 64 47 be d2 02 ee 3d
       -0.13866597 -0.09238232 -0.19471957 0.11621632
000350 58 3a 35 3e ca 04 f3 3d ec 6a 34 be d9 06 c2 bd
       0.17698038 0.11866148 -0.17618912 -0.09473962
000360 46 a0 0f be e5 1d 03 be fd e7 8e 3e fb 86 9e bc
       -0.14025983 -0.12804373 0.27911368 -0.019351473
000370 b0 fd 1e 3d 1a ae 9b be 7b ec ee 3d a9 bc ed 3d
       0.038816154 -0.30406266 0.11666199 0.1160825
000380 6a fb 87 bc 22 6f 54 3e 30 49 27 3e d7 06 d1 bd
       -0.016599376 0.20745519 0.16336513 -0.10206383
000390 8f 25 28 be 9b 53 82 3c bc 29 4b be 7d 22 8f bd
       -0.16420577 0.015909007 -0.19840139 -0.06989
0003a0 12 67 0a 3e e5 20 95 bd 96 14 27 3c cb 37 c2 bd
       0.1351588 -0.07281665 0.010197779 -0.09483298
0003b0 bf 01 44 3e 42 e0 b9 3e 2a 9b 05 3e 22 b6 03 be
       0.19141291 0.36303908 0.13047472 -0.12862447
0003c0 84 60 b5 bd 13 42 da 3d c3 3b c2 3d 2a c2 33 bd
       -0.088562995 0.10657134 0.09484055 -0.04388634
0003d0 67 ac 17 3d 40 9a 53 bd 32 ec 34 3d cb d1 ed 3d
       0.03702965 -0.051660776 0.044170566 0.116122805
0003e0 b1 e0 09 3e 65 f5 2e be d8 02 13 be d8 51 f8 3c
       0.13464619 -0.17085798 -0.14356554 0.030312464
0003f0 d4 23 fd 3d d4 db 51 bd e9 f1 88 3e d8 0e 82 bd
       0.12360349 -0.051235035 0.26747063 -0.063504875

arch.transformer.1.attention.in_proj_bias f4 [96]
000000 e9 52 87 3d cc 0b 23 3d f0 ce 3b 3c 52 d7 0f 3d
       0.06607611 0.039806172 0.011462912 0.035117455
000010 76 5a 6b bd e6 d7 31 bd d7 9a 9f bd 12 e7 d6 bc
       -0.057459317 -0.043418787 -0.07793205 -0.02623323
000020 42 97 06 bd 1b 35 3e bc 39 e7 d3 bd 0d a4 e7 bc
       -0.032859094 -0.011609341 -0.103468366 -0.028276468
000030 d8 5f cf 3b 11 4c c3 bd 86 b2 c2 bd db 8c f2 bd
       0.006328564 -0.09535993 -0.09506707 -0.11843272
000040 a1 8a 67 bd 74 f0 bc bd 9f 90 bf 3c b1 d6 2d bd
       -0.05652869 -0.0922555 0.02338439 -0.042441074
000050 c1 f3 e4 3c 59 ac 2c 3c 66 ab 26 bd d6 1c 5e bd
       0.027948262 0.010539138 -0.040690802 -0.05422672
000060 d9 38 2a bc 20 77 84 3d ba 89 03 bd c6 0c 28 bd
       -0.01038953 0.06468034 -0.03211377 -0.041027807
000070 9b e0 1a bd 42 5d ea 3d ad e4 5b bc 0d d1 8a 3d
       -0.037811857 0.11443569 -0.01342122 0.067781545
000080 75 ea 8e ba ec e1 51 3a 0c 50 9d 39 94 d0 2e ba
       -0.0010903614 0.0008006382 0.00030005013 -0.0006668654
000090 6e ab f3 ba 30 07 a7 ba 1b 8e 01 3b c2 7a d3 3a
       -0.0018590519 -0.0012743231 0.001976854 0.0016134607
0000a0 54 e4 1e 3a d5 4f 00 3a 02 9b dd 3a 79 4b e6 3a
       0.0006061245 0.00048947084 0.0016907158 0.00175701
0000b0 cd 1d 54 b9 53 0a ab 3a 33 46 be 38 b5 20 a0 3a
       -0.00020228997 0.0013049342 9.0729816e-05 0.0012216779
0000c0 c8 ed 41 ba 25 46 be 39 73 f9 02 ba 3e cf 22 ba
       -0.0007397798 0.00036291886 -0.0004996277 -0.0006210691
0000d0 f3 cb 82 b9 2e b2 ec 39 35 e8 1d 3a 07 fd 3d ba
       -0.00024947486 0.00045146182 0.0006023676 -0.0007247482
0000e0 a9 f4 ab 3a 0e 62 2e 3a c5 0f 0c bb 4e d4 a8 bb
       0.0013119179 0.00066521845 -0.0021371704 -0.005152262
0000f0 72 27 31 bb 08 f5 6e 3b 2f 6e 38 ba b0 cc cf 3b
       -0.0027031568 0.0036461968 -0.00070354616 0.0063415393
000100 f4 0b 37 3c 3c 4b 5c 3c 34 8e 89 3b 9b a3 98 bc
       0.011172283 0.013445672 0.00419786 -0.0186327
000110 71 3a 19 3c f4 41 a3 3c f9 5f 48 3d 66 48 d3 3b
       0.009352312 0.01992891 0.04891965 0.0064478396
000120 b9 fb 91 3b 36 97 02 3b 3c 5f 0f bc be ae ba bb
       0.0044550565 0.0019926555 -0.008750733 -0.0056971004
000130 87 da b3 3b 38 55 e5 bc 89 da 2f 3c b6 e8 f9 3c
       0.005488697 -0.027994737 0.010733255 0.030506473
000140 f5 3c a1 3b f6 bd b1 bc 0e db 14 38 c7 1d 8f 3b
       0.0049205967 -0.021697026 3.548996e-05 0.0043675634
000150 2c 85 2d bd 6d ff 18 3d 17 9d 50 3c fa fd 96 bc
       -0.04236333 0.037352968 0.012732766 -0.018431652
000160 2b 7a 72 3c 22 b7 cc bc ef aa c7 bc f0 42 5a 3c
       0.014799635 -0.024989668 -0.0243735 0.013321623
000170 67 f4 ef 39 79 41 9a bc 18 8b 5e 3d 85 b8 33 3c
       0.00045767726 -0.018830048 0.05433187 0.010969286

arch.transformer.1.attention.out_proj.weight f4 [32, 32]
000000 a9 59 41 bd f3 0a 47 3d 56 3c 54 3e 67 71 da 3d
       -0.047204647 0.048594426 0.20726141 0.10666161
000010 1b 72 cc bb a4 b6 15 be 96 4d f2 bd 82 1b 1a bd
       -0.0062391884 -0.14620453 -0.118312046 -0.03762389
000020 b0 bc f1 bc b7 05 a6 bd 47 2c d5 3d 65 4b 04 3c
       -0.029508919 -0.08106559 0.10408836 0.008074616
000030 ed e0 17 3d c9 b8 42 bd f7 a5 31 bc 4a 9d cb bd
       0.03707974 -0.047539506 -0.010842792 -0.0994211
000040 1c bf a6 3d fd e8 44 be 4c d9 47 bc c8 e9 53 3d
       0.0814192 -0.19229503 -0.012197804 0.051736623
000050 a6 0e 88 bd 21 76 6c bd d8 20 18 3e b7 13 47 3d
       -0.06643419 -0.057729844 0.14856279 0.048602786
000060 05 c1 44 3d 00 c1 89 3d f7 7d 07 bd 8b 96 f4 bd
       0.04803564 0.06726265 -0.033079114 -0.11942776
000070 f8 a6 9c 3d ce d4 a0 3b 1f 15 d3 3d 49 bc 66 bd
       0.07649034 0.004908181 0.10306763 -0.056331906
000080 68 94 01 3e 58 8b 71 3d c6 8a 9a bd 07 e7 b2 bd
       0.12654269 0.05897078 -0.07546 -0.08735471
000090 bf b6 e4 39 65 8b 2b be 3c 45 0d be 7c 5a 03 3d
       0.00043623705 -0.16752394 -0.13795942 0.032068714
0000a0 eb 9d 31 bc 44 30 0e 3e 57 58 c1 bc 6e 11 1b 3e
       -0.010840873 0.138856 -0.023601694 0.15143368
0000b0 88 45 02 be a6 6f a2 bd 1f 73 e4 3d 52 72 89 bd
       -0.12721837 -0.079314515 0.1115477 -0.06711258
0000c0 f9 e2 c4 bc 3e 35 03 bd 53 63 90 bd 2a 1d 12 bd
       -0.02403401 -0.032033198 -0.070501946 -0.035672344
0000d0 be 69 e4 3d 92 14 f1 3d 6d cc 03 3e c8 58 41 3d
       0.11152981 0.117715016 0.12870951 0.04720381
0000e0 8e b7 bf 3d 46 06 91 3d 66 b0 20 3c 4a ed 2d bb
       0.09361182 0.07081275 0.009807682 -0.002653914
0000f0 0e c3 5f bd 47 8f 27 3d 5f 3e 05 bd 1e 55 a2 3d
       -0.054629378 0.040908124 -0.032530185 0.07926391
000100 f5 39 09 bd 14 bf 97 bd 80 ce 07 3e 84 e0 c4 bd
       -0.033502538 -0.07409492 0.13262367 -0.096131355
000110 df db cf 3d c3 56 19 3e 64 67 5d 3d 78 47 33 bc
       0.10149359 0.14974503 0.05405368 -0.010942332
000120 3a 0e 4d bd e4 cd 6e 3d 8a 1c 26 be 37 e6 e0 bc
       -0.050062396 0.05830182 -0.16221824 -0.027453525
000130 35 cb 8e bd 7e 86 68 be ee d5 0b be 0a cd cf bd
       -0.069723524 -0.22707555 -0.13655826 -0.1014653
000140 8b 55 0f 3e 75 00 16 3e 8f f1 c0 bd 98 16 0d be
       0.13997476 0.14648612 -0.09421074 -0.1377815
000150 99 f9 0c 3e ac 85 97 3d 53 96 19 3e 04 ef 0b 3c
       0.13767089 0.07398543 0.1499875 0.0085408725
000160 98 fc ed bc 23 17 eb bd ad b1 93 3d df 63 18 be
       -0.02905111 -0.11479022 0.07211623 -0.14881848
000170 43 01 09 be be ea 1f 3d e0 14 50 bd 75 ab 77 3d
       -0.13379388 0.039042227 -0.050801158 0.06046625
000180 5a aa a6 3d 3c 51 20 be 58 c3 d6 bd 2d d1 c5 bd
       0.08137961 -0.15655988 -0.104864776 -0.09659038
000190 b5 e8 0f be 43 73 08 bd 7a 1a dc 3d e7 b5 0e 3c
       -0.14053614 -0.033313047 0.107472375 0.008710361
0001a0 1c ae e3 3d 08 72 8b bd 15 66 8d 3d df 72 b8 bd
       0.11117193 -0.06808859 0.06904236 -0.09006285
0001b0 01 90 d1 bc 6e fb 1f 3d 45 04 87 bd b3 c6 07 3e
       -0.025581362 0.03905814 -0.06592611 0.13259391
0001c0 0e 34 3e 3d 58 67 96 3d c4 ae 15 3e 2e 9a a3 3d
       0.046436362 0.0734393 0.14617449 0.07988392
0001d0 e3 e7 49 bd ef c5 98 3d fa b9 44 3e 57 8c 23 be
       -0.04929341 0.07459628 0.1921157 -0.15971504
0001e0 49 5f a4 bd 0a 0c b3 3d 54 d9 9d 3c 9f 9a 3e be
       -0.08025987 0.08742531 0.01926867 -0.18613671
0001f0 51 e2 f6 bd 1e 33 d8 bd 18 8e 89 3d a7 d7 97 3d
       -0.12054885 -0.10556625 0.06716555 0.07414179
000200 84 1a db bc 20 53 54 be 14 d0 f7 3b 2a 29 81 3d
       -0.026746042 -0.20734835 0.0075626466 0.063066795
000210 eb 8d 96 bd 41 35 8f 3d be 29 b4 bd d1 0e b4 3d
       -0.073512875 0.06992579 -0.08797024 0.087918885
000220 a0 22 ef 3d fb 47 17 3e bb 8b 99 3c c9 a6 64 3e
       0.11676526 0.14773552 0.018743386 0.22329248
000230 e9 c0 33 3d 85 f1 3e be e3 24 bb 3d bc 31 da 3d
       0.043885145 -0.1864682 0.09137895 0.10654017
000240 30 9a b9 3d 5a 6f 17 3e 3e cb a9 3d 23 0e 27 3d
       0.09062612 0.14788571 0.082907185 0.040784966
000250 01 aa b3 3d 94 b5 0d be 50 9e c4 35 08 ca 42 bd
       0.0877266 -0.13838798 1.4649213e-06 -0.047555953
000260 88 c5 d0 bb 23 b5 14 be e0 b2 8d 3d 56 74 70 3d
       -0.006371204 -0.14522223 0.06918883 0.058704697
000270 5d f2 ff bc ae c6 88 bc 04 33 f9 bd d4 38 76 bc
       -0.031243498 -0.0166963 -0.121679336 -0.015028197
000280 72 80 0e be d7 6f 38 bd ca 18 e3 ba 00 af 41 3d
       -0.13916185 -0.045028534 -0.0017326113 0.047286034
000290 28 af 15 be 76 f1 0d 3d cc 55 b5 bd 02 cd 91 bd
       -0.14617598 0.034654103 -0.08854255 -0.0711918
0002a0 da cd dd bd 44 07 c9 bd 79 9e b6 3d c1 e6 ad 3d
       -0.10830279 -0.09815839 0.08916945 0.084912784
0002b0 ea 40 30 3e f8 5d 05 3e 34 45 eb 3d 79 0d 8b 3d
       0.17212263 0.13024127 0.11487809 0.06789679
0002c0 62 99 c0 3d e9 5a bd 3d d7 c4 34 be 46 65 99 3d
       0.094042554 0.09245855 -0.17653213 0.074900195
0002d0 e2 04 51 3c 00 26 a0 bb 5e f6 de bc d4 7e 1c 3e
       0.012757512 -0.0048873425 -0.027217086 0.15282756
0002e0 99 6e 70 3d 8a 41 62 bd b4 7c a9 bd f0 1c a2 bd
       0.058699224 -0.055238284 -0.08275738 -0.07915676
0002f0 55 69 a5 3d ea 04 06 be f4 93 ad bd 23 c5 10 be
       0.08076731 -0.13087812 -0.084754854 -0.14137702
000300 f9 8a 3a 3d 41 d5 40 3e e8 fa 74 3d 3d e3 b6 3d
       0.04554269 0.1883135 0.059809595 0.08930061
000310 94 7a 21 be 47 df 24 be a3 d2 eb bd 49 ce 1b be
       -0.15769416 -0.16100799 -0.11514785 -0.1521541
000320 89 95 c4 bd 36 d8 52 be d4 e1 06 be 4d 28 4c be
       -0.09598834 -0.2059029 -0.13172084 -0.19937249
000330 cc 2d 34 3d 6b 8a 24 bc 2c 6a 97 3c 65 e3 c6 3d
       0.043988988 -0.010042767 0.018483244 0.09711341
000340 43 6d ef bd 49 ba a3 bd cd 73 a4 bd da 48 15 be
       -0.11690762 -0.079945154 -0.080299 -0.14578572
000350 7d 62 84 3d 95 05 8f bd f2 24 d6 3d e8 72 fc 3d
       0.06464098 -0.069834866 0.104562655 0.12326604
000360 c2 c8 84 3d 63 a9 83 bd f4 a9 df 3d 7e 4b 03 be
       0.06483604 -0.06428792 0.10921088 -0.12821767
000370 f3 12 11 3c eb 0f 0a 3e 36 65 50 3e 02 8c 9b 3d
       0.0088546155 0.13482635 0.20351109 0.07595064
000380 8a 54 93 bc 38 c4 82 bd f5 de 35 be 57 80 fd 3c
       -0.017984647 -0.06385082 -0.17760833 0.030944986
000390 d2 6e 39 be b8 81 e4 bb f5 fd 75 bd 82 f3 d6 3d
       -0.18108681 -0.0069734715 -0.060056645 0.10495664
0003a0 7e 93 8d bd 18 9c 14 3e 26 2c 55 bd 8d ee 04 bd
       -0.069128975 0.1451267 -0.052044056 -0.032454062
0003b0 2e ce 22 be 06 3a 2e 3e d3 19 0c 3d ef a9 f1 bd
       -0.15898964 0.17014322 0.034204315 -0.117999904
0003c0 d9 10 b0 bc 2f b6 0e 3d 19 d4 fc bc a2 a9 f6 3d
       -0.021492409 0.034841713 -0.030862855 0.12044074
0003d0 d2 33 b1 3d 25 6e 72 bc 59 c6 1b 3e 05 32 15 3e
       0.08652462 -0.014796768 0.15212382 0.14569862
0003e0 84 93 dc bd 0c 10 5c 3b f6 55 f2 3d 07 aa 6f bd
       -0.10770324 0.00335789 0.11832802 -0.05851176
0003f0 c2 dc d8 3d 3b f9 10 be b4 1f f2 bd e3 08 71 3c
       0.10588981 -0.14157574 -0.11822453 0.014711591

arch.transformer.1.attention.out_proj.bias f4 [32]
000000 54 cf 94 bc 79 8b 02 3c 62 40 11 bd b2 d9 cd bb
       -0.018165268 0.007967823 -0.03546179 -0.006282055
000010 dd 89 1f bd 39 99 1a bd f8 f4 df 3c d0 06 c7 bb
       -0.038949836 -0.03774378 0.02733849 -0.00607381
000020 5b a0 66 3d 0f 60 35 3d c8 cb fc bc 5e 9e 12 3c
       0.05630527 0.04428106 -0.03085889 0.0089488905
000030 60 1d 1d bb a7 e2 ca 3c 1b ed 1e bd aa 83 17 3c
       -0.0023973808 0.02476628 -0.03880034 0.0092477
000040 87 b1 d9 bb 01 aa ea bb fb a3 98 bc 59 89 33 3c
       -0.0066434774 -0.0071613793 -0.01863288 0.010958039
000050 ce 8c 24 bc 84 5f 2d 3d e7 15 78 ba 58 31 2b bc
       -0.010043336 0.04232742 -0.0009463713 -0.010448776
000060 05 f6 ba ba 0a 1d 9a 3b 17 f3 74 bc 0c f9 96 3c
       -0.0014263993 0.0047031688 -0.014950535 0.018429302
000070 75 f8 4b bb d9 13 1c bd 02 41 16 bd 4c 08 83 bc
       -0.0031123434 -0.038104866 -0.03668309 -0.015995167

arch.transformer.1.mlp.0.weight f4 [2, 32]
000000 4e 07 3a bc 39 e3 fe 3c d8 d3 12 3e 16 88 87 bd
       -0.011354281 0.031114208 0.14338624 -0.06617753
000010 46 37 f8 3b c0 50 04 3b 89 ca f4 3c dc 58 e6 3d
       0.0075749485 0.0020189732 0.029881733 0.11247417
000020 52 da 70 3d d8 1f 08 3d 8e da 51 3e a3 56 10 be
       0.058801956 0.033233494 0.20493528 -0.1409555
000030 29 b7 3b bd b5 b2 cd 3d b9 cf dd 3d 80 07 a7 bd
       -0.045828972 0.10043851 0.108306356 -0.081557274
000040 04 99 a2 3d 0d 83 12 be 50 57 93 bd 8f 5f a1 3c
       0.07939342 -0.14307804 -0.07194388 0.019698886
000050 5f 1c a3 3d f6 33 a7 bd f7 ec d2 3d 15 ca 91 3c
       0.07964396 -0.08164208 0.10299104 0.017796556
000060 0b 12 41 bd 1f b1 29 be 09 4d 16 3c 1d b2 c5 3d
       -0.047136348 -0.16571473 0.00917364 0.09653113
000070 88 fc 0b be eb 09 5f bd 52 fe 01 be 08 93 d9 3d
       -0.13670552 -0.054452818 -0.12694672 0.10623747
000080 46 41 0e 3e 78 61 a5 3d 3c 0b 69 3c a0 95 4f be
       0.13892087 0.08075231 0.01422387 -0.20271921
000090 90 d7 15 bd 4a 6a 5c bd 60 10 27 be b2 77 d7 3d
       -0.03658253 -0.053812303 -0.1631484 0.10520877
0000a0 94 ba ac 3d 8b 23 ba 3d 91 df e7 bd d3 b2 66 bd
       0.084340245 0.090888105 -0.11321939 -0.056322884
0000b0 23 c0 38 3d 2b 89 3b 3c c3 e8 23 bd 4c 12 21 3e
       0.04510511 0.011446278 -0.0400169 0.15729636
0000c0 20 e6 1f 3d 41 d7 23 3d 10 28 2a 3e 00 7c 33 be
       0.039037824 0.040000204 0.16616845 -0.17527771
0000d0 16 b0 2f be d3 d1 90 3c ad 69 36 3e 58 51 09 3e
       -0.17157015 0.017678177 0.1781375 0.13409936
0000e0 89 11 0f be b1 2f b0 3d 14 d5 db 3d 17 33 24 3b
       -0.13971533 0.086028464 0.10734001 0.0025054866
0000f0 c6 54 cc 3d de e2 de bb cd 58 61 bd e4 d5 bf bc
       0.09977107 -0.006801947 -0.055016328 -0.02341742

arch.transformer.1.mlp.0.bias f4 [2]
000000 a6 dd 23 be 4f c3 1b be
       -0.16002521 -0.15211223

arch.transformer.1.mlp.3.weight f4 [32, 2]
000000 ef 7b ee bd 70 e6 dc be 30 4b a2 3e 63 8e 81 3e
       -0.11644732 -0.4314456 0.3169799 0.25303945
000010 21 a2 39 bf ff 71 12 bf cc 8f 06 3f b0 c7 ab be
       -0.72513014 -0.57205194 0.52563167 -0.33550787
000020 8c 31 fa bc bb 1c e6 be 8e 29 62 be 9d 73 ad 3e
       -0.030541204 -0.44943795 -0.22086164 0.33877268
000030 bf 01 4a 3e 1c 0c 94 3e 0a da fd bd 75 32 0d bf
       0.19727229 0.2891549 -0.12395103 -0.55155116
000040 13 3a c7 bc ae 1c e3 3e b3 85 33 3e 1d 6b 40 3e
       -0.024319684 0.44357818 0.17531471 0.1879086
000050 f1 e8 2c 3e 46 86 00 3f b2 b5 be 3e fa 8f eb bd
       0.16885735 0.50204885 0.37247998 -0.11502071
000060 67 7f b2 be c1 4a 06 3f 9b ad 9c be f5 5d eb be
       -0.34862825 0.52457815 -0.306012 -0.4597012
000070 5a f7 47 3e 55 1f de be 9f 58 15 bf a5 82 f7 be
       0.19527951 -0.4338328 -0.5833835 -0.4834186
000080 ed 6b 18 3e ea ba c2 be ed d3 16 3f ac 28 76 bd
       0.1488492 -0.3803323 0.58917123 -0.06009738
000090 f0 8e b7 be 3c a0 e9 be c0 e3 e9 bd 80 5f 22 3f
       -0.3585124 -0.45630062 -0.11420393 0.6342697
0000a0 78 b2 f0 be d1 53 24 bf 8c a8 f5 3d 3a 99 6c 3e
       -0.4701116 -0.64190394 0.119950384 0.23105326
0000b0 f9 66 18 bf e7 18 b3 be bf 3b 15 3f b8 b2 b6 be
       -0.59532124 -0.34979936 0.5829429 -0.35683227
0000c0 b8 23 7b 3e 9a ad b1 be 12 19 24 bf 71 59 27 bf
       0.24525344 -0.3470276 -0.64100754 -0.6537085
0000d0 f5 c8 c0 3e 6e 6e 53 3e e5 25 68 3e 00 19 46 3e
       0.37653318 0.20647594 0.22670706 0.19345474
0000e0 0f 8c 79 3e 9f 73 0e 3f ca c8 1f 3f 59 9a fe 3e
       0.24369834 0.55645174 0.62415755 0.49727133
0000f0 7b 82 96 3e 23 1d c4 3d 72 a0 f6 3d 5d b5 13 bf
       0.29396424 0.0957587 0.12042321 -0.57698613

arch.transformer.1.mlp.3.bias f4 [32]
000000 b5 fe 92 3e 35 de 48 3e 7a 26 7e 3e ee d0 2d be
       0.2870995 0.19616015 0.24819365 -0.16974232
000010 9e c5 08 3f 3f 14 6c 3c dd d5 1a be 70 a3 ba bc
       0.5342654 0.014409124 -0.15120645 -0.022783011
000020 1a bb 86 be 68 11 6c bd 9c df 0a 3f 8b 9e 67 3e
       -0.26314622 -0.057633787 0.5424745 0.22619073
000030 ff 84 36 bd 8e 33 21 3d 37 07 08 3e de 3e af be
       -0.04456043 0.039355807 0.13284002 -0.3422765
000040 a2 f9 b6 be 65 19 1b 3f cb bc bb bb 93 bb 5f 3e
       -0.3573733 0.60585624 -0.005729293 0.21848898
000050 c4 f1 90 be ee 5a fe be 03 ee 0f 3e f1 86 be 3e
       -0.28309453 -0.4967875 0.14055638 0.37212327
000060 df bd 2a bf 4c ff 2c bf 2b 5d 89 be c6 35 e5 3e
       -0.6669597 -0.6757705 -0.26828894 0.44767588
000070 a4 b3 0e bf cc 9a 06 3f f3 55 20 3f 69 27 d5 bd
       -0.5574286 0.5257995 0.6263115 -0.104079075

arch.transformer.1.layernorm0.weight f4 [32]
000000 8e 67 7c 3f 8d e2 7a 3f 97 a9 71 3f cb 87 7e 3f
       0.9859551 0.9800194 0.943994 0.99425954
000010 fb d8 85 3f b1 3a 85 3f 3b b2 8d 3f 7d 83 6f 3f
       1.0456842 1.0408536 1.1070017 0.9356001
000020 ba bb 85 3f c7 1e 7b 3f fb da 89 3f 19 8a 8a 3f
       1.0447915 0.9809384 1.0769953 1.0823394
000030 74 d3 77 3f d0 cf 87 3f 16 2d 83 3f 76 c3 92 3f
       0.96807027 1.0610294 1.0248134 1.14659
000040 a4 05 77 3f 2e 1d 85 3f 88 03 82 3f 8c 23 81 3f
       0.9649298 1.039953 1.0157328 1.0088973
000050 ab 89 83 3f f9 51 82 3f f3 ec 74 3f d3 64 84 3f
       1.0276388 1.0181266 0.95674056 1.0343269
000060 85 05 82 3f 42 61 7d 3f f6 b7 77 3f 5c 4e 85 3f
       1.0157934 0.9897653 0.9676508 1.0414538
000070 ac 7f 86 3f 7a 5f 7a 3f 11 0c 71 3f d9 1a 81 3f
       1.0507712 0.97801936 0.94159037 1.0086318

arch.transformer.1.layernorm0.bias f4 [32]
000000 46 9e 33 bd ba 35 91 3c 1f ff 34 bd 10 2a 00 bb
       -0.043852113 0.017725814 -0.044188615 -0.0019556321
000010 2f 73 18 bd b6 3b 62 bd 12 5e c8 3c 8d 95 47 bc
       -0.037219223 -0.055232726 0.024458919 -0.012181652
000020 85 2d 17 bc b1 9f 2f 3c b8 f8 80 bb a4 9f 2f 3b
       -0.009227161 0.010719226 -0.0039358996 0.0026798034
000030 cc 18 ee 3c bf d9 c9 3b e8 26 db bb c3 8b f2 3b
       0.029064558 0.0061599906 -0.0066879876 0.007401915
000040 22 8f 2a 3a 97 8e 89 3b 45 16 9b bc 45 28 2c 3d
       0.0006506314 0.0041979062 -0.018931517 0.04203059
000050 50 fa 35 3d 8d 98 3f 3d a6 ec 58 bb 98 c0 c5 3b
       0.04442817 0.046776343 -0.0033100038 0.006034922
000060 95 83 ba 3b c2 c9 fa 3b fe d4 3b bd b2 10 b3 bb
       0.0056919553 0.007653446 -0.045857422 -0.0054646367
000070 e2 35 16 bc 81 60 01 bc 49 55 56 3b e3 0a ec 3c
       -0.00916812 -0.0078965435 0.0032704643 0.028813785

arch.transformer.1.layernorm1.weight f4 [32]
000000 10 40 82 3f 9b 94 81 3f 94 36 7d 3f 5d 6f 88 3f
       1.01758 1.0123476 0.98911405 1.0658985
000010 49 cf 85 3f 63 14 8f 3f d0 6b 8d 3f 82 46 75 3f
       1.0453883 1.1178097 1.1048527 0.9581071
000020 99 fd 85 3f 35 26 7b 3f cb 5f 80 3f 2a 69 8c 3f
       1.0468017 0.98105174 1.0029234 1.0969594
000030 fa 8e 81 3f 5c db 89 3f e2 e4 88 3f 7d 98 92 3f
       1.0121758 1.0770068 1.069485 1.1452786
000040 ad 09 82 3f d7 ce 82 3f ef a6 83 3f 57 ef 80 3f
       1.0159203 1.0219373 1.0285319 1.0073041
000050 df 0e 84 3f f4 65 85 3f de a5 76 3f 9f 40 86 3f
       1.0317038 1.0421739 0.96346843 1.0488471
000060 49 b6 7f 3f 50 91 81 3f b6 a4 81 3f 4d 3e 84 3f
       0.9988752 1.0122471 1.0128391 1.0331513
000070 56 cc 85 3f 50 f7 7b 3f 86 0a 73 3f a4 29 83 3f
       1.0452983 0.98424244 0.9493793 1.0247083

arch.transformer.1.layernorm1.bias f4 [32]
000000 91 0d c3 bc b8 1e f7 3c 7e 43 62 bd 6d 4c 14 bc
       -0.02381018 0.030166015 -0.055240147 -0.009051424
000010 f0 a7 82 bc 66 d8 5c bd cb 12 94 3c 1c b6 39 ba
       -0.01594922 -0.05391731 0.018075367 -0.00070843264
000020 c8 21 af bc 16 d9 1d 3d 8e 42 29 bc 8d 4d 89 3c
       -0.021378413 0.038537107 -0.010330809 0.016760612
000030 f4 c1 4e 3c b1 ae 22 3b 36 4d c6 bc a3 91 ee ba
       0.012619484 0.0024823362 -0.024206739 -0.0018201362
000040 89 4b 35 bb b4 03 0e 3c 28 c5 9b bb b2 e1 fb 3c
       -0.002766343 0.008667875 -0.0047537275 0.030747268
000050 94 e9 df 3b e1 c7 e0 b8 cb 32 bc 3c 86 bf ce 3b
       0.0068332646 -0.00010718383 0.022973439 0.0063094525
000060 aa 6d 9d bc 45 2f a4 3c 55 30 75 bd 20 6d 03 3c
       -0.019217331 0.020042071 -0.059860546 0.008021623
000070 16 ef cf bb 9e 26 73 3b c0 00 c3 3c 15 7c 02 3d
       -0.00634564 0.0037101875 0.023804069 0.031856615
