checkpoints/MultiSubjectEEGModel_best_20250522_013404.ckpt (torch, 259103 bytes, 103 tensors)

arch.conv.0.weight f4 [16, 16, 11]
00000000: 8756 b0bc ca8c 31bc e53e 92bd d895 133d
00000010: eccf d3bc 62e9 113d a81d 54bc 0e62 2f3d
00000020: 5ffe 1a3d e196 d5bd eb20 3dba ab9c f33c
00000030: e0f4 a33d 5d13 fa3c ccab 033d 0552 3abc
00000040: 47a1 7a3d 8311 8a3c f7b0 13bd 6e4a e43a
00000050: ffca 93bd 8001 d9bc 7898 46bc c0a5 8e3d
00000060: dbeb 2bbd bc75 1ebd 10a8 4ebc ffbc d0bc
00000070: d651 e73c 87e1 89bd a830 503d df69 d8bd
00000080: 102d be3c d507 153d 3539 eabb 6171 713d
00000090: e6cf 4c3c e9e0 a93d b221 413d fccc a03c
000000a0: ec15 323d 983e cbbc d43e 273a 0499 da3c
000000b0: de22 a23d 90a4 953a 9abd 823d f489 f63c
000000c0: a1d2 983d a464 f63a 231c 76bc 3259 ca3c
000000d0: adb8 43bc 806e c73d 6554 fe3c 6b38 9d3d
000000e0: ccab aa3d 5498 363d 9bb5 d13d 1fa0 bfbc
000000f0: ff51 5d3b b18c 62bd 6662 4e3d 3c02 1c3d
00000100: 3ab7 e03d 45dd 743d 2878 ba3d 3c92 18bc
00000110: cf3c 9abb b84c fabb 195a 9b3d 3afe 16bc
00000120: f786 913c d4c3 b8bd c753 7ebd 633d b7bc
00000130: 684a 6abb fd57 033d accc b63c 4c21 9f3d
00000140: 2f22 a9bc 2db4 80bd df8e 5cba db5c bcbd
00000150: ca09 dabb ceaa 4abd ffac fc3c d4da 3cbd
00000160: 3d79 a2bd 1344 d8bc 756f 8bbc 50f9 1cbd
00000170: a847 7d3c e223 fb3c 5583 92bd 7d3f 86bd
00000180: 2221 193d b7b5 27bd f691 35bc 0b0f febd
00000190: ee16 b9bd 6ea1 0bbd 3f71 30bd b607 8ebd
000001a0: db64 a83c b3c7 8fbc 2cc4 38bd 791e 1ebd
000001b0: ec33 59bd 309b d4bc ee4d 073d 32c7 cfbc
000001c0: 4205 0bbd b95f e5bd b73b 81bd d35a fdbb
000001d0: 892e fc3c c0cd 7ebd 71e9 19bd 394c 4ebd
000001e0: 571b a9bc 00b8 70bd f044 39bd 813d d4bd
000001f0: da0f d4bd 5788 b2bd fed5 80bd 2f61 d7bd
00000200: 6f53 573c 7d5c 89bd ded7 02bb 32ea 9ebd
00000210: 1d4a a5bd 68be ea3c baf5 25bd 8a04 6fbd
00000220: d8ea d1bd 02a6 f6bd 8d39 9dbc 6645 47bd
00000230: 3b5d 72ba 7d47 d2bd f9f6 3abc 6c07 2abd
00000240: 3466 523c 484d 683d 4839 8d3d 27b6 a73d
00000250: 1765 b23d e149 73bc 1f35 a63d 5e71 ef3c
00000260: 342e 553d 2236 0bbb ab9b d53d e500 3eba
00000270: 8821 db3d 279b af3d ce22 b33d cf5e e53c
00000280: 49cc 273e 2cd7 f83d 95fb dc3d f64a ef3c
00000290: fe76 053e b7f1 b43c 0c6f a8ba 5b1c b63d
000002a0: 1599 bf3c d00f 82bc 01f9 05ba 89e9 243d
000002b0: e237 933d 131e 4abc 0075 7ebd 5b95 50bd
000002c0: d8cc 943d 280c f63d 83b5 033e f665 753b
000002d0: 5112 ca3d e076 ef3d 56a7 aa3d 882c 183d
000002e0: 6b75 dd3d d4dd f33d 861e dd3d ff30 d9bc
000002f0: 1286 62bd 4c00 e8bc 5d0a 05bd 4bdc 6fbc
00000300: b83f d43d bf2a ea3d d361 9b3c b5b3 89bb
00000310: f662 3f3c 36c9 bf3c bbf0 c33a f0c1 56bc
00000320: 7e5a d2bd f656 22bd b1f3 993d b4da 953d
00000330: ad1e 203d 8158 85bc e6a7 fabc 6220 6ebd
00000340: ed48 e6b9 f963 28bb d96e f73b f2b2 98bb
00000350: 9690 a3bd f004 25bd 34db bf3b 7ca7 c43d
00000360: 0b88 fc3c 7767 44bc 605d 083d 97ab 43bc
00000370: 94b5 f6bd dd42 8dbc e433 dcbd bac5 83bd
00000380: e50f efbd de53 5cbc 2d5d 283c d809 22bb
00000390: c76e b0bd 4fa8 c3bd 1361 70bd 7eaf 9cba
000003a0: 1e39 163c 9c4b 383d a657 06bb 979b 41bd
000003b0: 9ab0 ddbd 16a4 1ebe a0a6 0abe 31bf f3bd
000003c0: 6939 353c 846d 3bbd e0b2 a4bb 4bbb 333b
000003d0: a380 593d 870f adbc a5cf f9bc ef0e 1a3d
000003e0: c243 b3bc b927 6a3d ba75 c73b 4bb9 f3bc
000003f0: e546 02bb 7a8c 63bc 6ae1 073d 6030 923c
-0.021525634 -0.010836789 -0.071409024 0.036031574 -0.02585598 0.03562296 -0.012946524 0.04281812
0.037840243 -0.104291685 -0.0007214683 0.029737791 0.080056906 0.030526811 0.03214626 -0.011372094
0.061188962 0.016854053 -0.03605744 0.0017417201 -0.07216453 -0.026489973 -0.012121312 0.06965208
-0.041972976 -0.0386865 -0.012613311 -0.025480745 0.028237265 -0.06732469 0.050827652 -0.10567068
0.023214847 0.036384422 -0.007147933 0.058946017 0.012500739 0.08294851 0.047151275 0.019628994
0.043477938 -0.02481012 0.00063799066 0.026684292 0.07916807 0.0011416841 0.0638382 0.030095078
0.07462049 0.0018798304 -0.015021357 0.024700735 -0.011945886 0.09737873 0.031046102 0.076767765
0.08333549 0.044578865 0.102397166 -0.023391781 0.0033770797 -0.055309955 0.05038681 0.03808807
0.10972448 0.05978133 0.09104949 -0.009312209 -0.004706956 -0.00763854 0.07585544 -0.009215886
0.017764552 -0.09021726 -0.062091615 -0.022368139 -0.0035749916 0.032066334 0.022314392 0.07770023
-0.020646183 -0.06284366 -0.00084136234 -0.09197398 -0.006653999 -0.0494793 0.03084421 -0.04610713
-0.079332806 -0.026399648 -0.01702092 -0.0383237 0.015458979 0.030656759 -0.07153956 -0.06555078
0.037385114 -0.04094478 -0.011082163 -0.12405213 -0.090375766 -0.0340895 -0.04307675 -0.069350645
0.020555904 -0.017551279 -0.04510896 -0.03860328 -0.053028032 -0.025952905 0.033033304 -0.025363538
-0.03394056 -0.11199898 -0.06310218 -0.0077317744 0.030783908 -0.062207937 -0.037576143 -0.05036566
-0.02064292 -0.058769226 -0.04523176 -0.103632934 -0.10354586 -0.08717411 -0.06290816 -0.10516583
0.013142451 -0.06707094 -0.0019965093 -0.07759513 -0.080707766 0.028655246 -0.040517546 -0.05835394
-0.10249871 -0.12043382 -0.019192481 -0.048650168 -0.000924546 -0.102675416 -0.011411422 -0.041510984
0.01284175 0.056714326 0.06895691 0.0818904 0.087106876 -0.014849157 0.08115601 0.029228862
0.052046016 -0.0021241982 0.10430082 -0.0007248058 0.10699755 0.08574515 0.08746873 0.02799931
0.16386522 0.12150416 0.10790173 0.029210549 0.13033673 0.022087915 -0.0012850477 0.08892127
0.023388425 -0.01587668 -0.0005110652 0.04026178 0.07188393 -0.012336272 -0.0621233 -0.050923686
0.07265633 0.12014037 0.1286221 0.0037444807 0.09866775 0.116925955 0.08332698 0.037151843
0.10813411 0.11907545 0.107968375 -0.026512621 -0.05530364 -0.028320454 -0.032480586 -0.014639924
0.10363716 0.114339344 0.018967545 -0.004202331 0.011681309 0.023411375 0.0014949063 -0.013107762
-0.10271166 -0.039633714 0.075171836 0.07317105 0.039091755 -0.016277554 -0.030597638 -0.05813635
-0.00043923352 -0.0025694354 0.007551056 -0.004660004 -0.07986562 -0.040287912 0.0058549885 0.096022576
0.03082659 -0.011987559 0.033292174 -0.011942766 -0.12046352 -0.017243797 -0.10752085 -0.06434198
-0.116729535 -0.01344773 0.010276121 -0.0024725106 -0.08614879 -0.09553587 -0.058686327 -0.0011954156
0.009168891 0.04499398 -0.002049902 -0.047267523 -0.108247 -0.15492281 -0.13540125 -0.11901701
0.011061051 -0.04575874 -0.0050262064 0.0027424868 0.053101193 -0.021125568 -0.03049452 0.037611898
-0.021882895 0.05716679 0.006087032 -0.02975144 -0.0019878682 -0.013888473 0.033173956 0.017845333

arch.conv.1.weight f4 [16]
00000000: ccae 813f 4c8e 853f e508 823f 3b04 7c3f
00000010: 402c 813f 223f 7b3f ee2c 833f 841a 803f
00000020: f1f2 813f d73c 823f f831 793f 3f8b 7c3f
00000030: 37ff 6f3f f119 7b3f c7d0 803f 5b1e 7f3f
1.0131469 1.043405 1.0158964 0.98443955 1.0091629 0.9814321 1.0248086 1.0008092
1.0152265 1.0174817 0.9734187 0.9864997 0.937488 0.9808646 1.0063714 0.99655694

arch.conv.1.bias f4 [16]
00000000: cfdf 5f3c 465c 6a3d 4550 f43d 877a 8c3d
00000010: 2ad1 5c3e b1a4 c13c caff cc3b 9d8c 263c
00000020: 7cf6 a33d 524b 34bc 2c25 f2bb 54ae 2d3d
00000030: b2b6 853d df8f 543d c129 f13d a792 c0bd
0.0136642 0.057216905 0.11929373 0.06859308 0.21564165 0.023638101 0.0062560784 0.010165361
0.080059975 -0.011004286 -0.007389685 0.04240258 0.06528987 0.05189502 0.11775542 -0.09402972

arch.conv.1.running_mean f4 [16]
00000000: c5ef 233f acb7 81bf 9c5f 293f f39c b1bf
00000010: 48bd aa3f 9f4c e33f 3806 b63d fc30 2bbe
00000020: bdc9 d43e 9f8e 03bf 5450 0040 ba4c 373f
00000030: 2aae d8bf 4136 073f c863 5e3e 5dd1 8cbf
0.64037734 -1.0134177 0.66161513 -1.3876022 1.3339014 1.7757758 0.08887905 -0.16717905
0.41560164 -0.513895 2.0049028 0.7160145 -1.6928151 0.5281716 0.21717751 -1.1001393

arch.conv.1.running_var f4 [16]
00000000: 3512 ce44 0ba3 4144 b9f5 2644 ef74 6244
00000010: 13a8 3244 75ea 2f44 ff27 2644 4667 2444
00000020: 3cc4 dd43 ff2c 4c44 d09f 8d44 220c 0b44
00000030: 28bf fe44 83fb 7b44 61ed 5c44 4b17 1e44
1648.569 774.54755 667.8394 905.8271 714.62616 703.6634 664.62494 657.61365
443.53308 816.70306 1132.9941 556.1896 2037.9736 1007.9299 883.70905 632.36395

arch.conv.4.weight f4 [32, 16, 11]
00000000: d32b 5f3d fd88 32bd 36ec 11bd c3d8 913d
00000010: 6961 443d 6973 0dbd 829d cc3c dcde 2a3d
00000020: 98b9 8dbd a579 213c cc6e 893c 200f c43c
00000030: d39d da3d e9ff 8bbc 0a9a 8b3d bbca 88bc
00000040: f08b 49bd 8b64 273d 1bed 94bd fc5f 7cbd
00000050: 25fc 15bd 6c96 0bbe de45 0ebe a9b1 43bd
00000060: 8521 08bc 01fb 8dbd bfdb 863b c860 f2bb
00000070: 5341 3abb 7708 9bbd 5aac 0b3d f4ae 803b
00000080: 0e1b b2bc a553 9f3d 8ded 1bbd dc38 2e3d
00000090: 7f8c 5e3b 7e74 0a3d 6a13 5d3d 46c9 263d
000000a0: 9a4e c03c 8d58 4cbd deb9 03bd e29d 273c
000000b0: fa6f aebd b8a6 0fbe 62e9 acba c970 16bd
000000c0: f9c6 96bd 5aaf e83a 1e96 bfbc 3423 bfbd
000000d0: abe4 223c b227 54bd 4180 013d fce7 413d
000000e0: 3010 ec3c 8351 683c 7f4a f6bc fbb1 1a3c
000000f0: bab7 243d 3be7 143d 99fe c23a d4b0 8a3c
00000100: a3ec 2cbd 0a6a 99bd 6ae9 09be 844c 12be
00000110: da7a f0bd 0343 b93c b930 26bc 0b84 b1bd
00000120: f552 8cbd 1e58 92bc 3396 3ebd 0609 cbbc
00000130: c726 fbbc fdd6 acbc a0f4 643c ac23 f93b
00000140: b48e 773d 93ef 843d 6f14 b93d e41d 033d
00000150: 2d0b 923c a059 463d baab 83bc b0f0 9f3d
00000160: 1a0d 27bd 8ffe 32bd d1cb 91bd daf1 113d
00000170: c208 473d beff b03d e501 26bb b8df 8b3d
00000180: 8d0d 963d e893 4b3c fbe2 00bb fdc4 353d
00000190: a7a1 23bd 2584 703d b6ee 2d3d 9535 2b3d
000001a0: 9d7e 743d 858d 393d 529c 143d d92c 223d
000001b0: e280 f2bc 90d1 ecbc 617a 66bd 0fe2 c8bb
000001c0: 168e 713b a9f5 4e3c 7453 69bd c697 adbc
000001d0: 3ae3 77bd 2bc8 0a3d 0d30 8cbd f4da 7abd
000001e0: e37a 813c 966a bdbc e58f a1bd 6f72 ddbd
000001f0: 10df d9bd 08a1 493c b356 b7bd 5878 4b3d
00000200: eafd 2a3d 5e64 e2bc def3 10bd 395a 253d
00000210: 9384 fe3c 6c33 953d 8bc6 8c3d bcab 01bd
00000220: 5de0 833d f579 533d dba8 5cbd e13d 143d
00000230: d5b3 0dbd 087c 38bd f6f1 1bbc 5879 56bc
00000240: 2c41 46bd c25c bcbd 847c 723c 51d7 a53d
00000250: e43f c9ba 9ad3 04bd 6770 213c 3e07 4bbd
00000260: 34af f5bc 8033 b73c 3653 483c 9597 b0bd
00000270: 6274 01bd d6b1 30bd 2571 74bd eebe a3bb
00000280: 5c34 873c 10f7 af3c 8d90 c53d 21fd 8b3d
00000290: 81c8 be3d a6b2 5dbc d439 26bd a1aa d0bb
000002a0: 3d84 9fbd 1870 fe3c 541d 31ba a23d 9ebd
000002b0: f7c2 26bd 2825 bbbd 266b cdbd 8ff3 9cbc
000002c0: 2316 603d 1bc3 d03c a493 9f3d 7bef ee3b
000002d0: 9da7 b03c 3bb9 d23d 1c4e dabc 6bb4 8a3d
000002e0: 2f18 da3d c4e4 c43d d274 833d 3b8f b5bc
000002f0: 6fdc c63d c635 bf3d 32e4 e23d c6d4 353e
00000300: 9d2f 773d bcb4 44bc 3283 c9bc 11df 893d
00000310: 5cad 183c f8bd 9f3d 0055 ec3a 44f3 abbd
00000320: 3ca9 3c3c 1fa6 a03d a39e 993d 9c68 913d
00000330: 23a8 6abc 56b9 95bc c125 a33d 3c61 b73b
00000340: 08c5 8f3d 9565 243c ceda 2d3d 6ab9 e03c
00000350: b23f 28bc 7a79 c13c 510d 013e 8633 953d
00000360: 3fc3 b43d 232d 44bc d025 653d 3dc9 1abd
00000370: 5fee d1bc fd6c 343c 9d99 13bd cacb 47bd
00000380: d162 1abc 0945 e83b 726e 23bd 13f6 a73c
00000390: 20d1 8fbd 9848 5d3d 1932 9e3d b214 00bd
000003a0: 34bd 25bd c30f 9ebd b9a0 093d fe1e a33d
000003b0: dc65 033e 7e95 9f3d 107c 9c3d 7ce4 cf3d
000003c0: c146 cc3b a7ca a1bd be98 22bd 3727 1a3d
000003d0: ca96 853c 4ffc 3b3d f5c7 0cbd 421c 8e3d
000003e0: cdfd ae3c 717d 233c 2019 823d a0d1 34bd
000003f0: 3af6 c73d a250 c93c 5ffa 87bd 1e89 fb3c
0.054485153 -0.043587673 -0.03562566 0.07121422 0.04794446 -0.03453389 0.02497745 0.04171644
-0.06920165 0.0098556625 0.016776465 0.023932993 0.10674634 -0.0170898 0.0681649 -0.016698232
-0.04920572 0.04086737 -0.07271787 -0.061614975 -0.036617417 -0.136316 -0.1389384 -0.04777685
-0.008308773 -0.06932641 0.0041155512 -0.007396791 -0.0028420284 -0.07569974 0.034099914 0.003927106
-0.021741416 0.07779626 -0.038068343 0.042534694 0.0033958254 0.0338025 0.053973593 0.040719293
0.02347498 -0.049889136 -0.03215968 0.010230513 -0.085174516 -0.14028442 -0.0013192112 -0.036728654
-0.0736217 0.0017752454 -0.023387011 -0.09332886 0.009942214 -0.05179567 0.031616453 0.04734038
0.028816313 0.01417959 -0.03006482 0.009441848 0.040214278 0.03635333 0.0014876901 0.016930021
-0.04221786 -0.074909285 -0.13467947 -0.14287001 -0.11742182 0.022614961 -0.010143452 -0.08667763
-0.0685176 -0.017864283 -0.04652996 -0.024784576 -0.030658139 -0.021098608 0.013974339 0.0076031294
0.060438827 0.06491008 0.090371005 0.032010928 0.017827595 0.048425317 -0.016073097 0.07809579
-0.04078398 -0.043699797 -0.07118953 0.03563104 0.048592336 0.08642529 -0.002533072 0.0682978
0.07326803 0.0124254 -0.001966654 0.044377316 -0.039949086 0.058719773 0.04246398 0.041799147
0.05969106 0.04530098 0.03628189 0.03959355 -0.029602472 -0.028908521 -0.056269053 -0.006130464
0.0036858371 0.012631812 -0.056964353 -0.021190535 -0.060519435 0.0338823 -0.068451025 -0.061243966
0.015805667 -0.023122113 -0.07888774 -0.10812842 -0.10638249 0.012306459 -0.089520834 0.049675316
0.041746058 -0.02763575 -0.03538882 0.040369246 0.031069076 0.072851986 0.068738066 -0.03165792
0.06439278 0.05162998 -0.05387197 0.036191825 -0.03459533 -0.04504016 -0.009518137 -0.013090454
-0.048401996 -0.0919738 0.014800195 0.08097709 -0.0015354124 -0.03242836 0.009853459 -0.049567454
-0.02999077 0.022363424 0.01222687 -0.08622662 -0.031605132 -0.043138348 -0.059678216 -0.004997126
0.01650446 0.021480113 0.096467115 0.0683539 0.09315587 -0.013531363 -0.040582493 -0.006367997
-0.07788894 0.03105931 -0.00067563844 -0.07726599 -0.040713277 -0.09137946 -0.100302026 -0.019159107
0.05470861 0.025483659 0.07791832 0.007291732 0.0215643 0.10289236 -0.026648574 0.06772693
0.10649144 0.09613946 0.06418766 -0.022163024 0.09710013 0.09336428 0.11078681 0.17756948
0.060348142 -0.012005981 -0.024598692 0.06732 0.009318676 0.077999055 0.0018030703 -0.083960086
0.011514958 0.07844185 0.07500961 0.07100031 -0.0143223135 -0.018276852 0.07966185 0.005596308
0.070200026 0.010033985 0.042444997 0.027432162 -0.010269092 0.023617495 0.12602736 0.07285218
0.08826303 -0.011973652 0.055944264 -0.037789572 -0.02562636 0.011012313 -0.03603517 -0.048778333
-0.009422974 0.0070883078 -0.03990025 0.02050308 -0.07022309 0.05402431 0.07724399 -0.031269737
-0.04046364 -0.0771785 0.033600543 0.07964896 0.12831825 0.07792185 0.076408505 0.10151002
0.0062340205 -0.07899981 -0.039696448 0.037635054 0.016307253 0.045894917 -0.03437038 0.069389835
0.021361256 0.009978638 0.063524485 -0.044145226 0.09763761 0.024574582 -0.06639551 0.030705031

arch.conv.5.weight f4 [32]
00000000: fe8d 7a3f a1ff 823f 8d0b 703f b0ad 7a3f
00000010: 6bcc 7d3f c8fe 803f 2316 7d3f ded9 873f
00000020: 38c6 7a3f 7ccf 6c3f 3cfd 813f 9b69 803f
00000030: ad48 7d3f 2bf9 6f3f 42b5 843f c1d4 693f
00000040: 803b 7e3f 819f 793f 8ed7 753f 1db2 703f
00000050: 132e 7d3f d3ef 713f 72e9 793f e36f 863f
00000060: ea46 7c3f 0c78 843f e292 7d3f fb63 823f
00000070: f800 803f 4fb9 7d3f d176 843f d708 823f
0.9787291 1.0234262 0.93767625 0.97921276 0.9914004 1.0077753 0.988619 1.0613363
0.9795871 0.92504096 1.0155406 1.0032228 0.9893902 0.93739575 1.0367815 0.9134026
0.9930954 0.9750901 0.96032035 0.9402178 0.9889843 0.9450657 0.97621834 1.0502895
0.98545706 1.0349135 0.9905225 1.0186762 1.0000296 0.99110883 1.034876 1.0158948

arch.conv.5.bias f4 [32]
00000000: f94f eb3c b445 8a3c 4c9a b8bd 2d92 07bd
00000010: b6c6 8cbd c8fa b8bc 8faa ad3c 1b24 12bd
00000020: 5a8d 49bd 4b73 49bc 28fb 16bd b540 93bc
00000030: 3e77 fb3c a51a c03c ed1e 023c b86c 4dbc
00000040: de3b 4c3c 16c6 a7bc 8bee f53b 9106 8e3c
00000050: e483 503c 004a 543b 71b3 5f3d 6464 533d
00000060: aba3 76bc 1ac6 a7bc 1f93 0cbc cb5f 453d
00000070: d94e a1bb f89f acbc 74d5 823d dc3d 8abc
0.028724657 0.01687894 -0.09013805 -0.03309839 -0.068738386 -0.02258052 0.021199493 -0.035678964
-0.04920707 -0.012295554 -0.036860615 -0.01797519 0.030696508 0.023450205 0.007941944 -0.012538128
0.012465445 -0.020480197 0.007505243 0.017337115 0.012726758 0.003239274 0.054614488 0.05160941
-0.01505367 -0.020480204 -0.008579998 0.04818706 -0.0049227295 -0.021072373 0.06388369 -0.0168752

arch.conv.5.running_mean f4 [32]
00000000: 40ac 08bf 6d62 763f ed81 b73f f273 74bf
00000010: e636 81bf c063 bd3e e32e 3c3e 210e 35bf
00000020: 4ada ddbe da92 163f 7b3e 7bbf 03cf 13bf
00000030: 9c60 8c3f b421 aa3f dac9 9f3d 1241 99be
00000040: 5a13 4a3d 0ae3 ac3f c59c 81bf 509a 87bf
00000050: ffde b23f bc8c 96be 03aa e43e 8162 b03f
00000060: 4c7d 92bf e011 c0bc cad2 593f 7cdf d13e
00000070: 863f 13bd 513a 91bf 256b 183f 3233 b93f
-0.5338783 0.96243936 1.4336525 -0.9548942 -1.0094879 0.36990166 0.18377261 -0.70724684
-0.43330604 0.5881783 -0.9814221 -0.5773775 1.0966983 1.3291535 0.07802172 -0.29932457
0.04933486 1.3506787 -1.0125967 -1.0593967 1.3974303 -0.29404247 0.4466096 1.3780061
-1.1444488 -0.023446023 0.85087264 0.40990818 -0.035949253 -1.1345922 0.5953849 1.4468749

arch.conv.5.running_var f4 [32]
00000000: 72dc 873f d49c bd3f 2799 f43f 1d2c 0040
00000010: 64f3 9e40 8cf8 2240 b5e5 0a40 a97f 3140
00000020: 0a8c 3640 ee5b c13f 041b ba3f 124d 633f
00000030: c3db 8640 b2f6 8640 e6f3 f73f 03a2 9c3f
00000040: c107 753f fc37 3940 231c 5040 9bfe a53f
00000050: 6a5e 5640 8797 8e3f 414f 913f 5daf 0640
00000060: 104d 2e40 f36b 733f 48e1 2c40 9c09 0d40
00000070: b36c aa3f 3c95 1640 353a f33f 7ca3 9040
1.061415 1.4813485 1.9109238 2.0026925 4.967211 2.54642 2.1702702 2.7734168
2.8522973 1.510618 1.4539495 0.88789475 4.2143264 4.217614 1.9371307 1.2236942
0.95714957 2.894042 3.2517173 1.2968324 3.3495126 1.1139992 1.1352311 2.1044533
2.7234535 0.9508659 2.70125 2.2037115 1.3314422 2.3528585 1.9002138 4.5199566

arch.transformer.1.attention.in_proj_weight f4 [96, 32]
00000000: 4f28 1a3e 7d2d 023e 86f3 20bd 28c0 973c
00000010: e409 2f3d a950 563e 445a 053b cd63 4e3e
00000020: 20c5 fc3d ebe6 d0bd 8776 1fbe e7f5 153e
00000030: c558 133e ee6b d13d 1024 47be aac6 423e
00000040: f759 b53d f875 35be 8c33 4f3c 4901 103e
00000050: 1bfe 2dbe 293c c3bd 8cf7 1b3c 8d1c 0cbe
00000060: 3bf3 133e 0a82 243e 2d6a 323e cb98 9abe
00000070: 1bb1 c93d 0b21 0a3e 5b4c 5b3e 2e55 b6bd
00000080: ad2a 073e ae10 7b3e 2c5d 743d b8e7 9e3d
00000090: bba8 0c3e 2fd6 c8bc 82bb 24be 9541 86bd
000000a0: 591a 9cbd 79a0 37be d5e0 533c cbb9 6f3c
000000b0: 0583 60bd 2c2e 923d a378 0a3e 5dbe 9d3d
000000c0: 6e71 14be b77d 6b3e 6976 7a3d d7fc 44bd
000000d0: 98da 0c3e d276 89be bea6 f63d eb7a 1a3d
000000e0: 04bf 8bbd ce79 0fbe 23cb 333e b4da 853c
000000f0: bd15 abbd 978e 433d dd12 8d3d 6c45 cfbd
00000100: dfde 6b3d 8784 823e 7d18 073d 2861 04be
00000110: 8eb5 22be 010b dbbd dfd5 d83d 7131 033e
00000120: 9e4d 67be 7747 1b3c 09c1 2abd 8feb 5f3d
00000130: 9454 5bbd b03f 52be d095 04be 8637 213e
00000140: 5348 e43c b2cf 9f3d d4dc e9bd eb71 9dbd
00000150: 75cc 343d e36d cb3c a1ae 04be c8a1 d53d
00000160: ad69 65be e472 f3bd 3289 d03d 4957 0d3d
00000170: 8c81 9abd a382 143e 5b2f 173d 1364 003e
00000180: 218c 073e d6bc a43d 9e7c cebd 3389 08be
00000190: e435 1f3e b8d1 1b3e d130 20bd 28d6 6b3e
000001a0: 9178 813d 9ad7 56bd d8ba c9bd 69e2 3abe
000001b0: 8247 423e dee6 33be 80f7 153d d355 943e
000001c0: 13d8 d9bd 025c 563e 50c0 40be 8d61 0b3d
000001d0: 0a0e 24be 5e02 bfbc fccf a2bc 8812 c43c
000001e0: 33f1 6abd d73d c6bd c89e 88be 0817 193c
000001f0: 6323 5f3e 80fd 28be 127a 263b af07 a33c
00000200: 7e05 ec3d 0800 163e 44ef 433e dfc5 19bc
00000210: a551 48bd 505c 43be beed 99be b640 13be
00000220: a842 333e dfc4 e83d 9bf1 3d3e d72f e23d
00000230: 0008 16bc 2e31 5f3e e3e9 3d3d 443b 26be
00000240: 5caa 87bd e6e8 3ebe e23e 1a3e 27e1 82bc
00000250: 6ae1 603e afe0 0fbe de66 1c3e f90a 143d
00000260: 77db 9bbc fd0d b8bd facb 323e b419 94bd
00000270: 3131 093e 0026 bbbc c006 70bd dea9 11be
00000280: 8c13 42be fd86 123e 798c 773e 265c 09be
00000290: 9a11 6ebe 2588 9c3d 0404 92bd b7e1 3bbe
000002a0: f703 2ebc 1bb3 49bd 3f56 403e 263e e13d
000002b0: 7246 19be 75a1 3ebc dc39 41be 0ab4 233e
000002c0: 8c3a 9c3d 2e22 083e 8163 26be d4d1 2abe
000002d0: 66fe babd b54e 6abe 25c6 efbd 7727 31be
000002e0: 3df8 fb3d 8c43 9bbd 4940 553c 8985 a23d
000002f0: 7cee 223e 08f4 613d f790 29be 152f 5c3e
00000300: 2f47 97bd 6546 0fbe 6794 2a3e 4f33 7dbe
00000310: 4818 81be e002 4f3d de37 433e 679a 1ebe
00000320: 4e0b c5bd bcc9 1abe 5a9f 233e 031a 2e3e
00000330: 80fb 843d d7bf 723e 21da 64be 09fb 75be
00000340: c266 0dbe 8ef1 efbd f746 62be e1f8 ef3d
00000350: 7b68 893e 5053 243e 8e40 21bc 2941 7cbd
00000360: 690a 4ebe 4b3d 00be c721 ad3e 5f57 863c
00000370: 85bb 3d3d 1bae 8ebe f776 c63c 08f6 143e
00000380: 9a43 e7bd 30d1 753e 627f 483e 2c4f 64be
00000390: 4373 24be abd2 563d 98a1 72be df66 03be
000003a0: 517e 283e 678c a3bd a609 b9bd 3e41 05be
000003b0: d6c9 1a3e 9cf4 703e f64b 2d3e 604d 35be
000003c0: c0a0 36bd d171 223e 10a2 843d ddac fcbd
000003d0: 1cbe 3c3e ada9 babd 4b44 92bb 2ccc 463e
000003e0: f208 063d 17f0 4fbe 1a9b 01be c498 203d
000003f0: a6fb 153e e8e8 b6bd 0e70 763e c3f2 25ba
0.15054439 0.12712665 -0.039294742 0.018524244 0.04273404 0.20929207 0.0020347992 0.20155258
0.12342286 -0.10200294 -0.15572558 0.14644586 0.14389332 0.10225664 -0.1944735 0.19021097
0.0885505 -0.17720783 0.012646567 0.1406299 -0.16991465 -0.09532959 0.009519469 -0.13682766
0.14448254 0.16065231 0.17423315 -0.30194697 0.09848233 0.13489167 0.21415846 -0.089029655
0.13199873 0.24518082 0.059659168 0.077590406 0.1373624 -0.024516193 -0.16087154 -0.065554775
-0.07622213 -0.17932309 0.012932022 0.014631699 -0.05481245 0.07137713 0.13522582 0.077023245
-0.14496395 0.22997175 0.06114808 -0.04809269 0.13755262 -0.26848465 0.12043522 0.03771488
-0.06823543 -0.14011309 0.1755796 0.016339637 -0.083537556 0.047743406 0.068883635 -0.10120663
0.057585593 0.25491735 0.03298234 -0.12927687 -0.1588957 -0.10695458 0.10587668 0.12811829
-0.22588202 0.009477488 -0.041688 0.054668006 -0.053547457 -0.20532107 -0.12947774 0.15743837
0.027866518 0.078032866 -0.11419073 -0.07687744 0.044140298 0.024832672 -0.1295724 0.10431248
-0.22403593 -0.11887148 0.10182418 0.03450707 -0.0754424 0.14502959 0.036910396 0.12538175
0.13237049 0.0804383 -0.100823626 -0.13333587 0.15547901 0.1521672 -0.039109055 0.23030913
0.06321824 -0.052451707 -0.09850091 -0.18250431 0.1897259 -0.17568538 0.036612988 0.2897173
-0.10636916 0.20933536 -0.18823361 0.03402858 -0.1602098 -0.023316558 -0.019874565 0.023934618
-0.05735893 -0.09679764 -0.2668364 0.00934387 0.21790843 -0.16502953 0.002540235 0.019901125
0.11524485 0.1464845 0.19134241 -0.009385555 -0.048905987 -0.19078183 -0.30064195 -0.14380154
0.17505896 0.11365675 0.18549196 0.11044281 -0.009157181 0.21796104 0.04636563 -0.16233546
-0.0662429 -0.18643531 0.1506305 -0.015976502 0.21960989 -0.14050554 0.15273616 0.036143277
-0.019025547 -0.08987043 0.17460623 -0.07231465 0.13397671 -0.022845268 -0.058600187 -0.14224955
-0.18952769 0.14309306 0.2417468 -0.13414058 -0.23248902 0.07643155 -0.07129672 -0.18347822
-0.0106210625 -0.049243074 0.187829 0.10998182 -0.14968279 -0.011635174 -0.18869728 0.15986648
0.076283544 0.13294289 -0.16248895 -0.16681606 -0.09130554 -0.22881587 -0.11707715 -0.17300211
0.12303207 -0.07581243 0.013015815 0.07935626 0.15911287 0.055164367 -0.16559206 0.21502335
-0.07386624 -0.13991697 0.16658174 -0.24726604 -0.25213838 0.05053985 0.1906428 -0.15488587
-0.09621297 -0.15116018 0.15978757 0.1700211 0.06493282 0.23705994 -0.22348835 -0.24021544
-0.1380873 -0.11715995 -0.22097383 0.11717392 0.26837525 0.16047406 -0.009842051 -0.06158558
-0.20121159 -0.12523381 0.33814833 0.016399084 0.04632141 -0.27867207 0.024226649 0.14546978
-0.11292191 0.2400558 0.19579843 -0.22295827 -0.16059594 0.052447002 -0.23694456 -0.12832211
0.16454436 -0.07985764 -0.090350434 -0.13013169 0.15116057 0.23530811 0.16923508 -0.17705297
-0.044586897 0.1586373 0.064762235 -0.123376586 0.18431896 -0.09114394 -0.0044637076 0.19413823
0.032723375 -0.20306431 -0.12656823 0.03920819 0.14646778 -0.08931142 0.24066183 -0.0006330425

arch.transformer.1.attention.in_proj_bias f4 [96]
00000000: ad05 83bd c77b 26bd 16b3 323d 8d10 06bc
00000010: f785 71bd d5f3 d8bc 4ec8 66bd ce11 aabc
00000020: 2a48 ae3d c043 15bd 7c10 5f3d 2bbb cb3d
00000030: b122 e03d 8f0e a6bd 08da 0abe 50ee d4bd
00000040: 472f c53d 1930 c4bd ea57 a03e 7b87 04be
00000050: 426b 803d 9b67 8ebe 2ddc 88bd 857a b9bd
00000060: a93f 1dbc eedc 923d b712 f0bc ed02 b3bd
00000070: 2fe9 6a3c 9f0e ad3d 232a b33c b8c8 dc3d
00000080: 8fb0 8dba 1ff1 e0ba 4877 b6b9 9250 c8b9
00000090: 597d 56b9 155c 0eba af45 adbb 2ae7 3abb
000000a0: 52cf a8bb fee3 a93a 63d1 a5bb a2f9 a0bb
000000b0: 959b 0cbc 4644 dd3b f492 183c 13dc a23a
000000c0: 01d3 ed3a d596 aabb 4107 fa3b 6482 5abb
000000d0: 7745 233b d606 01bc bab5 13bb e24d 2fbb
000000e0: ddf4 d0ba d831 e03a 96db e1ba 7331 7d39
000000f0: 0a30 ce3a d710 ceba c032 95b9 9673 25bb
00000100: 5fbc 93bc fd5d 5a3c 70ea 8c3c 5c7a ccbc
00000110: 1df7 983c a076 be3c 1fb0 763c ab50 793c
00000120: 2bef 163c 58a4 22bc 14ed cebb 702c 30bc
00000130: c09a a2bc 30fd 21bd 2346 7b3c 19dd 073d
00000140: d960 263c 8d90 8cbc 0a65 80bc c540 373c
00000150: d7ff 4abb 5fe6 403d 402b 013c 337b edbb
00000160: a997 743c 4970 84bc d665 92bc 930b 9f3c
00000170: 27a0 83bc f8e7 39bc f408 033d a7ea b83c
-0.06397567 -0.040645387 0.04362782 -0.008182657 -0.05896565 -0.026483456 -0.05634337 -0.020760443
0.08509858 -0.036441565 0.05445908 0.09947809 0.10944117 -0.081082456 -0.13559735 -0.10397017
0.09628158 -0.095794864 0.31317073 -0.12942307 0.06270458 -0.2781342 -0.0668262 -0.09056572
-0.009597697 0.07171045 -0.029305799 -0.087407924 0.014337822 0.084500544 0.021870678 0.107804716
-0.0010810065 -0.0017161703 -0.00034802617 -0.00038207002 -0.00020455326 -0.00054305914 -0.005287848 -0.0028519132
-0.0051516676 0.0012961624 -0.005060361 -0.004912571 -0.0085820155 0.0067525236 0.00931238 0.0012425206
0.0018144549 -0.005205969 0.0076302593 -0.003334188 0.002491323 -0.007875165 -0.0022538737 -0.0026749303
-0.0015942116 0.0017104698 -0.0017231579 0.00024146381 0.001573087 -0.0015721571 -0.00028457306 -0.0025245897
-0.018034158 0.013328073 0.017201632 -0.02496069 0.01867252 0.023249924 0.015056639 0.015216987
0.0092122955 -0.009926878 -0.006314883 -0.010752782 -0.019849181 -0.0395481 0.015336546 0.03316984
0.010154926 -0.017158771 -0.01567318 0.011184876 -0.0030975246 0.0470947 0.007883847 -0.0072473525
0.014928737 -0.016166823 -0.017870825 0.019414699 -0.016067578 -0.01134681 0.03199096 0.022572828

arch.transformer.1.attention.out_proj.weight f4 [32, 32]
00000000: c913 afbd 5c66 913d c538 3f3e e49d 3a3d
00000010: e49e 3dbc cac9 a0bd f517 22be 59c9 c0bc
00000020: 40e5 1dbd 3eca 0fbe 67da 723d 81e4 ccbd
00000030: 9b17 723d d64c c4bd 3225 80bd be4d a3bd
00000040: 291c 223e b4e6 45be 0b2d 63bd d48c 8d3d
00000050: 21f3 02bd 2932 89bc a4c2 be3d f009 4dbb
00000060: f5a5 363d 143f 383d da70 02be eafc d9bd
00000070: dcc4 9e3d e5a5 0b3d e3b9 043e 4fa4 943a
00000080: 20a1 3b3e eb9f fb3d 02ec 88bd d7b4 70bd
00000090: ec3d cab9 5ab3 47be c16f 10bd 7fb7 943d
000000a0: 9034 2e3c 4805 ea3d 22b0 e8bd 1443 1f3e
000000b0: e8b7 16be a42b 84bd 7bfc 483e 7fe9 063c
000000c0: 1c9c 18bd c8b2 063d f2bb 1abe 5dc4 1abc
000000d0: 871a b53d 7e69 003e 4949 333e 45b9 1e3d
000000e0: b25a fc3d 08ee 563d 9476 a83c 62ef fb3c
000000f0: 7567 4ebd d520 ca3c d7dc 76bd 1e4b 083e
00000100: 9011 6cbd a780 6ebd cd8a 003d 38c0 91bd
00000110: 1629 d33d 4d84 123e c010 c7bc aa0c 2cbd
00000120: 7ce3 c13c 35fd 003e 4fb3 30be 20a1 e1bc
00000130: ddac 16be f636 36be 13b2 bbbd 1dd0 f1bd
00000140: 158e 013e 1d94 ae3d 5f37 edbd ffcc 2cbe
00000150: 896c 343e 7a0f 683d 493c f03d 3482 de3c
00000160: 8f21 c9bc c97a f1bd 799a 303d 687c 4ebe
00000170: 5a5c 11be 8650 7a3d 42b8 14bb d6d0 6e3c
00000180: 3b17 dd3d 7cd2 abbd aef4 26be d14b 46bd
00000190: 715a 31be 87d5 82bd 274f fa3d 0a49 08bd
000001a0: a209 c93d f131 ccbd ca07 153d 96cb 12be
000001b0: cf17 53bc 54bd 0d3d 4f45 c8bd c908 163e
000001c0: ca38 dd3d 2ee3 e03c 2c0f 383e d1ac 533d
000001d0: e5cf 50bc 0faf a43d f217 143e 046e 45be
000001e0: e81d 22bd 3a55 a33d 1c61 31bd 2a38 b5bd
000001f0: f6bf c4bd 4dae 9ebd ab3f 9a3d 8d49 0d3e
00000200: 7819 f2bc ff7d 15be 2c4f 2b3d 5e4e 4a3d
00000210: 4226 e1bd 5ebb 173d 06fd f3bc ba83 9a3d
00000220: ff94 273e a88e 8d3d 46f9 46bd 29ae 3f3e
00000230: 8794 58bd 9089 15be 182d 333e a931 133e
00000240: df45 bdb8 7287 653e 3d73 b23c 7b8b 9c3d
00000250: 9ca2 613d ee14 cebd 8927 a03b 4832 be3c
00000260: d707 693c b910 f7bd 42a6 853d d291 363d
00000270: db61 d5bc c465 78bd b429 1dbe 8cbe 8e3d
00000280: 106d 22be 7545 00bd 90a7 1e3a 7363 c53d
00000290: 83a9 27be 6ca9 adbc bc09 aebd 5776 723a
000002a0: d340 12be 7bab 0ebe 4d29 1c3c b719 9a3c
000002b0: d264 ef3d 871d 203e b862 493e cbea c53d
000002c0: e73b 2f3d 1253 093e c381 34be f273 f73d
000002d0: ad3d b3bc a1a5 e8bc 6a58 49ba ee1e 503e
000002e0: f0ec 063e 0ca1 c5bc 50b8 cdbc 88de c3bd
000002f0: bf7c c63d fe75 febd ef6b 30be 9d3d 8dbd
00000300: 784f 593d 7c45 063e 1a72 303d 72cf 2b3d
00000310: 390f d5bd 671a a8bd 0653 02be ce88 01be
00000320: 1ae9 b9bd 7fd5 38be 2a14 a43b ac1e 09be
00000330: 415d d63d 97dc f7bc 2064 b4bd 9dd2 bd3b
00000340: 3ad3 b5bd 8084 01be 4b37 d23a 2b02 35be
00000350: 4880 df3d 7716 1fbe 3534 bb3d 35b7 b83d
00000360: 4f8f 313d bb63 d8bd 97e2 db3d c62e 15be
00000370: e73a d83c fb86 cb3d 4ec7 253e 3e47 003b
00000380: 3e13 e3bb c044 8ebb 42b5 40be 1008 933d
00000390: 31ba 31be 476c 4abd 8cb4 c9bc 15c4 e93d
000003a0: 5d63 53bd ff0c 193e e1cd c1bd 424e 20bc
000003b0: 6564 50be f2c6 2e3e 6c46 c43d bba1 08be
000003c0: a567 5ebd 0206 ee3d 130e 97bd 7502 133e
000003d0: c30c 763d 2ce4 923a ae9b 483e 85ff 373e
000003e0: 21a5 38bd b433 c939 1c04 cc3d 3a15 36bd
000003f0: e98e cc3d a8ef 3cbe ddcf 12be 81fe b63d
-0.085486956 0.070996016 0.18674 0.045560732 -0.011573527 -0.07850988 -0.15829451 -0.02353351
-0.038548708 -0.14041993 0.059290316 -0.10004521 0.059104543 -0.09584968 -0.062570944 -0.079738125
0.15831055 -0.19326288 -0.05546288 0.069116265 -0.031970147 -0.016747551 0.093144685 -0.003128644
0.044591863 0.04498203 -0.12738362 -0.10643943 0.07752392 0.034093756 0.12961535 0.0011340472
0.18323183 0.12286361 -0.0668564 -0.058766212 -0.00038574578 -0.19502011 -0.035262827 0.072615616
0.010632649 0.114267886 -0.1136172 0.15552932 -0.14718592 -0.06453636 0.19627564 0.008234381
-0.037258253 0.032885343 -0.15110758 -0.009446231 0.0884295 0.12540242 0.17508425 0.038750906
0.12321986 0.052473098 0.020564355 0.030753795 -0.050391633 0.024673859 -0.060269203 0.13309905
-0.057633936 -0.05822816 0.03138237 -0.07116741 0.10310571 0.14308281 -0.02429998 -0.042004265
0.023668043 0.12596591 -0.17255901 -0.02754265 -0.1471438 -0.17794403 -0.09164824 -0.118072726
0.12651856 0.08524344 -0.11582827 -0.16875075 0.17619528 0.056655385 0.117302485 0.027161695
-0.024552135 -0.117909975 0.043116067 -0.20164645 -0.14195386 0.06111195 -0.0022692834 0.014576158
0.107954465 -0.08389756 -0.16304275 -0.048412148 -0.17319657 -0.06388383 0.12222128 -0.03327278
0.098162904 -0.09970463 0.03638438 -0.14335474 -0.012884094 0.034604385 -0.097788446 0.14651789
0.10801847 0.027452078 0.17974538 0.051678482 -0.012744878 0.08041202 0.1446226 -0.19280249
-0.039579302 0.0797524 -0.0433055 -0.08848603 -0.09606926 -0.07748089 0.07531675 0.13797589
-0.02955316 -0.14598845 0.04182355 0.049391143 -0.10993625 0.03704392 -0.029783737 0.07544656
0.16365431 0.06911975 -0.04857757 0.1871878 -0.05287602 -0.14603257 0.1749767 0.14374413
-9.025237e-05 0.2241495 0.021783466 0.07643791 0.055086717 -0.10062586 0.0048875255 0.023217335
0.014223061 -0.120637365 0.06525852 0.04457266 -0.026047638 -0.060643926 -0.1534794 0.06969938
-0.15861917 -0.03131624 0.00060521904 0.09638109 -0.16373257 -0.02119895 -0.084979504 0.00092492014
-0.14282541 -0.13932602 0.009531331 0.01881109 0.11689152 0.15636264 0.19666564 0.09663924
0.042781737 0.13410595 -0.17627625 0.12082662 -0.021879995 -0.02839929 -0.0007680716 0.20324299
0.13176322 -0.024124645 -0.025112301 -0.09563929 0.09691762 -0.12424849 -0.17228673 -0.068965174
0.053054303 0.13112444 0.043077566 0.041945882 -0.10403294 -0.08208161 -0.12726983 -0.12649843
-0.09077664 -0.18050192 0.0050072866 -0.13390607 0.104670055 -0.030256553 -0.0880816 0.0057929293
-0.08878179 -0.12648201 0.0016038207 -0.17676608 0.109131396 -0.15535913 0.09140817 0.09019319
0.04334956 -0.10565897 0.10736578 -0.14568624 0.026395274 0.09937855 0.1618931 0.0019573714
-0.006929784 -0.0043416917 -0.18819144 0.07179272 -0.17356183 -0.049419668 -0.024622224 0.11414353
-0.051608432 0.14946364 -0.094630964 -0.009784283 -0.20350797 0.17068079 0.095837444 -0.13342945
-0.054298062 0.1162224 -0.07375731 0.14356406 0.060070764 0.0011206917 0.19590637 0.17968567
-0.045079354 0.0003837623 0.09961721 -0.044453837 0.099881954 -0.18450797 -0.14337106 0.089352615

arch.transformer.1.attention.out_proj.bias f4 [32]
00000000: a5bb 9a3c 03d7 3a3c 1a52 d6bc d1ab 90bc
00000010: 3513 06bc c163 aabb a13a c4bb 151d d6bb
00000020: 892b a93c aff5 833c cd66 103c 0ca5 2e3c
00000030: bd3d 1f3c e5a9 f63c e5ab 2abc 2d0b 8f3c
00000040: 38fb 5abc 9d0b 9ebc 7d90 e1bc 9acf 2a3d
00000050: 276b 31bc ae2e 7dba d7b9 1cba 7f8e 063d
00000060: f239 bfbc 99ed 653c 0679 abbc 2fc8 37bc
00000070: ff4e b5bc 1ecd febc efb9 69ba 722d 73bc
0.018888304 0.011403802 -0.026162196 -0.017660053 -0.00818329 -0.00519988 -0.0059884344 -0.0065342286
0.020650642 0.016108362 0.008813572 0.010659467 0.009719309 0.030110309 -0.010416959 0.017461384
-0.013365559 -0.019292647 -0.027534718 0.04170189 -0.01082877 -0.000965814 -0.000597862 0.03285074
-0.02334306 0.0140336985 -0.020931732 -0.011217161 -0.022132395 -0.031103667 -0.0008915951 -0.014842378

arch.transformer.1.mlp.0.weight f4 [2, 32]
00000000: b71f 71bc 44b3 303e 3182 223e 5042 52bd
00000010: 89c2 033c 71c3 ac3c 487f b53d 4371 233e
00000020: a3a8 4f3c efa2 b7bc 2d96 443e 0921 adbd
00000030: 7f44 0cbe 59e3 ba3d f414 6bbb be0c a4bd
00000040: ac83 073d 78d4 0bbe a530 d1b8 4748 423d
00000050: b75e b63c 90c6 01be 39ea f33d 65d7 853d
00000060: 3584 49bd 7734 45be ee3c 20bc debc 803d
00000070: df1a 19be 9aa0 85bc 14de febd 7f88 e13d
00000080: 7c84 ca3d 8b34 c13d aab7 2d3d 1466 63be
00000090: b700 bfbd e5d2 8dbd ab32 0ebe 55a1 513d
000000a0: 6f00 bb3d 4954 033e 8f9f 05be 06db a4bc
000000b0: e428 0d3e 3e76 053e 58f4 bebd 1106 e03d
000000c0: 81a9 523d 26c6 403d 06fc 393d 2f18 83be
000000d0: e8be dfbd 7576 09bc 9659 563e c0e4 b63d
000000e0: 456f e7bd 3df1 9a3d 729c 233e df7e 763b
000000f0: 498c b13d b4bb 04bd 6ae2 5fbb 04c9 9ebd
-0.014717034 0.17255884 0.15869977 -0.05133277 0.008041986 0.021089287 0.088621676 0.15961175
0.0126744835 -0.02241656 0.19197913 -0.084535666 -0.13698004 0.091253944 -0.0035870643 -0.08010243
0.033084556 -0.13655269 -9.974957e-05 0.04743221 0.02226196 -0.12673402 0.11909909 0.06535224
-0.049198348 -0.19258295 -0.009780152 0.062860236 -0.14951657 -0.016311932 -0.12444702 0.11012363
0.09888551 0.0943385 0.042411484 -0.22206908 -0.09326308 -0.069249906 -0.13886516 0.05117925
0.09130942 0.12825121 -0.13049148 -0.02012397 0.1378513 0.13033387 -0.093239486 0.10938657
0.051431183 0.04706397 0.045406364 -0.25604388 -0.10925084 -0.008390059 0.20932612 0.08930349
-0.1130052 0.07565544 0.15977648 0.0037612242 0.086693354 -0.03240557 -0.0034162053 -0.077531844

arch.transformer.1.mlp.0.bias f4 [2]
00000000: 3a8a 06be a946 13be
-0.13138667 -0.14382423

arch.transformer.1.mlp.3.weight f4 [32, 2]
00000000: 072c 8dbd 39eb f7be 2352 af3e 432f 573e
00000010: a3ec 3fbf d8fb 14bf 901f 043f 9a85 cabe
00000020: 288f 753d 4289 bdbe 2015 1cbe e76d ae3e
00000030: e702 153e ca61 a53e 70cc 353b 8d4b 08bf
00000040: 1279 8b3d 63b3 dc3e 0dff 4a3e 733d 2b3e
00000050: 520b 0a3e e0b0 163f 7ba0 a03e 0867 2bbe
00000060: 582e d4be e83d 083f dd47 c0be 1cbd f7be
00000070: ed04 803e 1c62 e0be fc94 12bf 6c39 05bf
00000080: 8074 4d3e ce9a e5be 5c88 153f 5c1e 703c
00000090: c27c a3be ee1e f0be 8369 2dbe e2eb 383f
000000a0: b6e1 fabe be60 2dbf eaeb 373e 87bc 523e
000000b0: c84e 2fbf 3271 c4be c418 133f 1089 76be
000000c0: 98ec 943e 600a b8be 0d96 14bf 130e 28bf
000000d0: c871 dd3e 852b b63d f1b6 2e3e b730 7c3e
000000e0: c1b7 963e dd36 be3e 89cd 113f 147b 0d3f
000000f0: 37b5 923e 2e05 673e b146 853d 01b2 0ebf
-0.06893163 -0.48421648 0.34242353 0.21014123 -0.74970454 -0.58196783 0.5161066 -0.39555055
0.059950978 -0.37018782 -0.15242434 0.34068224 0.14551888 0.3230117 0.0027740262 -0.5324028
0.06810202 0.4310561 0.19823857 0.1672266 0.13480881 0.5886364 0.31372437 -0.16738522
-0.41441607 0.5321946 -0.37554827 -0.48386467 0.25003758 -0.43824852 -0.5725858 -0.52040744
0.20063972 -0.4484467 0.5841119 0.014655676 -0.3193112 -0.46898597 -0.16934781 0.7223493
-0.4900033 -0.6772574 0.17961088 0.2057973 -0.68479586 -0.3836761 0.57459664 -0.24075723
0.29086757 -0.35945415 -0.5804146 -0.65646476 0.4325087 0.088950194 0.17061974 0.24627958
0.29437068 0.37151232 0.56954247 0.5526593 0.2865388 0.2256057 0.06507624 -0.5574036

arch.transformer.1.mlp.3.bias f4 [32]
00000000: 648a a93e e076 393e 51d6 8a3e 2e7a 41be
00000010: f734 123f fac9 883d 9aee 19be eb2f b4bc
00000020: e6b8 85be f880 a9bd e7ca 103f ac9a 703e
00000030: 6d8e 8abd daf0 383d 33f8 e73d 018d bebe
00000040: 27b9 c7be bcee 183f 6427 d8bc 787b 593e
00000050: 6bdf 9ebe dd35 05bf 09e6 013e 4661 c93e
00000060: e7b5 2fbf 38e4 2ebf d704 85be 1d45 e13e
00000070: b0d6 1fbf 315e 073f 9356 243f 2e24 17be
0.33113396 0.18111753 0.27116635 -0.18894264 0.5711207 0.06679149 -0.15032426 -0.021995505
-0.2611763 -0.08276552 0.56559604 0.23496503 -0.06765447 0.04515157 0.11326637 -0.37216952
-0.39008448 0.5973928 -0.02638597 0.21238506 -0.3102983 -0.52035314 0.12685408 0.39332026
-0.68636936 -0.68316984 -0.25980255 0.43998042 -0.6243696 0.528781 0.641946 -0.14759895

arch.transformer.1.layernorm0.weight f4 [32]
00000000: 69ea 823f 543f 7f3f 8ada 7b3f a935 733f
00000010: b9ea 793f 1eec 743f a862 7c3f 828e 853f
00000020: 3b7f 813f 8bd0 793f 781c 7d3f 5d25 833f
00000030: c0e1 7f3f 0f08 873f 74a3 823f 2aee 843f
00000040: 4a3d 873f 3c11 853f 4ba1 883f 475a 803f
00000050: 6ccf 7a3f c0d6 7f3f 59d3 833f 6aaf 7e3f
00000060: 0d25 833f ec5b 7f3f 949b 833f a704 7a3f
00000070: 22b7 813f 44f2 773f fe36 813f f7e4 7a3f
1.0227786 0.99706006 0.9838034 0.95003754 0.97623783 0.95672786 0.9858804 1.0434115
1.0116953 0.97583836 0.98871565 1.0245777 0.9995384 1.0549334 1.0206132 1.0385182
1.0565579 1.0395885 1.0674223 1.002755 0.9797275 0.9993706 1.0298873 0.9948641
1.0245682 0.99749637 1.0281854 0.9766335 1.0134013 0.96854043 1.0094907 0.9800562

arch.transformer.1.layernorm0.bias f4 [32]
00000000: 24da 4b3c f3b2 223b 8768 2dbd d4cd 15bc
00000010: 74f2 11bc 940d a4bc 8246 5e3b 8e16 c7bb
00000020: dda2 3f3c 48bd 6f3c d556 0cbc 7309 4f3a
00000030: cf27 283c 1b07 8d3c 0bf4 d4bc da39 203d
00000040: 42e4 bfbc 07b7 07bc 6023 0dbd b131 0c3d
00000050: 0d0e ad3c ec38 a3ba da40 2d3a be53 c23c
00000060: 3aa9 a0bc 3be4 803c 8f9c 9dbc 40a5 3ebc
00000070: 2a65 b1bc be57 a1bc b045 453c d69c 903b
0.0124421455 0.00248259 -0.042336013 -0.0091433115 -0.008907903 -0.020026006 0.0033916538 -0.006075687
0.0116965445 0.0146325305 -0.008565624 0.00078978314 0.010263397 0.017215302 -0.025995275 0.03911767
-0.023424271 -0.008283383 -0.034457564 0.034227077 0.021124864 -0.0012452877 0.000660909 0.023721572
-0.019611944 0.015733829 -0.019239692 -0.011636078 -0.021654684 -0.019695159 0.012040541 0.0044132276

arch.transformer.1.layernorm1.weight f4 [32]
00000000: b4c6 8a3f 9ebd 843f 2c7a 7c3f 8909 773f
00000010: 7a72 773f ecc5 7e3f 7b33 813f 304c 843f
00000020: 270a 833f f0ad 703f 1367 813f 6ab5 863f
00000030: 55ce 833f a33f 893f add7 843f f786 883f
00000040: cab4 893f 7861 813f a84f 8b3f 71a9 823f
00000050: 9367 7a3f 63d5 7f3f e0c7 823f b029 833f
00000060: ac1c 843f 77bc 763f af59 873f 694f 7d3f
00000070: e913 813f 1b1d 7b3f 18e5 833f 018e 7e3f
1.0841889 1.0370367 0.9862392 0.96498924 0.9665905 0.99520755 1.0093836 1.033575
1.0237473 0.9401541 1.0109581 1.0524113 1.0297343 1.0722545 1.0378319 1.0666188
1.0758297 1.010787 1.0883684 1.020796 0.9781429 0.9993498 1.0217247 1.0247097
1.032125 0.96381325 1.0574244 0.98949295 1.0084201 0.98091286 1.0304289 0.9943543

arch.transformer.1.layernorm1.bias f4 [32]
00000000: 0975 da3b d235 77ba acb8 24bd bb24 d9ba
00000010: 16ed 0b3c 60e9 9cbc 0155 18bc eeae d93a
00000020: 0936 15bb d2ba 4d3d c597 88bc fc9e f7ba
00000030: da54 ec3a 5bed 843b 7be5 b3bb aef6 063d
00000040: 5a57 59bc 5274 89bb c30a 9bbc db13 593d
00000050: db49 d93b 5793 4bba 7c80 f43a 8f44 3a3d
00000060: 98e1 c5bc 1006 703c 19a0 1fbd bffa e8b9
00000070: 0fcc f1bc cb60 e4b9 5203 8e3c cf88 373c
0.0066667837 -0.0009430322 -0.04021518 -0.0016566733 0.008540412 -0.01915425 -0.00929761 0.0016607919
-0.0022767803 0.050226994 -0.016673932 -0.0018891986 0.0018030659 0.0040566153 -0.0054900027 0.032950096
-0.013265455 -0.0041947747 -0.01892603 0.05299745 0.0066311187 -0.0007765791 0.0018654014 0.04547554
-0.024155423 0.014649883 -0.03897104 -0.0004443731 -0.029516248 -0.00043559665 0.017335568 0.011202051

arch.transformer.2.attention.in_proj_weight f4 [96, 32]
00000000: dac2 503e 6970 27be 6ff8 743e aa2b c0bd
00000010: 230f 053e 592c d9bd 4b3a 113e ed00 fcbd
00000020: 3689 8abe 49eb ff3d e3dc 1b3e 5ba4 683e
00000030: 4382 d7bc e86b 0fbe 02fc d8bd aef8 323e
00000040: 895d bebd 7869 31bd 163a 21be 59e7 d2bd
00000050: 425d 5cbd d8e7 81be c4af e73d 5bb6 003e
00000060: d0e8 12bd 5735 7dbd be6c 93bd de16 8a3e
00000070: 04fc 03be be89 443e 8ee1 b43b 28d4 b3bc
00000080: 053d e8bd 09fa 83be 666f f33c 4431 59bd
00000090: 88f3 a8bc a78a 0ebe d31b 5dbe 9ca8 64be
000000a0: 6548 26be fd4c 2e3e 7ab4 723d f523 3ebd
000000b0: 267d 18bd c61f d03d f135 53bd 21aa f23d
000000c0: 5019 c7bd 0238 24be 2c9c 373e 5781 373e
000000d0: 9bc1 d23d a440 133e 6533 2abd a4d6 ba3d
000000e0: a7cd 52be 1f2c 4d3e e211 30be 404b 1b3e
000000f0: 7142 42be 74af 62bd 90f0 e93d 8bed f93d
00000100: c0d4 76bd 1e39 9cbc 02ef 49be 3258 9bbd
00000110: 6ec4 7d3e 04b5 183e bf61 39be ba5d 16bb
00000120: ffa1 853d bf06 2c3d f3bc 143e 5515 73be
00000130: a1ff b03b 35b0 48bd adaa c4bc 7c56 c03d
00000140: 12ed 84be 421c bf3e e770 40bd 2e96 8d3e
00000150: 435f a6bd f6d0 e1bd b238 8f3d 08a7 863e
00000160: ce18 913d 557e 963d b45f 2fbe 4650 d4bc
00000170: b394 b7be 9764 0f3e e95b b53e 7ce3 0dbd
00000180: 7a3c d7bd cc5e 433e 54c1 573e 4280 293d
00000190: e221 d0bd 4158 5c3e 6cab 9b3e da0d 11be
000001a0: fc72 6fbd 2a7e a5bd 02db 4a3d eb2b 27bd
000001b0: 7b86 a33d 5f43 073e 1552 7dbe 892f 2d3e
000001c0: 21f7 6a3e 394c d13c 544f 213e 5b22 8dbe
000001d0: 5e8a bcbd 54b4 a9bd 49bb 263e 0fbf 9a3c
000001e0: 3b59 c63d 8252 553e 366d b73e ca5b 9cbe
000001f0: 199a 893e 1642 60be ae94 c9be 6da5 d33d
00000200: f915 eabc f395 56be 3fb5 02be 6236 423e
00000210: 839f 81bd bb74 163e 6cc0 b2bd 1d4e 3a3e
00000220: 7739 debd c37a 423e b9e5 af3d 3641 2fbe
00000230: 16ff 833d f364 5a3d 686d 11be 74a4 46be
00000240: 6d7a 53bb be63 183e 1835 333e e6f7 c9bc
00000250: 824e 2cbe 0059 b13d 81cb a4bc 1f14 393d
00000260: 8745 b63d 059e b63c 8738 1f3e d6dd 443e
00000270: c563 b4ba 06f1 433e 09ec e23d 31b9 47be
00000280: 7c28 7a3e b10d 573d 0ff7 8cbc 7a92 913e
00000290: 29e2 1f3e c50b 16be 7e2b 973d bccc 16be
000002a0: b2cf da3c 4bcf b83d 646d 21be 2edd 9abd
000002b0: 9e08 453e 543a 61bc cf06 953d 46e2 543e
000002c0: e6f5 233e 9c05 6cbc fb37 5e3e 3e28 17be
000002d0: beb7 143d 5b0c 51be 7d2a d63a 53a8 0cbe
000002e0: c91c 8f3e e771 b03d 2e38 01bb 0509 3cbe
000002f0: b335 ef3d 69c1 0cbe dcf6 87bd 8b83 02bc
00000300: 93dc b6bd 6a8d db3d 684c 993d 2d35 8dbd
00000310: 185c ec3c c967 f4bc 52ad 173b d780 a3ba
00000320: 1390 39be ba54 833d b9bd 863d b3f5 6fbe
00000330: 5001 5dbe f295 99bd 10ed 8f3e b164 c5bd
00000340: 54b7 203d 0b53 8a3d 077e a03d 72f4 ab3d
00000350: 6ee5 03be 7ab7 8d3d 5402 643d 6cc2 3ebd
00000360: 8c7a 01be b472 563d 6c95 36bd 5f0c 8f3e
00000370: 1040 a1be 62b5 953e 61c0 783e 7415 2fbe
00000380: bb80 4cbd 3b0f d63d 45cf 37be 07f4 853e
00000390: ca9f d53b 24b1 ac3d bd5f cebd e760 e6bd
000003a0: 40dd 49be 8fcd 143c 5833 1dbe f24b aebc
000003b0: daaa 033d 2f9c d5bd 04fc 923e 2b42 24be
000003c0: 8126 2bbe 9c66 293e b699 0dbe bc25 533e
000003d0: 9049 22bd 9534 80bd 0a9f 253e e8c4 ebbc
000003e0: 265b 59be 6a4f 0dbe 3b74 293d 2299 f73d
000003f0: 2fa0 e53d 7ee3 53bc 6ebb a53d d47c a33d
0.2038683 -0.16351475 0.23922895 -0.09383328 0.12994055 -0.10604162 0.14182393 -0.12304864
-0.2705781 0.12496049 0.1522098 0.22718947 -0.02630723 -0.14006007 -0.10594942 0.17477676
-0.09295184 -0.043313473 -0.15744814 -0.10298032 -0.053799875 -0.25372195 0.113128215 0.12569563
-0.03586656 -0.061818447 -0.07198475 0.2697057 -0.12889105 0.1919317 0.0055200523 -0.02195175
-0.113397636 -0.257767 0.029716205 -0.0530255 -0.020623937 -0.13920079 -0.21592645 -0.22329944
-0.16238554 0.17021556 0.059254147 -0.04642101 -0.037228726 0.1016231 -0.051565114 0.11848856
-0.09721625 -0.1603699 0.17930669 0.17920433 0.102908336 0.14380127 -0.04155292 0.09122971
-0.20586263 0.20036362 -0.17194322 0.15165424 -0.18970658 -0.055343106 0.11422837 0.12203511
-0.060261488 -0.019070204 -0.1972008 -0.07585181 0.24781963 0.14912802 -0.18103693 -0.002294405
0.06525039 0.04199862 0.14525203 -0.23738606 0.005401567 -0.04899617 -0.024007166 0.093914956
-0.2596212 0.37326247 -0.046982672 0.2765364 -0.081236385 -0.11026184 0.06993236 0.2629931
0.07084809 0.07348315 -0.17126352 -0.025917184 -0.35855636 0.14003216 0.35421684 -0.034640774
-0.10509582 0.19079131 0.21069843 0.04138208 -0.10162713 0.21518041 0.30404222 -0.1416544
-0.058459267 -0.080807045 0.04952527 -0.040813368 0.079846345 0.13209294 -0.24738343 0.16912664
0.22945835 0.025549041 0.15752918 -0.27565274 -0.09206079 -0.08286348 0.16282381 0.018889932
0.09684988 0.20832255 0.3582551 -0.3053878 0.2687538 -0.2190021 -0.39371246 0.10334287
-0.02857493 -0.20955639 -0.12764452 0.18966058 -0.063292526 0.14692967 -0.08728108 0.1819386
-0.10850804 0.18992142 0.08588738 -0.1711472 0.06445138 0.05331893 -0.14201891 -0.19398671
-0.0032269016 0.14881799 0.17500722 -0.02465434 -0.16826823 0.086595535 -0.02011657 0.045185205
0.0889998 0.022292146 0.15548907 0.19225249 -0.0013762644 0.19134912 0.110801764 -0.19504239
0.24429506 0.05250329 -0.01720765 0.28432065 0.15613617 -0.14652927 0.07381342 -0.14726537
0.026710365 0.09023913 -0.15764385 -0.07561718 0.19241568 -0.013746817 0.07276689 0.20789441
0.16011772 -0.014405634 0.21701042 -0.14761445 0.036308043 -0.2041487 0.0016339567 -0.13736086
0.2795165 0.08615475 -0.0019717324 -0.18362816 0.11680164 -0.13745655 -0.066388816 -0.007965933
-0.0892879 0.10720332 0.074852765 -0.06894908 0.028852507 -0.029834645 0.0023144078 -0.001247431
-0.18121366 0.06412645 0.065791555 -0.2343357 -0.21582532 -0.07499303 0.28110552 -0.09638346
0.039237335 0.067541204 0.07836538 0.083962336 -0.12880489 0.06919761 0.055666283 -0.046572134
-0.12644404 0.052355483 -0.044576094 0.27939126 -0.31494188 0.29239947 0.24292137 -0.17098027
-0.049927454 0.10452124 -0.17950161 0.2616274 0.0065192925 0.084322244 -0.100768544 -0.112489514
-0.19713306 0.009082212 -0.15351617 -0.021276448 0.03214536 -0.1043018 0.28707898 -0.16040866
-0.16713907 0.16543049 -0.13828167 0.20619863 -0.039620936 -0.06260029 0.1617395 -0.028780416
-0.21226177 -0.13799825 0.04137061 0.12089755 0.11212193 -0.012932656 0.0809239 0.079827935

arch.transformer.2.attention.in_proj_bias f4 [96]
00000000: 48a7 b23d d104 893d 043e 213e afb2 2ebe
00000010: a232 343d a303 afbd 2654 083e 2691 3c3d
00000020: 769d abbd 9c62 07be 2043 adbd fead 223c
00000030: 0eb5 f23d a669 8e3d c688 a53d 0126 d83d
00000040: d1c5 af3d 6092 2abe b7a6 e43d ae77 99bd
00000050: 7c95 093e 13bd 313a 8145 843d 362b 9f3d
00000060: 812e 2fbd b06d 053e ca35 6fbd a6cc 9a3d
00000070: ac9f b9bd 74bf 953d e8b7 f33d 0cd8 023e
00000080: 67e0 3dba a0d7 893a a8ef 83ba bb7e cb38
00000090: 8b11 f739 c194 2aba e553 433b 23fd 583a
000000a0: 0689 d038 2651 8aba 7397 5b3a 64f8 9bb9
000000b0: c0f2 79b9 af61 a539 941a 9eb8 ce09 c839
000000c0: 5cbf c238 b02a ed39 8d23 63ba bb51 783a
000000d0: 1b0c 0abb 3b78 7db8 4cd8 b9b7 8eb7 2b38
000000e0: e610 9fb9 f2b0 e636 d5ef 5bb9 6c41 8f39
000000f0: bb93 4cb8 57a2 56b9 a535 9d38 5808 ecb7
00000100: c05d a3bb 3b0d 98bc a781 743b 8c83 9239
00000110: 47e2 003d 5395 6abb 0c4e 22bb 3dc4 cd3b
00000120: 1573 cfbb 886f ac3c 4c71 cebc e5a1 173b
00000130: 2099 963b da84 1c3d c075 c33b 14ae 793c
00000140: c3fa 67bd c245 acb9 1770 823c 6afa afba
00000150: f52c 84bb 55b6 993a 89b7 a33c 14e7 ccbc
00000160: 06d4 b93c 069f 21bc 98fd 933a 6f24 24bc
00000170: 92da 8ebc f0d4 eabc 4538 513b df25 45bc
0.087233126 0.06690372 0.15746313 -0.1706035 0.0439936 -0.085456155 0.1331335 0.04603686
-0.08379643 -0.1322121 -0.08460069 0.009929178 0.1185094 0.069537446 0.08082728 0.10554124
0.08582652 -0.166574 0.11164611 -0.0749353 0.1343593 0.00067801884 0.06458569 0.07771914
-0.04276896 0.13030124 -0.058400907 0.07558565 -0.09063658 0.073119074 0.11900312 0.12777728
-0.00072432164 0.0010516532 -0.001006593 9.7034e-05 0.00047124582 -0.00065071514 0.0029804644 0.00082774664
9.9437355e-05 -0.0010552749 0.00083767547 -0.0002974897 -0.00023836922 0.00031544032 -7.538978e-05 0.00038154278
9.286284e-05 0.00045235967 -0.000866466 0.0009472628 -0.0021064344 -6.0431874e-05 -2.215444e-05 4.0940526e-05
-0.00030339434 6.8751333e-06 -0.00020974812 0.00027323829 -4.8774975e-05 -0.00020469107 7.4963355e-05 -2.8137278e-05
-0.004985541 -0.018560996 0.0037308724 0.000279453 0.031465795 -0.003579457 -0.0024765758 0.006279497
-0.0063308575 0.021049276 -0.025200509 0.0023137268 0.0045958906 0.038212635 0.0059649646 0.015239257
-0.05663563 -0.0003285837 0.01592259 -0.001342607 -0.0040336796 0.0011727313 0.019984977 -0.02501253
0.022684108 -0.009864574 0.0011290787 -0.010018452 -0.017438207 -0.02866599 0.0031924408 -0.012032955
