checkpoints/MultiSubjectEEGModel_best_20250522_082041.ckpt (torch, 259103 bytes, 103 tensors)

arch.conv.0.weight f4 [16, 16, 11]
0	0x3d0c4e9a	0.034254648
1	0x3d0f214a	0.034943856
2	0xbd04ba6b	-0.032404345
3	0x3d423242	0.04741121
4	0xbd0ca296	-0.03433474
5	0x3c10018e	0.008789433
6	0xbc98f236	-0.018670183
7	0x3dd2fbd0	0.10301936
8	0x3e13ecf3	0.14445858
9	0xbb6db89d	-0.0036273368
10	0x3d973f8c	0.073851675
11	0x3c21fa39	0.009886318
12	0x3d977ae7	0.07396489
13	0x3d4a5674	0.049398854
14	0x3d991364	0.074744016
15	0x3c953921	0.018215718
16	0x3da69720	0.081342936
17	0x3ba37319	0.004988086
18	0xbd774aca	-0.06037406
19	0xbad12e8b	-0.0015959305
20	0xbd99c66f	-0.07508551
21	0xbda3dab5	-0.080006994
22	0xbce22946	-0.027607571
23	0x3da29f18	0.07940501
24	0x3aa83ee7	0.0012836129
25	0x3cf6d8b3	0.030132627
26	0x3cbe982d	0.023265922
27	0xbba38d38	-0.0049912
28	0x3d15dbd4	0.036586598
29	0xbd95c21c	-0.07312414
30	0x3d6570b4	0.056015685
31	0xbdb8ea3b	-0.09029051
32	0x3c7be705	0.015374904
33	0x3b4adb49	0.0030953458
34	0xbc34046b	-0.010987381
35	0x3dbdd273	0.09268656
36	0x3d8807fc	0.06642148
37	0x3db71fe4	0.089416295
38	0x3d033fcb	0.03204326
39	0x3c81e5df	0.015856681
40	0x3d0d47bd	0.034492243
41	0xbd03430c	-0.032046363
42	0x3c950e62	0.018195335
43	0x3d7197c3	0.058982622
44	0x380cf4ad	3.3606473e-05
45	0xbd7caec8	-0.061690122
46	0x3d1da93b	0.03849147
47	0x3c2b81b3	0.010467934
48	0x3bf072c4	0.0073379
49	0xbdc15f5a	-0.09442015
50	0xbda5e80e	-0.081009015
51	0xbcfb6e34	-0.030692197
52	0xbd9ea88f	-0.07746994
53	0x3d84e393	0.06488719
54	0x3d801262	0.06253506
55	0x3b8c154a	0.004274999
56	0xbc560a85	-0.0130640315
57	0xbd9dafa1	-0.07699514
58	0xbd630d11	-0.055432383
59	0xbe291a6c	-0.16513985
60	0xbe032d57	-0.12810265
61	0xbe2b814e	-0.16748545
62	0xbd1ad232	-0.037798114
63	0xbd78ee57	-0.060774174
64	0x3c8ba04e	0.017044213
65	0x3cc2a8c2	0.02376211
66	0x3df06654	0.117382675
67	0xbc0c792c	-0.0085738115
68	0xbd4b8291	-0.049685065
69	0xbd9ad8f2	-0.0756091
70	0x3d67ba74	0.0565743
71	0x3c92578a	0.017864008
72	0x3d108d68	0.035291106
73	0xbda517d4	-0.080611855
74	0xbd83965d	-0.06425164
75	0xbd3f9358	-0.046771377
76	0xbcfb5815	-0.03068165
77	0x3de0b904	0.10972789
78	0x3dab7c19	0.08373279
79	0x3dbd26b9	0.092359014
80	0x3b86189d	0.0040922896
81	0x3cae19c1	0.021252515
82	0x3e15a50a	0.14613739
83	0x3ca25a08	0.01981832
84	0x3d6f74d2	0.058461018
85	0x3c0295e0	0.007970303
86	0x3d72ce1c	0.059278592
87	0xbd575ef0	-0.052580774
88	0xbd1dbf56	-0.03851255
89	0xbb3d4f7f	-0.0028886495
90	0xbc9edd1a	-0.019392539
91	0xbba05a72	-0.0048935944
92	0x3dab4eb4	0.08364621
93	0x3de946ab	0.11390432
94	0xbc90832f	-0.017640678
95	0xbd3c11db	-0.045915466
96	0x3d725d7c	0.059171185
97	0xbcf2a22a	-0.029618341
98	0xbd36b1a2	-0.044602998
99	0xbe06b1a7	-0.13153706
100	0xbdf373d8	-0.1188733
101	0xbd86b1f4	-0.065769106
102	0xbd6dba39	-0.058038924
103	0xbd9e5440	-0.07730913
104	0xbc18b41c	-0.009320285
105	0xbd79c5c9	-0.06097964
106	0xbd9ccc55	-0.07656161
107	0xbd77bdce	-0.060483746
108	0xbda24d8e	-0.07924949
109	0xbd9930a9	-0.07479984
110	0x3d1e9073	0.038711976
111	0xbc6a9243	-0.014317098
112	0xbc481402	-0.0122118015
113	0xbdefd1e5	-0.11709956
114	0xbd8d8768	-0.06910592
115	0xbd1bc581	-0.03803015
116	0x3c9a3827	0.018825604
117	0xbd01afd6	-0.03166183
118	0xbc8ca1be	-0.017166968
119	0xbd4d4dd6	-0.05012306
120	0xbc7bb2b7	-0.015362433
121	0x3c3ac7a3	0.011400136
122	0x3d59bbcf	0.053157624
123	0x3c807646	0.015681397
124	0xbd272c2d	-0.040813614
125	0xbd241d84	-0.04006721
126	0xbcc703d6	-0.024293821
127	0xbd1a5011	-0.037674014
128	0x3ddaecda	0.10689707
129	0x3c5f26d7	0.0136201
130	0x3d7ec806	0.062202476
131	0x3c0b528a	0.008503566
132	0xbd54e659	-0.05197749
133	0x3d9530ba	0.072846845
134	0x3ccebf58	0.025237724
135	0xbd087689	-0.03331617
136	0xbddb7329	-0.107153244
137	0xbe0e5f1a	-0.13903466
138	0xbcc4d0aa	-0.02402528
139	0xbd07d119	-0.033158395
140	0x3d010ce6	0.03150644
141	0xbd83a6b6	-0.06428282
142	0x3d6bfcb9	0.057614062
143	0xbdfa41b3	-0.122195624
144	0xbda41ea7	-0.08013659
145	0xbce5c962	-0.028050128
146	0xbc9df573	-0.019282078
147	0xbd0ea17c	-0.034821972
148	0xbd5f9e78	-0.054594487
149	0xbe27496a	-0.16336599
150	0xbd1a1b9a	-0.03762398
151	0xbd355213	-0.044267725
152	0x3b39d693	0.0028356656
153	0xbcf9e93c	-0.030506723
154	0xbc7493be	-0.014927803
155	0xbe0b8ee4	-0.13628727
156	0xbcd3d55d	-0.025858575
157	0xbd0d09ae	-0.03443306
158	0xbd78e74d	-0.06076746
159	0xbe1b027f	-0.15137671
160	0xbcba0e38	-0.022711858
161	0xbcdb53f1	-0.026773425
162	0x3bf090fa	0.0073415013
163	0xbd2e4aed	-0.042551924
164	0x3d915caa	0.070977524
165	0xbd1867eb	-0.03720848
166	0xbd1fe735	-0.039038856
167	0x3db65f8b	0.08904942
168	0x3d2fc1cb	0.042909425
169	0xbd28e649	-0.041235242
170	0xbd38e550	-0.045140564
171	0x3b00ede7	0.001967305
172	0x3cf5ada0	0.029990017
173	0xbd483a6a	-0.048883833
174	0xbd92b348	-0.071631014
175	0xbd441b70	-0.04787773
176	0xbd2a7493	-0.04161508
177	0x3d201b04	0.039088264
178	0x3d2851b7	0.041093554
179	0xbdd36d7f	-0.10323619
180	0xbd005bd0	-0.03133756
181	0x3b623840	0.003451839
182	0xbbc7171d	-0.0060757534
183	0xbd7a722a	-0.06114403
184	0x3b9d8b02	0.004807831
185	0x3ca20382	0.019777063
186	0x3c42e04e	0.011894299
187	0xbdc0fccc	-0.09423217
188	0xbdbc25f8	-0.091869295
189	0xbcf05738	-0.029338464
190	0xbd0cb112	-0.034348555
191	0xbd43eb77	-0.04783198
192	0x3ccbe6cc	0.024890326
193	0x3d5c2024	0.05374159
194	0xbc8518bc	-0.016247146
195	0xbd2eea18	-0.042703718
196	0xbd4d9a36	-0.050195895
197	0xbd882d75	-0.06649295
198	0xbce1008d	-0.027466083
199	0xbc834ed7	-0.016028805
200	0xbdb2a919	-0.08723659
201	0xbd1a2fa7	-0.0376431
202	0x3d58633a	0.052829005
203	0x3cd4a4dc	0.025957517
204	0x3bbe106c	0.0058002975
205	0xbd1f93b0	-0.038959205
206	0xbd66d377	-0.056354012
207	0xbdccd893	-0.10002246
208	0xbd938e55	-0.07204882
209	0x3d313c27	0.043270256
210	0x3d9cdd2d	0.076593734
211	0x3d5d5abc	0.05404161
212	0xbd53833a	-0.05163882
213	0xbcd53008	-0.02602388
214	0x3ca0db31	0.019635769
215	0x3dfb8e24	0.122829705
216	0x3d4b29d5	0.04960044
217	0xbba106d6	-0.004914145
218	0x3ccf96d3	0.025340473
219	0xbd5f01d9	-0.05444512
220	0x3d84e5cf	0.06489145
221	0x3e41f677	0.18941675
222	0x3d4e64fc	0.050389275
223	0x3d162de1	0.036664847
224	0xbc302605	-0.010751252
225	0x3e0c8a93	0.13724737
226	0x3e3437d5	0.17599423
227	0x3e057b6f	0.13035367
228	0xbb0e9f93	-0.0021762594
229	0xbd6def32	-0.058089443
230	0xbd803765	-0.06260566
231	0x3de526db	0.11189052
232	0x3dae1d85	0.08501724
233	0x3dba4ce4	0.09096697
234	0x3d2cfad1	0.042231385
235	0x3d3fe2ba	0.046847083
236	0x3d5a6e20	0.05332768
237	0xbb2f4445	-0.0026743573
238	0xbbd49b3f	-0.0064882333
239	0xbd25fa4d	-0.04052191
240	0x3cf09cf3	0.029371714
241	0xbcff436c	-0.031160079
242	0xbd725cdb	-0.059170585
243	0xbde6332e	-0.112402305
244	0xbd5bc35a	-0.0536531
245	0xbdaa3305	-0.083105125
246	0xbd741d9d	-0.059598554
247	0x3cb16f84	0.02165962
248	0xbd78c9d3	-0.06073935
249	0x3d1652e9	0.036700163
250	0xbb016d9c	-0.001974917
251	0xbd40240c	-0.046909377
252	0xbbac65e3	-0.0052611693
253	0xbdcf8af3	-0.10133924
254	0xbde899ab	-0.11357435
255	0xbdd8a1ad	-0.10577712

arch.conv.1.weight f4 [16]
0	0x3f80044c	1.0001311
1	0x3f719a0a	0.9437567
2	0x3f778a3f	0.9669532
3	0x3f7cd1e4	0.9875777
4	0x3f82956e	1.0201852
5	0x3f8098da	1.0046647
6	0x3f7984d9	0.97468334
7	0x3f81a3eb	1.0128149
8	0x3f83dc33	1.0301574
9	0x3f781c92	0.96918595
10	0x3f7ee527	0.9956841
11	0x3f825ab3	1.0183929
12	0x3f8036f0	1.0016766
13	0x3f81765f	1.0114249
14	0x3f86d158	1.0532637
15	0x3f829375	1.020125

arch.conv.1.bias f4 [16]
0	0x3d83a996	0.0642883
1	0x3d6cbd6a	0.057797827
2	0xbbcadee4	-0.0061911214
3	0x3cf8ae3c	0.030356519
4	0x3e2ef575	0.17085822
5	0x3da7d9bc	0.081958264
6	0x3e1b2111	0.15149333
7	0x3e0a278e	0.13491651
8	0x3d4bece5	0.049786467
9	0xbd4b20f6	-0.04959198
10	0x3d3f0b52	0.046641655
11	0x3d8f5ca4	0.07000092
12	0x3cda9f65	0.026687333
13	0x3d8e0a6c	0.069355816
14	0x3d224130	0.03961295
15	0xbbf04293	-0.007332155

arch.conv.1.running_mean f4 [16]
0	0xbea48461	-0.32132247
1	0x3f06da74	0.52677083
2	0xbdf83758	-0.12119931
3	0x3e8e2855	0.27765146
4	0x3fb0dcab	1.3817343
5	0x3f19225f	0.5981807
6	0x3fce04da	1.609523
7	0x3fdb7533	1.7145141
8	0x3f4da483	0.8032915
9	0x3fa9babe	1.3260114
10	0x3de54f04	0.11196712
11	0x3e87c63f	0.26518437
12	0xbf8545c2	-1.0411913
13	0x3f05ee4a	0.52316725
14	0xbf903fae	-1.1269433
15	0xbf5c9fa6	-0.86181104

arch.conv.1.running_var f4 [16]
0	0x4490d599	1158.6749
1	0x444642ec	793.04565
2	0x447156a4	965.35376
3	0x441d15e9	628.34235
4	0x447e0eae	1016.2294
5	0x4480bfa2	1029.9885
6	0x44c0e5f0	1543.1855
7	0x44427ba4	777.9319
8	0x440a995e	554.39636
9	0x440e824f	570.0361
10	0x44989936	1220.7878
11	0x4420a2ea	642.54553
12	0x44e74638	1850.1943
13	0x443acba3	747.1818
14	0x43d6267c	428.30066
15	0x448baccd	1117.4

arch.conv.4.weight f4 [32, 16, 11]
0	0x3d9e2528	0.07721931
1	0xbc7a1231	-0.015263126
2	0xbc25598b	-0.0100921495
3	0x3dc279cb	0.094958864
4	0x3d99f165	0.075167455
5	0xbbce6a42	-0.006299288
6	0x3d45df01	0.048308376
7	0x3d931d78	0.07183355
8	0xbd489007	-0.04896548
9	0x3cc3e23c	0.023911588
10	0x3cbad314	0.022805728
11	0x3d1e66cf	0.038672265
12	0x3dc7a741	0.09748698
13	0xbd3a1388	-0.045428783
14	0x3d0308e1	0.03199089
15	0xbd145b03	-0.036219608
16	0xbd471125	-0.048600335
17	0x3d842549	0.06452424
18	0xbd57fe06	-0.05273249
19	0xbd224e54	-0.03962548
20	0xbccc01e1	-0.02490324
21	0xbde79dd4	-0.113094
22	0xbcf87e0b	-0.03033354
23	0x3d8e886b	0.069596134
24	0x3dd88baf	0.105735175
25	0x3d1d3a06	0.038385414
26	0x3de05ee6	0.109556004
27	0x3dde0376	0.10840504
28	0x3dc2c555	0.09510294
29	0x3bb94347	0.005653772
30	0x3de0e34a	0.10980852
31	0x3d8df090	0.06930649
32	0x3d139903	0.036034595
33	0x3db544b7	0.08850997
34	0xbd0c1ad1	-0.03420526
35	0x3d3185af	0.04334038
36	0xbcab82b5	-0.02093635
37	0xb95729d0	-0.00020519574
38	0x3cc293f1	0.023752185
39	0x3d38d303	0.04512311
40	0x3c374c32	0.0111876
41	0xbda1398a	-0.07872303
42	0xbd90bd78	-0.07067388
43	0xbc38d101	-0.011280299
44	0xbd46f18a	-0.048570193
45	0xbde66a68	-0.11250764
46	0x3c4c3f83	0.012466314
47	0xbd450175	-0.048097093
48	0xbde0d0ac	-0.10977301
49	0xbd4651eb	-0.048417967
50	0xbcaf80ef	-0.021423785
51	0xbd9297ee	-0.071578845
52	0x3c4413a9	0.011967578
53	0xbdaa2c7a	-0.083092645
54	0xbc2c3e14	-0.010512847
55	0x3e213af0	0.15745139
56	0x3de60da8	0.112330735
57	0x3d99f9c4	0.07518342
58	0xbbb98125	-0.005661147
59	0x3c9fe1a8	0.019516781
60	0x3cbdcbb0	0.023168415
61	0x3c0ce78d	0.008600128
62	0xbca59ed3	-0.020217335
63	0x3ca916df	0.020640789
64	0xbafb2ea0	-0.0019163676
65	0x3bc06f01	0.0058726077
66	0xbd3c4725	-0.045966286
67	0xbd2816ea	-0.041037478
68	0xbd071d6a	-0.032987036
69	0x3daefff0	0.0854491
70	0x3cac2d23	0.021017617
71	0xbdd6f68f	-0.10496246
72	0xbda483da	-0.08032961
73	0xbcca5a81	-0.024701359
74	0xbd6b853a	-0.0575001
75	0xbd4d030b	-0.05005173
76	0xbd326dcc	-0.04356174
77	0x3b92ea2c	0.004483482
78	0x3d1a314d	0.037644673
79	0x3d0136c1	0.031546358
80	0x3d45ea44	0.048319116
81	0x3b7f4b19	0.0038954674
82	0x3b83a07c	0.004016934
83	0xbd6a0f4c	-0.057143494
84	0xbd9c60db	-0.07635661
85	0xbd2bba6d	-0.041925836
86	0xbdab1dfb	-0.08355328
87	0x3c1711a1	0.009220512
88	0x3c5eec3e	0.013606129
89	0xbc84df3e	-0.016219731
90	0xbda2299f	-0.07918095
91	0x3c951cf9	0.018202292
92	0x3cdffb52	0.027341519
93	0x3d7fe466	0.062473677
94	0xbc01a990	-0.007913962
95	0x3d86dd69	0.065851994
96	0x3d03456d	0.03204863
97	0xbd80b22d	-0.06283984
98	0xbd77480b	-0.06037144
99	0x3ccf9a9a	0.025342274
100	0xbd81e001	-0.063415535
101	0x3cedb0f9	0.029015051
102	0xbb6264fb	-0.0034545052
103	0x3bca820a	0.0061800526
104	0x3d54f21d	0.05198871
105	0x3cd4d238	0.025979146
106	0x3ca30a16	0.01990227
107	0x3c8b7f78	0.017028555
108	0xbd71d9b5	-0.059045512
109	0xbd88957c	-0.06669137
110	0x3da6d8a9	0.081467934
111	0x3e03e375	0.12879737
112	0x3dfae1b7	0.12250083
113	0x3dcdd1bc	0.10049769
114	0xbac38b48	-0.0014918828
115	0x3c14fe10	0.009093776
116	0xbd90a803	-0.07063296
117	0x3cc11c86	0.023573171
118	0xbd8d10e4	-0.06887987
119	0xbd28afc4	-0.04118325
120	0x3da459e4	0.08024958
121	0x3d5c09c3	0.053720247
122	0xbc0c0f62	-0.008548589
123	0xbd463ae7	-0.048396017
124	0xbd9530a5	-0.07284669
125	0x3cbb2b41	0.022847774
126	0xbdcaf176	-0.09909336
127	0x3d0c61bd	0.034272898
128	0x3cbfb2b7	0.023400648
129	0xbd42dfed	-0.047576834
130	0xbd91d939	-0.0712151
131	0x3c46540b	0.012104998
132	0x3dadd6a2	0.084882036
133	0x3e156d26	0.14592418
134	0x3e0da308	0.13831723
135	0x3ce3d1b8	0.027809963
136	0x3dff34da	0.124612525
137	0x3e01f6f1	0.12691857
138	0x3c9f10b4	0.019417144
139	0x3dbeceb8	0.09316772
140	0x3c1521de	0.009102313
141	0xbbcb6513	-0.0062071173
142	0x3d1fc7fc	0.03900908
143	0x39df8b01	0.0004263744
144	0xbcfb337c	-0.030664198
145	0xbda35366	-0.07974891
146	0x3c84840c	0.016176246
147	0x3d84605c	0.064636916
148	0xbc7d71fa	-0.015469069
149	0xbdb486de	-0.088147864
150	0xbd8cb6cf	-0.068708055
151	0xbde1fd4f	-0.11034643
152	0xbdbd7a41	-0.09251834
153	0xbd3ea959	-0.04654822
154	0x3cfbaab4	0.030721046
155	0xbda3c5be	-0.07996701
156	0xbd044530	-0.032292545
157	0xbd7fa342	-0.062411554
158	0xbd995349	-0.074865885
159	0x3c971896	0.01844434
160	0x3cf597be	0.029979583
161	0xbc6b3023	-0.014354738
162	0x3d232f8d	0.03984027
163	0xbc50ec67	-0.012751675
164	0xbb6826c8	-0.0035423506
165	0x3ddc3093	0.10751452
166	0x3d62b3e9	0.055347357
167	0x3d7c9a62	0.06167067
168	0xbd154b69	-0.03644887
169	0x3d57d7bc	0.052695975
170	0x3d456ff6	0.048202477
171	0xbbc6a902	-0.006062628
172	0x39ebbabe	0.00044961827
173	0xbd05d14d	-0.032670308
174	0xbce84930	-0.028355211
175	0x3d7ca73b	0.06168292
176	0xba526b38	-0.0008026841
177	0xbcbd653a	-0.023119558
178	0x3c7993d5	0.015233
179	0xbd7c2a2a	-0.06156365
180	0xbd0f1c7d	-0.034939278
181	0x3d39384e	0.045219712
182	0xbd9ebad3	-0.07750478
183	0x3c29352e	0.01032762
184	0x3d319744	0.04335715
185	0x3cc895ee	0.024485555
186	0x3b8b23c4	0.004246207
187	0xbdfde468	-0.12397081
188	0xbc65d12f	-0.014026924
189	0xbc1f2d91	-0.009715454
190	0x3ce5f960	0.028073013
191	0x3ddb8fc1	0.10720778
192	0xbc0a4417	-0.008439085
193	0xbdc3e063	-0.09564283
194	0xbdfa666b	-0.12226566
195	0x3ce98964	0.028507896
196	0xb8c0974d	-9.1834554e-05
197	0x3d56f05d	0.052475322
198	0xbbffe2cd	-0.007809019
199	0xbdb9614e	-0.090517625
200	0x3b7439aa	0.0037265816
201	0x3d88c606	0.06678395
202	0x3d805060	0.0626533
203	0x3d042ac7	0.03226736
204	0xbd8711a9	-0.06595165
205	0xbd47e8ec	-0.048806116
206	0x3ce8cef9	0.028419005
207	0xbdb0b74d	-0.08628712
208	0xbcef7701	-0.02923155
209	0xbd106e6b	-0.035261553
210	0xbc020e83	-0.00793803
211	0xbc10a576	-0.008828511
212	0xbd89f9fb	-0.06737133
213	0xbd562a9d	-0.052286733
214	0x3d333eba	0.043760993
215	0xbc3b6ad4	-0.011439044
216	0x3c476176	0.012169233
217	0xbd91553b	-0.070963345
218	0x3d019060	0.031631827
219	0xbd30c7f6	-0.043159448
220	0xbdeb4b89	-0.114890166
221	0xbd7a8f66	-0.06117191
222	0xbdc8d2c2	-0.09805824
223	0xbddc68ec	-0.107622
224	0xbdc21c0d	-0.094780065
225	0xbd8c0963	-0.06837728
226	0xbdcbc0b1	-0.09948862
227	0xbcd3f8c0	-0.02587545
228	0xbe05d505	-0.13069542
229	0xbc590fa0	-0.013248354
230	0x3d388e9f	0.04505789
231	0x3ca26dc1	0.019827725
232	0xbbcf0773	-0.0063180267
233	0xbd864bba	-0.065574124
234	0x3d1ae14a	0.03781251
235	0x3d804b76	0.06264393
236	0x3d981982	0.0742674
237	0x3c29bde0	0.010360211
238	0x3ce3b166	0.027794551
239	0x3dbf5abf	0.0934348
240	0x3d31069c	0.043219194
241	0xbcc8a158	-0.024490997
242	0xbe0bbf8a	-0.13647285
243	0xbcc58d3a	-0.024115194
244	0xbcd53f29	-0.026031094
245	0x3a01c0a2	0.0004949664
246	0xbe038c96	-0.12846598
247	0xbd2be483	-0.041965973
248	0xbda2f126	-0.07956152
249	0xbda05f18	-0.07830638
250	0x39aced14	0.00032983033
251	0xbdd94306	-0.10608487
252	0x3d217d7d	0.039426316
253	0x3d30d444	0.043171182
254	0xbd1b27d7	-0.03787979
255	0x3d3f5aa9	0.04671732

arch.conv.5.weight f4 [32]
0	0x3f83ca99	1.0296203
1	0x3f7a3011	0.97729594
2	0x3f83be1f	1.0292395
3	0x3f85c98e	1.0452135
4	0x3f6e70fd	0.93141156
5	0x3f83e690	1.0304737
6	0x3f7c3b62	0.9852811
7	0x3f701f99	0.93798214
8	0x3f7ee982	0.99575055
9	0x3f792400	0.97320557
10	0x3f83f40b	1.0308851
11	0x3f7d0185	0.98830444
12	0x3f728f1f	0.94749635
13	0x3f6aa41f	0.9165668
14	0x3f7a88ee	0.9786519
15	0x3f6efae3	0.9335157
16	0x3f71c320	0.9443836
17	0x3f83109e	1.0239446
18	0x3f76a3ce	0.96343696
19	0x3f7fe7d6	0.9996313
20	0x3f78af4b	0.97142476
21	0x3f86e386	1.0538185
22	0x3f70bd22	0.94038594
23	0x3f841757	1.0319623
24	0x3f732185	0.9497302
25	0x3f75e46d	0.96051675
26	0x3f822dd1	1.0170232
27	0x3f8af6a3	1.0856518
28	0x3f840f91	1.031725
29	0x3f834f85	1.0258642
30	0x3f73e51d	0.95271474
31	0x3f848206	1.035218

arch.conv.5.bias f4 [32]
0	0x3c951f2a	0.018203337
1	0xbacd77f9	-0.0015676013
2	0xbc687d05	-0.014189963
3	0xbd84beb8	-0.06481689
4	0xbc6b8009	-0.014373788
5	0xbc85c22a	-0.016327936
6	0x3d0c3de0	0.034238696
7	0x3b0e124e	0.002167839
8	0xbd34feef	-0.044188436
9	0xbcf9bb4a	-0.030484814
10	0xbc8c55bd	-0.017130727
11	0xbcff07ee	-0.03113171
12	0x3ceb10d1	0.028694542
13	0x3d022616	0.031774603
14	0xbca34c8e	-0.019933965
15	0xbce678b6	-0.028133731
16	0xbc24d775	-0.010061135
17	0xbe05fde6	-0.13085136
18	0xbc8b6e71	-0.017020436
19	0xbbd8e13f	-0.0066186483
20	0x3ce94182	0.02847362
21	0xbd3d16b5	-0.046164233
22	0xbc1232bd	-0.00892323
23	0xbce7a7b8	-0.028278217
24	0x3d22625c	0.039644584
25	0xbd40f946	-0.047112726
26	0xbcddd91f	-0.02708107
27	0xbd1f72dc	-0.038927898
28	0xbd390f30	-0.0451805
29	0xbd818725	-0.06324605
30	0x3d830ddc	0.06399128
31	0xbc949fcc	-0.018142603

arch.conv.5.running_mean f4 [32]
0	0x3e397f89	0.18115057
1	0xbf79376a	-0.9735018
2	0xbd88cee2	-0.06680085
3	0xbce93832	-0.028469179
4	0x3dee526d	0.11636815
5	0xbf38f395	-0.72246677
6	0x3e88b103	0.2669755
7	0xbfbd990b	-1.481233
8	0xbfa4f002	-1.2885745
9	0x3fa71625	1.3053633
10	0x3f441cc0	0.7660637
11	0xbed7b2f3	-0.42128715
12	0x3e9e197c	0.30878818
13	0x3ea14c2f	0.31503436
14	0x3f094812	0.53625596
15	0x3fb4e0d5	1.4131113
16	0x3dbc59a5	0.09196786
17	0x3ebe9d96	0.37229604
18	0xbf5de406	-0.8667606
19	0x3fbf04ad	1.4923302
20	0x3f8b449b	1.0880312
21	0x3fac4658	1.3458967
22	0xbf93a2b7	-1.1534032
23	0x3fb2c476	1.3966205
24	0x3f420938	0.75795317
25	0xbfdca843	-1.7238849
26	0xbe83b1c5	-0.25721565
27	0x3f68957a	0.90853083
28	0xbf8914e0	-1.0709496
29	0x3f774e36	0.96603715
30	0x3fc16e7a	1.511184
31	0x3ff3680f	1.9016131

arch.conv.5.running_var f4 [32]
0	0x40150d3c	2.3289328
1	0x404e501f	3.2236402
2	0x400e97dd	2.228019
3	0x3fb69012	1.4262717
4	0x3fb8a462	1.4425166
5	0x4085894b	4.1730094
6	0x4002b952	2.042561
7	0x4078a467	3.8850343
8	0x40a3beac	5.1170254
9	0x3fd2de4f	1.6474093
10	0x40a9c7c9	5.305638
11	0x400fe45b	2.2483127
12	0x40016fa9	2.0224402
13	0x3fbf7f93	1.4960808
14	0x4009b4c0	2.151657
15	0x404ffa7f	3.249664
16	0x3fd2de9d	1.6474186
17	0x3f8e5ebe	1.1122663
18	0x401feefd	2.4989617
19	0x40447c4e	3.070087
20	0x40805e91	4.0115438
21	0x40731cd5	3.7986348
22	0x40524612	3.2855268
23	0x4012f18d	2.295993
24	0x3fa48d80	1.2855682
25	0x4070517f	3.7549741
26	0x3fdf682a	1.7453663
27	0x4037e4b5	2.8733342
28	0x404fb753	3.2455642
29	0x3fbd58d6	1.4792736
30	0x4001c15a	2.0274262
31	0x40d8fc76	6.780818

arch.transformer.1.attention.in_proj_weight f4 [96, 32]
0	0x3e9a20fa	0.30103284
1	0x3e00320f	0.12519096
2	0xbd6fae6f	-0.058515962
3	0x3e09faa7	0.13474523
4	0x3d36db8e	0.044642977
5	0x3e7158f0	0.23569083
6	0x3d050d55	0.032483418
7	0x3e8d58b0	0.27606726
8	0x3d81024e	0.06299268
9	0xbe1da8e0	-0.15396452
10	0xbe335879	-0.17514218
11	0x3e81955e	0.2530927
12	0x3e4762be	0.19471261
13	0x3e0eb28d	0.13935299
14	0xbe041b46	-0.12901029
15	0x3e3504f9	0.17677678
16	0x3e13afa6	0.14422473
17	0xbe389067	-0.18023835
18	0x3ddb0c99	0.10695762
19	0x3e86ffdc	0.2636708
20	0xbe633b65	-0.22190626
21	0x3d01227a	0.03152702
22	0x3e0f1dc5	0.139762
23	0xbd31e5e9	-0.04343215
24	0x3dd2f271	0.10300148
25	0x3e8ac544	0.27103627
26	0x3e3f5e24	0.18688256
27	0xbe28f272	-0.16498736
28	0x3d19126e	0.03737109
29	0x3e641ec7	0.22277366
30	0x3e5cfbae	0.21580383
31	0xbd642dc4	-0.055707708
32	0x3e3d7e2d	0.18505163
33	0x3e4f1489	0.20222677
34	0x3cc6dcc3	0.02427519
35	0x3e5061e2	0.2034984
36	0x3df89c49	0.12139184
37	0xbca48c63	-0.020086473
38	0xbda174af	-0.07883584
39	0xbcd35026	-0.025795054
40	0xbe14b45a	-0.14521924
41	0xbda0dcf1	-0.07854641
42	0x3e18178c	0.14852732
43	0x3e4201ff	0.18946074
44	0xbe0acfe8	-0.13555872
45	0x3e0a9505	0.13533409
46	0x3dba04da	0.090829566
47	0x3e29fab9	0.1659955
48	0xbe72affe	-0.23699948
49	0x3e5dfb05	0.21677788
50	0x3dab8c44	0.08376363
51	0x3e00274f	0.12514995
52	0x3d195518	0.037434667
53	0xbe4eac6a	-0.20182958
54	0x3e016d2e	0.12639305
55	0x3de645c5	0.11243776
56	0xbda03185	-0.07821945
57	0xbc57fa10	-0.013182178
58	0x3e52cdf0	0.20586371
59	0x3d0b8959	0.03406653
60	0xbd8f1ca7	-0.06987887
61	0x3de4dcd8	0.11174935
62	0x3c83439d	0.016023451
63	0xbd8dd462	-0.069252744
64	0x3e41975d	0.18905397
65	0x3e6b28f2	0.22964838
66	0xbb53b71f	-0.0032305194
67	0xbdcece16	-0.100979015
68	0xbdf2bbd9	-0.11852235
69	0xbe11d00e	-0.14239523
70	0x3e007c02	0.12547305
71	0x3dc3ebd5	0.09566466
72	0xbda136d9	-0.078717895
73	0x3d67beac	0.056578323
74	0xbb39c48d	-0.0028345913
75	0xbc09767d	-0.008390066
76	0xbcc41fd0	-0.02394095
77	0xbe1554ae	-0.14583084
78	0xbe679514	-0.22615463
79	0x3e1e2cc7	0.15446769
80	0xbd24cda6	-0.040235184
81	0xbd17452e	-0.03693121
82	0xbe059b86	-0.13047609
83	0xbe03fcf7	-0.12889467
84	0xbdb83bde	-0.08995794
85	0x3c8d1d6b	0.017225942
86	0xbe4ccc26	-0.19999751
87	0xbd842373	-0.06452074
88	0xbe163815	-0.14669831
89	0xbe5e8abb	-0.21732609
90	0xbd38b070	-0.04509014
91	0xbd3da125	-0.046296258
92	0xbd938538	-0.07203144
93	0x3dbe4acb	0.092916094
94	0x3d562e97	0.052290525
95	0x3d6fc806	0.058540367
96	0x3d1e5109	0.0386515
97	0xbbf860e8	-0.0075799115
98	0xbe751d7d	-0.2393703
99	0xbdad5e68	-0.08465272
100	0x3e45d9bf	0.19321345
101	0x3e322ec9	0.1740066
102	0x3d3301f3	0.04370303
103	0x3e466234	0.19373399
104	0xbe311946	-0.17294797
105	0xbd2b8336	-0.04187318
106	0x3da2fb08	0.07958037
107	0xbd4d2626	-0.05008521
108	0x3db854a8	0.09000522
109	0xbea944a4	-0.3306018
110	0x3d836b69	0.06416971
111	0x3e302e92	0.17205265
112	0xbde1f4f8	-0.11033052
113	0x3e37844f	0.17921565
114	0xbdd3d82b	-0.10343965
115	0x3dc5b834	0.096542746
116	0xbde78a2f	-0.11305653
117	0x3d7dbc6c	0.06194727
118	0x3d028822	0.031868108
119	0x3df399b3	0.1189455
120	0xbde869a7	-0.113482766
121	0x3b57a6db	0.003290585
122	0xbdf148e8	-0.11781484
123	0x3d8fb491	0.07016862
124	0x3e834ea7	0.25645944
125	0xbe38c457	-0.18043648
126	0xbdbb1b06	-0.09136014
127	0x3db74463	0.089485906
128	0x3dee0fa2	0.116240755
129	0x3d2009b8	0.03907177
130	0x3e066aed	0.13126726
131	0xbc6fd4bd	-0.014638123
132	0xbdac023e	-0.08398865
133	0xbe8c3385	-0.27383056
134	0xbe1da069	-0.15393223
135	0xbe54faa3	-0.20798735
136	0x3e2ae61c	0.16689342
137	0x3e2ba2ff	0.16761397
138	0x3e87cc2f	0.26522967
139	0x3e1e3e97	0.15453564
140	0x3d2af79d	0.04174005
141	0x3e5fb200	0.21845245
142	0x3c16726f	0.0091825565
143	0xbdb4f1f7	-0.08835214
144	0xbddd3e28	-0.10802871
145	0xbe4d6c42	-0.20060828
146	0x3dd05e12	0.101741925
147	0xbb1c8b3b	-0.0023886699
148	0x3e544cc5	0.2073241
149	0xbd295a2e	-0.041345768
150	0x3dcf43e6	0.101203725
151	0x3d840164	0.06445578
152	0xbcdca8cf	-0.026935963
153	0xbd483b38	-0.0488846
154	0x3ddbbcd5	0.10729376
155	0xbd065ed3	-0.032805275
156	0x3dedca68	0.116108716
157	0x3c53a33a	0.012917334
158	0xbda4e38b	-0.08051213
159	0xbda88dbd	-0.082301594
160	0xbdc40099	-0.095704265
161	0x3de852a8	0.113438904
162	0x3e2951ec	0.16535157
163	0xbdf310cf	-0.1186844
164	0xbe73f3fb	-0.2382354
165	0x3d021f9e	0.031768434
166	0x3d6182ab	0.055056255
167	0xbe30fb1f	-0.17283295
168	0x3daee771	0.08540238
169	0xbd5bec2f	-0.05369204
170	0x3e3d380f	0.18478416
171	0x3d683f04	0.05670072
172	0xbdc5f6de	-0.09666227
173	0x3d1b539b	0.03792153
174	0xbe424df8	-0.18975055
175	0x3dd3aec4	0.10336068
176	0x3ce8f1a5	0.028435538
177	0x3da98cd0	0.08278811
178	0xbe3b242f	-0.18275522
179	0xbe22dad7	-0.15903793
180	0xbe0181df	-0.12647198
181	0xbe43f893	-0.19137792
182	0xbe8a6777	-0.27032062
183	0xbe46c6c5	-0.19411762
184	0x3e2135ec	0.15743226
185	0xbded9c3a	-0.116020635
186	0xbd9ad197	-0.07559507
187	0x3d8822a4	0.06647232
188	0xba4b2d5a	-0.00077505934
189	0x3dc3845d	0.09546731
190	0xbdf01b1e	-0.11723922
191	0x3e267614	0.1625598
192	0xbd1f7af5	-0.03893562
193	0xbe1d6321	-0.15369846
194	0x3e5a7446	0.21333417
195	0xbe5870bf	-0.21136759
196	0xbe26f3dc	-0.16303962
197	0x3d3eef16	0.04661473
198	0x3e240f55	0.16021474
199	0xbd4f408c	-0.050598666
200	0x3d044a96	0.032297693
201	0xbda3e666	-0.080029294
202	0x3e3ecfdc	0.1863398
203	0x3e07eafd	0.13273235
204	0x3d6469cc	0.05576496
205	0x3eb3b0ac	0.35095727
206	0xbe938522	-0.2881251
207	0xbde79ec8	-0.11309582
208	0xbe1a904c	-0.15094107
209	0xbdddcec5	-0.10830454
210	0xbe56390a	-0.20920196
211	0x3e0dc115	0.13843186
212	0x3e1a93b8	0.15095413
213	0x3debaf33	0.11508026
214	0xbe2f8b57	-0.17142998
215	0xbda4d4f3	-0.08048429
216	0xbe131440	-0.14363194
217	0xbe13b67d	-0.14425083
218	0x3e5645ff	0.20925139
219	0xbcc4c008	-0.024017349
220	0x3da2121c	0.0791361
221	0xbe96e2da	-0.2946995
222	0x3d5dd7c1	0.054160837
223	0x3dd9c4ed	0.10633264
224	0xbd5d4b22	-0.05402673
225	0x3e4e552d	0.2014968
226	0x3e331ea9	0.17492165
227	0xbda637e9	-0.08116133
228	0xbe103fa4	-0.14086777
229	0x3d56a86e	0.05240672
230	0xbe506760	-0.20351934
231	0xbcf1d14f	-0.029518751
232	0x3dfe39f5	0.12413398
233	0xbd3838d5	-0.044976074
234	0xbd3e3908	-0.046441108
235	0x3b496a8e	0.0030733678
236	0x3e08858a	0.13332191
237	0x3e9508fa	0.2910841
238	0x3ddeb966	0.10875206
239	0xbdb437f6	-0.08799736
240	0xbdc1d47b	-0.094643556
241	0x3e0127a1	0.12612773
242	0x3e04b1d0	0.12958455
243	0x3cafdc95	0.021467486
244	0x3d8ee314	0.069769055
245	0xbc6369af	-0.013880177
246	0x3d8c16e4	0.068403035
247	0x3e35489b	0.17703478
248	0x3e1b91fd	0.15192409
249	0xbdd5a35b	-0.10431548
250	0xbe1a2a91	-0.150553
251	0x3da1f899	0.07908744
252	0x3e3a0549	0.18166079
253	0xbcbd5f30	-0.023116678
254	0x3e51a877	0.2047442
255	0xbce6142b	-0.028085789

arch.transformer.1.attention.in_proj_bias f4 [96]
0	0x3d60e358	0.054904312
1	0x3cc65a4f	0.024212984
2	0xbd35db20	-0.044398427
3	0x3d0d2c12	0.034465857
4	0xbd2c2d18	-0.042035192
5	0xbd428830	-0.04749316
6	0xbda7015c	-0.08154556
7	0x3d0962b0	0.03354138
8	0x3d4e900d	0.050430346
9	0x3da7a962	0.08186604
10	0xbd813c94	-0.063103825
11	0x3c92e6c9	0.017932313
12	0x3d249ecd	0.040190507
13	0xbda3d9e3	-0.08000543
14	0xbdc4122d	-0.09573779
15	0xbdd64756	-0.10462825
16	0x3c70d32d	0.014698786
17	0xbdd2f246	-0.10300116
18	0x3ded3ec8	0.1158424
19	0xbd677841	-0.056511167
20	0x3d953688	0.07285792
21	0xbd3cdfde	-0.046111934
22	0xbb82df09	-0.003993873
23	0xbe09242a	-0.13392702
24	0x3d259dd9	0.04043374
25	0x3da0c084	0.078492194
26	0x3be13894	0.0068731997
27	0xbdfb3ff3	-0.12268057
28	0xbd2f9ddb	-0.042875152
29	0x3de492d3	0.11160817
30	0xbd86431d	-0.065557696
31	0x3dd8946a	0.10575183
32	0xbab2a2e4	-0.0013628867
33	0x3a6fdf7d	0.0009150429
34	0xb8dd0084	-0.00010538197
35	0x3a6ea921	0.00091041817
36	0x3aa05d78	0.0012234887
37	0x3b1aaef1	0.0023602808
38	0xb8e60b76	-0.000109693894
39	0xb9e7b7c3	-0.00044196667
40	0xb9c3c326	-0.00037338695
41	0xb8de07cd	-0.00010587238
42	0x3a7b1089	0.0009577354
43	0xba84a008	-0.0010118494
44	0x3b3062dd	0.0026914396
45	0xbb25ed95	-0.0025318612
46	0xbb36b54f	-0.0027879064
47	0x39fe7520	0.0004853392
48	0xba045a88	-0.00050488906
49	0x3882b7d7	6.233126e-05
50	0x3a1f8f5c	0.0006086731
51	0xba52070c	-0.00080119143
52	0xb9694433	-0.00022246018
53	0x39986824	0.0002906929
54	0x3aa4ce30	0.0012573656
55	0x3a1c771a	0.0005968675
56	0xbad6ecb5	-0.0016397448
57	0xbb92fb7b	-0.004485545
58	0x3b648070	0.0034866594
59	0xb8a15f86	-7.694871e-05
60	0x3a8007b4	0.0009767921
61	0x3b25d823	0.002530583
62	0xbb88568c	-0.004160708
63	0x3a296c99	0.00064630207
64	0x3c7b91c8	0.015354581
65	0x3cbc2353	0.022966063
66	0x3b9b5f87	0.0047416124
67	0xbcece065	-0.028915593
68	0x3c63945a	0.01389035
69	0x3c628d66	0.013827657
70	0x3d2dea95	0.042460043
71	0x3a90b24d	0.0011039466
72	0xbcadc75e	-0.02121323
73	0x3a14ddaf	0.00056787854
74	0xbceb1a8d	-0.028699184
75	0xbbad42cf	-0.005287505
76	0x3cf249f1	0.029576274
77	0xbd85e348	-0.06537491
78	0x3c992133	0.018692588
79	0x3c862abd	0.016377801
80	0x3bc9586f	0.0061445753
81	0xbc2f7e30	-0.010711238
82	0x3b031b76	0.0020005382
83	0xbba8876d	-0.005143097
84	0xbd3e6856	-0.04648622
85	0x3c63d08b	0.013904701
86	0x3bee3872	0.0072699124
87	0xbcff48cc	-0.031162642
88	0x3ca07538	0.019587144
89	0xbcc4ec95	-0.024038592
90	0xbca4780a	-0.02007677
91	0x3b9c0859	0.0047617373
92	0x3afff624	0.0019528312
93	0xbcc625a5	-0.024187872
94	0x3d01c432	0.031681247
95	0x3c656167	0.014000273

arch.transformer.1.attention.out_proj.weight f4 [32, 32]
0	0xbd69c393	-0.05707128
1	0x3dae30b6	0.085053846
2	0x3e1dfb75	0.15427954
3	0x3d976d0c	0.07393846
4	0x3b60d3c4	0.003430591
5	0xbe03548f	-0.12825225
6	0xbe1f7325	-0.15571268
7	0xba77eb2a	-0.00094573444
8	0xbd131ca8	-0.035916
9	0xbddff5ad	-0.10935531
10	0xbd140286	-0.03613522
11	0xbc7990c0	-0.015232265
12	0x3c23ba5d	0.009993163
13	0xbdde54f0	-0.10856044
14	0x3adbf140	0.0016780272
15	0xbe0b2fa7	-0.13592397
16	0x3db94b5b	0.09047576
17	0xbe3b82ff	-0.1831169
18	0xbcfec75f	-0.031100927
19	0x3c9335a0	0.017969906
20	0xbda6a100	-0.08136177
21	0xbd0e0e26	-0.03468146
22	0x3e11f9ed	0.14255495
23	0xbb044879	-0.0020184799
24	0x3d7143cc	0.058902547
25	0x3d01106f	0.031509813
26	0xbde94ef4	-0.11392012
27	0xbd9cba16	-0.076526806
28	0x3d8452cf	0.06461107
29	0x3ce8ed7d	0.028433556
30	0x3daad076	0.08340542
31	0xbd13adad	-0.036054302
32	0x3e1b9f6a	0.1519753
33	0x3dc14b0c	0.09438142
34	0xbd6be9e7	-0.057596114
35	0xbdfe9f7b	-0.12432762
36	0x3d9ed0db	0.0775468
37	0xbe28ee3a	-0.16497126
38	0xbdf65f88	-0.1202994
39	0x3d159ce5	0.03652658
40	0xbd369001	-0.044570927
41	0x3e3f1279	0.1865939
42	0xbd88a275	-0.06671611
43	0x3e19b0b7	0.15008818
44	0xbe021519	-0.1270336
45	0xbdb6232e	-0.08893429
46	0x3daaf412	0.08347334
47	0xbdb6bfd0	-0.08923304
48	0x3cef6c5a	0.02922647
49	0x3b30b718	0.00269646
50	0xbd63af1f	-0.05558693
51	0xbcb3b582	-0.021937136
52	0x3dbd4561	0.092417486
53	0x3d8b9466	0.06815414
54	0x3e06dff2	0.13171366
55	0x3c97fdf9	0.01855372
56	0x3dcce975	0.10005466
57	0x3d2528dc	0.04032217
58	0xbca7436e	-0.020417895
59	0xbc6aa158	-0.014320694
60	0xbd9995c9	-0.074992724
61	0x3ba2558c	0.0049540456
62	0xbd4e58d2	-0.050377674
63	0x3dd9d404	0.10636142
64	0xbd24cbed	-0.04023354
65	0xbde890e0	-0.11355758
66	0x3dd20113	0.10254111
67	0xbdb95ce2	-0.09050919
68	0x3da4a158	0.080385864
69	0x3ded3358	0.11582059
70	0x3c9da845	0.019245276
71	0xbcbdb3b3	-0.023156976
72	0xbd3ebc30	-0.04656619
73	0xbcdd20c0	-0.026993155
74	0xbe135ec6	-0.14391622
75	0xbc89f1dd	-0.016838962
76	0xbd72d69f	-0.05928671
77	0xbe057a50	-0.1303494
78	0xbded9c31	-0.11602057
79	0xbd657d9e	-0.056028
80	0x3ded8742	0.11598064
81	0x3de15bc8	0.11003834
82	0xbddc858b	-0.10767659
83	0xbdf313f1	-0.11869038
84	0x3e1bf6e9	0.15230907
85	0x3d2554e1	0.04036415
86	0x3dec80da	0.11548014
87	0x3c8ba39e	0.017045792
88	0x3b83b51a	0.0040193917
89	0xbdd71da0	-0.105036974
90	0x3da89990	0.08232415
91	0xbe2d9cf0	-0.16954398
92	0xbde0093f	-0.109392636
93	0x3da5fed1	0.08105243
94	0xbcac6ee5	-0.021048972
95	0x3c891b1c	0.01673656
96	0x3d0139d1	0.03154928
97	0xbdc4719f	-0.09591984
98	0xbdc633e1	-0.09677864
99	0xbdc84c13	-0.09780135
100	0xbe0cb58a	-0.13741127
101	0xbc15103f	-0.009098112
102	0x3dc9faa7	0.09862261
103	0x3d2b7908	0.04186347
104	0x3daa0ff3	0.08303823
105	0xbd98d2e0	-0.07462096
106	0xbd2fed40	-0.04295087
107	0xbdcb9247	-0.099400096
108	0xbd816d32	-0.063196555
109	0x3d4cf15a	0.05003486
110	0xbd883bf2	-0.06652059
111	0x3e1b779d	0.15182348
112	0x3cadf9ab	0.021237215
113	0x3d898c47	0.06716209
114	0x3e211c9f	0.15733574
115	0x3c6840b1	0.01417558
116	0xbd06012e	-0.03271597
117	0x3db917c6	0.090377375
118	0x3e583dbd	0.21117301
119	0xbe3f2ed9	-0.18670215
120	0xbd9a83f6	-0.07544701
121	0x3d8c6956	0.06856029
122	0xbb43f61d	-0.0029901334
123	0xbe350a4b	-0.17679708
124	0xbdf8994f	-0.12138616
125	0xbdf77cca	-0.120843485
126	0x3cef8361	0.029237451
127	0x3da22810	0.079177976
128	0xbd249110	-0.040177405
129	0xbe32f554	-0.17476398
130	0x3b3c19c6	0.0028701886
131	0x3da81798	0.08207625
132	0xbdba85c4	-0.09107545
133	0x3d9c2280	0.07623768
134	0xbdcea2a2	-0.100896135
135	0x3dbf5b68	0.09343606
136	0x3e1bbcba	0.15208712
137	0x3e34d54c	0.17659491
138	0xbc34122a	-0.010990659
139	0x3e4afa38	0.19822013
140	0x3a349942	0.0006889292
141	0xbe25460f	-0.16140006
142	0x3e02f60d	0.12789173
143	0x3e2615dd	0.16219278
144	0x3d30be8d	0.043150473
145	0x3df57e57	0.11986988
146	0x3daf2c11	0.08553327
147	0x3b4f2e1b	0.0031613174
148	0x3dc13979	0.0943479
149	0xbdd48df6	-0.103786394
150	0xbb5cfbc6	-0.0033719405
151	0xbd376b8e	-0.044780307
152	0xbc398349	-0.011322805
153	0xbdfcbbd8	-0.12340516
154	0x3dc5933e	0.09647225
155	0x3c27a43f	0.01023203
156	0xbbae7299	-0.0053237197
157	0xbcdc6e28	-0.026907995
158	0xbe0d07fd	-0.13772579
159	0xbcb5496b	-0.022129735
160	0xbe32d12b	-0.17462604
161	0xb9f76673	-0.00047187842
162	0x3c82d0ea	0.015968759
163	0x3cb09ead	0.021560038
164	0xbdffc1a9	-0.124881096
165	0x3d4bc0c9	0.0497444
166	0xbd9851f4	-0.07437506
167	0xbd42a866	-0.04752388
168	0xbdea953c	-0.114542454
169	0xbd0a1639	-0.0337126
170	0xbbf3a858	-0.0074358396
171	0x3d8dbb96	0.06920545
172	0x3e0ec4b7	0.13942228
173	0x3e2bf036	0.16790852
174	0x3e17b59a	0.14815369
175	0x3d8ddcae	0.06926857
176	0x3d479512	0.04872615
177	0x3dfdc071	0.12390221
178	0xbdf1e54e	-0.118113145
179	0xbc0aacfd	-0.008464095
180	0x3d2cfeca	0.042235173
181	0xbd3afa9d	-0.04564916
182	0xbc38fc24	-0.011290584
183	0x3e20b274	0.15693074
184	0x3d5fcaf1	0.0546369
185	0xbd385770	-0.045005262
186	0xbdbc5d39	-0.09197468
187	0xbdb4b941	-0.08824397
188	0x3dacaa36	0.08430903
189	0xbe149a48	-0.14511979
190	0xbe05f965	-0.13083418
191	0xbdf90dee	-0.1216086
192	0x3d59c325	0.05316462
193	0x3e0df728	0.13863814
194	0x3d48f6e9	0.049063597
195	0x3ddcbdcf	0.107783906
196	0xbe1f8b13	-0.15580396
197	0xbe3fdec8	-0.18737328
198	0xbe0f6b9b	-0.14005892
199	0xbe3568ca	-0.17715755
200	0xbdb3f42f	-0.08786809
201	0xbe7fb054	-0.24969608
202	0xbd4b6c46	-0.049663804
203	0xbe373ff9	-0.17895497
204	0x3dac4c23	0.084129594
205	0xbcbbac8d	-0.022909427
206	0xbc6c3c38	-0.014418654
207	0x3dceb556	0.10093181
208	0xbd930457	-0.07178562
209	0xbdd0a263	-0.10187223
210	0xbdce1b19	-0.10063762
211	0xbd99f87d	-0.075180985
212	0x3dc18556	0.0944926
213	0xbdce8617	-0.10084169
214	0x3d941eb9	0.072324224
215	0x3dc16d6c	0.09444699
216	0x3d986f1c	0.074430674
217	0xbd256884	-0.040382877
218	0x3dfc0dd9	0.12307329
219	0xbdec99ec	-0.11552796
220	0xbb98c13b	-0.0046617067
221	0x3e01b1d7	0.12665497
222	0x3e45dbf5	0.19322188
223	0x3d672485	0.056431312
224	0xbd0c1019	-0.03419504
225	0xbc893086	-0.01674677
226	0xbe256b51	-0.16154219
227	0x3d30d05e	0.043167464
228	0xbe12850f	-0.1430857
229	0x3c69d8a1	0.01427284
230	0xbd5e3a0d	-0.05425458
231	0x3dfc6bb0	0.12325227
232	0xbd9e6cef	-0.07735621
233	0x3e52cbdb	0.20585577
234	0xbd9326f2	-0.071851626
235	0xbc557075	-0.0130273
236	0xbe1ff600	-0.15621185
237	0x3e227d8a	0.15868202
238	0x3ceaf703	0.028682237
239	0xbe1b1db6	-0.15148053
240	0xbd1a3a1e	-0.03765308
241	0x3d89e4c9	0.067330904
242	0xbbced2da	-0.0063117566
243	0x3d81614a	0.063173845
244	0x3dd92255	0.106022514
245	0x3b11c730	0.002224397
246	0x3e3d66e1	0.18496276
247	0x3e34109d	0.17584462
248	0xbdb5368c	-0.088482946
249	0xbc85f0b1	-0.016350122
250	0x3db8bae2	0.0902002
251	0xbd9b5765	-0.075850286
252	0x3decc4d7	0.11560982
253	0xbe36716f	-0.17816709
254	0xbde1f6dd	-0.110334136
255	0x3d31c95f	0.043404933

arch.transformer.1.attention.out_proj.bias f4 [32]
0	0xbcc32bf9	-0.023824679
1	0x3c5c0819	0.013429665
2	0xbcdda585	-0.027056465
3	0xbc8f7571	-0.017512055
4	0xbcc2a715	-0.023761312
5	0xbca9d6ee	-0.02073237
6	0x3d01e07d	0.03170823
7	0xbc6cd9ee	-0.014456255
8	0x3d387437	0.045032706
9	0x3d44a6d9	0.04801068
10	0x3c7d2f31	0.015453146
11	0x3cbd8a65	0.02313728
12	0x3c79ca5a	0.015245998
13	0x3c6d05c7	0.014466709
14	0xbd26c5ca	-0.04071597
15	0x3c9d8d8f	0.01923254
16	0xbbea63e6	-0.007153022
17	0x3b07cafe	0.0020720358
18	0xbc053e6c	-0.008132558
19	0x3d041a17	0.032251444
20	0x3c3259f9	0.010885709
21	0x3d40df26	0.04708781
22	0xbc898c20	-0.01679045
23	0xbc8dc8c6	-0.01730765
24	0x3bb1f24a	0.0054304944
25	0x3c575b88	0.013144381
26	0xbd1c3716	-0.03813847
27	0x3d0678d3	0.03283007
28	0x3ae08752	0.0017130172
29	0xbd082f39	-0.03324816
30	0x3d18de11	0.037321154
31	0xba4ab425	-0.0007732532

arch.transformer.1.mlp.0.weight f4 [2, 32]
0	0x3d0381ba	0.03210614
1	0x3d736cb0	0.059429824
2	0x3de846a2	0.11341597
3	0xbd89a67d	-0.06721208
4	0x3cff834d	0.031190539
5	0x3d410edd	0.047133315
6	0x3d71d266	0.059038542
7	0x3de44d59	0.111475654
8	0x3dd85c11	0.10564435
9	0x3c961b27	0.018323494
10	0x3e5bb973	0.21457462
11	0xbe179d81	-0.14806177
12	0xbd564629	-0.052313004
13	0x3d8a2fc5	0.067473926
14	0x3c432887	0.011911518
15	0xbd45370e	-0.048148207
16	0x3d9d1243	0.07669499
17	0xbe03c3bb	-0.12867634
18	0xbaa6fba8	-0.0012739794
19	0xbb88885e	-0.004166647
20	0x3d83bc61	0.06432415
21	0xbde728d1	-0.11287082
22	0x3d9bd541	0.07609034
23	0x3be47f3c	0.0069731753
24	0xbc5ee735	-0.013604929
25	0xbe200f49	-0.15630831
26	0xbd251586	-0.04030373
27	0x3d774428	0.060367733
28	0xbd46845d	-0.048466075
29	0xbd86258f	-0.065501325
30	0xbdd63c7d	-0.10460756
31	0x3d32b19b	0.04362641
32	0x3e25bcf6	0.16185364
33	0x3dc827c5	0.097732104
34	0x3acc6e12	0.0015596768
35	0xbe49bd54	-0.19701129
36	0xbdcaa6c6	-0.09895091
37	0xbd8371da	-0.064182
38	0xbe2c20c5	-0.16809376
39	0x3e0a7e74	0.135248
40	0x3dc368c7	0.09541469
41	0x3dc33a03	0.09532549
42	0xbe0913f4	-0.13386518
43	0xbd252440	-0.040317774
44	0xbc3b728f	-0.011440887
45	0x3c798af9	0.015230888
46	0xbcde9aa8	-0.027173355
47	0x3d8729f6	0.065998
48	0x3d0cf45b	0.034412723
49	0x3a07176a	0.000515333
50	0x3e205490	0.15657258
51	0xbe2ada10	-0.16684747
52	0xbe19fe95	-0.15038522
53	0xbcbbbf76	-0.022918444
54	0x3e50f13e	0.20404527
55	0x3e1d7117	0.15375172
56	0xbddbe97c	-0.10737893
57	0x3de15b43	0.11003735
58	0x3ddfad46	0.10921721
59	0xbd28f8cb	-0.041252892
60	0x3e0d4fe9	0.13800015
61	0x3d27e6fe	0.040991776
62	0xbd1a8ada	-0.037730075
63	0xbd3b5dee	-0.045743875

arch.transformer.1.mlp.0.bias f4 [2]
0	0xbe5a2540	-0.21303272
1	0xbe19b6d4	-0.1501115

arch.transformer.1.mlp.3.weight f4 [32, 2]
0	0xbdc3777a	-0.09544273
1	0xbeef381e	-0.46722502
2	0x3e7bb122	0.2457929
3	0x3e6468cf	0.22305606
4	0xbf2be814	-0.67151
5	0xbf1e6fd6	-0.618894
6	0x3eefbf19	0.46825483
7	0xbea9bb98	-0.33150935
8	0xbd8a7f8e	-0.067626104
9	0xbedb5241	-0.42836192
10	0xbe800418	-0.25003123
11	0x3eb07be2	0.34469515
12	0x3e71f778	0.23629558
13	0x3eab156a	0.33414775
14	0xbda045aa	-0.07825787
15	0xbf0a5700	-0.54039
16	0xbc7c5b58	-0.015402637
17	0x3ed0a624	0.40751755
18	0x3e670f3a	0.22564402
19	0x3e165354	0.14680225
20	0x3e1d3606	0.1535264
21	0x3efca398	0.49343562
22	0x3ec9fb06	0.39449328
23	0xbdba6057	-0.091004066
24	0xbeb120ce	-0.3459534
25	0x3f0b4809	0.5440679
26	0xbe943359	-0.28945425
27	0xbef214f4	-0.4728161
28	0x3e33a23a	0.17542353
29	0xbed9f2d7	-0.42568085
30	0xbf0e091f	-0.5548267
31	0xbf07dfc0	-0.5307579
32	0x3e0be416	0.13661227
33	0xbedb063c	-0.42778194
34	0x3f1e995c	0.6195276
35	0xbd3f43b0	-0.04669541
36	0xbeafb106	-0.34314746
37	0xbed9a51a	-0.42508775
38	0xbe35492d	-0.17703696
39	0x3f26f50e	0.65217674
40	0xbed80b1c	-0.42195976
41	0xbf24799c	-0.6424806
42	0x3e5efcca	0.21776119
43	0x3e7a9413	0.24470548
44	0xbf14fff6	-0.58203065
45	0xbeb6962b	-0.35661444
46	0x3f192761	0.5982571
47	0xbea19e3d	-0.3156604
48	0x3e9a41fe	0.30128473
49	0xbeb2b901	-0.34906772
50	0xbf1d3beb	-0.6141955
51	0xbf257dc5	-0.64645034
52	0x3ee99874	0.45624125
53	0x3e496c2c	0.1967017
54	0x3e4973a8	0.19673026
55	0x3e6e991f	0.23300599
56	0x3e795949	0.24350466
57	0x3f084ac2	0.5323907
58	0x3f0074ca	0.50178206
59	0x3f08974e	0.5335587
60	0x3e4ffd12	0.20311382
61	0x3e0bcc22	0.13652089
62	0x3e465a4a	0.1937038
63	0xbf0aeedd	-0.54270726

arch.transformer.1.mlp.3.bias f4 [32]
0	0x3e990ada	0.29891092
1	0x3e2e064d	0.16994591
2	0x3e807da0	0.25095844
3	0xbe3b141b	-0.18269388
4	0x3f082a4b	0.53189534
5	0xbbbc416f	-0.005745105
6	0xbdff6af7	-0.12471574
7	0xbd26f29a	-0.040758707
8	0xbe8f89db	-0.28034863
9	0xbd1eb5f9	-0.03874776
10	0x3f10bcfc	0.5653837
11	0x3e7922e4	0.24329716
12	0xbd31f444	-0.04344584
13	0x3d4a6482	0.049412258
14	0x3e0960e7	0.13415872
15	0xbea9435c	-0.33059204
16	0xbebcee9a	-0.3690079
17	0x3f18f0fc	0.5974271
18	0xbc045b76	-0.008078447
19	0x3e60bf91	0.21948077
20	0xbe9f9c60	-0.31173992
21	0xbef2e463	-0.4743987
22	0x3e0ae7d3	0.13564996
23	0x3ecae1ad	0.39625302
24	0xbf211e70	-0.6293707
25	0xbf300e93	-0.6877224
26	0xbe939b92	-0.28829628
27	0x3eee415c	0.4653424
28	0xbf15390b	-0.58290166
29	0x3f089cd4	0.533643
30	0x3f248da8	0.6427865
31	0xbda494eb	-0.08036216

arch.transformer.1.layernorm0.weight f4 [32]
0	0x3f7f3bfb	0.997009
1	0x3f769841	0.9632607
2	0x3f7166da	0.94297564
3	0x3f844632	1.0333922
4	0x3f833bfe	1.0252683
5	0x3f866d3d	1.0502087
6	0x3f866fbf	1.0502852
7	0x3f768864	0.96301866
8	0x3f8752f7	1.0572194
9	0x3f73f3fc	0.95294166
10	0x3f811424	1.0084271
11	0x3f83fde6	1.0311859
12	0x3f7b8d91	0.9826289
13	0x3f86ddf1	1.0536481
14	0x3f7980b1	0.9746199
15	0x3f8afcd7	1.0858411
16	0x3f84f281	1.0386506
17	0x3f8036b6	1.0016696
18	0x3f88e689	1.0695354
19	0x3f872c29	1.0560352
20	0x3f83e7d6	1.0305126
21	0x3f851ec1	1.040001
22	0x3f7099ae	0.93984497
23	0x3f81afe1	1.0131799
24	0x3f805f29	1.002904
25	0x3f7c18b4	0.98475194
26	0x3f8058f9	1.0027152
27	0x3f864176	1.0488727
28	0x3f869ac6	1.0515983
29	0x3f822615	1.0167872
30	0x3f724e4f	0.9465074
31	0x3f8398bf	1.028099

arch.transformer.1.layernorm0.bias f4 [32]
0	0xbcb04b06	-0.021520149
1	0xbc1e881a	-0.009676004
2	0xbd36d404	-0.044635788
3	0xbc1f0cc6	-0.009707635
4	0xbd1cf11a	-0.03831587
5	0xbd83e262	-0.064396635
6	0x3d56d536	0.052449428
7	0xbd00d68c	-0.031454608
8	0xbcbf23e3	-0.023332542
9	0x3d204dee	0.03913682
10	0x3c557a77	0.013029686
11	0x3cb9e679	0.022692906
12	0x3d365ea8	0.044523865
13	0x3c641c9e	0.0139228385
14	0xbd05b577	-0.03264376
15	0x3c8f400c	0.017486595
16	0x3b5b26cd	0.0033439875
17	0x3b3ba02c	0.0028629405
18	0xbcd3f609	-0.025874155
19	0x3d4b3fbc	0.04962133
20	0x3d163098	0.036667436
21	0x3d56e5f9	0.052465413
22	0xbc1a6112	-0.009422557
23	0x3c1289c8	0.008943982
24	0x3c821cd1	0.015882881
25	0x3c104b99	0.008807086
26	0xbd8b74de	-0.068094
27	0xbb33894c	-0.0027395068
28	0xbcc53ba7	-0.024076296
29	0xbc82742a	-0.015924532
30	0x3d228418	0.039676756
31	0x3c9f8858	0.019474193

arch.transformer.1.layernorm1.weight f4 [32]
0	0x3f8664bf	1.0499495
1	0x3f7efea7	0.9960732
2	0x3f78b2fc	0.9714811
3	0x3f8c813e	1.0976942
4	0x3f7f2465	0.9966491
5	0x3f8c9763	1.09837
6	0x3f84ea8e	1.038408
7	0x3f7b4e64	0.9816649
8	0x3f86597e	1.0496061
9	0x3f71c13e	0.9443549
10	0x3f795b4f	0.9740495
11	0x3f874315	1.0567347
12	0x3f80fa58	1.0076399
13	0x3f895dde	1.0731771
14	0x3f837acb	1.0271848
15	0x3f8d8a96	1.1057918
16	0x3f8afd64	1.0858579
17	0x3f807fa9	1.0038959
18	0x3f899819	1.0749542
19	0x3f846a29	1.0344898
20	0x3f84d3af	1.0377101
21	0x3f869c6c	1.0516486
22	0x3f701ee9	0.93797165
23	0x3f825e4a	1.0185025
24	0x3f7dc4fc	0.991287
25	0x3f7f9c85	0.99848205
26	0x3f83bc68	1.0291872
27	0x3f856f4f	1.0424594
28	0x3f83d97c	1.0300746
29	0x3f7f7a81	0.997963
30	0x3f772914	0.96547055
31	0x3f82f159	1.0229903

arch.transformer.1.layernorm1.bias f4 [32]
0	0x3c769d86	0.015052205
1	0x3c6a1244	0.014286581
2	0xbd0ccb63	-0.034373652
3	0x3c6f4539	0.014603906
4	0xbca8f472	-0.020624373
5	0xbd5dd9bf	-0.054162737
6	0x3c9a1a47	0.018811358
7	0xbc1f9bb2	-0.0097417105
8	0xbcad036c	-0.021119796
9	0x3d2c16c2	0.04201389
10	0xbafc18c3	-0.0019233454
11	0x3ca69afa	0.02033757
12	0x3cd702bb	0.02624642
13	0x3bb96f92	0.005659052
14	0xbca1af0e	-0.019736793
15	0xbcc4eb4c	-0.02403798
16	0xbad84ad7	-0.0016501796
17	0x3c32c27a	0.010910625
18	0xbb948164	-0.004532026
19	0x3cfe4549	0.031038897
20	0xbb5647cd	-0.0032696605
21	0xbb3908ee	-0.0028234082
22	0x3cceef0b	0.025260469
23	0x3bfe3b65	0.007758545
24	0xbcdad1c1	-0.026711347
25	0x3d06fb6b	0.032954615
26	0xbd9633d4	-0.07334104
27	0x3bbf6db0	0.005841933
28	0xbc47de8e	-0.012199057
29	0xbbff9043	-0.0077991798
30	0x3ce75618	0.028239295
31	0x3c3adcdd	0.011405197

arch.transformer.2.attention.in_proj_weight f4 [96, 32]
0	0x3e7bd7a3	0.24593978
1	0xbe2aadf3	-0.16667919
2	0x3e16dc48	0.14732468
3	0x3d2d9bd8	0.042384952
4	0x3e27eea6	0.16399631
5	0xbda2ba0a	-0.079456404
6	0x3e219a07	0.15781413
7	0xbde4ef22	-0.111784235
8	0xbe58fb4c	-0.21189612
9	0x3e6e9a47	0.2330104
10	0x3e040278	0.12891567
11	0x3e822d50	0.25425196
12	0x3d11a689	0.03555921
13	0xbcd44e30	-0.025916189
14	0xbdae99b3	-0.085254095
15	0x3e5855af	0.21126436
16	0xbe214ac8	-0.15751183
17	0xbdfaf4e8	-0.122537434
18	0xbe8c7888	-0.27435708
19	0xbe13837e	-0.14405629
20	0xbd6ee248	-0.058321267
21	0xbe664dce	-0.22490618
22	0x3e39dd37	0.18150793
23	0x3d42643e	0.04745888
24	0x3d8be1ab	0.06830152
25	0xbe4d5794	-0.2005294
26	0x3d071297	0.032976713
27	0x3e0e06cd	0.13869782
28	0xbd9f6f4f	-0.07784902
29	0x3e2831af	0.16425203
30	0xbd116a46	-0.03550174
31	0xbe10ecbe	-0.1415281
32	0xbe763e09	-0.24047102
33	0xbe0f2408	-0.13978589
34	0x3d782264	0.060579672
35	0xbe0067d4	-0.12539607
36	0xbd84d06a	-0.06485064
37	0xbe0afa17	-0.13571964
38	0xbe544ba4	-0.2073198
39	0xbe2c83b2	-0.16847113
40	0xbdc97bee	-0.09838091
41	0x3da24e13	0.07925048
42	0x3b95b830	0.004569076
43	0x3c89a19b	0.016800692
44	0xbd71b3eb	-0.059009474
45	0x3dcb7b75	0.09935657
46	0xbdaa1fc9	-0.08306844
47	0x3ba23bc7	0.0049509737
48	0xbc5815d1	-0.013188795
49	0xbdc0f255	-0.09421221
50	0x3e257d21	0.16161014
51	0x3e16e3af	0.14735292
52	0x3d116c94	0.03550394
53	0x3dc6287c	0.096756905
54	0x3d6946aa	0.056952156
55	0x3e210400	0.15724182
56	0xbe86a62c	-0.26298654
57	0x3e883dd2	0.26609665
58	0xbe5d6ca7	-0.21623479
59	0x3e4c2d66	0.19939193
60	0xbe2c67d3	-0.16836481
61	0xbdcb9bf8	-0.09941858
62	0x3d7332d2	0.059374638
63	0x3e78692c	0.2425887
64	0xbdd34128	-0.10315162
65	0x3dbae326	0.091253564
66	0xbe9160d8	-0.28394198
67	0xbd1c29a1	-0.038125638
68	0x3e500f92	0.2031844
69	0x3dd78486	0.10523324
70	0xbe4fa362	-0.2027717
71	0x3a1f0f39	0.0006067637
72	0x3e00fe7d	0.1259708
73	0xbd1acf53	-0.037795376
74	0x3e23be16	0.15990481
75	0xbe079560	-0.13240576
76	0x3ce45e03	0.02787686
77	0xbdd39c95	-0.103326
78	0x3c8b56e6	0.01700921
79	0xbbe3e3f7	-0.0069546658
80	0xbe7ad4d3	-0.24495248
81	0x3ebd0aa6	0.36922187
82	0xbd900838	-0.070328176
83	0x3e9c909e	0.30579084
84	0xbe1c6cda	-0.15275899
85	0xbdc5f7b3	-0.096663855
86	0x3d6d085f	0.05786931
87	0x3ea27f79	0.3173788
88	0x3cfd9ec6	0.030959498
89	0x3d80aba7	0.0628274
90	0xbe755a3b	-0.23960201
91	0xbc504ba2	-0.012713345
92	0xbeaee203	-0.34156808
93	0x3e4ef31a	0.20209923
94	0x3e93c05c	0.28857696
95	0x3d9e65ec	0.07734284
96	0xbd252aaf	-0.04032391
97	0x3e45b132	0.19305876
98	0x3e93a538	0.2883699
99	0x3d90d22c	0.07071337
100	0x3d04c311	0.032412592
101	0x3e48c0f7	0.1960486
102	0x3e7b18bd	0.24521156
103	0xbdbc60b2	-0.09198131
104	0xbdc38b2e	-0.09548031
105	0xbd147453	-0.036243748
106	0xbcfb9b19	-0.030713605
107	0xbd66e226	-0.056368016
108	0x3b232c8c	0.0024898378
109	0x3e0405ae	0.12892792
110	0xbdc3c237	-0.09558528
111	0x3e2ba15e	0.16760775
112	0x3e77f4b7	0.24214445
113	0x3d83d209	0.064365454
114	0x3e184e52	0.14873627
115	0xbe56d6f5	-0.20980437
116	0xbe318bc8	-0.17338479
117	0xbe31c5ff	-0.17360686
118	0x3d82a9d0	0.063800454
119	0x3d73a665	0.059484858
120	0xbbef40a0	-0.007301405
121	0x3e5ec79d	0.21755834
122	0x3e656efe	0.22405621
123	0xbe85bb4a	-0.26119453
124	0x3e213c6f	0.1574571
125	0xbe417290	-0.18891358
126	0xbe7c4a1c	-0.24637645
127	0x3bf25eb2	0.0073965425
128	0xbcc6d845	-0.024273047
129	0xbe17f02c	-0.14837712
130	0xbe71697b	-0.23575394
131	0x3e4b4ce5	0.19853552
132	0xbdf02367	-0.117255025
133	0x3e72027c	0.2363376
134	0xbe12aaca	-0.14322963
135	0x3e3cc6fe	0.18435284
136	0xbd77d66d	-0.060507227
137	0x3e32ad74	0.1744898
138	0x3deec258	0.11658162
139	0xbe020671	-0.1269777
140	0x3da47bdc	0.08031437
141	0x3d741aed	0.05959599
142	0xbe13cb85	-0.14433105
143	0xbe4f59c2	-0.20249084
144	0xbb9b8770	-0.00474637
145	0x3e348370	0.17628264
146	0x3e24c8eb	0.16092269
147	0xbcbaff1a	-0.02282672
148	0xbe8b4c4d	-0.2720665
149	0x3d3ecbda	0.046581127
150	0xbc2e9b1b	-0.010657097
151	0x3dc3fb5d	0.09569428
152	0x3ceca29a	0.028886128
153	0x3c08f70f	0.008359685
154	0x3dd81c43	0.105522655
155	0x3e492e95	0.19646676
156	0x3cddead6	0.027089518
157	0x3e7ac3e3	0.24488787
158	0x3e1117af	0.14169191
159	0xbe6abc20	-0.22923326
160	0x3e886e4b	0.26646647
161	0x3dd15dd4	0.102229744
162	0x3d3d46eb	0.04621021
163	0x3e8c74b0	0.27432775
164	0x3e2cf9a7	0.1689211
165	0xbc8770eb	-0.016533336
166	0x3dff967d	0.12479875
167	0xbcead08e	-0.0286639
168	0x3db295a3	0.08719947
169	0x3da5b214	0.08090606
170	0xbe75931c	-0.23981899
171	0xbe532286	-0.20618638
172	0x3e340f8e	0.17584059
173	0x3d27b162	0.04094065
174	0xbac87ce4	-0.0015296009
175	0x3e48e457	0.19618355
176	0x3e5d7237	0.21625601
177	0xbddd87e4	-0.10816935
178	0x3e888d26	0.26670188
179	0xbe6d915b	-0.2319998
180	0x3c9da5f6	0.019244175
181	0xbe945944	-0.28974354
182	0x3db6130d	0.088903524
183	0xbe5652b4	-0.20929986
184	0x3e9913cc	0.29897916
185	0x3e42d73a	0.19027415
186	0x3d07fb11	0.03319842
187	0xbe3f6459	-0.18690623
188	0x3e3681cc	0.17822951
189	0xbe4fc448	-0.20289719
190	0xbdb01088	-0.08596903
191	0xbd9cebc2	-0.07662155
192	0xbe3e3a65	-0.18576963
193	0x3e19746e	0.1498582
194	0x3d29792d	0.041375328
195	0xbdbd2b2b	-0.09236749
196	0x3c596ec7	0.01327104
197	0xbd57f025	-0.052719254
198	0xbd8597eb	-0.06523117
199	0x3caf5744	0.021403916
200	0xbdfd4ae7	-0.12367802
201	0xbd3d0d89	-0.046155486
202	0x3d2bafb3	0.041915607
203	0xbe11d95d	-0.14243074
204	0xbe324324	-0.17408425
205	0xbe14895a	-0.1450552
206	0x3e75a1e7	0.23987542
207	0xbe09cfce	-0.13458177
208	0x3de70d5c	0.11281845
209	0x3da3a7f8	0.07991022
210	0x3e1b9fea	0.15197721
211	0x3df74ebd	0.12075565
212	0xbe669137	-0.22516333
213	0x3dc3eb1e	0.095663294
214	0x3c6c0a48	0.014406748
215	0xbc4aa892	-0.012369292
216	0xbe27f6dc	-0.16402763
217	0x3dad72bd	0.0846915
218	0xbda0ae34	-0.078457266
219	0x3ea2367b	0.3168219
220	0xbe9b867b	-0.30376038
221	0x3eb2ca15	0.349198
222	0x3e4563aa	0.192763
223	0xbd43fdaf	-0.047849353
224	0xbe00de09	-0.125847
225	0x3de64f0d	0.112455465
226	0xbe3fb428	-0.18721068
227	0x3e4f5457	0.20247017
228	0xbd3e5d9f	-0.046476003
229	0x3db7cbf2	0.08974446
230	0xbd757da0	-0.05993426
231	0xbdce745e	-0.10080789
232	0xbe385d8e	-0.18004438
233	0xbd7be318	-0.06149587
234	0xbe303bc5	-0.172103
235	0xbd6c4bda	-0.057689525
236	0x3da7b2d9	0.08188409
237	0xbe2fd1e0	-0.17169905
238	0x3e1e5ca6	0.1546503
239	0xbe8647bd	-0.26226607
240	0xbe223969	-0.15842213
241	0x3e2a8eb4	0.16656
242	0xbdc31d3a	-0.09527059
243	0x3e696436	0.22792134
244	0xbe0002b7	-0.12501036
245	0x3c90de78	0.017684206
246	0x3e3dc0fa	0.18530646
247	0x3b8c804b	0.0042877547
248	0xbe81d7bf	-0.25359914
249	0xbca85887	-0.020550026
250	0xbcabb025	-0.020958016
251	0x3e3b7eda	0.18310109
252	0x3e1c9c3b	0.15293972
253	0xb96dc1ea	-0.0002267432
254	0x3d26fdde	0.04076945
255	0x3e53bb49	0.20676912
