checkpoints/teste2.pth (torch, 12361 bytes, 17 tensors)

block1.0.weight f4 [8, 1, 1, 64]
-0.1297782 -0.16246071 -0.26837772 -0.16069806 -0.0338281 -0.101153255 -0.17153287 -0.091073856
-0.09108021 -0.14818202 0.16275117 0.27576944 0.06256156 0.03245622 0.09366727 0.052811265
0.054873485 -0.0401173 -0.029961804 -0.093350045 -0.13881187 -0.07717482 0.12557825 0.0079958765
-0.0808647 -0.14111196 -0.015870271 -0.10254707 -0.050840396 -0.017117117 0.030161334 -0.038832556
0.06313225 0.074177064 0.10263832 0.02638343 -0.046034805 -0.056396633 -0.14289199 0.0052111717
-0.11890562 -0.017994443 -0.14067999 0.056919314 0.12035258 -0.03746224 -0.022745455 0.018903485
0.019261837 0.0149915535 -0.07640105 -0.021172533 -0.048956964 -0.036314968 -0.13175668 0.018055752
0.12702088 -0.1349569 -0.067673884 -0.039053217 -0.05830341 -0.0914061 -0.14977598 -0.20839705
0.11528329 0.02378306 0.070819035 -0.015506385 -0.039031204 0.0029192467 0.0062941546 0.065662876
0.13352163 0.07270757 0.056497373 0.15458097 0.12752469 0.010835806 -0.067260414 0.13496086
0.2042811 0.054515418 -0.011766851 -0.000720033 0.010158015 -0.03127293 -0.2795353 -0.1816274
-0.11236495 -0.16435243 -0.2822929 -0.2911332 -0.10519538 0.014723485 -0.10714774 -0.108043246
-0.16658661 0.11124858 0.103607915 0.006665676 0.043937266 0.07379564 0.11989388 0.18743524
-0.098284945 0.00045457057 0.17492028 0.0017448593 0.07377703 0.03779485 0.08182438 0.063194826
-0.043502558 -0.0592964 -0.034991145 0.07431244 -0.18551 -0.040620517 -0.12466019 0.025838941
-0.016008629 -0.012375432 -0.119951054 -0.087688796 0.09878823 -0.07846531 -0.04955499 -0.0033817082
0.25737202 0.19470246 -0.010117853 0.05472264 -0.061437145 -0.03797269 0.19401409 0.1257649
0.13644448 0.023267029 0.14884156 -0.0024951291 -0.226457 0.102951325 0.008862908 0.0051546423
-0.029034423 -0.08647136 -0.13668756 0.0054727052 0.12332321 0.049228847 0.21069208 0.06173505
0.12799293 -0.08172321 0.0002488497 -0.025989199 0.050742883 -0.06044306 -0.109473296 -0.12252221
-0.1236736 0.08328917 0.005460374 -0.0479404 -0.037120923 -0.091493465 -0.08146941 -0.124085166
-0.14790429 -0.1489022 0.1140715 -0.023375666 0.012597419 0.14217433 0.12869388 -0.045848574
0.12607644 0.21850151 -0.040733404 -0.009345886 -0.015956255 0.16205691 -0.05201776 -0.061207674
0.1394425 0.25811356 0.018607132 0.017571412 0.14680499 -0.1524965 -0.056792855 0.064518526
0.04759531 -0.017613059 0.19160919 -0.070588306 -0.10961457 -0.05227651 -0.06483414 -0.07441979
-0.08440354 -0.1328453 -0.0860532 0.06940648 0.0822716 0.016159086 0.09926954 0.1421311
0.06751848 0.20478302 0.06567738 0.002094358 -0.05495946 -0.027440911 0.06492441 -0.10437632
0.025790388 -0.066571735 -0.10200312 0.050833873 0.021704756 0.11467892 0.13888119 0.07321626
-0.033901084 0.0825304 0.078100584 -0.004617763 -0.08038866 -0.017788496 -0.18888249 0.032320455
0.010028536 0.022052173 -0.13410129 0.029058715 0.06525284 0.07388004 0.10855199 0.0294381
0.032510657 0.16108704 0.18823896 0.16579711 0.13476522 0.03656168 0.031138608 0.067585796
0.14777184 0.18698196 0.102866195 0.23521721 0.2924489 0.24504122 0.17950715 0.27639756
00000000: 94e4 04be 1a5c 26be ce68 89be 088e 24be
00000010: 558f 0abd 7029 cfbd 50a6 2fbe ee84 babd
00000020: 4388 babd 07bd 17be 3ea8 263e a731 8d3e
00000030: 4620 803d d0f0 043d a0d4 bf3d a050 583d
00000040: 05c3 603d 0a52 24bd 7572 f5bc 4f2e bfbd
00000050: b324 0ebe d50d 9ebd 9697 003e 2301 033c
00000060: 649c a5bd a77f 10be 5f02 82bc 3304 d2bd
00000070: 053e 50bd 3239 8cbc e714 f73c e30e 1fbd
00000080: 7b4b 813d 25ea 973d 0a34 d23d 1022 d83c
00000090: fe8e 3cbd 2800 67bd 4752 12be 7ac2 aa3b
000000a0: ca84 f3bd 1569 93bc 6a0e 10be 3a24 693d
000000b0: 6a7b f63d 0172 19bd ad54 babc 7bdb 9a3c
000000c0: 00cb 9d3c 229f 753c 2778 9cbd 0572 adbc
000000d0: 1987 48bd 01bf 14bd 39eb 06be a8e9 933c
000000e0: c311 023e 2432 0abe 9b98 8abd 44f6 1fbd
000000f0: 8ecf 6ebd 1f33 bbbd e05e 19be 0966 55be
00000100: a519 ec3d b1d4 c23c 9209 913d 7e0e 7ebc
00000110: 2fdf 1fbd d550 3f3b 323f ce3b 427a 863d
00000120: e5b9 083e b5e7 943d ca69 673d 794a 1e3e
00000130: d595 023e aa88 313c d4bf 89bd 2e33 0a3e
00000140: 112f 513e 8f4b 5f3d c0c9 40bc 99c0 3cba
00000150: ce6d 263c 0b18 00bd 401f 8fbe 88fc 39be
00000160: 981f e6bd 014c 28be b288 90be 690f 95be
00000170: ad70 d7bd c63a 713c 4670 dbbd c745 ddbd
00000180: ae95 2abe 4cd6 e33d 6330 d43d be6b da3b
00000190: 90f7 333d 2b22 973d ec8a f53d 06ef 3f3e
000001a0: 9e49 c9bd 6e53 ee39 4d1e 333e c3b3 e43a
000001b0: 6918 973d c6ce 1a3d 8a93 a73d 4a6c 813d
000001c0: bd2f 32bd c8e0 72bd e052 0fbd 1f31 983d
000001d0: 55f6 3dbe b361 26bd d74d ffbd 30ac d33c
000001e0: 8724 83bc 53c2 4abc e6a8 f5bd 2f96 b3bd
000001f0: 7c51 ca3d 6cb2 a0bd 2cfa 4abd a69f 5dbb
00000200: 44c6 833e 1560 473e 5ac5 25bc d924 603d
00000210: 84a5 7bbd 4089 1bbd a1ab 463e 84c8 003e
00000220: 1ab8 0b3e 7f9a be3c ec69 183e 5285 23bb
00000230: 58e4 67be 25d8 d23d bb35 113c 46e8 a83b
00000240: 99d9 edbc e517 b1bd d3f7 0bbe 6154 b33b
00000250: e190 fc3d 30a4 493d aabf 573e e4dd 7c3d
00000260: 9410 033e 805e a7bd 0b78 8239 4de7 d4bc
00000270: c5d7 4f3d 2493 77bd 8933 e0bd edec fabd
00000280: 9648 fdbd 8393 aa3d f0ec b23b 275d 44bd
00000290: 1c0c 18bd ed60 bbbd 6fd9 a6bd 5d20 febd
000002a0: 3974 17be d179 18be 529e e93d 537e bfbc
000002b0: 6865 4e3c 2696 113e 54c8 033e b7cb 3bbd
000002c0: 2f1a 013e dcbe 5f3e 12d8 26bd 7d1f 19bc
000002d0: b1b6 82bc 3ff2 253e 9310 55bd e6b4 7abd
000002e0: 04ca 0e3e 7627 843e fc6d 983c ecf1 8f3c
000002f0: 0c54 163e 0b28 1cbe a09f 68bd 4a22 843d
00000300: 4df3 423d 4349 90bc 3335 443e 9a90 90bd
00000310: 9b7d e0bd e51f 56bd c3c7 84bd 6769 98bd
00000320: c3db acbd 9908 08be a93c b0bd fc24 8e3d
00000330: 037e a83d 0f60 843c d44d cb3d d18a 113e
00000340: 2147 8a3d a4b2 513e dd81 863d 7f41 093b
00000350: 2c1d 61bd c3cb e0bc 17f7 843d 41c3 d5bd
00000360: 5d46 d33c c356 88bd 03e7 d0bd 2e37 503d
00000370: 2cce b13c c8dc ea3d df36 0e3e 68f2 953d
00000380: dddb 0abd b305 a93d 33f3 9f3d 9b50 97bb
00000390: cfa2 a4bd 2eb9 91bc 696a 41be 7462 043d
000003a0: bb4e 243c c2a6 b43c d951 09be 8b0c ee3c
000003b0: 48a3 853d 6b4e 973d 8150 de3d 2c28 f13c
000003c0: e529 053d 00f4 243e b7c1 403e b8c6 293e
000003d0: e5ff 093e b3c1 153d 6516 ff3c 6c6a 8a3d
000003e0: 8051 173e 3378 3f3e 83ab d23d c8dc 703e
000003f0: ddbb 953e 16ec 7a3e b9d0 373e fb83 8d3e

block1.1.weight f4 [8]
1.2146192 1.3128927 0.6910897 1.0270226 1.1855117 0.9692124 1.1738302 1.0287843
00000000: a478 9b3f de0c a83f 41eb 303f 7a75 833f
00000010: d9be 973f 4e1e 783f 1140 963f 34af 833f

block1.1.bias f4 [8]
-0.030293148 0.043512248 0.06318401 -0.05946535 -0.06081355 -0.061443087 0.07877248 -0.039070778
00000000: 5629 f8bc e639 323d 9e66 813d f091 73bd
00000010: a117 79bd bfab 7bbd 7753 a13d ae08 20bd

block1.1.running_mean f4 [8]
5.414761 1.1966045 -3.022511 -8.287726 2.135532 -0.06477021 -3.2601342 0.8213388
00000000: b945 ad40 562a 993f d270 41c0 879a 04c1
00000010: 8eac 0840 3ea6 84bd 0aa6 50c0 4243 523f

block1.1.running_var f4 [8]
5043.02 4127.531 3066.9678 12998.195 4012.6716 969.18317 5449.8003 1862.5933
00000000: 2998 9d45 3ffc 8045 7caf 3f45 c818 4b46
00000010: bfca 7a45 b94b 7244 674e aa45 fcd2 e844

block1.2.weight f4 [16, 1, 16, 1]
0.11816709 0.15273282 -0.08300715 -0.10055065 0.29358467 0.07162143 -0.08257264 -0.1934094
0.16198139 -0.02421047 -0.071226574 -0.11425553 -0.20867918 0.17518535 -0.030982498 0.1280763
0.06719838 0.0570635 -0.04815363 -0.16757709 -0.03225129 0.25023496 0.17917407 -0.1983339
0.12990244 -0.18677184 -0.08055662 0.034187697 -0.049261913 0.026372692 0.03547599 -0.08520201
0.3169679 -0.021037426 0.0022933562 -0.0061553004 -0.06263284 0.18430713 0.056130856 -0.039129674
0.10020764 -0.19536607 -0.17879882 -0.024599228 -0.19084753 -0.02033493 -0.050927117 -0.19507283
0.25832802 -0.20753181 -0.025973532 -0.07175527 0.26000044 0.03699545 -0.009526142 -0.025718661
-0.08789206 -0.21592411 -0.030064655 0.036102094 0.053286586 0.10632956 0.088559896 -0.10708953
-0.018879222 0.18163699 -0.041840795 0.08736185 -0.07708666 -0.036389105 -0.06298145 -0.08748317
-0.115000874 -0.1580204 -0.35501355 -0.05667968 0.33278963 0.046321165 0.15654534 -0.27091548
0.019596973 -0.030911738 -0.019019302 0.002324649 0.20351382 -0.032644954 0.119004875 -0.15401481
0.1368126 -0.23858438 -0.03662058 0.21142009 -0.053334925 -0.099179596 -0.08840022 0.064480886
-0.1412503 0.10690152 -0.13161522 0.07561843 -0.06453864 -0.01609046 0.12611066 0.121551864
-0.07780132 0.13696942 -0.14393473 0.061395872 0.033682708 -0.19558772 -0.09714927 0.1428905
0.31324267 0.1277824 -0.04152219 0.010256893 -0.112262204 0.10627478 -0.032600615 -0.12725893
0.0037286344 0.1290966 -0.22483005 -0.063617505 0.01398534 -0.108175546 -0.11312702 0.014219105
-0.0074541178 -0.17628996 0.018098088 0.0112049915 0.29704997 0.049816996 -0.13809398 -0.12562661
-0.019764978 0.007957952 -0.16207466 0.06313667 0.0037237052 0.16163343 0.16892833 0.03571575
0.06462999 -0.14745834 -0.0072814734 0.14132313 -0.1406025 0.008074187 0.090723686 -0.25539696
0.1081314 0.045528688 -0.10869709 0.17382133 0.009851535 -0.18701954 0.041301552 -0.17301303
-0.40098616 0.002921816 0.08749907 -0.0754253 0.08288464 0.22031437 -0.0026908638 -0.005226322
-0.017686972 0.010730009 0.08046232 -0.124635555 0.06352851 -0.03561841 0.1321537 -0.057225887
0.009612329 -0.4030199 0.03108908 -0.024086948 -0.0030885194 0.067762084 0.18801524 0.058176532
-0.07261228 -0.05660098 0.063561104 0.06792306 -0.01775215 -0.06781053 -0.08037337 0.117241755
-0.034761958 -0.028673857 0.035503447 -0.0012960411 0.09699559 -0.03822509 0.08271796 -0.29040202
-0.04227763 0.09743212 -0.12090375 -0.06025258 0.20598057 0.18440564 0.06348644 -0.16391158
-0.018809268 -0.036041647 0.019110361 0.058348395 0.29121932 -0.037779585 -0.12285507 -0.27907556
0.04023778 -0.032353986 -0.05233389 0.0049074204 0.030953513 0.014606245 0.055176612 0.045189615
0.21042405 -0.0092582 -0.15229434 0.02175275 0.12970787 0.11073789 -0.024587607 0.008123699
0.04378935 0.07878031 -0.13236402 -0.3038087 -0.08690386 0.006422271 -0.2519711 0.18270661
-0.27721506 -0.019747406 -0.029137054 -0.02025043 0.11175809 0.030002804 0.020977803 0.0389655
0.09411177 -0.2077371 0.043548856 0.18189566 -0.2581924 0.087098606 0.08202386 0.046166867
00000000: 9601 f23d fe65 1c3e a7ff a9bd 80ed cdbd
00000010: bb50 963e 42ae 923d d81b a9bd 1d0d 46be
00000020: 73de 253e 0955 c6bc 3ddf 91bd cefe e9bd
00000030: ffaf 55be ca63 333e 02cf fdbc 6f26 033e
00000040: 4e9f 893d 6bbb 693d be3c 45bd 5499 2bbe
00000050: ee19 04bd cc1e 803e 6879 373e 0b18 4bbe
00000060: 2505 053e 1e41 3fbe dffa a4bd 6608 0c3d
00000070: dcc6 49bd 8b0b d83c 464f 113d 647e aebd
00000080: 9e49 a23e ae56 acbc 224c 163b 67b2 c9bb
00000090: a545 80bd 02bb 3c3e 78e9 653d 7046 20bd
000000a0: aa39 cd3d 0b0e 48be 0a17 37be 5284 c9bc
000000b0: 896d 43be 7095 a6bc f498 50bd 2cc1 47be
000000c0: 9243 843e 3883 54be 72c6 d4bc 6df4 92bd
000000d0: c71e 853e 8a88 173d 8913 1cbc f1af d2bc
000000e0: c100 b4bd 361b 5dbe 274a f6bc cadf 133d
000000f0: 0943 5a3d 50c3 d93d e45e b53d c151 dbbd
00000100: 99a8 9abc 0cff 393e 4161 2bbd c5ea b23d
00000110: 9cdf 9dbd be0c 15bd 6bfc 80bd 602a b3bd
00000120: 9485 ebbd 1ad0 21be 56c4 b5be f428 68bd
00000130: 6763 aa3e 43bb 3d3d 6c4d 203e 6fb5 8abe
00000140: d589 a03c 9d3a fdbc 5ece 9bbc 2359 183b
00000150: ed65 503e b7b6 05bd d4b8 f33d 0fb6 1dbe
00000160: 9a18 0c3e 774f 74be 76ff 15bd 827e 583e
00000170: b975 5abd ac1e cbbd 2d0b b5bd 8e0e 843d
00000180: eba3 10be 2fef da3d 24c6 06be d6dd 9a3d
00000190: d62c 84bd 24d0 83bc 2723 013e 2ff0 f83d
000001a0: 4c56 9fbd b641 0c3e a063 13be 3d7a 7b3d
000001b0: e1f6 093d 2648 48be 32f6 c6bd e351 123e
000001c0: 5861 a03e 64d9 023e 2c13 2abd 870c 283c
000001d0: bae9 e5bd 98a6 d93d 3988 05bd 2a50 02be
000001e0: 1b5c 743b e631 043e d939 66be e549 82bd
000001f0: c422 653c 248b ddbd 24af e7bd 40f7 683c
00000200: ac41 f4bb 5b85 34be 7142 943c 2495 373c
00000210: ef16 983e e80c 4c3d 8268 0dbe 43a4 00be
00000220: 2aea a1bc 1262 023c e6f6 25be cc4d 813d
00000230: 6809 743b 3c83 253e 8cfb 2c3e ae4a 123d
00000240: ba5c 843d 52ff 16be 6d99 eebb 03b7 103e
00000250: 1afa 0fbe 9849 043c 57cd b93d 64c3 82be
00000260: ff73 dd3d 4a7c 3a3d 949c debd 38fe 313e
00000270: 5568 213c 0d82 3fbe d12b 293d 542a 31be
00000280: 0f4e cdbe f07b 3f3b b632 b33d 9478 9abd
00000290: 6cbf a93d 179a 613e 3459 30bb 9141 abbb
000002a0: 45e4 90bc ebcc 2f3c 6ec9 a43d ed40 ffbd
000002b0: 3c1b 823d 9ce4 11bd 4d53 073e b165 6abd
000002c0: 087d 1d3c a058 cebe 87ae fe3c fe51 c5bc
000002d0: c268 4abb d9c6 8a3d 1187 403e 844a 6e3d
000002e0: bfb5 94bd 6ed6 67bd 532c 823d 3f1b 8b3d
000002f0: f56c 91bc 3fe0 8abd cb9a a4bd 721c f03d
00000300: 8e62 0ebd 70e5 eabc 106c 113d ecdf a9ba
00000310: a0a5 c63d e991 1cbd 0968 a93d 93af 94be
00000320: 4f2b 2dbd 7e8a c73d 639c f7bd 69cb 76bd
00000330: 92ec 523e d5d4 3c3e 2e05 823d 70d8 27be
00000340: e515 9abc 68a0 13bd 558d 9c3c bafe 6e3d
00000350: b31a 953e c4be 1abd 709b fbbd fee2 8ebe
00000360: 5fd0 243d 9d85 04bd 105c 56bd 6dce a03b
00000370: 3992 fd3c 084f 6f3c df00 623d bf18 393d
00000380: 6779 573e b5af 17bc 0cf3 1bbe d332 b23c
00000390: 24d2 043e 8cca e23d f36b c9bc 4319 053c
000003a0: 765c 333d 9257 a13d 6f8a 07be d08c 9bbe
000003b0: a7fa b1bd ea71 d23b 5b02 81be 7117 3b3e
000003c0: 22ef 8dbe 50c5 a1bc d5b0 eebc 3be4 a5bc
000003d0: 6de1 e43d 71c8 f53c a4d9 ab3c 4a9a 1f3d
000003e0: acbd c03d 09b9 54be 4960 323d db42 3a3e
000003f0: cb31 84be c160 b23d 20fc a73d 7819 3d3d

block1.3.weight f4 [16]
1.2755696 1.0682471 1.1800842 1.3055199 1.1869172 1.0608797 1.0204797 1.158845
1.3277348 1.1841177 1.4626417 1.5665799 1.3562168 1.3541747 1.1986593 1.1223731
00000000: dd45 a33f 52bc 883f 000d 973f 471b a73f
00000010: e7ec 973f e8ca 873f 149f 823f 0855 943f
00000020: 37f3 a93f 2b91 973f d837 bb3f b185 c83f
00000030: 8398 ad3f 9955 ad3f ab6d 993f eca9 8f3f

block1.3.bias f4 [16]
-0.27523372 -0.28118306 -0.14553201 -0.13738047 0.035404034 -0.11015461 -0.004845914 -0.28190514
-0.12652338 -0.3022675 -0.5591606 -0.49964634 -0.19621922 -0.19160384 -0.39157233 -0.15744716
00000000: 6feb 8cbe 3af7 8fbe 5806 15be 77ad 0cbe
00000010: d203 113d bd98 e1bd 79ca 9ebb df55 90be
00000020: 588f 01be cec2 9abe 2625 0fbf a5d1 ffbe
00000030: b1ed 48be cc33 44be 2b7c c8be d439 21be

block1.3.running_mean f4 [16]
-0.0645075 -0.025564326 -0.023029134 -0.0005576231 -0.057898417 0.0076134168 0.012599821 0.016602188
-0.018366728 0.03118079 0.00090713083 0.007167889 -0.0019433219 0.013164162 -0.00722984 -0.0024958386
00000000: 821c 84bd 476c d1bc 98a7 bcbc 742d 12ba
00000010: e426 6dbd f879 f93b 7b6f 4e3c 5001 883c
00000020: d275 96bc db6e ff3c 85cc 6d3a 9ce0 ea3b
00000030: 10b7 feba 7fae 573c 4be8 ecbb 3991 23bb

block1.3.running_var f4 [16]
0.22778456 0.21336634 0.1645059 0.14383164 0.076999426 0.04542819 0.088023864 0.056843612
0.12697347 0.08601661 0.05625878 0.05773689 0.068285294 0.13009046 0.13462204 0.06176009
00000000: 5b40 693e b57c 5a3e 3c74 283e 9a48 133e
00000010: e0b1 9d3d e912 3a3d db45 b43d d9d4 683d
00000020: 5505 023e 7a29 b03d 9b6f 663d 847d 6c3d
00000030: 29d9 8b3d 6f36 053e 5cda 093e 26f8 7c3d

block2.0.weight f4 [16, 1, 1, 16]
0.025348404 0.17019805 -0.025922054 0.0027283414 -0.025091406 -0.0733238 0.10936077 0.12193866
0.022878895 -0.17449985 -0.0595637 0.1491662 0.120728865 -0.08254884 -0.18933591 -0.08557201
0.06507002 0.16461205 0.013117201 0.07022669 -0.04827336 0.153043 0.23154362 0.13219157
-0.08081459 0.10711942 -0.032525145 -0.09397226 0.09865221 -0.052112695 -0.026929513 -0.05486217
0.06765975 -0.042536553 -0.11614908 0.03989431 -0.06638824 0.045927294 0.038347024 0.06809381
0.17680967 0.23680586 0.15568745 -0.042241085 -0.29493144 -0.19495395 -0.17320514 0.17144105
-0.063570775 -0.106912754 0.13528933 0.2798694 0.18743968 0.016973406 0.004866782 0.036143128
0.105140276 0.111084394 -0.09547975 -0.13047451 0.027507652 0.0068732696 0.048464745 -0.07209193
-0.25051555 0.035809517 0.20878707 0.027940366 0.15678659 0.08837693 -0.0884823 0.14422353
0.20684044 0.124238245 -0.17622802 -0.09589531 -0.11910173 -0.08975349 0.26634124 0.253687
0.06848142 -0.024555774 0.24510847 0.045950487 -0.020286165 0.14374846 0.14110552 0.0015114014
0.24608853 -0.1910115 -0.09331247 -0.025921706 -0.13025208 -0.0636624 -0.00063368696 0.09097612
0.12329863 0.14072303 0.059299935 0.02487053 -0.068799965 -0.029522946 -0.016622346 0.02921063
0.105794035 0.14575914 0.109808154 -0.06255575 0.017402936 0.16179217 -0.0597318 -0.15184544
0.21018802 0.11640253 0.034226343 -0.13106798 -0.17502686 0.014662344 -0.15054028 -0.2327024
-0.033352245 0.11797248 -0.07120283 0.013981998 0.002999568 0.25749356 0.024329625 -0.17744659
-0.12103819 -0.29366362 -0.039058834 0.18989927 0.20107856 0.004260202 0.14412647 0.2779216
-0.078710474 -0.017381283 -0.043689005 -0.06668119 0.00832051 -0.1240476 0.0038359973 -0.0042825877
0.044300836 -0.03154393 0.046475943 0.014083875 0.22966829 0.24378338 0.1778806 0.03497533
0.11581329 -0.044673905 -0.1006424 0.05194173 0.092452385 0.050833125 -0.030398771 0.019918647
0.20552407 0.15856826 0.14190075 0.10666701 0.14735533 0.15753487 0.1267117 -0.020025156
0.030090455 0.024029778 0.06309269 0.12614182 -0.07326775 0.025271475 0.08159715 0.0689791
-0.2620229 -0.060333673 -0.17267828 -0.189922 -0.05705008 -0.08150337 -0.0389608 -0.15885894
-0.11803642 0.054544795 0.077572286 0.11948161 -0.17644447 0.10517328 -0.034369193 -0.15380996
0.2985638 0.081282474 0.043017607 0.059077963 -0.04532999 0.11419245 -0.1470074 -0.14653511
-0.014812065 0.23486246 0.009600056 0.085461505 0.062280856 0.0388702 0.08934244 -0.20896845
0.13392492 -0.18150851 -0.21417451 -0.16183908 -0.019212421 -0.009942985 -0.17565246 -0.20767145
0.263399 0.0028663992 -0.07922173 -0.06548464 -0.037840195 0.23010792 0.040024575 -0.051838953
0.004572243 0.18825737 0.062106743 -0.14933878 -0.08663741 0.10363349 0.061257128 -0.07842563
0.014637895 0.26390225 0.13557123 0.01397797 -0.17513031 -0.008922929 0.12663415 -0.0132164825
0.11662656 -0.039530613 0.19935907 0.057622712 -0.14267789 0.047161285 -0.16966383 -0.041324135
-0.18966185 -0.039421488 0.35262433 0.19275568 -0.006431659 -0.0821415 0.16710135 -0.09897548
00000000: 75a7 cf3c 6648 2e3e 7d5a d4bc f9cd 323b
00000010: 7e8c cdbc ca2a 96bd 8af8 df3d faba f93d
00000020: 856c bb3c 17b0 32be 11f9 73bd 06bf 183e
00000030: b240 f73d 5e0f a9bd 46e1 41be 6140 afbd
00000040: 6e43 853d 1090 283e 87e9 563c 03d3 8f3d
00000050: 49ba 45bd 4eb7 1c3e c519 6d3e 3a5d 073e
00000060: 1f82 a5bd 6d61 db3d 1639 05bd 8774 c0bd
00000070: 2b0a ca3d 1f74 55bd 489b dcbc 28b7 60bd
00000080: 3291 8a3d cf3a 2ebd 92df edbd 3768 233d
00000090: 8ff6 87bd 421e 3c3d c511 1d3d c474 8b3d
000000a0: 980d 353e 3c7d 723e 886c 1f3e fd04 2dbd
000000b0: 4101 97be 02a2 47be b05c 31be 3e8e 2f3e
000000c0: 6531 82bd 13f5 dabd 4989 0a3e 0b4b 8f3e
000000d0: 30f0 3f3e d00b 8b3c 8779 9f3b d10a 143d
000000e0: c953 d73d 3780 e33d e38a c3bd 1c9b 05be
000000f0: ba57 e13c 2a39 e13b f882 463d efa4 93bd
00000100: 9343 80be 00ad 123d 47cc 553e 32e3 e43c
00000110: aa8c 203e f7fe b43d 3536 b5bd 55af 133e
00000120: fbcd 533e 9f70 fe3d 1e75 34be c364 c4bd
00000130: 9ceb f3bd aed0 b7bd e15d 883e 43e3 813e
00000140: fd3f 8c3d 3129 c9bc b7fd 7a3e 9436 3c3d
00000150: 2c2f a6bc cc32 133e f77d 103e 371a c63a
00000160: a2fe 7b3e 8598 43be 9c1a bfbd c259 d4bc
00000170: cd60 05be 6f61 82bd 031e 26ba b051 ba3d
00000180: fe83 fc3d b319 103e 7de4 723d 48bd cb3c
00000190: ffe6 8cbd 1bda f1bc 962b 88bc 224b ef3c
000001a0: 8baa d83d e241 153e 19e3 e03d 3b1d 80bd
000001b0: 9a90 8e3c d9ac 253e 55a9 74bd 5f7d 1bbe
000001c0: 873b 573e 7364 ee3d ec30 0c3d af36 06be
000001d0: 3e3a 33be 543a 703c 3b27 1abe 8a49 6ebe
000001e0: 5d9c 08bd 8e9b f13d cad2 91bd c014 653c
000001f0: 6694 443b 32d6 833e ec4e c73c 8fb4 35be
00000200: dfe2 f7bd 145b 96be 28fc 1fbd f474 423e
00000210: 8ae7 4d3e 2a99 8b3b e495 133e bd4b 8e3e
00000220: f532 a1bd 3163 8ebc 3ef3 32bd 2690 88bd
00000230: c052 083c ab0c febd 5b65 7b3b f354 8cbb
00000240: cb74 353d 3534 01bd 8f5d 3e3d 0ec0 663c
00000250: 2a2e 6b3e 5aa2 793e 5526 363e 4b42 0f3d
00000260: 852f ed3d fcfb 36bd 9a1d cebd dac0 543d
00000270: ad57 bd3d 6536 503d d806 f9bc 6e2c a33c
00000280: e774 523e b85f 223e 6e4e 113e 3c74 da3d
00000290: 51e4 163e d250 213e b6c0 013e cc0b a4bc
000002a0: 4280 f63c 19da c43c be36 813d 522b 013e
000002b0: 670d 96bd 2006 cf3c 681c a73d ea44 8d3d
000002c0: de27 86be 7120 77bd 93d2 30be ea7a 42be
000002d0: 58ad 69bd 3deb a6bd 5c95 1fbd ebab 22be
000002e0: 14bd f1bd 5d6a 5f3d 38de 9e3d c6b2 f43d
000002f0: dcad 34be 1765 d73d b6c6 0cbd 5c80 1dbe
00000300: 5bdd 983e 6d77 a63d 3b33 303d bcfb 713d
00000310: f1ab 39bd bbdd e93d 1c89 16be 4d0d 16be
00000320: 4eae 72bc c97f 703e 8e49 1d3c 7106 af3d
00000330: 361a 7f3d 5c36 1f3d 2bf9 b63d d3fb 55be
00000340: 9d23 093e 5edd 39be 9050 5bbe 25b9 25be
00000350: 5e63 9dbc e7e7 22bc 3dde 33be d3a7 54be
00000360: 3cdc 863e 33da 3b3b 013f a2bd d01c 86bd
00000370: 52fe 1abd 69a1 6b3e cff0 233d 1555 54bd
00000380: c1d2 953b 8ac6 403e a463 7e3d 44ec 18be
00000390: f46e b1bd cc3d d43d c1e8 7a3d 9e9d a0bd
000003a0: c8d3 6f3c 321e 873e 2fd3 0a3e db03 653c
000003b0: 5c55 33be 7a31 12bc 62ac 013e f289 58bc
000003c0: e8d9 ee3d daea 21bd c924 4c3e cb05 6c3d
000003d0: 271a 12be 312c 413d 5bbc 2dbe 7f43 29bd
000003e0: b736 42be 6d78 21bd 2d8b b43e bf61 453e
000003f0: abc0 d2bb ce39 a8bd 9e1c 2b3e a8b3 cabd

block2.1.weight f4 [16, 16, 1, 1]
-0.35325307 0.076531544 0.35572618 -0.23924266 0.051206663 0.031608652 0.10728139 -0.04485091
0.42065078 -0.12648961 0.29707277 0.5231097 -0.8229156 -0.51202774 -0.038447004 -0.19741699
-0.08000639 -0.35055277 -0.0010012037 -0.07851831 0.02918979 -0.06284643 -0.5889402 0.045061912
-0.00044944737 -0.116886884 -0.13053612 -0.2347606 0.31835586 -0.089330524 0.010868403 0.041570634
-0.0088668745 0.4477214 0.0651791 0.036681086 0.027099762 -0.40496242 -0.107519954 0.09958254
0.099050835 0.023656169 -0.5809502 -0.37498137 -0.4553002 0.35269767 -0.33172873 -0.46639082
0.45211497 0.43854684 -0.06274673 -0.085410416 -0.07822155 -0.55990833 -0.14813508 0.03778161
-0.020976294 -0.39737025 -0.10180215 -0.23728831 -0.16163471 0.3221265 -0.048880365 -1.0840203
-0.4053253 -0.2788263 -0.14502534 0.17777215 -0.4610424 -0.09100906 -0.0031937517 0.23010056
-0.31637698 -0.31317607 0.36552772 0.55057806 -0.30419 -0.18431036 0.23431733 -0.31114042
-0.17101419 0.13541642 0.302235 -0.21506709 -0.6777372 0.30376866 0.46503574 -0.1032975
0.68770087 -0.4336196 0.064383216 0.70922714 0.05527953 -0.5178591 -0.50551397 -0.1804905
-0.036631744 0.046361826 -0.014198187 0.0033909965 0.27048835 -0.11116588 0.22476618 0.15055431
0.6592186 -0.32393473 0.16056432 0.0029187803 -0.060027745 0.5625315 0.06701761 -0.18846479
-0.5122064 0.17271927 -0.30342695 0.10287514 -0.12818849 0.6520402 0.23002468 0.62958986
-0.019239815 0.033302072 -0.27680415 -0.22311945 -0.3905124 0.06290687 -0.27412397 0.0075165704
0.5074471 -0.28202507 -0.025412234 -0.002086135 0.27051246 -0.19038904 0.30074212 0.403454
-0.3958805 -0.16257203 0.075801015 0.19288886 0.088710815 0.69196993 0.6477424 -0.6533887
0.19225825 0.2772392 -0.29030693 -0.856407 -0.06992475 -0.0008948983 0.07829492 0.41592568
-0.44188806 -0.055535864 -0.2471054 -0.27840254 -0.054198876 0.036051545 0.13219585 -0.3929463
0.20572536 -0.06527738 0.0065581715 -0.29731405 -0.39514455 -0.15204376 0.16334128 0.15678476
-0.5068362 -0.5638295 0.2568114 0.29015782 -0.15552442 -0.1702847 0.41530383 -0.6630911
0.51545566 0.20876975 -0.08069053 -0.5930704 0.16349697 -0.020487534 0.2994501 0.3332854
-0.69736683 -0.06618518 0.18124005 0.019370167 0.18104959 0.36433566 0.017993556 -0.529198
-0.254144 0.055260632 -0.7241569 0.19350164 -0.37723935 0.8555289 0.41500807 0.45480374
-0.0040846495 -0.22054155 0.023076402 0.026096959 -0.026008625 0.008107085 -0.30170155 0.046564624
0.3295242 0.2426963 0.44040865 0.22283909 0.1402833 0.27704 0.32107598 0.43811488
0.23015285 -0.07146862 -0.40043232 0.06165269 -0.5631881 -0.036157787 -0.3214424 0.051433764
-0.02765796 0.02670171 0.6915743 0.3495791 0.6843218 0.28976125 -0.0520236 -0.176412
0.47659928 0.07458169 0.45174348 0.71029603 -0.47297832 -0.23349361 -0.76542765 0.22059813
-0.052210215 0.17133026 -0.15463732 -0.66918206 0.08297833 -0.18883394 -0.01843099 0.18089078
-0.7121162 -0.42397302 -0.23838648 -0.05994932 0.44825813 0.0821933 -0.75465196 -0.039760772
00000000: 96dd b4be 92bc 9c3d be21 b63e 07fc 74be
00000010: 14be 513d 1378 013d 58b6 db3d 96b5 37bd
00000020: 8a5f d73e 7e86 01be ec19 983e 84ea 053f
00000030: 99aa 52bf 4014 03bf 9b7a 1dbd ae27 4abe
00000040: 64da a3bd a77b b3be d23a 83ba 35ce a0bd
00000050: 6d1f ef3c a1b5 80bd c9c4 16bf d792 383d
00000060: cea3 ebb9 6462 efbd 43ab 05be 1565 70be
00000070: 8aff a23e ecf2 b6bd 6311 323c f845 2a3d
00000080: 5e46 11bc bd3b e53e 9f7c 853d e83e 163d
00000090: 5200 de3c 3c57 cfbe 6c33 dcbd eef1 cb3d
000000a0: 2adb ca3d 95ca c13c 27b9 14bf 8ffd bfbe
000000b0: 1c1d e9be ca94 b43e 59d8 a9be c7ca eebe
000000c0: 9d7b e73e 3689 e03e 5c81 80bd a8eb aebd
000000d0: 9f32 a0bd 2756 0fbf b9b0 17be e4c0 1a3d
000000e0: 7ad6 abbc 1d74 cbbe a57d d0bd b5fb 72be
000000f0: 9283 25be c4ed a43e c736 48bd 2dc1 8abf
00000100: cc86 cfbe 52c2 8ebe 8681 14be e709 363e
00000110: c00d ecbe f562 babd 434e 51bb 7b9f 6b3e
00000120: 2afc a1be 9d58 a0be 7326 bb3e aff2 0c3f
00000130: cbbe 9bbe dbbb 3cbe e2f0 6f3e cc4d 9fbe
00000140: 581e 2fbe 9aaa 0a3e 8cbe 9a3e 8c3a 5cbe
00000150: 2f80 2dbf 9187 9b3e 2a19 ee3e a48d d3bd
00000160: 2a0d 303f 6303 debe 59db 833d e98f 353f
00000170: ca6c 623d 6a92 04bf 5d69 01bf 80d2 38be
00000180: 2b0b 16bd e6e5 3d3d 839f 68bc 7b3b 5e3b
00000190: 737d 8a3e f0aa e3bd 1b29 663e e92a 1a3e
000001a0: 8dc2 283f c6da a5be f96a 243e 0249 3f3b
000001b0: a7df 75bd 1002 103f 8740 893d eafc 40be
000001c0: f51f 03bf 52dd 303e c75a 9bbe 34b0 d23d
000001d0: d843 03be 1bec 263f 978b 6b3e cd2c 213f
000001e0: d19c 9dbc c167 083d 46b9 8dbe 6d79 64be
000001f0: 3ef1 c7be 51d5 803d fa59 8cbe 904d f63b
00000200: 0ee8 013f 9765 90be 512d d0bc 8ab7 08bb
00000210: 9c80 8a3e 58f5 42be dffa 993e 8691 ce3e
00000220: d9b0 cabe 4879 26be 903d 9b3d a884 453e
00000230: 04ae b53d f124 313f 72d2 253f 7b44 27bf
00000240: 59df 443e 4cf2 8d3e 1ca3 94be 7d3d 5bbf
00000250: b534 8fbd 9c97 6aba 1659 a03d 36f4 d43e
00000260: 273f e2be 9379 63bd 3309 7dbe c78a 8ebe
00000270: a4ff 5dbd c9aa 133d 595e 073e 4230 c9be
00000280: aba9 523e 26b0 85bd eee5 d63b 8c39 98be
00000290: 6350 cabe 5cb1 1bbe f042 273e 2f8c 203e
000002a0: 04c0 01bf 2157 10bf c97c 833e 918f 943e
000002b0: cb41 1fbe 1d5f 2ebe b4a2 d43e 57c0 29bf
000002c0: e7f4 033f bdc7 553e 1441 a5bd 76d3 17bf
000002d0: c06b 273e 79d5 a7bc 8651 993e 62a4 aa3e
000002e0: a286 32bf 188c 87bd fe96 393e 2fae 9e3c
000002f0: 1065 393e 348a ba3e 3967 933c 8579 07bf
00000300: 2a1f 82be f958 623d 5962 39bf 4b25 463e
00000310: 8425 c1be f103 5b3f f07b d43e 09dc e83e
00000320: 86d8 85bb a5d5 61be b90a bd3c 4ac9 d53c
00000330: 0a10 d5bc 94d3 043c a078 9abe 8cba 3e3d
00000340: 65b7 a83e 6185 783e 3e7d e13e ee2f 643e
00000350: 6da6 0f3e 30d8 8d3e 1264 a43e 9850 e03e
00000360: 30ad 6b3e 245e 92bd 7705 cdbe 8887 7c3d
00000370: 182d 10bf 301a 14bd 1994 a4be 36ac 523d
00000380: f292 e2bc 8bbd da3c 030b 313f 08fc b23e
00000390: b72f 2f3f 965b 943e b316 55bd 59a5 34be
000003a0: d204 f43e 49be 983d ec4a e73e f6d5 353f
000003b0: 372a f2be f318 6fbe 11f3 43bf 7ae4 613e
000003c0: 61da 55bd 3371 2f3e 3f59 1ebe 844f 2bbf
000003d0: 8bf0 a93d af5d 41be 96fc 96bc 6f3b 393e
000003e0: 3f4d 36bf fe12 d9be 961b 74be 6b8d 75bd
000003f0: 1782 e53e f654 a83d df30 41bf 31dc 22bd

block2.2.weight f4 [16]
1.1529694 0.9405681 1.1436514 1.2526562 1.1816849 1.1493505 1.2531837 1.0663921
1.2497226 1.2861681 1.2975217 1.2190784 1.2026808 1.1044006 1.0145453 1.1828893
00000000: 8094 933f 12c9 703f 2b63 923f 0a57 a03f
00000010: 7341 973f eb1d 933f 5368 a03f 897f 883f
00000020: e9f6 9f3f 28a1 a43f 3115 a63f c30a 9c3f
00000030: 72f1 993f 005d 8d3f 9fdc 813f eb68 973f

block2.2.bias f4 [16]
-0.11334998 -0.1198847 -0.23923762 -0.26253736 -0.22580206 -0.1626543 -0.20814326 -0.13373299
-0.18344574 -0.23139302 -0.2525282 -0.19692904 -0.20387018 -0.15546754 -0.013517531 -0.21876281
00000000: 0924 e8bd 1c86 f5bd b5fa 74be 4c6b 86be
00000010: a838 67be d98e 26be 8223 55be 4df1 08be
00000020: 33d9 3bbe 4bf2 6cbe 604b 81be c4a7 49be
00000030: 58c3 50be e232 1fbe a278 5dbc 5c03 60be

block2.2.running_mean f4 [16]
-0.013459491 -0.011823696 0.017869843 -0.062261056 -0.08510901 0.014558097 0.022806918 0.04142963
0.008843986 -0.045862023 -0.09058167 -0.028579265 0.023695491 0.118849725 0.11946242 0.04423234
00000000: 3285 5cbc 2db8 41bc c763 923c 7305 7fbd
00000010: a24d aebd 1685 6e3c 93d5 ba3c 1eb2 293d
00000020: 5ee6 103c d1d9 3bbd e282 b9bd 101f eabc
00000030: 0c1d c23c 7c67 f33d b7a8 f43d f82c 353d

block2.2.running_var f4 [16]
0.49631494 0.15328722 0.36651185 0.63630706 0.3152664 0.9102414 0.291803 0.29443958
0.8195649 0.56492 0.50956774 0.70372754 0.47054398 0.35846484 1.0151691 0.58724284
00000000: fe1c fe3e 53f7 1c3e 71a7 bb3e 05e5 223f
00000010: 996a a13e 9505 693f 3467 953e c9c0 963e
00000020: 01cf 513f 999e 103f 0873 023f 7d27 343f
00000030: 24eb f03e b488 b73e 10f1 813f 8c55 163f

classifier.weight f4 [1, 64]
0.33208495 -0.09611007 -0.016595993 -0.21286263 0.059658866 0.14586218 0.18858503 0.16577378
0.18117914 0.33195412 0.18328603 -0.08225883 -0.22964476 0.18536837 0.25983214 -0.18716347
0.13579434 -0.48631465 -0.16311121 0.04043172 0.17172897 -0.19886738 -0.044762947 -0.10404272
-0.07854515 0.148735 -0.11355649 -0.24774797 0.22568241 0.124295525 -0.19647136 0.030017693
-0.40787664 0.08854292 -0.03937025 -0.21242641 -0.46807072 0.06168507 0.090359055 0.25447598
-0.5883893 -0.43268764 0.05675932 0.016687386 -0.51270384 0.15003854 -0.018648282 0.031565793
0.13506825 0.08206577 -0.23684387 0.03411915 0.28904098 0.112686254 -0.014811045 -0.18676884
0.072748415 -0.08182416 -0.009379176 -0.30368358 -0.37556025 0.0840944 0.23115599 0.18176666
00000000: 0a07 aa3e 5bd5 c4bd 52f4 87bc a9f8 59be
00000010: db5c 743d e55c 153e 6f1c 413e 9ac0 293e
00000020: 0687 393e e4f5 a93e 55af 3b3e 5177 a8bd
00000030: ff27 6bbe 35d1 3d3e b808 853e c8a7 3fbe
00000040: ac0d 0b3e 3cfe f8be a006 27be bb9b 253d
00000050: b8d9 2f3e e4a3 4bbe 5a59 37bd 5914 d5bd
00000060: 48dc a0bd fd4d 183e 4e90 e8bd a5b1 7dbe
00000070: 4a19 673e a78e fe3d ca2f 49be aae7 f53c
00000080: 35d5 d0be fe55 b53d b342 21bd 4f86 59be
00000090: f7a6 efbe 7ca9 7c3d 2b0e b93d ad4a 823e
000000a0: aea0 16bf 3c89 ddbe 767c 683d fcb3 883c
000000b0: 8f40 03bf b4a3 193e 48c4 98bc 224b 013d
000000c0: 554f 0a3e 1912 a83d 3387 72be 86c0 0b3d
000000d0: 2efd 933e 0dc8 e63d 06aa 72bc 5540 3fbe
000000e0: 1ffd 943d 6d93 a7bd 1eab 19bc 6a7c 9bbe
000000f0: 6f49 c0be af39 ac3d 28b4 6c3e 0a21 3a3e
