checkpoints/teste1.pth (torch, 12361 bytes, 17 tensors)

block1.0.weight f4 [8, 1, 1, 64]
0.038215417 -0.004786647 -0.055692647 -0.018475091 -0.0052857953 -0.0438593 -0.067491256 -0.10390253
-0.0423058 -0.008868044 -0.013809555 -0.15154143 -0.08485435 0.19905187 -0.10026332 -0.14782712
-0.101838596 -0.051471855 -0.009723926 -0.02155173 -0.01589495 0.17510326 0.027629644 -0.063329816
-0.14477399 0.097222425 0.113008715 0.02410057 -0.116958514 -0.11786427 0.02061795 0.04159569
0.04178276 -0.18799676 -0.094476946 -0.032339647 -0.042413533 0.0894579 0.03915699 0.012101983
-0.010609044 -0.14949645 -0.068522185 0.07188266 0.0047204643 -0.11939665 -0.21324971 -0.044664748
0.067802615 -0.14842878 -0.09063073 0.113381356 0.12235098 0.22766028 0.14502577 0.25108066
0.112496346 0.035284873 0.08578972 0.16812919 0.09441742 -0.045675017 -0.18002965 -0.060636155
0.05823395 0.0448862 0.058816485 -0.09463461 -0.082166545 -0.032273773 0.04715172 0.08772734
0.16141492 0.038245678 -0.04751011 0.0029955457 0.0048630433 0.025066417 -0.13747714 -0.14970654
-0.01209527 -0.06650967 0.01409618 -0.011446025 0.047755565 0.07304963 0.08693636 0.0664751
0.043519087 0.017309407 0.06139778 -0.033979494 0.03648929 -0.082925625 -0.19977632 -0.1653806
-0.15830442 -0.0075808875 -0.10156032 -0.12279597 -0.094172426 -0.053428907 0.051282424 0.0411456
-0.10622053 0.06476564 0.1966281 0.2178393 0.1915582 0.22564712 0.05661874 0.042767853
0.20354104 0.056527052 0.014831601 -0.0015902347 0.14437366 -0.012166671 0.03005874 0.11740796
-0.15691778 -0.16758643 -0.10275729 -0.0673891 0.0014425332 -0.053428106 -0.0005357167 -0.09581545
-0.007511979 -0.0071553085 -0.086566195 -0.064127795 -0.09198244 -0.011741064 -0.116271205 -0.15367253
-0.2001238 0.09480696 0.0605238 -0.05947271 0.022032876 -0.08425385 -0.07333112 0.07956365
-0.019844282 -0.012289341 0.064486906 0.2200589 0.106343925 0.13230827 0.10163302 0.1905428
-0.05365715 0.08269223 0.13101786 -0.10558005 -0.19218253 0.14201896 0.053798135 0.041012608
0.012096991 -0.065247 -0.12587851 0.22492835 0.11817512 -0.102070875 -0.15255287 -0.15268715
0.0024766626 0.009416076 -0.105267875 -0.17242934 -0.046119556 0.025009738 -0.008165493 0.033044856
-0.20187184 -0.06561233 0.06703585 0.00029916473 0.006875441 0.06303169 0.14389493 0.24465677
0.24286848 0.033918273 0.0037088294 0.08706052 0.06803819 -0.08886292 0.020370092 -0.10075093
0.17269683 0.039013576 -0.12758113 -0.15881287 -0.18545327 -0.12854505 -0.2305021 -0.05324214
-0.064395 -0.00890825 -0.0628092 0.20597863 0.232221 -0.017455447 0.0363259 0.15694448
0.0853503 -0.18501277 -0.22244444 -0.0782692 -0.29609787 -0.21722789 -0.24309671 -0.18707496
-0.15427959 0.034600545 0.060318895 0.13214108 -0.02543973 -0.005453487 0.066530034 0.025337165
-0.07066817 -0.076877 0.045479134 -0.045334253 -0.09866052 -0.08871706 -0.048217554 0.089138515
0.026203869 0.02541151 0.07454537 -0.19636917 0.039071523 0.011489954 -0.12224569 -0.09843367
0.003054094 -0.0051784865 0.1761316 -0.0018562292 -0.028530775 -0.024090186 0.016060647 0.068864696
-0.13626498 -0.13329771 0.031947725 0.034157503 0.1149238 -0.002073197 0.032005657 0.11857592
00000000: c587 1c3d 4ed9 9cbb f91d 64bd 1359 97bc
00000010: 7734 adbb cfa5 33bd db38 8abd daca d4bd
00000020: d948 2dbd 464b 11bc 7941 62bc ad2d 1bbe
00000030: 1ec8 adbd 41d4 4b3e db56 cdbd fe5f 17be
00000040: c190 d0bd 27d4 52bd 1a51 1fbc 418d b0bc
00000050: 2036 82bc 454e 333e 9057 e23c 10b3 81bd
00000060: a23f 14be 8d1c c73d 1d71 e73d 8f6e c53c
00000070: f287 efbd d362 f1bd fae6 a83c 3e60 2a3d
00000080: 6624 2b3d 3982 40be 217d c1bd 9476 04bd
00000090: d0b9 2dbd b435 b73d 1463 203d 6547 463c
000000a0: 8ed1 2dbc 9915 19be 5c55 8cbd 3737 933d
000000b0: 20ae 9a3b 3b86 f4bd 225e 5abe 62f2 36bd
000000c0: 19dc 8a3d b7fd 17be 9b9c b9bd 7c34 e83d
000000d0: 2793 fa3d c71f 693e a381 143e a58d 803e
000000e0: 7c64 e63d df86 103d 85b2 af3d 0f2a 2c3e
000000f0: ec5d c13d ba15 3bbd b159 38be 9e5d 78bd
00000100: b986 6e3d 98da 373d 8ee9 703d cacf c1bd
00000110: ef46 a8bd 8131 04bd 2922 413d 64aa b33d
00000120: f449 253e 80a7 1c3d f699 42bd eb50 443b
00000130: 2a5a 9f3b 1658 cd3c cfc6 0cbe ac4c 19be
00000140: 3d2b 46bc 3936 88bd aaf3 663c 1c88 3bbc
00000150: 579b 433d 0b9b 953d b10b b23d 1924 883d
00000160: 1241 323d 75cc 8d3c 3d7c 7b3d 152e 0bbd
00000170: cb75 153d e9d4 a9bd 2a92 4cbe 8859 29be
00000180: 8e1a 22be 1869 f8bb dbfe cfbd 747c fbbd
00000190: 79dd c0bd 45d8 5abd 850d 523d 4a88 283d
000001a0: 268a d9bd d9a3 843d e058 493e 4411 5f3e
000001b0: d527 443e 0a10 673e 0de9 673d 582d 2f3d
000001c0: 106d 503e e988 673d 3e00 733c 6c6f d0ba
000001d0: b0d6 133e b856 47bc bf3d f63c 9673 f03d
000001e0: 0eaf 20be c79b 2bbe 6a72 d2bd 4c03 8abd
000001f0: 6213 bd3a 6ed7 5abd 576f 0cba e43a c4bd
00000200: 0c27 f6bb 1477 eabb 9e49 b1bd 6f55 83bd
00000210: 4a61 bcbd 975d 40bc 991f eebd 555c 1dbe
00000220: 41ed 4cbe 272a c23d cee7 773d a899 73bd
00000230: 4a7e b43c 488d acbd a02e 96bd 44f2 a23d
00000240: 7a90 a2bc 3b59 49bc b611 843d 1f57 613e
00000250: d8ca d93d d27b 073e f924 d03d a71d 433e
00000260: 9ac7 5bbd 8b5a a93d 8c29 063e 5a3a d8bd
00000270: 7fcb 44be 6b6d 113e 6f5b 5c3d d6fc 273d
00000280: 7532 463c 38a0 85bd 4ce6 00be 9e53 663e
00000290: cc05 f23d 890a d1bd d236 1cbe 055a 1cbe
000002a0: 814f 223b e345 1a3c af96 d7bd 5191 30be
000002b0: dce7 3cbd 39e1 cc3c 8fc8 05bc 0b5a 073d
000002c0: 7eb7 4ebe c25f 86bd 174a 893d 36d9 9c39
000002d0: 614b e13b c216 813d 3159 133e 4e87 7a3e
000002e0: 84b2 783e e3ed 0a3d d50f 733b c94c b23d
000002f0: 9b57 8b3d c3fd b5bd 2edf a63c 8156 cebd
00000300: 70d7 303e b3cc 1f3d a1a4 02be d79f 22be
00000310: 76e7 3dbe 50a1 03be be08 6cbe 6e14 5abd
00000320: 87e1 83bd e9f3 11bc 1ca2 80bd 10ec 523e
00000330: 58cb 6d3e bafe 8ebc 78ca 143d 0eb6 203e
00000340: 23cc ae3d fd73 3dbe 7ac8 63be 9a4b a0bd
00000350: 249a 97be fd70 5ebe 58ee 78be 9490 3fbe
00000360: 78fb 1dbe 4db9 0d3d f210 773d fe4f 073e
00000370: fb66 d0bc 2ab3 b2bb e640 883d e38f cf3c
00000380: 79ba 90bd b071 9dbd 5448 3a3d 69b0 39bd
00000390: 870e cabd 4ab1 b5bd c57f 45bd 418e b63d
000003a0: 7fa9 d63c cd2b d03c 3eab 983d 0015 49be
000003b0: 7609 203d 5c40 3c3c f35b fabd 9897 c9bd
000003c0: 3227 483b 4bb0 a9bb d85b 343e b74c f3ba
000003d0: 5fb9 e9bc c858 c5bc 9e91 833c ef08 8d3d
000003e0: 0c89 0bbe 327f 08be 9edb 023d bde8 0b3d
000003f0: 2b5d eb3d 79de 07bb 5d18 033d efd7 f23d

block1.1.weight f4 [8]
0.94184804 1.0377854 1.1090553 1.2949693 1.0866642 1.1412885 0.97719693 1.1638862
00000000: f41c 713f 27d6 843f 86f5 8d3f 8ec1 a53f
00000010: d017 8b3f be15 923f 9429 7a3f 39fa 943f

block1.1.bias f4 [8]
-0.030140942 0.0014645263 0.030354049 -0.011890709 -0.011431009 0.0023962872 0.037009336 -0.03236861
00000000: 23ea f6bc 59f5 bf3a 0ea9 f83c 40d1 42bc
00000010: 2049 3bbc 070b 1d3b 1a97 173d f394 04bd

block1.1.running_mean f4 [8]
2.463668 -0.7040553 -0.865003 6.7439384 5.5089793 -4.75109 7.6483316 -0.76986617
00000000: bdac 1d40 f83c 34bf d670 5dbf 58ce d740
00000010: 8f49 b040 ee08 98c0 22bf f440 f315 45bf

block1.1.running_var f4 [8]
2431.408 1647.9896 1646.9824 4586.1313 3868.6914 2317.411 5470.671 973.7836
00000000: 87f6 1745 abff cd44 70df cd44 0d51 8f45
00000010: 10cb 7145 93d6 1045 5ef5 aa45 2772 7344

block1.2.weight f4 [16, 1, 16, 1]
0.034390844 -0.08707972 -0.0984044 -0.09270731 0.27865297 0.072273366 0.15559974 -0.19832641
0.15038359 -0.25780025 0.055156477 0.053969905 0.02648544 -0.14081332 -0.0822968 0.13965546
-0.18190102 -0.049647026 -0.06895195 0.02584724 0.04712893 0.13044836 0.16033289 -0.084094524
0.17286737 -0.21277618 -0.05873947 0.07745685 -0.17538106 0.03937722 0.04986038 -0.03059317
0.039784417 -0.22445476 0.16619405 -0.0769552 0.15661642 -0.13423227 -0.15556112 0.080392815
0.1469593 -0.13000654 0.07463632 0.13551103 -0.099173374 -0.020993086 0.33792818 -0.06880776
0.09421032 -0.05456519 -0.06636302 -0.046798702 0.103974245 -0.021097286 0.15055136 0.01690706
-0.37232953 -0.053387355 0.117998816 -0.12974599 -0.11752127 -0.07932891 0.10073904 0.12882784
-0.0064210165 -0.19634658 0.12858292 -0.00035245868 0.051502552 -0.018942606 0.016429774 -0.34945536
-0.09351097 0.06115871 0.02597905 0.23913835 0.023243172 0.037070025 0.07956636 -0.13888602
-0.13635275 0.14537393 0.057950556 -0.06948354 0.27315563 -0.09602469 -0.2369845 0.073311925
-0.12820365 0.07489159 -0.060576398 -0.020047665 -0.053830065 0.12804893 0.058232304 0.20820689
0.13278647 -0.14135928 -0.09852885 -0.057157677 0.21480528 0.017510286 -0.016063523 0.0585701
-0.024232615 -0.2819582 0.01779774 0.18671274 0.14184335 0.11362494 -0.010172661 -0.05875672
-0.12681964 0.049472526 -0.0015849783 -0.0389894 -0.08329694 0.11826783 -0.086299025 0.24098285
-0.06720045 -0.0033890898 0.1543002 0.07301092 -0.16024724 -0.12351158 -0.02645708 0.06453207
0.05323898 -0.14302935 0.053021148 0.11025455 -0.15450534 -0.12337516 -0.12550348 -0.103326745
-0.044469416 0.19900486 0.11307355 -0.17304158 0.058749788 0.093339816 0.21376367 -0.012874729
0.2246105 -0.116306856 0.14030571 -0.17063905 0.09413003 0.100885786 -0.009384037 -0.1100237
0.13630663 -0.24358916 -0.08976982 -0.088989206 -0.04500093 0.20397314 -0.018131545 -0.028496798
0.10098539 0.017965268 -0.08857395 0.1477454 -0.12916635 -0.03365904 0.26527333 -0.087541215
0.112379 0.050645325 0.08970889 -0.0007953954 -0.2676827 -0.14803873 -0.07030008 0.11677587
0.35309827 0.1503613 0.0054933336 -0.08498881 -0.19545077 0.07139346 0.06369455 -0.08275606
-0.0045699985 0.0014451934 -0.028239522 -0.075031094 -0.11076565 -0.0601334 -0.14902364 0.21563563
0.13818483 -0.074204415 -0.021338964 -0.11725851 0.33987772 0.03076105 0.002385348 -0.112222075
-0.09875171 -0.038215335 0.063142255 -0.019163748 -0.054723337 0.015326636 0.0364288 0.038965374
0.00093607674 0.17623487 -0.072928414 -0.00928849 -0.28234848 0.0677346 0.050270993 0.23077095
-0.11560006 0.092296705 -0.03464753 -0.118300036 0.017474465 -0.006242364 0.0134369 -0.027979238
-0.006905563 -0.41930366 0.0074859485 0.022150962 -0.063411914 0.13986997 0.097076 0.098354235
-0.050659932 -0.08269602 -0.062342502 0.13815594 0.0038566934 -0.10920837 0.021396847 0.16295053
0.40150246 -0.061895102 -0.052085288 0.0463253 -0.06666721 -0.12178981 0.0048723924 0.029835982
-0.0128986575 -0.017349076 -0.09627767 0.096429214 0.006417869 0.047336597 -0.1182964 -0.0061435844
00000000: 6add 0c3d da56 b2bd 3f88 c9bd 55dd bdbd
00000010: 9aab 8e3e 0f04 943d 8a55 1f3e 1416 4bbe
00000020: 28fe 193e 65fe 83be c2eb 613d 8c0f 5d3d
00000030: fef7 d83c 5e31 10be 3a8b a8bd d701 0f3e
00000040: 4344 3abe ae5a 4bbd ae36 8dbd 97bd d33c
00000050: 440a 413d 4194 053e 4e2e 243e c039 acbd
00000060: 2504 313e 00e2 59be cc98 70bd b2a1 9e3d
00000070: 1897 33be 024a 213d 663a 4c3d 879e fabc
00000080: fcf4 223d 78d7 65be c62e 2a3e b09a 9dbd
00000090: 0e60 203e 2f74 09be 6a4b 1fbe fda4 a43d
000000a0: 807c 163e 6f20 05be edda 983d 67c3 0a3e
000000b0: 691b cbbd b1f9 abbc ec04 ad3e 15eb 8cbd
000000c0: 57f1 c03d c07f 5fbd 56e9 87bd ffaf 3fbd
000000d0: 73f0 d43d 37d4 acbc 232a 1a3e ad80 8a3c
000000e0: faa1 bebe b3ac 5abd 5da9 f13d 22dc 04be
000000f0: feae f0bd 3277 a2bd 4550 ce3d 72eb 033e
00000100: 6467 d2bb 140f 49be 3eab 033e 34ca b8b9
00000110: 57f4 523d 862d 9bbc bc97 863c d0eb b2be
00000120: ae82 bfbd 8e81 7a3d 04d2 d43c afe0 743e
00000130: 7768 be3c bdd6 173d b0f3 a23d 2338 0ebe
00000140: 0ea0 0bbe e7dc 143e 905d 6d3d 634d 8ebd
00000150: 0edb 8b3e 98a8 c4bd 11ac 72be 9024 963d
00000160: d147 03be c360 993d f51e 78bd 003b a4bc
00000170: ea7c 5cbd 421f 033e ff84 6e3d 3034 553e
00000180: 2df9 073e 7dc0 10be 7ec9 c9bd 2b1e 6abd
00000190: eaf5 5b3e bb71 8f3c a697 83bc 34e7 6f3d
000001a0: 7a83 c6bc d35c 90be 91cc 913c a031 3f3e
000001b0: 623f 113e 31b4 e83d 3cab 26bc e3aa 70bd
000001c0: 02dd 01be b4a3 4a3d 0cbf cfba 59b3 1fbd
000001d0: 9697 aabd 6736 f23d 8bbd b0bd 35c4 763e
000001e0: 64a0 89bd 7e1b 5ebb df00 1e3e c086 953d
000001f0: da17 24be a4f3 fcbd 85bc d8bc 6429 843d
00000200: 1e11 5a3d 4976 12be b42c 593d 23cd e13d
00000210: a636 1ebe 1eac fcbd fc83 00be f99c d3bd
00000220: 9025 36bd eec7 4b3e 1b93 e73d d031 31be
00000230: 9ea3 703d f228 bf3d dde4 5a3e 87f0 52bc
00000240: 4b00 663e 4a32 eebd 4dac 0f3e 01bc 2ebe
00000250: 3fc7 c03d 359d ce3d 81bf 19bc 1b54 e1bd
00000260: f793 0b3e 706f 79be 3dd9 b7bd f93f b6bd
00000270: e552 38bd 56de 503e 9b88 94bc 1e72 e9bc
00000280: 6ed1 ce3d e62b 933c 4266 b5bd 924a 173e
00000290: 2f44 04be 10de 09bd e8d1 873e cf48 b3bd
000002a0: f626 e63d 7971 4f3d 4bb9 b73d 1582 50ba
000002b0: b50d 89be 7797 17be 7df9 8fbd 3028 ef3d
000002c0: 4cc9 b43e 50f8 193e 6c01 b43b 9d0e aebd
000002d0: 3f24 48be bc36 923d 4a72 823d 027c a9bd
000002e0: edbf 95bb a56c bd3a 9256 e7bc e7a9 99bd
000002f0: 1ad9 e2bd 714e 76bd a799 18be 96cf 5c3e
00000300: 5380 0d3e 7cf8 97bd 0dcf aebc 3b25 f0bd
00000310: 7404 ae3e 99fe fb3c 8053 1c3b b0d4 e5bd
00000320: 563e cabd af87 1cbd ba50 813d 4bfd 9cbc
00000330: 9425 60bd 921c 7b3c 5e36 153d 289a 1f3d
00000340: 0c63 753a ea76 343e 7e5b 95bd c02e 18bc
00000350: fb8f 90be 70b8 8a3d f5e8 4d3d 384f 6c3e
00000360: b9bf ecbd 0e06 bd3d 92ea 0dbd 4a47 f2bd
00000370: 9c26 8f3c bf8c ccbb 7226 5c3c b734 e5bc
00000380: 1048 e2bb f8ae d6be b04c f53b ef75 b53c
00000390: 1bde 81bd 133a 0f3e c8cf c63d f26d c93d
000003a0: ca80 4fbd 885c a9bd da5a 7fbd c078 0d3e
000003b0: 94c0 7c3b a3a8 dfbd 7148 af3c 81dc 263e
000003c0: bb91 cd3e b885 7dbd 6257 55bd 99bf 3d3d
000003d0: d188 88bd f06c f9bd 97a8 9f3b 976a f43c
000003e0: e454 53bc a61f 8ebc 3a2d c5bd ae7c c53d
000003f0: fd4c d23b 05e4 413d 6245 f2bd 1f50 c9bb

block1.3.weight f4 [16]
0.9072256 1.0880345 1.1494375 1.1506295 1.1841586 1.1602336 1.1417322 1.3618648
0.88472295 1.0867018 1.172997 1.1328385 1.1808175 1.3864838 1.2499576 1.3494529
00000000: f03f 683f b744 8b3f c520 933f d447 933f
00000010: 8292 973f 8982 943f 4824 923f 9651 ae3f
00000020: 347d 623f 0b19 8b3f c424 963f da00 913f
00000030: 0725 973f 4d78 b13f 9cfe 9f3f dfba ac3f

block1.3.bias f4 [16]
-0.19150932 -0.122755386 -0.15499537 -0.119412646 -0.14003636 -0.1158254 -0.20300265 -0.35229135
-0.14636664 -0.067421176 0.050975554 -0.009516482 -0.042199552 -0.08281627 -0.16195218 -0.5075887
00000000: 051b 44be 2d67 fbbd 1bb7 1ebe 9e8e f4bd
00000010: b165 0fbe de35 edbd eddf 4fbe 885f b4be
00000020: 23e1 15be 1d14 8abd becb 503d 05eb 1bbc
00000030: 70d9 2cbd 949b a9bd cbd6 25be 55f1 01bf

block1.3.running_mean f4 [16]
-0.017415794 -0.0013642067 0.0008481444 0.00051823235 -0.008425949 0.009395715 -0.021695454 0.013193607
0.0036055455 -0.008500741 -0.014533479 -0.012071009 -0.027243027 0.027027057 0.0014292415 -0.0051046046
00000000: 91ab 8ebc 2ecf b2ba 0256 5e3a fcd9 073a
00000010: fe0c 0abc 7cf0 193c aaba b1bc 002a 583c
00000020: 044b 6c3b b146 0bbc d41d 6ebc 7bc5 45bc
00000030: c52c dfbc d967 dd3c 6355 bb3a 8744 a7bb

block1.3.running_var f4 [16]
0.14777255 0.04447998 0.224261 0.0652704 0.11382526 0.10695521 0.14963023 0.06471518
0.09952245 0.09902994 0.08904549 0.13588728 0.08438745 0.12199548 0.11567827 0.08434083
00000000: b051 173e a430 363d ada4 653e 7dac 853d
00000010: 381d e93d 550b db3d ab38 193e 6489 843d
00000020: 6dd2 cb3d 36d0 ca3d 7b5d b63d 0926 0b3e
00000030: 54d3 ac3d c4d8 f93d bbe8 ec3d e3ba ac3d

block2.0.weight f4 [16, 1, 1, 16]
0.14012024 0.054157056 0.1435671 0.13061622 0.0036889496 -0.092221804 0.082615934 0.009476333
0.098048 -0.08364794 -0.13161021 -0.012906832 -0.08353924 -0.05613927 -0.048645314 0.008500907
-0.1340961 -0.1633277 0.11588151 0.12391813 0.17117862 0.0901252 0.2833995 0.019199781
-0.13332348 0.025159897 -0.041415576 -0.15641056 -0.18992797 -0.1556057 0.15593469 0.06040444
-0.06316641 -0.15531525 -0.09557692 -0.15775354 0.08256081 -0.0067750122 0.118541114 -0.025394037
0.01530396 -0.061230216 -0.138143 -0.05050406 0.11150523 0.012158017 -0.103389904 0.03114963
0.12250887 -0.14161591 -0.19169599 -0.023538379 0.38342786 0.08410233 -0.17956552 -0.24792735
-0.07547873 0.0017130357 0.16182563 0.13608402 -0.05741599 -0.1083844 -0.09390802 0.17825392
0.0884256 -0.03199551 0.031097142 -0.025493603 -0.16472678 -0.16554709 -0.07153821 0.13892186
0.20639531 0.001899861 -0.2248056 -0.050490305 -0.019042961 0.015934462 0.05291532 -0.15005097
-0.05307136 0.048471615 0.13636911 -0.14979695 -0.1346739 -0.1008318 -0.18667187 0.033895344
0.14525676 0.19077863 0.23821448 -0.013045397 -0.10390799 -0.04054067 0.11689486 0.0006806556
-0.09969342 0.32373422 0.018199852 -0.07287242 0.2038785 0.07407522 -0.2057042 -0.084865995
0.16129531 -0.023856685 0.09585002 -0.066503815 0.06606909 0.115466155 -0.03342734 -0.21655247
0.050374918 0.049202524 -0.15224868 0.025105061 0.14980969 0.04285738 -0.03563083 0.0026369453
0.13893548 0.0046921847 0.28836426 0.07278984 -0.2071719 -0.105588324 -0.020762047 -0.0304732
0.08553154 0.12471627 0.19299567 -0.07327651 -0.19495481 -0.14868246 0.05302743 0.03060092
-0.09073793 -0.06197552 0.08306652 -0.04524809 -0.037349235 -0.070490696 -0.052024517 -0.046653576
0.05204501 -0.06793262 -0.06057692 0.031675622 -0.08671554 -0.07464162 -0.26175484 0.13915873
0.032844875 0.00047882798 0.03086819 -0.08271902 0.14453574 0.08863643 0.13987958 0.037499517
-0.035309445 -0.008875711 -0.107147746 0.039647646 0.14949854 0.009565903 0.050659943 -0.35464802
-0.29743207 0.37302992 0.12065655 -0.17730565 0.09160403 0.19164114 0.06795782 -0.040050857
-0.08529804 -0.13740982 -0.12636954 -0.1168499 0.057049915 -0.15355575 -0.11945616 -0.13353762
-0.14693837 -0.07782737 0.22349194 0.007962171 0.009088949 0.067974344 0.0073925415 -0.089899525
-0.21860322 -0.10768846 0.20289534 0.3621904 0.18693025 0.16148229 -0.12775922 -0.029829906
-0.01375783 -0.07236354 0.029201178 -0.08107951 -0.09270211 -0.013885062 0.11779167 -0.017899659
-0.007049686 -0.10787474 -0.1985402 -0.27520013 -0.19042724 -0.10130104 0.100692034 -0.07442723
-0.03557789 0.01312844 -0.012846328 0.06097086 0.03601088 0.14681022 0.081780195 -0.08914545
0.14560033 0.06835918 0.026765602 0.11655683 0.111747265 -0.016740208 -0.019333184 -0.04708422
-0.16462755 0.1439417 0.21121879 -0.21393114 -0.022510953 0.3850569 -0.3199656 -0.026343165
0.0011608491 0.022283187 -0.062096745 -0.027394015 -0.0949583 -0.08191658 -0.096903495 -0.11779811
-0.124394394 0.038879227 -0.057040963 -0.029467223 -0.0137584945 0.009363335 0.0780702 -0.23460382
00000000: ae7b 0f3e cad3 5d3d 4103 133e 42c0 053e
00000010: 4ec2 713b c9de bcbd 8b32 a93d 9f42 1b3c
00000020: 64cd c83d 9c4f abbd d4c4 06be 2d77 53bc
00000030: 9f16 abbd 4bf2 65bd 4f40 47bd 6347 0b3c
00000040: 7d50 09be 603f 27be 4953 ed3d cac8 fd3d
00000050: 7349 2f3e 9093 b83d bd19 913e dc48 9d3c
00000060: f385 08be 211c ce3c 61a3 29bd 172a 20be
00000070: 7a7c 42be 1a57 1fbe 58ad 1f3e a56a 773d
00000080: 645d 81bd f60a 1fbe d5bd c3bd 258a 21be
00000090: a415 a93d ec00 debb afc5 f23d 2807 d0bc
000000a0: 76bd 7a3c 89cc 7abd 5c75 0dbe 58dd 4ebd
000000b0: db5c e43d 6b32 473c 16be d3bd 822d ff3c
000000c0: eee5 fa3d c303 11be f44b 44be 8fd3 c0bc
000000d0: a850 c43e d83d ac3d 06e0 37be abe0 7dbe
000000e0: 9894 9abd f187 e03a 9eb5 253e 9c59 0b3e
000000f0: 072d 6bbd a4f8 ddbd d952 c0bd 3288 363e
00000100: 7b18 b53d b90d 03bd 6fbf fe3c f6d7 d0bc
00000110: 23ae 28be 2d85 29be a082 92bd 8841 0e3e
00000120: 4b59 533e c204 f93a 7033 66be ecce 4ebd
00000130: fcff 9bbc fd88 823c bcbd 583d f6a6 19be
00000140: 5b61 59bd 2c8a 463d 58a4 0b3e 5f64 19be
00000150: f4e7 09be e780 cebd e926 3fbe d8d5 0a3d
00000160: 30be 143e 795b 433e 7fee 733e 5cbc 55bc
00000170: b6cd d4bd f90d 26bd 9366 ef3d 066e 323a
00000180: 102c ccbd 7ec0 a53e db17 953c 233e 95bd
00000190: 87c5 503e c0b4 973d 1fa4 52be 39ce adbd
000001a0: 992a 253e 186f c3bc 044d c43d 2733 88bd
000001b0: 3b4f 873d 8579 ec3d 1beb 08bd eebf 5dbe
000001c0: ee55 4e3d 9688 493d 14e7 1bbe 21a9 cd3c
000001d0: b667 193e 388b 2f3d a2f1 11bd 9ad0 2c3b
000001e0: 1a45 0e3e e6c0 993b 7ba4 933e d712 953d
000001f0: df24 54be b13e d8bd 2b15 aabc efa2 f9bc
00000200: 292b af3d 3e6b ff3d a8a0 453e ff11 96bd
00000210: 3ca2 47be 3740 18be 4a33 593d c8ae fa3c
00000220: cfd4 b9bd 0bda 7dbd c81e aa3d 1056 39bd
00000230: 83fb 18bd 6d5d 90bd a917 55bd d217 3fbd
00000240: 262d 553d 4220 8bbd 811f 78bd 4cbe 013d
00000250: eb97 b1bd b5dd 98bd bb04 86be a07f 0e3e
00000260: 5988 063d 340b fb39 49df fc3c 9768 a9bd
00000270: 2d01 143e 0487 b53d 983c 0f3e 1899 193d
00000280: a3a0 10bd 6e6b 11bc 4770 dbbd 9265 223d
00000290: 2516 193e 4eba 1c3c cd80 4f3d 6d94 b5be
000002a0: 0449 98be c7fd be3e c81a f73d 9d8f 35be
000002b0: e59a bb3d 933d 443e 782d 8b3d 5e0c 24bd
000002c0: bdb0 aebd 29b5 0cbe 0467 01be 004f efbd
000002d0: 2cad 693d b83d 1dbe 6ea5 f4bd 16be 08be
000002e0: 0377 16be f563 9fbd 12db 643e c473 023c
000002f0: d1e9 143c 2236 8b3d 223d f23b 3e1d b8bd
00000300: 86d9 5fbe c48b dcbd ccc3 4f3e 0571 b93e
00000310: a56a 3f3e 9d5b 253e 50d3 02be d95d f4bc
00000320: 8568 61bc 5633 94bd 4f37 ef3c 040d a6bd
00000330: 9bda bdbd 2c7e 63bc c23c f13d 4ea2 92bc
00000340: 0d01 e7bb 6fed dcbd 1f4e 4bbe 08e7 8cbe
00000350: 5cff 42be eb76 cfbd a037 ce3d 4e6d 98bd
00000360: 1fba 11bd ab18 573c 6879 52bc 95bc 793d
00000370: 2580 133d 6b55 163e 607c a73d e491 b6bd
00000380: 4118 153e e6ff 8b3d 8943 db3c 59b5 ee3d
00000390: c0db e43d c322 89bc a060 9ebc 62db 40bd
000003a0: 2094 28be 7465 133e bd49 583e c410 5bbe
000003b0: e468 b8bc 2e26 c53e 88d2 a3be 9fcd d7bc
000003c0: a227 983a 3b8b b63c 2859 7ebd 6a69 e0bc
000003d0: 7f79 c2bd e1c3 a7bd 5775 c6bd 2340 f1bd
000003e0: 7dc2 febd d33f 1f3d c9a3 69bd 3f65 f1bc
000003f0: 4f6b 61bc ac68 193c 45e3 9f3d fc3b 70be

block2.1.weight f4 [16, 16, 1, 1]
-0.15422796 0.18203439 -0.15886828 0.023020457 0.3180937 0.3185702 -0.6960225 -0.33566973
-0.0926098 0.42728546 -0.40065533 0.56697667 -0.6349575 -0.12195669 -0.15352318 -0.005294065
0.12692171 0.1216466 0.5924001 0.20310843 -0.07251874 0.11992667 0.08476918 0.5996464
0.46936923 -0.2013986 -0.10739809 0.946761 0.07519914 0.5393485 0.35606968 0.6472927
-0.33049175 -0.20563763 0.502264 0.34612584 0.5185792 0.61437047 0.67660016 0.5270199
0.84848005 -0.45199615 0.55710834 -0.11173323 -0.16358094 -0.10196742 -0.94724935 0.13722864
-0.15947306 0.28436705 0.057635598 -0.4294502 -0.09692005 -0.3040314 -0.109399594 0.0146182
0.03653566 -0.13779235 -0.6924827 -0.060511444 -0.35135275 -0.14385606 0.6409636 0.45690507
0.022248862 0.38212618 -0.09019211 0.8654259 0.08780541 -0.18510675 -0.040605467 0.29318503
0.44444776 -0.34471938 0.12621619 0.014619707 0.24845065 0.08736959 0.056850344 0.0945049
0.11060334 -0.09380403 0.08736976 0.04140543 1.0450232 -0.41100115 0.18371937 -0.08654702
-0.20226976 0.4271113 0.053725105 0.06686448 -0.6745971 0.16514169 0.03574831 -0.022062156
0.4576666 0.34273025 0.74920017 0.36162856 0.0021103295 0.16194315 -0.108582 0.8767538
0.16795467 -0.14186342 0.10374859 0.43129382 0.62431514 0.095391974 0.1258085 0.25549114
-0.5672163 -0.40116596 -0.1786544 0.11139542 0.3771647 0.46845263 0.37649193 -0.11693487
0.15126452 -0.33262584 -0.052050542 -0.006369769 0.039863106 0.39596868 -0.20013125 -0.44604632
0.00087610364 -0.68385863 -0.14415924 -0.04998383 0.6444256 0.4890188 0.2595012 -0.24077448
0.017014269 0.12402508 0.05849612 0.13493006 -0.22516274 -0.17151809 -0.07062897 0.24366826
0.12818943 -0.29359886 0.65506464 0.5913642 -0.2265387 0.067179814 -0.3241582 -0.13685179
-0.16409364 -0.10842064 0.0016966035 0.01643393 0.0878437 -0.033533588 -0.06636928 -0.42987773
-0.24276255 -0.13070129 -0.034313273 -0.023383874 -0.21435487 -0.058626838 -0.106035836 0.05833828
-0.10918011 0.0038654322 0.7678982 -0.27225694 -0.06531198 -0.009441499 -0.9445143 0.23847766
-0.029990315 0.40499437 -0.06436797 -0.30117622 -0.03477856 -0.12360054 -0.40398663 -0.47456074
0.22606546 -0.36970958 -0.37887245 0.14332654 -0.10907886 -0.4034292 0.29476228 0.35913342
-0.16605951 -0.69827193 -0.3213499 0.4597409 -0.062759 0.29558006 0.5001572 -0.10410426
0.07287681 -0.6410753 0.017184634 -0.20629627 -0.025755873 0.33691055 -0.44914356 -0.08949978
-0.46479946 0.3421526 0.56655085 0.81055826 -0.60631526 -0.021451412 -0.044625234 -0.56917506
0.14502084 -0.4416995 -0.27348697 0.21064581 -0.1831861 0.35215324 0.28704712 0.8750464
-0.24290991 -0.060958292 0.009358045 0.58353466 0.46621367 -0.6353715 -0.17886966 0.7261956
0.08842733 0.34164998 0.27382797 -0.18975244 -0.116677664 0.6726948 0.6665797 0.10999727
-0.8771108 -0.08505689 0.5332091 0.32677442 -0.08911664 -0.29225218 0.22246963 0.0502659
-0.38602826 0.18151085 -0.31065354 0.029867765 0.27184373 1.0899416 -0.2516944 0.5191817
00000000: efed 1dbe 3967 3a3e 5eae 22be 6695 bc3c
00000010: 2ddd a23e a21b a33e 882e 32bf e7dc abbe
00000020: 35aa bdbd 29c5 da3e b222 cdbe 6225 113f
00000030: 938c 22bf 6ec4 f9bd 2e35 1dbe d679 adbb
00000040: c4f7 013e da21 f93d 88a7 173f a8fb 4f3e
00000050: b584 94bd 1d9c f53d 779b ad3d 6d82 193f
00000060: 2a51 f03e 6f3b 4ebe 88f3 dbbd ee5e 723f
00000070: 0202 9a3d be12 0a3f c44e b63e f9b4 253f
00000080: 3736 a9be ac92 52be 6094 003f 6837 b13e
00000090: 9bc1 043f 6247 1d3f ab35 2d3f c7ea 063f
000000a0: fd35 593f 0a6c e7be a79e 0e3f 64d4 e4bd
000000b0: c381 27be 4bd4 d0bd ef7e 72bf aa85 0c3e
000000c0: e84c 23be 8f98 913e 4e13 6c3d e6e0 dbbe
000000d0: 057e c6bd 01aa 9bbe e50c e0bd 2d81 6f3c
000000e0: 6ba6 153d 7019 0dbe 8c46 31bf d9da 77bd
000000f0: 82e4 b3be 014f 13be 3116 243f 76ef e93e
00000100: 3f43 b63c 0ba6 c33e a4b6 b8bd 8d8c 5d3f
00000110: 53d3 b33d a08c 3dbe eb51 26bd 591c 963e
00000120: a88e e33e 0f7f b0be d13e 013e 7f87 6f3c
00000130: d969 7e3e d4ee b23d e8db 683d c98b c13d
00000140: 0184 e23d 541c c0bd ebee b23d bd98 293d
00000150: 52c3 853f be6e d2be ee20 3c3e 903f b1bd
00000160: ce1f 4fbe 55ae da3e db0e 5c3d 3ff0 883d
00000170: 65b2 2cbf e71a 293e d26c 123d b2bb b4bc
00000180: 4753 ea3e 577a af3e 95cb 3f3f 6127 b93e
00000190: 744d 0a3b 6dd4 253e 3d60 debd f072 603f
000001a0: 4ffc 2b3e a544 11be 247a d43d 8bd2 dc3e
000001b0: 1ed3 1f3f de5c c33d f2d3 003e bccf 823e
000001c0: 1635 11bf a065 cdbe 2ef1 36be 4823 e43d
000001d0: bb1b c13e 06d9 ef3e 8dc3 c03e 8d7b efbd
000001e0: 16e5 1a3e ef4d aabe f332 55bd 7fb9 d0bb
000001f0: 7f47 233d 68bc ca3e 35ef 4cbe 2f60 e4be
00000200: 52aa 653a 5c11 2fbf 7b9e 13be d8bb 4cbd
00000210: 13f9 243f ac60 fa3e 57dd 843e 968d 76be
00000220: 8261 8b3c dc00 fe3d a199 6f3d 1b2b 0a3e
00000230: 1091 66be 70a2 2fbe eca5 90bd 2c84 793e
00000240: 1744 033e 9752 96be 51b2 273f a563 173f
00000250: c3f9 67be 9295 893d 10f8 a5be e022 0cbe
00000260: 2a08 28be a40b debd 9160 de3a 73a0 863c
00000270: 66e7 b33d 845a 09bd 9eec 87bd ef18 dcbe
00000280: bf96 78be 8fd6 05be 138c 0cbd 8a8f bfbc
00000290: d87f 5bbe b222 70bd 5129 d9bd 1ff4 6e3d
000002a0: d299 dfbd 3153 7d3b fa94 443f 4365 8bbe
000002b0: 4ac2 85bd 84b0 1abc b0cb 71bf 7d33 743e
000002c0: 40ae f5bc 6c5b cf3e 5bd3 83bd c533 9abe
000002d0: f773 0ebd 4822 fdbd 56d7 cebe a0f9 f2be
000002e0: b47d 673e 934a bdbe 92fb c1be 31c4 123e
000002f0: bd64 dfbd 468e cebe 15eb 963e 56e0 b73e
00000300: 810b 2abe f3c1 32bf f987 a4be 2963 eb3e
00000310: ca87 80bd 4556 973e 4d0a 003f 9d34 d5bd
00000320: 7040 953d 831d 24bf cac6 8c3c 543f 53be
00000330: fbfd d2bc 8a7f ac3e 25f6 e5be a94b b7bd
00000340: 32fa edbe a02e af3e 7a09 113f bf80 4f3f
00000350: 7a37 1bbf dfba afbc f3c8 36bd 75b5 11bf
00000360: 5880 143e 7026 e2be 7c06 8cbe 89b3 573e
00000370: 2395 3bbe 6e4d b43e d7f7 923e 0a03 603f
00000380: 60bd 78be 67af 79bd 7c52 193c 8762 153f
00000390: 8fb3 ee3e b5a7 22bf 9c29 37be f4e7 393f
000003a0: 6319 b53d bfec ae3e 2e33 8c3e 774e 42be
000003b0: b3f4 eebd ba35 2c3f f8a4 2a3f 4046 e13d
000003c0: 558a 60bf 4f32 aebd 6480 083f fa4e a73e
000003d0: c982 b6bd 14a2 95be 14cf 633e 9ee3 4d3d
000003e0: 7fa5 c5be fbdd 393e fb0d 9fbe 3ead f43c
000003f0: 1a2f 8b3e 3583 8b3f 17de 80be 18e9 043f

block2.2.weight f4 [16]
1.2836925 1.2378535 1.1827478 1.4068143 1.1598076 1.144364 1.1288853 1.0658287
1.279187 1.0149938 1.1531162 1.3338886 1.277774 1.3447481 1.0541797 1.1978474
00000000: 0950 a43f fc71 9e3f 4864 973f 7e12 b43f
00000010: 9374 943f 857a 923f 507f 903f 136d 883f
00000020: 66bc a33f 51eb 813f 5099 933f ddbc aa3f
00000030: 198e a33f b520 ac3f 5cef 863f 1053 993f

block2.2.bias f4 [16]
-0.21919389 -0.36506593 -0.22778001 -0.21417221 -0.10523427 -0.22695208 -0.01627229 -0.15443319
-0.2873002 -0.155492 -0.25513288 -0.1788383 -0.19867942 -0.30059513 -0.25912014 -0.21480708
00000000: 5d74 60be ece9 babe 2a3f 69be f64f 5bbe
00000010: 1185 d7bd 2066 68be 774d 85bc bc23 1ebe
00000020: 0319 93be 4b39 1fbe c7a0 82be 6321 37be
00000030: 9e72 4bbe 9be7 99be 65ab 84be 63f6 5bbe

block2.2.running_mean f4 [16]
-0.08586508 -0.11680609 -0.017039005 0.057108004 0.0038806973 -0.08086617 -0.032506675 -0.07844024
0.0016362064 -0.04478802 0.031145561 0.05573584 -0.023529006 0.007952775 -0.03933216 -0.08574927
00000000: 08da afbd 0838 efbd 6295 8bbc 15ea 693d
00000010: 4c53 7e3b 2a9d a5bd b825 05bd 47a5 a0bd
00000020: fa75 d63a a573 37bd fa24 ff3c 444b 643d
00000030: e7bf c0bc 5b4c 023c c21a 21bd 509d afbd

block2.2.running_var f4 [16]
0.4991978 0.5605609 1.0239391 0.57159543 0.4280377 0.37946644 0.48551235 0.30279574
0.35054284 0.28982553 0.6984093 0.36815634 0.50803703 0.85694814 0.7772782 1.1083261
00000000: db96 ff3e eb80 0f3f 7010 833f 1454 123f
00000010: c227 db3e 6d49 c23e 1395 f83e 0b08 9b3e
00000020: 5a7a b33e 0364 943e f4ca 323f fd7e bc3e
00000030: b70e 023f f460 5b3f b4fb 463f a1dd 8d3f

classifier.weight f4 [1, 64]
0.26807067 -0.28038457 -0.24327938 0.04025473 -0.23843044 0.42248893 0.2915714 0.18446857
0.5963105 0.1498974 0.2582879 -0.3367521 0.77057505 0.16501221 0.10064488 0.06318247
-0.2801686 0.19656964 -0.21972862 -0.20066679 0.17344175 -0.32018107 -0.0020438654 0.41153267
-0.28460708 0.16008663 0.08190358 0.03158558 0.063212864 -0.016916433 -0.059738256 -0.39689434
0.39261055 -0.31418544 -0.09158524 -0.30673227 -0.26520568 -0.18724486 0.069446065 -0.47481874
0.33778346 0.13817365 0.3571134 0.0682638 0.5873506 -0.0035671357 -0.06750912 -0.085710995
0.16036572 0.029528037 -0.04464153 -0.3472522 0.024147958 0.34963635 0.06419158 -0.35180607
-0.0977476 0.21532166 -0.06985763 0.06301182 -0.15953387 0.20816213 -0.0068103373 -0.18017775
00000000: 8f40 893e 918e 8fbe 3b1e 79be 25e2 243d
00000010: 1c27 74be 7850 d83e d948 953e 54e5 3c3e
00000020: cea7 183f b47e 193e 503e 843e c56a acbe
00000030: 6844 453f f6f8 283e e71e ce3d d065 813d
00000040: 4272 8fbe 8d49 493e 8a00 61be 987b 4dbe
00000050: b79a 313e c6ee a3be 5ff2 05bb 69b4 d23e
00000060: 05b8 91be c0ed 233e 10bd a73d e25f 013d
00000070: bf75 813d 5594 8abc 1ab0 74bd bc35 cbbe
00000080: 4004 c93e eadc a0be 0b91 bbbd 030c 9dbe
00000090: 0ac9 87be 1ebd 3fbe bd39 8e3d 711b f3be
000000a0: f4f1 ac3e 657d 0d3e 91d7 b63e e4cd 8b3d
000000b0: 9c5c 163f 9bc6 69bb 3942 8abd 3f89 afbd
000000c0: e936 243e c8e4 f13c 09da 36bd 0acb b1be
000000d0: f0d1 c53c 8903 b33e e076 833d ed1f b4be
000000e0: e52f c8bd 487d 5c3e 8411 8fbd 570c 813d
000000f0: d95c 23be 7428 553e 4029 dfbb 8480 38be
